experiments/results/SHRIROOK/runs/2026-02-05T16:59:13-gin-shrirook/seed_6/best_weights.pt (torch, 119371 bytes, 180 tensors)

conv1.nn.0.weight f4 [16, 1]
0	0x3f4b318a	0.79372466
1	0xbf33529e	-0.7004794
2	0x3f11faa7	0.5702309
3	0xbf4600d4	-0.77345014
4	0x3f04f4bf	0.5193595
5	0x3f0a9fdd	0.5415018
6	0x3f2cecc6	0.6754879
7	0xbef3dd4a	-0.47629768
8	0x3e4af20a	0.19818893
9	0x3f64702a	0.8923365
10	0xbef6cdd1	-0.482039
11	0xbe230dc7	-0.15923224
12	0xbf17d1de	-0.59304607
13	0xbf3c8cf4	-0.7365258
14	0x3e872803	0.26397714
15	0xbf09ca9a	-0.5382477

conv1.nn.0.bias f4 [16]
0	0x3f766445	0.9624675
1	0xbf34361a	-0.7039505
2	0xbf6d7dba	-0.9276997
3	0x3daa6bb8	0.08321327
4	0xbf773e0a	-0.9657904
5	0x3f27409c	0.6533296
6	0xbf422e4e	-0.75851905
7	0x3eaf2d2d	0.34214154
8	0xbea40df3	-0.32041892
9	0xbf6f21ce	-0.93410957
10	0xbf577d0e	-0.84175193
11	0x3f15b125	0.58473426
12	0xbe8f3e22	-0.2797709
13	0xbca3d0f1	-0.019997092
14	0xbe82ce0e	-0.25547832
15	0xbe0c86ef	-0.13723348

conv1.nn.1.weight f4 [16]
0	0x3f7edf53	0.99559516
1	0x3f808d58	1.0043135
2	0x3f804899	1.0022155
3	0x3f80a982	1.005173
4	0x3f81369a	1.0094788
5	0x3f8092c8	1.0044794
6	0x3f7eb115	0.99488956
7	0x3f803e17	1.0018948
8	0x3f7df428	0.9920068
9	0x3f7f10cb	0.99635
10	0x3f8095c6	1.0045707
11	0x3f7f0799	0.9962097
12	0x3f80de82	1.0067904
13	0x3f809f5a	1.004863
14	0x3f807b16	1.0037563
15	0x3f7d67be	0.98986423

conv1.nn.1.bias f4 [16]
0	0xbb8cbe8b	-0.0042951754
1	0x3b8e3b95	0.004340599
2	0x3b0b3a4e	0.002124447
3	0x3ba99296	0.005174945
4	0x3c1a0951	0.009401635
5	0x3b9edc24	0.00484802
6	0xbba711b7	-0.0050985473
7	0x3b06f05c	0.0020590043
8	0xbc03c9bc	-0.008043703
9	0xbb688804	-0.0035481462
10	0x3b98bf52	0.004661479
11	0xbb80cf88	-0.0039309897
12	0x3bdd79c4	0.0067589004
13	0x3ba29a5c	0.0049622487
14	0x3b7024de	0.0036643068
15	0xbc1cd310	-0.009571806

conv1.nn.1.running_mean f4 [16]
0	0x40e95f38	7.2928734
1	0xc0c94d24	-6.2906666
2	0x4067b18e	3.620212
3	0xc0c2bc4b	-6.085485
4	0x404b4a0a	3.176394
5	0x409f1b8e	4.9721136
6	0x40941fc5	4.628878
7	0xc05d38f6	-3.4566016
8	0x3fa14fd2	1.2602484
9	0x40c5d955	6.18278
10	0xc095f610	-4.686287
11	0xbf2f6b67	-0.6852326
12	0xc0a04f05	-5.009646
13	0xc0bc9d5d	-5.8942094
14	0x3fecc924	1.8498883
15	0xc08dc316	-4.430064

conv1.nn.1.running_var f4 [16]
0	0x3f1b300d	0.60620195
1	0x3ef1bbf2	0.47213703
2	0x3ea031ee	0.31288093
3	0x3f135c5e	0.57562816
4	0x3e84e326	0.2595455
5	0x3e9075b6	0.28214806
6	0x3ee0cafa	0.4390486
7	0x3e5f8781	0.21829034
8	0x3d1acf1a	0.037795164
9	0x3f4424da	0.7661873
10	0x3e64f355	0.22358449
11	0x3cc7dc94	0.024397172
12	0x3ead453b	0.3384188
13	0x3f05a06f	0.5219793
14	0x3d895272	0.06705178
15	0x3e8eba9a	0.2787674

conv1.nn.3.weight f4 [16, 16]
0	0x3c090d40	0.008364975
1	0xbe122795	-0.14272912
2	0x3d81145d	0.06302712
3	0x3e37f698	0.17965162
4	0xbe786b63	-0.24259715
5	0xbd840770	-0.06446731
6	0xbd662733	-0.056189727
7	0x3d35720e	0.044298224
8	0xbd88c220	-0.066776514
9	0xbe17bed0	-0.14818883
10	0x3e262271	0.16224076
11	0xbdeebc18	-0.1165697
12	0xbd8e141b	-0.069374286
13	0x3e3488c4	0.17630297
14	0xbe2cc617	-0.1687244
15	0x3dcea759	0.10090513
16	0x3e4e3b2e	0.20139763
17	0xbe469a93	-0.19394903
18	0x3e14b864	0.14523464
19	0xbdc891ba	-0.0979342
20	0x3e053505	0.13008507
21	0xbe0b3214	-0.13593322
22	0x3e28833c	0.16456312
23	0xbc8ff5db	-0.017573288
24	0x3e09b7eb	0.13449065
25	0x3cbe6b19	0.023244428
26	0x3bb3ee23	0.0054910346
27	0xbe3e4624	-0.18581444
28	0x3e440d6e	0.19145748
29	0x3e573a58	0.2101835
30	0x3df54711	0.119764455
31	0xbe26285d	-0.16226335
32	0x3d9ea708	0.077467024
33	0xbddb54bb	-0.107095204
34	0x3e3dc6dd	0.18532892
35	0x3dcdbbe0	0.100456
36	0xbe29e05b	-0.16589491
37	0x3e5ece95	0.21758492
38	0xbd7f8cba	-0.062390067
39	0x3d431959	0.047631595
40	0xbde8a2e4	-0.11359194
41	0xbd3c070b	-0.045905154
42	0xbe756ec4	-0.23968035
43	0x3e2c14ec	0.16804856
44	0x3dcc83e0	0.09986091
45	0x3e08fa18	0.13376653
46	0xbdbc7824	-0.092026025
47	0x3e0510b3	0.12994651
48	0xbe365168	-0.17804492
49	0x3e0eeedc	0.13958305
50	0xbdf9bebc	-0.12194583
51	0x3dcd0d29	0.10012276
52	0x3e740426	0.23829708
53	0xbe7a18ce	-0.24423525
54	0x3e1c853a	0.15285197
55	0xbce35ef7	-0.027755244
56	0xbe6f694b	-0.2338001
57	0x3c551aa3	0.013006839
58	0xbe117de5	-0.14208181
59	0x3e758865	0.23977812
60	0xbd63d65b	-0.055624347
61	0xbe714588	-0.2356168
62	0xbcc59c5c	-0.02412241
63	0xbe571dd6	-0.21007475
64	0x3e2b5da1	0.16734935
65	0x3dfd9c73	0.12383356
66	0xbe32c991	-0.17459704
67	0x3cf7305f	0.030174432
68	0x3e4ac102	0.19800189
69	0x3dc65d21	0.09685732
70	0x3da88522	0.08228518
71	0x3e047018	0.12933385
72	0xbe70ece0	-0.2352786
73	0x3e48e8dd	0.1962008
74	0x3d24e262	0.040254958
75	0xbe20d7c9	-0.15707316
76	0xbdec241f	-0.11530327
77	0x3cf04943	0.029331809
78	0xbddaa729	-0.106764145
79	0x3c900549	0.017580645
80	0xbdfa94b1	-0.12235392
81	0x3e54f110	0.20795083
82	0x3db358ea	0.087571934
83	0x3dfb3a07	0.12266927
84	0xbe4fb95b	-0.20285551
85	0xbde3cec2	-0.1112342
86	0x3c00d2b5	0.0078627365
87	0x3e7ff596	0.24996027
88	0x3e45cacf	0.19315647
89	0xbd950114	-0.07275596
90	0x3e24c8e3	0.16092257
91	0x3e40b8ea	0.18820539
92	0xbe621ab1	-0.22080494
93	0xbe48d7ad	-0.19613524
94	0xbd698219	-0.057008836
95	0x3cf6868f	0.03009346
96	0xbe5697ed	-0.20956393
97	0x3d9a3988	0.075305045
98	0xbe1fc5b6	-0.15602764
99	0x3e6adc2c	0.22935551
100	0x3d8e564c	0.069500536
101	0xbe75c340	-0.24000263
102	0x3e6f200c	0.23352069
103	0xbe105197	-0.14093624
104	0xbe0e2922	-0.13882878
105	0xbcf72028	-0.0301667
106	0x3e28918f	0.16461776
107	0xbd344a01	-0.044015888
108	0x3e228317	0.1587032
109	0xbe5c84e8	-0.21535075
110	0xbde04b34	-0.10951844
111	0xbddbbedb	-0.10729762
112	0xbbb0119f	-0.0053731943
113	0x3e6d2543	0.23158745
114	0xbd29a088	-0.04141286
115	0x3e0cd463	0.13752894
116	0x3e4ebe1c	0.20189708
117	0xbe5c7f6a	-0.2153298
118	0xbd6bff20	-0.057616353
119	0x3e0587ca	0.1304008
120	0x3dca6ea7	0.098843865
121	0x3dd1e8f0	0.102495074
122	0x3e7883b5	0.24268992
123	0x3e1d76d7	0.15377365
124	0xbe7f196a	-0.24912038
125	0xbc63ca0c	-0.013903152
126	0xbd6007c3	-0.054694902
127	0xbd10c0c7	-0.035340097
128	0xbe4ccf62	-0.20000985
129	0x3e0530fa	0.13006964
130	0x3e365c47	0.17808639
131	0xbe556706	-0.20840082
132	0x3d3313c6	0.04372003
133	0xbe306490	-0.17225862
134	0x3de0fa9d	0.10985301
135	0xbe37c9cf	-0.17948078
136	0x3e80339d	0.25039378
137	0x3ce36a8c	0.027760766
138	0x3e65ca7c	0.22440523
139	0xbd8ec18c	-0.0697051
140	0x3e653142	0.22382072
141	0xbdcd0e86	-0.10012536
142	0xbe0e20e9	-0.13879742
143	0xbe52b25c	-0.20575851
144	0xbe3767f2	-0.17910746
145	0xbe65ed44	-0.22453791
146	0xbca2f27b	-0.019891014
147	0xbe5201d2	-0.20508507
148	0xbe0c850e	-0.13722631
149	0x3e603b00	0.21897507
150	0xbd88ee78	-0.06686109
151	0xbdf83853	-0.12120118
152	0x3d872ad2	0.06599964
153	0xbe7574ae	-0.23970291
154	0xbdb68140	-0.08911371
155	0xbdf6cfdb	-0.12051364
156	0x3d9a23a3	0.075263284
157	0x3e0ee3a7	0.1395403
158	0x3e550e7d	0.20806308
159	0xbdd0b013	-0.101898335
160	0x3d9816d1	0.07426227
161	0x3e3ac971	0.18240906
162	0xbe628d14	-0.2212413
163	0x3db1b482	0.08677007
164	0x3d6bab4b	0.057536405
165	0x3e750134	0.2392624
166	0xbcaba046	-0.020950448
167	0xbd86d01d	-0.06582663
168	0xbe13e8f2	-0.1444433
169	0xbbdf8473	-0.006821209
170	0x3de6d616	0.112713024
171	0xbe182bab	-0.14860408
172	0xbe5a715f	-0.2133231
173	0xbe6dfeaf	-0.23241685
174	0x3e43978a	0.19100776
175	0xbd478c44	-0.048717752
176	0x3e65ba5d	0.22434373
177	0xbe4df1d6	-0.20111784
178	0xbda42766	-0.08015327
179	0x3e653fd8	0.22387636
180	0x3e211ba9	0.15733208
181	0x3e3947d9	0.18093814
182	0x3e51645a	0.20448437
183	0x3e2a8647	0.16652785
184	0xbd886574	-0.06659976
185	0xbe0eb634	-0.13936692
186	0xbe5cafd4	-0.21551448
187	0xbe7e1868	-0.24813998
188	0xbde04359	-0.109503455
189	0x3dc6db24	0.097097665
190	0xbe3a50ec	-0.18194932
191	0x3e48e882	0.19619945
192	0x3e4b0599	0.19826354
193	0xbe42b5b4	-0.19014627
194	0xbcdb4cf0	-0.026770085
195	0xbe66020a	-0.22461715
196	0x3e2a10b1	0.1660793
197	0xbe089bb8	-0.13340652
198	0x3e2449e8	0.16043818
199	0x3d0881cd	0.033326913
200	0xbe351091	-0.17682101
201	0xbdf59ec7	-0.11993175
202	0xbe3fbfe9	-0.18725552
203	0xbd8fc291	-0.070195325
204	0xbe2c0b96	-0.16801295
205	0xbe09a950	-0.13443494
206	0xbe0514a6	-0.12996158
207	0x3e4407db	0.19143622
208	0xbe7c1742	-0.24618247
209	0xbddc8f09	-0.10769469
210	0x3e2a2070	0.16613936
211	0xbe3ee9ff	-0.1864395
212	0x3d8bf6e3	0.06834199
213	0x3d6295bf	0.05531859
214	0xbd3f9f27	-0.04678264
215	0x3e17dc05	0.14830025
216	0x3e74ec90	0.23918366
217	0x3e6f82b1	0.23389699
218	0xbe36474f	-0.1780064
219	0x3e226c55	0.15861638
220	0xbd87da6e	-0.06633459
221	0x3cfb5ee7	0.030684901
222	0x3e70b129	0.23505081
223	0xbdcbd101	-0.09951974
224	0xbe68c4b3	-0.22731285
225	0xbe31a639	-0.17348565
226	0x3d9f6bc6	0.07784228
227	0xbe16b70b	-0.14718263
228	0x3d5de178	0.054170102
229	0x3a9dcd8c	0.0012039407
230	0xbe664d4c	-0.22490424
231	0xbd85b9d8	-0.065295875
232	0xbdf77e9a	-0.12084694
233	0xbe156d18	-0.14592397
234	0xbe1a59f1	-0.15073372
235	0x3e388b4b	0.18021886
236	0xbe0032c8	-0.12519372
237	0xbe5402c1	-0.20704176
238	0x3dda7823	0.106674455
239	0x3c76ec37	0.015070966
240	0x3dddd0f5	0.10830871
241	0x3c3e5b20	0.011618406
242	0xbe0513e3	-0.12995867
243	0xbdea4ccc	-0.11440429
244	0xbd06a665	-0.03287353
245	0xbd41314f	-0.047166165
246	0xbe074500	-0.13209915
247	0x3e077619	0.13228644
248	0xbe091b8a	-0.13389412
249	0x3e27a46b	0.16371314
250	0x3d0b3255	0.033983547
251	0xbe7514d6	-0.2393373
252	0xbd8c112b	-0.06839212
253	0xbe766b81	-0.24064447
254	0xbd75c78f	-0.060004767
255	0xbe58b4e7	-0.21162759

conv1.nn.3.bias f4 [16]
0	0xbe1cb081	-0.15301706
1	0x3d8c7539	0.06858296
2	0x3be35a14	0.0069382284
3	0xbd807f0c	-0.06274232
4	0xbe2e6e7d	-0.17034335
5	0xbe552706	-0.20815668
6	0xbe2fd721	-0.17171909
7	0xbc5fd89a	-0.013662482
8	0x3d2a5f8a	0.04159502
9	0xbdd416d6	-0.10355918
10	0x3cf96a33	0.030446148
11	0xbcae0551	-0.02124277
12	0x3da05312	0.078283444
13	0xbd780e91	-0.060560767
14	0x3a1e74e0	0.00060446374
15	0xbe36bb88	-0.17844975

conv1.nn.4.weight f4 [16]
0	0x3f80dd0b	1.0067457
1	0x3f7e257a	0.99275935
2	0x3f80e96e	1.0071237
3	0x3f7e4c53	0.9933521
4	0x3f7e32bb	0.9929616
5	0x3f80e4d0	1.0069828
6	0x3f80eac4	1.0071645
7	0x3f7e30ee	0.9929341
8	0x3f80eac6	1.0071647
9	0x3f80e576	1.0070026
10	0x3f7e284e	0.9928025
11	0x3f80d643	1.0065387
12	0x3f80e83a	1.007087
13	0x3f7e32e0	0.9929638
14	0x3f7e2d46	0.9928783
15	0x3f80dd54	1.0067544

conv1.nn.4.bias f4 [16]
0	0x3bdfc500	0.006828904
1	0xbbec3abc	-0.00720915
2	0x3bead78a	0.0071668075
3	0xbbdcd3e7	-0.006739128
4	0xbbe4595b	-0.00696866
5	0x3be6c9f7	0.007043119
6	0x3bec007d	0.0072022066
7	0xbbe92f66	-0.007116246
8	0x3be9611f	0.0071221734
9	0x3be36500	0.0069395304
10	0xbbeaa149	-0.00716034
11	0x3bd354aa	0.0064493017
12	0x3be683ef	0.0070347707
13	0xbbe49c42	-0.006976635
14	0xbbeacf01	-0.00716579
15	0x3bda86a8	0.0066688843

conv1.nn.4.running_mean f4 [16]
0	0xbea42e18	-0.32066417
1	0x3ea9944c	0.33120954
2	0x3e2d5c2d	0.16929694
3	0xbeb2b6cf	-0.34905097
4	0xbc2421eb	-0.010017852
5	0xbda83c68	-0.082146466
6	0xbec9edd1	-0.39439252
7	0x3e968b30	0.29403067
8	0x39fd9d23	0.00048372996
9	0xbefc096c	-0.49225938
10	0xbd353202	-0.044237144
11	0x3da35b15	0.07976357
12	0xbea6738e	-0.32510036
13	0x3e0ba101	0.13635637
14	0xbf108453	-0.5645191
15	0xbf25e3a1	-0.6480046

conv1.nn.4.running_var f4 [16]
0	0x3e8715df	0.26383874
1	0x3e8b4452	0.27200562
2	0x3cdaf86a	0.026729781
3	0x3c75dd21	0.0150063345
4	0x3bb7b08e	0.0056057638
5	0x3e2cc55f	0.16872166
6	0x3e06e788	0.1317426
7	0x3da68344	0.08130506
8	0x3c96858a	0.018374223
9	0x3d83eb6e	0.06441389
10	0x3d7ea58e	0.062169604
11	0x3d24e8d9	0.040261123
12	0x3dfb778e	0.122786626
13	0x3e86526d	0.2623476
14	0x3cb1659e	0.0216549
15	0x3d4df21f	0.050279733

convs.0.nn.0.weight f4 [16, 16]
0	0xbe2321cf	-0.15930866
1	0xbe516f3e	-0.20452592
2	0xbcb5c626	-0.022189211
3	0x3e097892	0.134249
4	0xbc14533f	-0.009053051
5	0xbcee7177	-0.029106839
6	0x3db32003	0.0874634
7	0xbe7ddf95	-0.24792321
8	0xbe0dd7ff	-0.13851927
9	0xbe194bce	-0.14970323
10	0x3dd89765	0.10575751
11	0xbe19c582	-0.1501675
12	0x3c636d87	0.013881094
13	0xbe7fe09d	-0.24988027
14	0xbd3fb8e0	-0.04680717
15	0xbdbdd732	-0.09269561
16	0xbe24319e	-0.16034552
17	0xbcd000bc	-0.025390975
18	0xbd872a89	-0.0659991
19	0x3e07def9	0.13268651
20	0xbe169e3f	-0.14708804
21	0x3dfd6f04	0.1237469
22	0x3db13dda	0.086543754
23	0x3e80ebed	0.25179997
24	0x3d3c2e3f	0.04594254
25	0x3c96f310	0.018426448
26	0xbdc58c51	-0.09645904
27	0xbc9a7bdc	-0.018857889
28	0x3d958ce7	0.073022656
29	0x3d369577	0.044576135
30	0x3e823831	0.25433496
31	0x3e78696a	0.24258962
32	0x3df352dd	0.11881039
33	0x3df189ce	0.11793862
34	0xbdf76878	-0.12080473
35	0xbb9a9e03	-0.0047185435
36	0xbcf10cb8	-0.02942501
37	0xbc84f4c1	-0.016229989
38	0xbe547f29	-0.20751633
39	0x3dbf5dc8	0.09344059
40	0xbe0e9f2a	-0.13927904
41	0x3e2e0e3f	0.16997622
42	0xbe57707b	-0.21039002
43	0xbd2e6a59	-0.04258189
44	0x3d4fa9af	0.050698932
45	0xbe6b223e	-0.22962281
46	0x3e1b48c2	0.15164474
47	0x3dd8f27b	0.105931245
48	0xbdd3658d	-0.10322104
49	0xbddb23f9	-0.107002206
50	0x3e6b7f77	0.22997843
51	0x3de64b7c	0.11244866
52	0x3dac6b54	0.08418909
53	0xbdb0dc91	-0.0863582
54	0xbe6dc1ff	-0.23218535
55	0xbdc7bbc5	-0.09752611
56	0x3c6a09bb	0.0142845465
57	0xbe003a9c	-0.12522358
58	0x3e5b4411	0.21412684
59	0xbd3362a6	-0.04379525
60	0x3ddbfd83	0.10741713
61	0x3df4fac6	0.11961894
62	0x3cb79927	0.022411896
63	0xbd5e4863	-0.054268252
64	0x3e052bd5	0.13005002
65	0x3e3c7839	0.18405236
66	0x3e7ad46a	0.24495092
67	0x3e2b8e98	0.16753614
68	0x3e52cfd9	0.205871
69	0x3e222b3d	0.15836807
70	0xbdd8b152	-0.10580696
71	0x3ca2cc72	0.019872878
72	0x3e732c19	0.2374729
73	0x3d957279	0.072972246
74	0x3d4c79b6	0.04992076
75	0x3e445516	0.19173083
76	0xbdc8f677	-0.098126344
77	0x3e28720f	0.1644976
78	0xbbcc9f23	-0.0062445565
79	0xbe6b8231	-0.22998883
80	0xbe5732b6	-0.21015438
81	0xbe2ccc7c	-0.1687488
82	0x3dc86031	0.09783972
83	0xbe3fe095	-0.18738015
84	0x3e6a0792	0.2285445
85	0x3d746ede	0.059676044
86	0x3c59865f	0.0132766655
87	0x3d4a0825	0.049324173
88	0xbe1e9f4d	-0.15490456
89	0xbd11470f	-0.035468157
90	0x3e449ed6	0.19201216
91	0x3d4ab704	0.049490944
92	0xbe68aa6b	-0.2272126
93	0x3e291fd0	0.16516042
94	0x3e5266dc	0.2054705
95	0xbe2eb471	-0.1706102
96	0x3e67d150	0.2263844
97	0xbbe98671	-0.0071266224
98	0xbe792b65	-0.2433296
99	0x3c01bcf3	0.007918584
100	0x3e7391a2	0.23786023
101	0x3d9098cd	0.070603944
102	0xbceb20d0	-0.02870217
103	0x3e62b4ab	0.22139232
104	0x3c300600	0.010743618
105	0x3ddd748d	0.10813246
106	0xbe70e968	-0.23526537
107	0x3e697b17	0.22800861
108	0xbdadf28c	-0.08493528
109	0x3e6fb233	0.23407821
110	0xbe0e626b	-0.13904731
111	0x3d5770a0	0.052597642
112	0x3e26f249	0.16303362
113	0x3bf438b7	0.00745305
114	0x3e4585bc	0.19289297
115	0xbc7b8548	-0.015351601
116	0xbe809787	-0.25115606
117	0x3d2a758f	0.04161602
118	0xbdbeb847	-0.09312492
119	0xbd6e122e	-0.058122806
120	0xbe67d8a9	-0.22641243
121	0x3d956d7b	0.07296272
122	0xbe47d825	-0.19516046
123	0x3e2b42da	0.1672472
124	0x3c2cad34	0.010539342
125	0xbc2ea31e	-0.010659007
126	0x3dab4bde	0.0836408
127	0x3e6e10a4	0.23248535
128	0xbe121e16	-0.1426929
129	0xbe29f4b9	-0.1659726
130	0xbdde498d	-0.108538724
131	0x3d19baaf	0.03753155
132	0xbd5b60e2	-0.05355919
133	0x3d7b22de	0.06131255
134	0x3e10e1cc	0.14148635
135	0xbe07881a	-0.13235512
136	0x3e1fb0d4	0.15594798
137	0x3c299d05	0.010352378
138	0x3db849e6	0.0899847
139	0x3e75e7fe	0.24014279
140	0x3e2e6fda	0.17034855
141	0x3d821001	0.06350709
142	0x3e71694f	0.23575328
143	0xbe24ed65	-0.16106184
144	0xbe1e5fd3	-0.15466242
145	0xbe6adc9f	-0.22935723
146	0xbdda7d4e	-0.10668431
147	0x3e113c16	0.14183077
148	0xbe74b001	-0.23895265
149	0xbe781724	-0.24227577
150	0xbe0a68c1	-0.13516523
151	0xbd844aff	-0.06459617
152	0x3e1ecb3d	0.15507217
153	0xbe670484	-0.22560316
154	0xbd8a11f4	-0.067417055
155	0x3e507e19	0.20360602
156	0x3dd9a3a4	0.10626915
157	0xbe5f3c64	-0.21800381
158	0x3c88ed8b	0.016714832
159	0xbd84917a	-0.0647306
160	0x3e58554b	0.21126287
161	0xbd4afa11	-0.04955489
162	0x3dff747a	0.12473388
163	0x3e600e67	0.21880494
164	0xbddb55c4	-0.10709718
165	0x3e4b50d7	0.19855057
166	0xbe5f0008	-0.21777356
167	0x3de1f5ed	0.11033235
168	0x3dbb535b	0.09146758
169	0xbe611bac	-0.21983212
170	0xbd93eccf	-0.07222902
171	0xbe0e1a3b	-0.13877194
172	0xbe0af5a4	-0.13570267
173	0x3d51c280	0.05121088
174	0xbe053f0d	-0.13012333
175	0x3e22a721	0.15884067
176	0x3ceba712	0.028766189
177	0x3e24ba3b	0.16086666
178	0x3c7fc191	0.015610115
179	0x3d89dde2	0.06731774
180	0x3e64d10b	0.22345369
181	0xbe707e9e	-0.234858
182	0x3cfa9c17	0.030592008
183	0xbe760a5c	-0.2402739
184	0xbd8ffaff	-0.070302956
185	0xbde248d6	-0.110490486
186	0xbe5abaca	-0.21360317
187	0xbd615197	-0.05500945
188	0x3d449774	0.047996
189	0xbd65f08e	-0.056137614
190	0xbe28cba4	-0.16483933
191	0x3e4a2805	0.19741829
192	0x3e25df04	0.16198355
193	0x3e461ede	0.19347712
194	0x3e659d97	0.22423397
195	0x3d072f33	0.033003997
196	0xbd6d04a2	-0.057865746
197	0x3cbb4d66	0.022864055
198	0xbe1aeb20	-0.15128756
199	0xbe649b06	-0.22324762
200	0x3d51bcbd	0.051205385
201	0xbc78a6ed	-0.015176517
202	0xbdc7c823	-0.0975497
203	0x3e3de610	0.18544793
204	0x3e61cbfb	0.22050469
205	0x3e7411fd	0.23834987
206	0x3da24a86	0.079243705
207	0x3cacf190	0.02111128
208	0xbe0eb631	-0.13936688
209	0x3d96a4d3	0.073556565
210	0xbcfbfa2b	-0.030758938
211	0x3e117225	0.14203699
212	0xbd2ce422	-0.042209752
213	0x3e6f247b	0.2335376
214	0xbe30e3bc	-0.17274374
215	0x3cba69ce	0.02275553
216	0xbde9bc72	-0.11412896
217	0x3b36fabd	0.0027920448
218	0xbe3887bf	-0.18020533
219	0x3e7520e0	0.23938322
220	0xbcb9ba1b	-0.02267175
221	0xbe49d13b	-0.19708721
222	0xbe1392b7	-0.14411436
223	0x3dfb8bef	0.122825496
224	0xbd7d46ce	-0.061835103
225	0xbe1e70e1	-0.15472747
226	0xbe415832	-0.188813
227	0x3d2f076f	0.0427317
228	0xbd86b3cd	-0.06577263
229	0xbdf78dd2	-0.12087597
230	0xbe5fa124	-0.21838814
231	0x3e07534c	0.13215369
232	0x3e00b619	0.12569465
233	0x3d912ad4	0.07088247
234	0xbe0849cf	-0.13309406
235	0x3cbb9866	0.022899818
236	0x3dc59a10	0.09648526
237	0xbd80a76f	-0.062819354
238	0x3e3db393	0.18525533
239	0x3d343ea1	0.04400504
240	0x3e4fa759	0.20278682
241	0x3e73585d	0.23764177
242	0x3e0ace18	0.13555181
243	0xbe70c641	-0.23513128
244	0xbdb7a594	-0.089671284
245	0xbdba8890	-0.091080785
246	0x3d9d4555	0.0767924
247	0x3e79014c	0.24316901
248	0xbd48164f	-0.0488494
249	0xbd95dba0	-0.07317281
250	0x3e482281	0.19544412
251	0xbe74503c	-0.23858732
252	0xbdfdd17a	-0.1239347
253	0xbe12de72	-0.14342669
254	0xbe01d809	-0.12680067
255	0x3e3a9a94	0.1822303

convs.0.nn.0.bias f4 [16]
0	0x3df120bf	0.11773824
1	0x3e13f3f2	0.14448527
2	0x3dd58b68	0.1042698
3	0xbe081f6c	-0.13293236
4	0xbd92bc44	-0.07164815
5	0xbe017bc8	-0.12644875
6	0xbdac5a7a	-0.084156945
7	0x3d9d9e6a	0.07696231
8	0xbd87ae1c	-0.066250056
9	0x3e6685ba	0.2251195
10	0xbe2aae38	-0.16668022
11	0xbd517579	-0.05113742
12	0x3e19cd99	0.15019836
13	0xbe61243d	-0.2198648
14	0xbe0d0ebb	-0.1377515
15	0x3d4c98a2	0.04995025

convs.0.nn.1.weight f4 [16]
0	0x3f80f3b7	1.0074376
1	0x3f80f2f9	1.0074149
2	0x3f80f404	1.0074468
3	0x3f7e19be	0.9925803
4	0x3f806f74	1.0034013
5	0x3f7f1e56	0.99655664
6	0x3f7f37cf	0.9969453
7	0x3f7f2135	0.99660045
8	0x3f7e19e2	0.99258244
9	0x3f8067e9	1.0031711
10	0x3f80f3f5	1.007445
11	0x3f806fe8	1.0034151
12	0x3f7f2896	0.99671304
13	0x3f7e0c63	0.9923765
14	0x3f806f72	1.003401
15	0x3f7e199d	0.9925783

convs.0.nn.1.bias f4 [16]
0	0x3bf3ca20	0.0074398667
1	0x3bf2f872	0.007414871
2	0x3bf400c8	0.007446382
3	0xbbf318e5	-0.007418739
4	0x3b5f12d4	0.0034038322
5	0xbb6196f4	-0.003442225
6	0xbb49b145	-0.0030775827
7	0xbb5e9414	-0.0033962773
8	0xbbf30bc4	-0.007417174
9	0x3b4e8480	0.0031512082
10	0x3bf40cd3	0.007447818
11	0x3b600848	0.0034184624
12	0xbb57ee62	-0.0032948484
13	0xbbfa0a8f	-0.007630653
14	0x3b5e1ac4	0.0033890465
15	0xbbf33cc3	-0.007423015

convs.0.nn.1.running_mean f4 [16]
0	0xc097cfde	-4.7441244
1	0x4041aa8a	3.0260339
2	0xbf2ac10c	-0.66700816
3	0x3e6fc2ba	0.23414126
4	0x40ad9246	5.4241056
5	0xbf054556	-0.52058923
6	0x402852c0	2.6300507
7	0x3ed2f16c	0.41199815
8	0x3ff89fad	1.9423729
9	0xc0853497	-4.1626697
10	0xbea73351	-0.3265634
11	0xbfa6b372	-1.3023512
12	0x407f18d3	3.9858902
13	0xbf8c1a34	-1.0945497
14	0xbf892b84	-1.0716405
15	0x3e683884	0.22677809

convs.0.nn.1.running_var f4 [16]
0	0x4141ba17	12.107932
1	0x3e97c4b6	0.29642266
2	0x3eb7c34c	0.35891187
3	0x402824e8	2.6272526
4	0x4054b8e3	3.3237846
5	0x3f491c43	0.7855875
6	0x401bc1e3	2.433709
7	0x40030d41	2.047684
8	0x41018f89	8.097543
9	0x3f9fec37	1.2493962
10	0x41a47886	20.55885
11	0x3fd3ff6a	1.6562321
12	0x413e7e9e	11.905912
13	0x3fa68cf3	1.3011764
14	0x406adc70	3.6697044
15	0x40883a13	4.257089

convs.0.nn.3.weight f4 [16, 16]
0	0x3cf36c70	0.029714793
1	0x3e5e498d	0.21707745
2	0x3d6991d9	0.057023857
3	0xbe1d2582	-0.1534634
4	0xbe64d15b	-0.22345488
5	0x3e67b8eb	0.22629134
6	0x3e662a38	0.22477043
7	0xbbe0a016	-0.006855021
8	0xbe265908	-0.162449
9	0x3e7885ff	0.24269865
10	0xbe2fd6db	-0.17171805
11	0xbe509558	-0.2036947
12	0xbdaa72d0	-0.0832268
13	0xbe05dd6c	-0.13072747
14	0xbe7d0104	-0.24707419
15	0xbccb6188	-0.02482678
16	0x3e62bc82	0.22142223
17	0xbd1c3510	-0.03813654
18	0xbddaf65a	-0.10691519
19	0x3d568d52	0.052380867
20	0xbe6349bb	-0.22196095
21	0x3d9167e1	0.070998915
22	0xbe455f7f	-0.1927471
23	0x3e4587b2	0.19290045
24	0x3e4243d7	0.18971191
25	0xbe2bdf00	-0.16784286
26	0xbd8ef34b	-0.06979998
27	0xbd95932a	-0.0730346
28	0xbcd5951f	-0.026072083
29	0x3d83903a	0.064239934
30	0x3e6a954c	0.22908515
31	0xbe485412	-0.1956332
32	0xbcbe5ad4	-0.02323667
33	0xbcbcea03	-0.023060804
34	0xbdc2a0e1	-0.095033415
35	0xbe272ca6	-0.16325626
36	0xbe5e6c29	-0.21720947
37	0x3e6c58f5	0.2308081
38	0x3d097d34	0.03356667
39	0x3e28a50e	0.16469213
40	0xbe12d54a	-0.14339176
41	0xbe70a136	-0.23498997
42	0xbe05347a	-0.130083
43	0x3d558e7e	0.052137844
44	0xbd3b17c3	-0.045676958
45	0xbd9967ca	-0.07490499
46	0x3d30ac0e	0.043132834
47	0xbe4c3498	-0.19941938
48	0xbde3df31	-0.11126555
49	0xbdc9bf2b	-0.098509155
50	0x3b9748e4	0.0046168435
51	0x3cc820db	0.02442973
52	0x3d0b790f	0.034050997
53	0x3d4b7111	0.049668375
54	0x3e1104e4	0.14162022
55	0x3e433af9	0.19065465
56	0xbdf1a5f5	-0.11799232
57	0xbe7845d5	-0.24245389
58	0x3e5dd00f	0.216614
59	0x3da74ad4	0.08168569
60	0xbe62d886	-0.2215291
61	0xbcb5122d	-0.022103393
62	0x3e55d18b	0.20880716
63	0xbe768e48	-0.24077713
64	0xbd59225e	-0.05301129
65	0x3e094848	0.1340648
66	0x3e7aa94c	0.24478644
67	0xbc8dcfd2	-0.01731101
68	0xbe2c05f0	-0.1679914
69	0x3e48592b	0.19565265
70	0x3dcaca4a	0.09901865
71	0x3d69c671	0.057074014
72	0xbe482610	-0.1954577
73	0xbcb34a00	-0.021885872
74	0xbe05e4a0	-0.13075495
75	0x3e7dcb90	0.24784684
76	0x3dcf517c	0.10122964
77	0x3e1b086b	0.1513993
78	0xbdfdcec5	-0.12392954
79	0x3dac8634	0.08424035
80	0xbdcfa886	-0.10139565
81	0xbd880c59	-0.0664298
82	0xbdd46c35	-0.10372201
83	0xbe18c13f	-0.14917468
84	0xbe5aa465	-0.21351774
85	0xbd117421	-0.03551114
86	0x3e7c465a	0.24636212
87	0xbde3e057	-0.11126774
88	0xbd31173d	-0.043235052
89	0x3e1c0fa5	0.15240343
90	0xbe7c3271	-0.24628617
91	0xbdede58d	-0.11616049
92	0x3e4e3201	0.20136262
93	0x3df30900	0.11866951
94	0x3d8e0d34	0.06936112
95	0x3dd7ed86	0.10543351
96	0xbdae0c88	-0.08498484
97	0xba916e49	-0.001109549
98	0xbe6a2316	-0.22864947
99	0x3e17826a	0.14795843
100	0x3e01b15b	0.12665312
101	0x3dcff926	0.10154943
102	0xbe590498	-0.21193159
103	0xbe718457	-0.2358564
104	0xbccf7b79	-0.025327431
105	0xbd9ba7fb	-0.07600399
106	0x3e02a0b0	0.1275661
107	0xbe0cb372	-0.13740328
108	0xbd812244	-0.06305364
109	0xbdd91986	-0.10600571
110	0x3e4eeb6b	0.20206992
111	0xbd88af46	-0.06674056
112	0xbd1627e8	-0.03665915
113	0xbd178cac	-0.03699939
114	0xbe566f97	-0.20941006
115	0x3b21cbf5	0.0024688218
116	0xbe252f0c	-0.16131228
117	0xbe5a121a	-0.21295968
118	0x3e28652e	0.16444847
119	0xbc431905	-0.011907821
120	0x3dfe83d6	0.124274895
121	0xbe330724	-0.17483193
122	0x3d27f159	0.04100165
123	0xbd707977	-0.058709588
124	0x3e32a7c4	0.1744681
125	0xbe56cbca	-0.20976177
126	0xbd47bf11	-0.0487662
127	0xbe041f35	-0.1290253
128	0x3e641c77	0.22276483
129	0x3d881d6d	0.066462375
130	0xbe40699a	-0.18790284
131	0x3df2fad1	0.11864246
132	0xbda7d3be	-0.081946835
133	0xbdb0b7ae	-0.08628784
134	0x3d18e814	0.037330702
135	0xbd9cd458	-0.07657689
136	0xbca50a8d	-0.020146633
137	0xbd7323a7	-0.059360173
138	0x3e6d0b60	0.2314887
139	0x3e4a8e0b	0.19780748
140	0x3e3ca34b	0.18421666
141	0xbcd3bb82	-0.025846247
142	0x3d856662	0.065136686
143	0xbd60bbf2	-0.05486674
144	0x3d8db599	0.06919403
145	0x3e1fccb4	0.15605432
146	0x3dc228a7	0.0948041
147	0x3e7bbe7b	0.24584381
148	0xbe445f86	-0.19177064
149	0xbdf7c7ff	-0.12098693
150	0x3cda0f73	0.026618695
151	0xbd87b9c7	-0.06627231
152	0x3deee622	0.11664988
153	0x3d00f00d	0.03147893
154	0x3e30e7c8	0.17275918
155	0xbdf60b0e	-0.12013827
156	0x3d29699a	0.041360475
157	0xbc88e62a	-0.016711313
158	0xbd906cb2	-0.07051982
159	0xbe14c1e7	-0.14527093
160	0x3e49a02d	0.19690008
161	0x3e31f8be	0.17380044
162	0x3cc6be34	0.024260618
163	0xbe59c3f2	-0.21266153
164	0x3e4ed168	0.2019707
165	0xbe2bf613	-0.16793089
166	0x3da20882	0.07911779
167	0x3e113c07	0.14183055
168	0x3e1538c4	0.14572436
169	0xbdd7fb57	-0.10545986
170	0xbd8c1f02	-0.06841852
171	0xbe3b2f11	-0.18279673
172	0x3e57a110	0.21057534
173	0x3e206f37	0.15667425
174	0xbe4c9cf2	-0.19981745
175	0xbb0c80c9	-0.0021439067
176	0x3e4bcade	0.19901606
177	0x3e152f48	0.14568818
178	0x3e12365e	0.14278552
179	0x3d93101e	0.071808085
180	0xbe526133	-0.20544891
181	0xbdb7b3f8	-0.08969873
182	0xbe804784	-0.25054562
183	0xbde89e1f	-0.11358284
184	0xbd833353	-0.06406274
185	0xbe1c2610	-0.15248895
186	0xbd342554	-0.04398091
187	0xbe2d6b23	-0.169354
188	0xbdea59d9	-0.11442918
189	0x3e07b34d	0.13251992
190	0xbe6b5b5b	-0.22984068
191	0xbe21068f	-0.15725158
192	0xbe68ec20	-0.22746325
193	0x3e29239b	0.16517489
194	0x3e6b852d	0.23000021
195	0xbe1300e8	-0.14355814
196	0x3dbdbeaf	0.09264886
197	0xbe2dabb1	-0.16960026
198	0xbddf9405	-0.10916904
199	0xbe6b42cd	-0.22974701
200	0xbcd4486b	-0.025913438
201	0x3da6a749	0.08137376
202	0x3dd3e248	0.10345894
203	0xbe5033f8	-0.20332325
204	0xbd6058c3	-0.05477215
205	0x3c778710	0.015107885
206	0x3e28bf99	0.16479339
207	0xbe804a18	-0.2505653
208	0xbd0b01f0	-0.033937395
209	0xbdf8b084	-0.12143043
210	0xbdb49535	-0.088175215
211	0xbda40963	-0.08009603
212	0xbde013d9	-0.10941286
213	0x3e09b94b	0.1344959
214	0x3dc1d8bc	0.09465167
215	0x3e0af681	0.13570596
216	0x3e60c3a1	0.21949627
217	0x3e4478ec	0.19186753
218	0xbca8be9f	-0.020598708
219	0xbdd20859	-0.102554984
220	0x3c0af46f	0.008481129
221	0xbcaee43d	-0.021349067
222	0xbdc880cb	-0.0979019
223	0x3d99b5fd	0.07505415
224	0xbe1f8a8d	-0.15580197
225	0x3d8a9b02	0.06767847
226	0xbd22348c	-0.039600894
227	0xbe23e8bc	-0.1600675
228	0xbe36f75f	-0.17867802
229	0xbd83cc23	-0.0643542
230	0xbe20047c	-0.1562671
231	0xbdd3ee6b	-0.10348209
232	0xbdbfe3ae	-0.09369598
233	0x3e43b857	0.19113289
234	0x3d4596ca	0.048239507
235	0x3d9c466d	0.0763062
236	0xbe34cbe8	-0.17655909
237	0x3e2af563	0.1669517
238	0x3daa162d	0.08305011
239	0x3ca01489	0.019541042
240	0x3dbf2a7f	0.09334277
241	0x3de00a19	0.10939426
242	0xbe0912f3	-0.13386135
243	0xbd98b93d	-0.074572064
244	0xbe34a416	-0.17640719
245	0xbe1ea521	-0.15492679
246	0x3d7492bc	0.05971025
247	0xbe1766d8	-0.14785326
248	0x3e3c5db4	0.1839512
249	0x3e6e93e4	0.23298603
250	0xbe558eb5	-0.2085522
251	0x3e24e0cf	0.16101383
252	0x3de60a8a	0.11232479
253	0xbe194782	-0.14968684
254	0x3e3f1cc0	0.18663311
255	0x3e299872	0.1656206

convs.0.nn.3.bias f4 [16]
0	0x3da25505	0.079263724
1	0xbe4e3a72	-0.20139483
2	0x3dbcbe4b	0.09215983
3	0xbde4d782	-0.11173917
4	0xbd06eea4	-0.03294243
5	0xbe1fcc6d	-0.15605326
6	0x3e7668bd	0.24063392
7	0xbe35b165	-0.17743452
8	0x3e4da5dd	0.20082803
9	0x3e474d87	0.19463168
10	0xba81b509	-0.0009895872
11	0x3d6afa06	0.057367347
12	0xbd868d15	-0.06569878
13	0x3cd463e9	0.025926547
14	0x3e127719	0.14303245
15	0xbcc19a06	-0.023633014

convs.0.nn.4.weight f4 [16]
0	0x3f80660f	1.0031146
1	0x3f7f1d90	0.99654484
2	0x3f7f14d9	0.99641186
3	0x3f80f71d	1.0075413
4	0x3f7f1349	0.996388
5	0x3f807159	1.0034591
6	0x3f807090	1.0034351
7	0x3f7e1987	0.992577
8	0x3f80729e	1.0034978
9	0x3f80edcf	1.0072573
10	0x3f80f539	1.0074836
11	0x3f80f293	1.0074028
12	0x3f7f2254	0.99661756
13	0x3f7f22aa	0.9966227
14	0x3f807056	1.0034282
15	0x3f7e1c9e	0.99262416

convs.0.nn.4.bias f4 [16]
0	0x3b4d50b4	0.003132862
1	0xbb62589d	-0.003453768
2	0xbb6a526b	-0.0035754691
3	0x3bf82106	0.007572296
4	0xbb6c1736	-0.0036024577
5	0x3b6061c2	0.0034237956
6	0x3b612c5e	0.003435872
7	0xbbf3453f	-0.0074240263
8	0x3b6585e5	0.0035022434
9	0x3beed800	0.007288933
10	0x3bf4b5cf	0.0074679623
11	0x3bf297ec	0.0074033644
12	0xbb5e4dd6	-0.0033920906
13	0xbb5d8e3c	-0.0033806702
14	0x3b60963b	0.0034269232
15	0xbbf1a214	-0.0073740575

convs.0.nn.4.running_mean f4 [16]
0	0xbdf51efa	-0.11968799
1	0xbe73d824	-0.2381292
2	0xbea017af	-0.3126807
3	0xbe234d6a	-0.159475
4	0x3e86a144	0.2629491
5	0xbe9c2998	-0.30500484
6	0xbc9bcc23	-0.019018238
7	0xbf102fce	-0.56322944
8	0x3eed4dfc	0.4634856
9	0x3e9c67a3	0.3054782
10	0x3e4357bd	0.19076438
11	0xbec2a631	-0.3801742
12	0xbeaab55b	-0.33341488
13	0x3de3bf46	0.11120467
14	0xbdb409b9	-0.08790917
15	0x3dd36138	0.103212774

convs.0.nn.4.running_var f4 [16]
0	0x3e070b85	0.13187988
1	0x3c044bb0	0.008074686
2	0x3c7fe8f8	0.015619509
3	0x3ca8f73b	0.020625701
4	0x3d4a4887	0.049385574
5	0x3d1f424f	0.038881596
6	0x3cdf2195	0.027237693
7	0x3d8d0eca	0.068875864
8	0x3cd59c1e	0.026075419
9	0x3ba50195	0.005035589
10	0x3dd3a7e1	0.10334755
11	0x3e42b70a	0.19015136
12	0x3d0da10b	0.03457741
13	0x3d1740c4	0.036927
14	0x3e06a1e5	0.13147695
15	0x3da1c03d	0.07897995

convs.1.nn.0.weight f4 [16, 16]
0	0x3e710be9	0.235397
1	0xbe1e95e6	-0.15486869
2	0xbe588379	-0.21143903
3	0x3e4c76cf	0.19967197
4	0x3c41d880	0.011831403
5	0xbe80398a	-0.250439
6	0xbdeb9378	-0.11502737
7	0xbe064753	-0.13113146
8	0xbcd37237	-0.025811298
9	0x3e6699b9	0.22519578
10	0xbdc8dcef	-0.09807765
11	0xbe6e317e	-0.23261067
12	0x3e75b3f7	0.23994432
13	0xbd89b5e8	-0.06724149
14	0xbb823b30	-0.003974341
15	0x3d22e78f	0.039771613
16	0x3e32cb0c	0.17460269
17	0xbdd2231a	-0.10260601
18	0xbe5b5219	-0.21418037
19	0x3de056f0	0.10954082
20	0x3d0c59f4	0.034265473
21	0xbe21710b	-0.15765779
22	0xbe44aadd	-0.19205804
23	0xbe0dfa86	-0.13865098
24	0xbe49d143	-0.19708733
25	0xbe73cf38	-0.23809516
26	0x3d96bbe0	0.07360053
27	0xbe2a0a46	-0.16605482
28	0xbe4303c2	-0.19044402
29	0xbe2f7d18	-0.17137563
30	0x3dc74c22	0.09731318
31	0x3d024078	0.031799763
32	0xbe07abe6	-0.13249168
33	0x3dd5d071	0.10440148
34	0xbd5e63d0	-0.054294407
35	0xbe3f8647	-0.18703566
36	0x3e4826e7	0.1954609
37	0x3e74b012	0.2389529
38	0x3e6c2bfc	0.23063654
39	0x3d84506f	0.06460654
40	0xbe1a1b03	-0.15049367
41	0xbe0cd414	-0.13752776
42	0xbe3f4612	-0.18679073
43	0xbdc551e5	-0.09634761
44	0xbe2fe6bd	-0.17177863
45	0xbe075615	-0.13216431
46	0xbe128bf1	-0.14311196
47	0x3d4b8751	0.049689595
48	0xbe4ba613	-0.19887571
49	0x3e4b72d3	0.1986802
50	0xbe6f695c	-0.23380035
51	0xbd10eb14	-0.035380438
52	0x3e2d78d9	0.16940631
53	0xbc12beb1	-0.008956597
54	0xbd5a9c40	-0.053371668
55	0xbe7cf667	-0.2470337
56	0xbe3f3299	-0.18671645
57	0xbe76dcc3	-0.24107651
58	0x3e34daa7	0.17661534
59	0x3e3c9f85	0.18420227
60	0x3df5ec96	0.12008016
61	0x3ccfee69	0.025382238
62	0xbdb41047	-0.08792167
63	0xbe3cc13f	-0.18433093
64	0x3c61260b	0.01374198
65	0xbd9fcd13	-0.07802787
66	0x3e0db34e	0.1383793
67	0xbe1de04d	-0.15417595
68	0xbe12fb85	-0.1435376
69	0xbe584620	-0.211205
70	0x3e509e1b	0.20372812
71	0xbe70a7bd	-0.23501487
72	0x3d4768c0	0.04868388
73	0x3dc03073	0.09384241
74	0xbd8d3140	-0.06894159
75	0x3e2982da	0.16553822
76	0xbd1b7874	-0.03795667
77	0xbe67dc67	-0.2264267
78	0x3e2d0c26	0.16899166
79	0x3e1278dd	0.14303918
80	0xbe4c8c33	-0.19975357
81	0x3e56a403	0.20961003
82	0x3e5ee92d	0.21768637
83	0xbe3fd0d5	-0.18732007
84	0xbc910a6a	-0.017705161
85	0x3d838878	0.06422514
86	0xbe401b4f	-0.18760417
87	0x3e210bce	0.1572716
88	0xbe0532e3	-0.13007693
89	0x3e06c7e8	0.13162196
90	0x3e5ba5fd	0.21450038
91	0xbe4c557e	-0.19954488
92	0x3e3106db	0.17287771
93	0x3e3c9ae7	0.18418466
94	0x3bccad65	0.006246256
95	0x3db5c456	0.08875339
96	0x3dccc60e	0.099987134
97	0x3e3d14a3	0.18464904
98	0xbdb4f952	-0.088366166
99	0xbd419825	-0.047264237
100	0x3d3d3415	0.046192247
101	0xbe3f1302	-0.18659595
102	0xbe37ed91	-0.17961718
103	0xbdd9ca6e	-0.106343135
104	0x3e6ae9ce	0.22940752
105	0x3df7a2fb	0.12091633
106	0xbc1d2d44	-0.009593312
107	0xbd6fe28e	-0.05856567
108	0x3cc4215b	0.023941686
109	0xbe3b2c6f	-0.18278669
110	0x3c474016	0.012161275
111	0x3e743ae3	0.23850589
112	0xbbb6682d	-0.005566618
113	0x3e793aff	0.24338911
114	0xbdecfaa5	-0.11571244
115	0xbdd25ab2	-0.10271205
116	0xbe631f8f	-0.22180007
117	0x3d34e8c4	0.044167295
118	0x3d0187ef	0.031623777
119	0x3e363ce7	0.1779667
120	0x3d08ca2c	0.03339593
121	0x3e471f99	0.19445647
122	0x3e09b47f	0.1344776
123	0x3d9df8e8	0.07713491
124	0x3e4263fd	0.18983455
125	0xbc6eb89b	-0.014570381
126	0xbd0a9550	-0.0338338
127	0xbbe3d95e	-0.0069534024
128	0xbe4e27ae	-0.20132324
129	0x3e38c141	0.1804247
130	0x3e424859	0.18972911
131	0xbc4a2a6f	-0.0123392185
132	0x3e818ece	0.25304264
133	0x3d69b702	0.057059295
134	0x3e0f771d	0.14010282
135	0xbe63604f	-0.22204708
136	0x3cec9b03	0.02888251
137	0xbe36f50b	-0.17866914
138	0x3e6e0739	0.23244943
139	0x3ca25c18	0.019819304
140	0xbe45a158	-0.19299829
141	0x3e25e3e3	0.16200213
142	0xbe79eab0	-0.24405932
143	0x3dcb1787	0.09916597
144	0xbe409ceb	-0.1880986
145	0xbc799d7d	-0.015235302
146	0xbe71b8a6	-0.23605594
147	0xbe619c1c	-0.22032207
148	0xbe5a2241	-0.2130213
149	0xbdd2880c	-0.10279855
150	0x3cc662db	0.02421706
151	0x3dd87d6b	0.105707966
152	0xbe2ae7ff	-0.16690062
153	0x3e517d98	0.20458066
154	0xbe33bcdc	-0.17552513
155	0x3c4e802a	0.012603799
156	0xbe1bde92	-0.15221623
157	0x3e776893	0.24160986
158	0xbd9ff8ff	-0.07811164
159	0xbd55c0d6	-0.052185856
160	0x3e35d9ef	0.17758916
161	0xbe6c3bc1	-0.2306967
162	0xbe3669f6	-0.17813858
163	0xbe06d44d	-0.13166924
164	0xbe74b433	-0.23896866
165	0xbdb53617	-0.088482074
166	0xbd9252a4	-0.07144669
167	0xbe147ef2	-0.14501551
168	0xbdaa7c07	-0.083244376
169	0x3ddb9006	0.1072083
170	0xbe4562cd	-0.19275971
171	0xbe31e466	-0.17372283
172	0x3e30c605	0.17263038
173	0x3c8d8ccb	0.01727905
174	0xbe59b42b	-0.21260135
175	0xbe1f09fe	-0.15531155
176	0xbe3e7606	-0.1859971
177	0x3d91dea1	0.07122541
178	0x3ccd2808	0.025043502
179	0x3c53301b	0.012889887
180	0x3dfa48fd	0.12220953
181	0xbe1dfe41	-0.15429021
182	0x3da35550	0.079752564
183	0x3e5048e8	0.20340312
184	0x3d95b217	0.073093586
185	0xbdfe9ae0	-0.12431884
186	0xbde1a469	-0.11017687
187	0x3e4269ca	0.18985668
188	0x3e07f7b1	0.1327808
189	0x3e1adcc2	0.15123275
190	0xbd0092e4	-0.031390086
191	0x3d9196b6	0.07108824
192	0xbe2cfc12	-0.16893032
193	0xbe493a26	-0.19651088
194	0xbe525bd2	-0.20542839
195	0x3e2a7519	0.16646232
196	0xbe207d67	-0.15672837
197	0x3d89a02f	0.06720006
198	0xbe6ae81c	-0.22940105
199	0xbe00261c	-0.12514538
200	0xbdcfbc2f	-0.10143315
201	0xbe4e879e	-0.20168921
202	0xbe727c17	-0.23680149
203	0xbd764d9d	-0.06013261
204	0xbe490ca9	-0.19633736
205	0x3c9e2ed7	0.019309444
206	0xbe04b386	-0.12959108
207	0xbdf12dca	-0.11776312
208	0x3e248fe3	0.16070513
209	0xbe112593	-0.1417449
210	0x3e28d3e4	0.1648708
211	0x3e090edb	0.13384573
212	0xbd498efb	-0.049208622
213	0xbe6470a0	-0.22308588
214	0xbe26ca2e	-0.16288063
215	0xbe12169b	-0.14266436
216	0xbe3775f9	-0.17916097
217	0x3e2cb5bd	0.16866203
218	0xbd0bd923	-0.034142625
219	0x3de3d23e	0.11124085
220	0x3e2e78f8	0.17038333
221	0xbe39edff	-0.18157195
222	0x3e3b98a5	0.18319948
223	0x3e74e055	0.23913701
224	0x3d083ad6	0.033259235
225	0xbe48d6a4	-0.19613129
226	0x3e40976c	0.18807763
227	0xbc826012	-0.01591495
228	0xbe42d087	-0.1902486
229	0xbe39a390	-0.181288
230	0x3c36fbc9	0.011168429
231	0x3b8469d2	0.004040935
232	0x3e4f3640	0.20235538
233	0x3e3150e8	0.1731602
234	0x3e5fa776	0.21841225
235	0x3e2e17fc	0.17001337
236	0x3d12a717	0.03580388
237	0xbe6954dd	-0.22786279
238	0x3d64a452	0.05582077
239	0x3e5903f9	0.21192922
240	0x3d3854ef	0.045002874
241	0x3e4a7ca2	0.19774106
242	0xbdf76895	-0.12080494
243	0xbd53c888	-0.051704913
244	0xbd8bcef6	-0.06826584
245	0xbe68d4b8	-0.22737396
246	0xbe1fb5d8	-0.15596712
247	0x3e6e2cfe	0.2325935
248	0xbe2dd9ff	-0.1697769
249	0x3e131436	0.14363179
250	0x3e3d0321	0.18458225
251	0x3df04dc6	0.11733584
252	0xbe4d6566	-0.20058212
253	0xbe58ecec	-0.21184129
254	0x3e2424ec	0.1602971
255	0x3e08f406	0.13374338

convs.1.nn.0.bias f4 [16]
0	0xbe56e5b8	-0.20986068
1	0xbd0b8ddd	-0.03407084
2	0xbe3999bd	-0.18125053
3	0x3ba9933d	0.005175023
4	0xbe5d4a93	-0.21610479
5	0xbe02bccc	-0.12767333
6	0x3e6b351e	0.22969481
7	0xbda691c9	-0.08133275
8	0x3e173c3b	0.1476907
9	0xbe3e10e0	-0.18561125
10	0x3e711e71	0.23546769
11	0x3e7f4af8	0.24930942
12	0x3e73a390	0.23792863
13	0xbd9a3e38	-0.075313985
14	0x3e43784e	0.19088861
15	0x3e281570	0.16414428

convs.1.nn.1.weight f4 [16]
0	0x3f81261b	1.0089754
1	0x3f813738	1.0094976
2	0x3f7e9c0b	0.9945685
3	0x3f806eae	1.0033777
4	0x3f80ae85	1.0053259
5	0x3f804751	1.0021764
6	0x3f7db6d4	0.991071
7	0x3f811af6	1.0086353
8	0x3f7fad2c	0.99873614
9	0x3f7dc895	0.9913419
10	0x3f7daaaf	0.9908857
11	0x3f811517	1.0084561
12	0x3f80863d	1.0040966
13	0x3f80a0e8	1.0049105
14	0x3f80d5eb	1.0065283
15	0x3f7ddf9a	0.99169314

convs.1.nn.1.bias f4 [16]
0	0x3c0a1d2d	0.008429808
1	0x3c12a68a	0.008950839
2	0xbbc4c0fb	-0.0060044504
3	0x3b3ef767	0.0029139163
4	0x3b9dd141	0.004816205
5	0x3ae8fde4	0.0017775861
6	0xbc1a5318	-0.009419225
7	0x3c1563b2	0.0091180075
8	0xbaec0a7a	-0.0018008493
9	0xbc15f977	-0.009153715
10	0xbc0bfe17	-0.008544466
11	0x3c19bce8	0.009383418
12	0x3b98cb31	0.004662894
13	0x3b98b575	0.0046603032
14	0x3bc34c07	0.005959991
15	0xbc0fd776	-0.008779397

convs.1.nn.1.running_mean f4 [16]
0	0xbfaaf3e2	-1.3355677
1	0xc0a57c9c	-5.171461
2	0xbff42a6e	-1.9075449
3	0xc0321927	-2.7827852
4	0xbf68ab16	-0.90886056
5	0x3fef9485	1.87172
6	0x3f1f1862	0.6214658
7	0x40134648	2.3011646
8	0x3fab082e	1.3361871
9	0xc085ee84	-4.1853657
10	0xc0a9368f	-5.28791
11	0x401dd884	2.46634
12	0xc0e4dd3b	-7.1520057
13	0x3f46f016	0.7771009
14	0x400e3935	2.2222416
15	0xbd891e7d	-0.06695268

convs.1.nn.1.running_var f4 [16]
0	0x40b3f86d	5.6240754
1	0x412037af	10.013595
2	0x40f00545	7.5006433
3	0x41966321	18.798403
4	0x40386751	2.881306
5	0x409e2fa5	4.943316
6	0x400f3355	2.237508
7	0x3f35bd53	0.7099201
8	0x3e8f96a9	0.28044632
9	0x405449e6	3.3170104
10	0x40253c89	2.5818198
11	0x40acec10	5.403816
12	0x410814e8	8.505104
13	0x40a83c58	5.257366
14	0x41100dab	9.003337
15	0x40a753e1	5.228989

convs.1.nn.3.weight f4 [16, 16]
0	0x3de11d74	0.10991946
1	0xbe68ce92	-0.2273505
2	0x3db142e2	0.08655335
3	0x3e101faf	0.14074586
4	0x3e59ce28	0.21270049
5	0xbe132960	-0.14371252
6	0xbe451608	-0.19246686
7	0x3a98cd0b	0.0011657787
8	0xbd16f73d	-0.03685688
9	0xbd0cc697	-0.034369078
10	0xbe6ce51f	-0.23134278
11	0xbd28f568	-0.041249663
12	0x3c801a0b	0.015637418
13	0x3de67e87	0.11254602
14	0x3e70f3c4	0.23530489
15	0xbdce76f1	-0.1008128
16	0xbe278147	-0.16357909
17	0x3e3c0221	0.18360187
18	0x3e28a603	0.16469578
19	0x3ccbd4c6	0.024881732
20	0x3e6043a0	0.21900797
21	0xbda1d577	-0.07902043
22	0xbd0037ba	-0.031303145
23	0x3de3467e	0.1109743
24	0xbd460ca6	-0.048351906
25	0xbd4c8124	-0.049927846
26	0xbe3861fc	-0.18006128
27	0x3e6b905b	0.23004286
28	0x3e6c2fe5	0.23065145
29	0x3e85b604	0.2611543
30	0xbe0abdbe	-0.13548943
31	0x3e229c69	0.15879978
32	0x3dfb4dda	0.122707084
33	0x3e56d6ec	0.20980424
34	0x3d88d66c	0.06681523
35	0xbda2e887	-0.07954507
36	0xbe6cb730	-0.23116755
37	0xbd9af951	-0.075670846
38	0x3da85c45	0.08220724
39	0xbbfe97a6	-0.0077695427
40	0x3de6c2f6	0.112676546
41	0xbdfeca83	-0.1244097
42	0x3db48116	0.08813684
43	0x3de6d291	0.11270631
44	0x3d396577	0.04526278
45	0xbe0b4643	-0.13601021
46	0x3ce8cec5	0.028418908
47	0xbda2c4b2	-0.07947673
48	0x3cebdc22	0.028791491
49	0x3e8344cc	0.25638425
50	0xbc187c3c	-0.0093069635
51	0x3e679712	0.22616223
52	0xbd649167	-0.05580273
53	0x3d42eace	0.04758721
54	0xbd672d8d	-0.056439925
55	0xbe128562	-0.14308694
56	0xbe36bb6c	-0.17844933
57	0xbe1ac9b5	-0.15116008
58	0x3ade9de1	0.0016984307
59	0x3dc94e4b	0.09829386
60	0x3d96ded3	0.07366719
61	0xbcd15b7b	-0.025556317
62	0xbce78153	-0.028259909
63	0xbe55a53c	-0.20863813
64	0xbdacebf5	-0.08443443
65	0xbe25e188	-0.16199315
66	0x3e4a650b	0.19765107
67	0xbc74ea4e	-0.014948441
68	0x3ddebf85	0.10876373
69	0xbe6a06f7	-0.2285422
70	0xbe3b7316	-0.1830562
71	0x3e00167f	0.12508582
72	0x3e0eadf8	0.13933551
73	0xbe4d7578	-0.20064342
74	0x3e6e199e	0.2325196
75	0xbdf4f0ea	-0.11960013
76	0xbe16d036	-0.14727864
77	0xbe2dc69e	-0.16970298
78	0xbe2772e5	-0.16352423
79	0xbd6ead5c	-0.058270797
80	0xbd4cf88b	-0.050041717
81	0xbce618d0	-0.028088003
82	0x3df5cc52	0.12001862
83	0x3e32c1fb	0.1745681
84	0x3d8dc48c	0.06922254
85	0x3d542dae	0.051801376
86	0x3e1c78be	0.15280434
87	0x3e1e0737	0.1543244
88	0xbd42b640	-0.04753709
89	0x3d86d471	0.06583489
90	0xbe48b414	-0.19599944
91	0x3e75e8f3	0.24014644
92	0xbd662b50	-0.05619365
93	0xbe16150f	-0.1465647
94	0x3e2aab32	0.16666868
95	0xbd24bdb0	-0.040219963
96	0x3e24a8bb	0.1607999
97	0xbd115898	-0.03548488
98	0xbda14919	-0.078752704
99	0x3e031d19	0.12804069
100	0x3e73e360	0.23817205
101	0xbd3aeaf1	-0.045634214
102	0xbe41a94c	-0.18912238
103	0x3e722b87	0.23649417
104	0x3e757497	0.23970257
105	0x3d8da5a5	0.0691636
106	0x3e727928	0.2367903
107	0xbde28283	-0.110600494
108	0x3d81a17a	0.06329627
109	0xbc875635	-0.016520599
110	0x3e43786a	0.19088903
111	0xbe2b071e	-0.16701934
112	0x3e1a1419	0.15046729
113	0xbe2951b7	-0.16535078
114	0x3e51a514	0.20473129
115	0xbde256a7	-0.11051684
116	0xbcaa243c	-0.020769231
117	0xbe3d3f00	-0.18481064
118	0x3b40fc51	0.0029447267
119	0x3de02030	0.10943639
120	0x3e407dae	0.18797943
121	0x3d0e7fdd	0.03478991
122	0x3e2c9c4e	0.168565
123	0xbd9bd628	-0.076092064
124	0x3e04995f	0.12949131
125	0xbc615203	-0.013752463
126	0xbe15aa06	-0.1461564
127	0xbe2de00a	-0.16979995
128	0xbd135b5e	-0.035975806
129	0x3df81869	0.12114031
130	0x396ef427	0.00022788403
131	0x3cfc946e	0.030832496
132	0xbe1a9ddf	-0.15099286
133	0x3e22a11b	0.1588177
134	0x3a4a2924	0.0007711819
135	0xbcfb6d3b	-0.030691734
136	0xbdd1df6d	-0.10247693
137	0xbcf898b6	-0.030346256
138	0x3e2089de	0.15677592
139	0x3d82dd61	0.06389881
140	0x3e1f8da5	0.15581377
141	0xbba12a23	-0.004918353
142	0xbd09e58b	-0.033666175
143	0x3e5ccf74	0.21563512
144	0x3e2e37b5	0.17013438
145	0x3e1d780b	0.15377824
146	0xbe020748	-0.1269809
147	0xbe35e5c4	-0.1776343
148	0x3e6d86c5	0.23195942
149	0x3e138ce3	0.14409213
150	0xbe578df1	-0.2105024
151	0xbe563dec	-0.20922059
152	0xbde1ad2e	-0.110193595
153	0x3e3637a4	0.17794663
154	0x3d13c31f	0.036074754
155	0x3e2bf0a3	0.16791014
156	0x3e3ffa1d	0.18747754
157	0xbe0fd5d1	-0.14046408
158	0x3d213bca	0.03936366
159	0x3df0059c	0.1171982
160	0x3d4e5898	0.05037746
161	0xbd6ac5f7	-0.0573177
162	0x3e0535fa	0.13008872
163	0xbe4aa012	-0.19787624
164	0xbe363a4b	-0.17795675
165	0x3d9512b7	0.0727896
166	0xbd9f73fa	-0.07785793
167	0x3e6f7a8f	0.23386596
168	0xbe786efe	-0.2426109
169	0x3e4045f3	0.18776684
170	0x3ddd645d	0.108101584
171	0xbc20d3cc	-0.009816121
172	0x3e474e30	0.1946342
173	0x3dc453be	0.09586285
174	0xbd3e7e9f	-0.046507474
175	0xbd7b7ae7	-0.061396506
176	0xbdcefe07	-0.101070456
177	0x3d6b76eb	0.057486456
178	0x3e4efbb8	0.2021321
179	0xbe13e32f	-0.14442132
180	0xbdcd107f	-0.10012912
181	0xbccc29f6	-0.024922352
182	0xbe0144cf	-0.12623905
183	0x3e6b9b78	0.23008525
184	0xbd1b5b1e	-0.037928693
185	0xbe15638e	-0.14588758
186	0xbe2c61f9	-0.16834249
187	0x3cf3aba1	0.029744925
188	0x3d175fa7	0.036956456
189	0x3b791d30	0.0038011782
190	0xbd869d55	-0.065729775
191	0x3dd75de7	0.10515957
192	0xbe1348f6	-0.14383301
193	0xbe64778c	-0.22311229
194	0x3e814ce6	0.2525398
195	0xbd6e0159	-0.058106754
196	0xbd6590b4	-0.056046203
197	0xbd2adda0	-0.041715264
198	0xbe41884b	-0.18899648
199	0xbd8ef071	-0.06979454
200	0xbe0ae530	-0.1356399
201	0x3e4e5149	0.20148195
202	0xbd45049f	-0.04810011
203	0x3e2c0c96	0.16801676
204	0xbc6f90c3	-0.014621916
205	0x3d53494f	0.051583584
206	0xbdff5f6c	-0.12469372
207	0xbcd84baf	-0.026403276
208	0x3dbf4fb6	0.093413755
209	0xbe3550ee	-0.17706653
210	0xbe41ac93	-0.18913488
211	0xbe2aae1c	-0.1666798
212	0x3cdd4c0d	0.027013803
213	0x3e2a0c33	0.16606216
214	0xbe2b7712	-0.1674464
215	0x3d1adb0f	0.037806567
216	0xbe4156da	-0.18880787
217	0xbd4699b3	-0.048486423
218	0xbd915e16	-0.070980236
219	0xbe020924	-0.126988
220	0xbd38b304	-0.045092598
221	0x3e4f1ab5	0.20225032
222	0x3dec3dbb	0.11535212
223	0x3be23faf	0.0069045643
224	0xbdd7aa85	-0.10530571
225	0xbd176fa5	-0.036971707
226	0x3e52cf0b	0.20586793
227	0x3e028e1d	0.12749524
228	0x3c87ddf9	0.016585337
229	0xbde4b7f6	-0.111679
230	0xbe0ba236	-0.13636097
231	0x3d9cdfd1	0.07659877
232	0x3ce49e4c	0.027907513
233	0x3de76ea0	0.11300397
234	0xbe2cdc69	-0.16880955
235	0xbe683517	-0.22676502
236	0xbe0b2eb4	-0.13592035
237	0x3e566c7b	0.2093982
238	0x3e4b8d1b	0.19878046
239	0x3e1b1783	0.15145688
240	0xbdb907ac	-0.090346664
241	0xbd5d4cf6	-0.054028474
242	0xbdfdd80d	-0.12394724
243	0xbd4dd00c	-0.050247237
244	0xbda86bd3	-0.08223691
245	0xbe044599	-0.12917174
246	0xbe2aa7cf	-0.16665576
247	0x3e2de586	0.16982087
248	0xbe416721	-0.18886997
249	0xbe2fb2a8	-0.17157996
250	0x3da50bd5	0.080588974
251	0x3e60b65d	0.21944566
252	0x3dec3d4e	0.115351304
253	0xbcab96d4	-0.020945944
254	0xbe446ef5	-0.19182952
255	0xbe438d6e	-0.1909692

convs.1.nn.3.bias f4 [16]
0	0x3d19620e	0.037447028
1	0x3d157462	0.036487944
2	0xbe68118e	-0.22662947
3	0x3dc1a8ba	0.0945601
4	0xbe737028	-0.23773253
5	0xbda29888	-0.07939249
6	0xbe523185	-0.20526703
7	0xbe0bdad3	-0.13657694
8	0x3dc4eab7	0.09615081
9	0xbe536d1e	-0.20647094
10	0x3d2649d9	0.04059777
11	0x3e052f5e	0.1300635
12	0xbe5bac3d	-0.21452422
13	0xbe2b101c	-0.16705364
14	0x3b73b33d	0.0037185692
15	0x3e566486	0.20936784

convs.1.nn.4.weight f4 [16]
0	0x3f819a27	1.0125169
1	0x3f7d58c6	0.9896358
2	0x3f7f7d99	0.9980102
3	0x3f812945	1.009072
4	0x3f80338a	1.0015728
5	0x3f7d2940	0.9889107
6	0x3f81104a	1.0083096
7	0x3f7fad6d	0.99874
8	0x3f80b5e3	1.0055507
9	0x3f7f3797	0.996942
10	0x3f7f1965	0.99648124
11	0x3f7feeec	0.9997394
12	0x3f7ff4d7	0.9998297
13	0x3f7e9b5f	0.9945583
14	0x3f7efdc8	0.9960599
15	0x3f814b5e	1.0101125

convs.1.nn.4.bias f4 [16]
0	0x3c4f0993	0.01263656
1	0xbc2ffb58	-0.010741077
2	0xbb2bd31f	-0.0026218367
3	0x3c1fce04	0.009753708
4	0x3a82b3b3	0.0009971767
5	0xbc346b4f	-0.0110119125
6	0x3c12df55	0.008964379
7	0xba58e560	-0.00082739256
8	0x3bb1d84b	0.0054273955
9	0xbb54321c	-0.00323785
10	0xbb796034	-0.0038051726
11	0xba849a7d	-0.0010116842
12	0xb91e3ba9	-0.0001509028
13	0xbbb9e04b	-0.0056724898
14	0xbb25478f	-0.0025219654
15	0x3c25c415	0.01011755

convs.1.nn.4.running_mean f4 [16]
0	0xbb0195cd	-0.0019773126
1	0x3ef66efd	0.48131552
2	0xbe229cb1	-0.15880086
3	0x3d264ec5	0.040602464
4	0xbf193c16	-0.5985731
5	0x3e6e8734	0.23293763
6	0x3e806e93	0.2508436
7	0xbdb84b4b	-0.08998736
8	0x3eb17826	0.34661978
9	0x3c92ec92	0.017935071
10	0x3e0e9b8b	0.13926522
11	0x3c30e284	0.010796193
12	0xbee2c555	-0.44291177
13	0xbed9034f	-0.42385337
14	0x3dd27f73	0.10278215
15	0xbe5b127c	-0.2139377

convs.1.nn.4.running_var f4 [16]
0	0x3dfdebb2	0.12398471
1	0x3da6f1cf	0.0815159
2	0x3d0c980c	0.03432469
3	0x3ca05c73	0.019575333
4	0x3deb74e0	0.114969015
5	0x3d94a7f9	0.07258601
6	0x3d83af91	0.06429971
7	0x3dda70db	0.10666057
8	0x3d193865	0.037407298
9	0x3c082d6b	0.00831161
10	0x3d2b76d9	0.04186139
11	0x3d3c81f1	0.04602236
12	0x3dc57ce1	0.096429594
13	0x3db9a064	0.09063795
14	0x3cdf87a4	0.027286358
15	0x3d839fba	0.0642695
