experiments/results/SHRIROOK/runs/2026-02-05T17:13:45-gin-shrirook/seed_9/best_weights.pt (torch, 119371 bytes, 180 tensors)

conv1.nn.0.weight f4 [16, 1]
000000 08 c6 15 be e6 5a a7 bd 92 0e 54 bf ef 95 12 bf
       -0.14626324 -0.081716344 -0.8283473 -0.5726003
000010 4b fc 29 be cd b1 29 3f 33 b4 dc 3e 2f f8 c3 3c
       -0.16600148 0.6628693 0.4310623 0.023922054
000020 6c 18 6e bf f7 44 d6 be 0a 7c 46 bf d2 81 b0 bd
       -0.93006015 -0.4184949 -0.7753302 -0.08618511
000030 61 10 3c 3f 62 95 97 3e 72 fe 59 3f 04 06 63 3d
       0.7346249 0.29606158 0.8515388 0.05542566

conv1.nn.0.bias f4 [16]
000000 72 0c 15 bf 68 a8 23 bf 86 7f 19 3f e4 a3 7c bf
       -0.58222115 -0.6392884 0.5996021 -0.9868758
000010 f2 0a 18 3f 20 cb 16 be 0c cf dd 3e dd 01 44 bf
       0.593917 -0.14725924 0.43322027 -0.76565343
000020 00 a4 d9 3d 80 93 4b 3e b8 d5 70 3e da 9c 63 3f
       0.10626984 0.19880486 0.23519027 0.8891121
000030 64 e9 7c 3f 6f 27 fd 3e a0 34 d5 3e 24 36 df be
       0.98793626 0.49444148 0.41641712 -0.43595994

conv1.nn.1.weight f4 [16]
000000 f8 7c 7f 3f 3b 78 80 3f db 49 7f 3f f3 56 7f 3f
       0.9980006 1.0036691 0.9972207 0.9974205
000010 e2 29 80 3f 8d 89 7f 3f 0d 83 80 3f 29 49 80 3f
       1.0012782 0.9981926 1.0039994 1.0022327
000020 44 35 7f 3f 6f 44 80 3f 59 77 80 3f 13 f2 7e 3f
       0.9969065 1.0020884 1.0036422 0.99588126
000030 a6 6b 80 3f 17 35 7f 3f 04 64 80 3f 18 e9 7e 3f
       1.0032852 0.99690384 1.0030522 0.9957442

conv1.nn.1.bias f4 [16]
000000 e6 2f 2b bb e4 36 7d 3b 6d bd 63 bb b4 48 47 bb
       -0.002612108 0.0038637454 -0.0034750358 -0.0030408325
000010 8e 19 67 3a ce 3a 7e ba 6e bf 72 3b 3e f6 a3 3a
       0.00088157586 -0.00096980936 0.003704037 0.0012509299
000020 0e 55 62 bb 94 56 47 3b 00 e2 60 3b 9b 98 84 bb
       -0.003453556 0.0030416595 0.0034314394 -0.0040465123
000030 18 c5 10 3b 6a 3f 14 bb ad 00 31 3b 76 ad 85 bb
       0.0022090133 -0.0022620806 0.002700846 -0.004079516

conv1.nn.1.running_mean f4 [16]
000000 c5 f9 df bf 93 53 a5 bf d9 69 c0 c0 b8 d9 b1 c0
       -1.7498099 -1.291613 -6.012921 -5.557827
000010 6f 32 3b bf 04 9e a4 40 7f f4 77 40 c4 1e 13 bf
       -0.7312383 5.144289 3.8742979 -0.5746882
000020 c4 2e ea c0 b2 15 49 c0 02 88 be c0 dd f0 4d 3e
       -7.3182087 -3.1419492 -5.9541025 0.20111413
000030 f7 45 db 40 dc e6 36 40 ae d9 e6 40 8d b7 d4 3b
       6.8522906 2.8578405 7.214072 0.0064916075

conv1.nn.1.running_var f4 [16]
000000 68 89 a8 3c 59 6d d2 3b 53 ed 28 3f 45 70 a1 3e
       0.020573333 0.0064217267 0.6598713 0.31530967
000010 19 18 d9 3c 06 5a d8 3e 02 fc 36 3e b6 44 10 3a
       0.026500748 0.42256182 0.17869571 0.0005503403
000020 92 f5 54 3f 6e 78 2c 3e cc fe 13 3f 4f 12 ea 3b
       0.8318721 0.16842815 0.57810664 0.007143296
000030 10 dd 04 3f 7c a2 ac 3d b5 84 32 3f 18 9d 41 3b
       0.51899815 0.08429429 0.69733745 0.0029543098

conv1.nn.3.weight f4 [16, 16]
000000 20 5f 4d 3e 6b aa 01 3e f9 28 51 3e 32 12 3d bd
       0.20055819 0.12662666 0.20425786 -0.04615993
000010 62 9d d2 3d 72 2f 31 be 01 03 56 3e ed be 7a 3e
       0.10283925 -0.17303255 0.20899583 0.24486895
000020 98 49 85 3d 1e c6 3a be 5c ba f2 bd 29 83 47 be
       0.065081775 -0.18239638 -0.118519515 -0.19483627
000030 36 bf 1d 3e 5c 4c 72 be ee 68 d8 bd 51 0f a9 bd
       0.15404972 -0.23661941 -0.10566889 -0.082548745
000040 50 5a 3a 3c c9 07 3b be 2b 17 d2 bd bb 44 ce 3d
       0.011374071 -0.18264689 -0.10258325 0.10071703
000050 1c 2a fe 3d a0 02 d2 bd 52 30 87 bd 50 8e c8 bb
       0.124103755 -0.10254407 -0.06601013 -0.0061204806
000060 88 d9 f2 3d d7 1c 07 bd 73 4c e0 3b 35 49 f0 bb
       0.11857897 -0.03298649 0.006845051 -0.0073329457
000070 4e a1 2a 3e 21 ca 43 be 4f 02 5e 3e 3e 31 21 3d
       0.16663095 -0.19120075 0.21680568 0.0393536
000080 ce 6b 14 be 66 27 b3 bd 6f e6 36 3e 18 43 6e be
       -0.14494249 -0.08747749 0.17861341 -0.23267782
000090 2f 8c a5 bc b9 69 53 3d bb b7 ba bd 1d ce 94 bd
       -0.020208446 0.051614497 -0.09117075 -0.072658755
0000a0 b1 26 c8 3d 10 e0 61 be 74 97 31 3e 38 58 ca bd
       0.09773005 -0.2205813 0.17342931 -0.09880108
0000b0 88 cb 61 3e 46 80 45 be 95 03 33 be e0 1f 00 3d
       0.22050297 -0.19287214 -0.17481835 0.0312804
0000c0 0c 65 51 3d 8d 04 38 3e d3 39 46 be 71 4c f0 bd
       0.051121756 0.17970486 -0.19357996 -0.1173333
0000d0 db 50 0c be 78 b6 54 3e 3b 32 76 be af 78 68 3e
       -0.13702719 0.20772731 -0.24042599 0.22702287
0000e0 67 0b 62 3e 53 62 2c 3e 72 a7 25 3e df 67 16 3d
       0.22074662 0.16834383 0.16177157 0.036720153
0000f0 ef 3d b8 bd b5 cf 2e 3e 8d 98 84 3d 12 55 d5 bb
       -0.08996188 0.17071421 0.06474409 -0.0065103853
000100 35 59 16 3e 50 ce 24 be 1f c0 72 3e 29 6f 22 3e
       0.14682467 -0.16094327 0.23706101 0.15862717
000110 cd 3c 45 b9 18 56 a4 bd 45 13 5a 3e 29 6f 20 3e
       -0.00018810034 -0.080242336 0.21296413 0.15667404
000120 99 6d 20 3e b8 de 70 be f4 12 a0 bd 80 2e 1c 3e
       0.15666808 -0.2352246 -0.07816115 0.15252113
000130 56 c6 7b 3e 1c 6c 10 be da da ed 3d 25 ad 55 be
       0.24587378 -0.1410374 0.11614008 -0.2086683
000140 56 ac cf bd c9 cd 48 ba ee 22 73 3e 16 06 5a 3e
       -0.10140292 -0.0007660059 0.23743793 0.21291384
000150 fc 8c c4 bd 29 c8 7f be 45 d4 2a be 69 9e b1 bd
       -0.09597203 -0.24978699 -0.16682537 -0.086727925
000160 c3 81 c5 bd eb 58 5f 3c 37 08 51 be 37 9b c5 39
       -0.09643891 0.01363204 -0.2041329 0.00037690412
000170 b9 77 d9 bd e5 e7 03 be 5d e9 f6 3d 49 19 19 3c
       -0.106185384 -0.1288143 0.12056229 0.009344407
000180 60 16 79 3e e1 90 72 3d 2e f9 25 bd dc 90 f4 bd
       0.24324942 0.0592202 -0.04052084 -0.11941692
000190 57 11 02 be 10 6b db 3c dd 00 00 3e 4b 1a 5a be
       -0.12701927 0.02678445 0.1250033 -0.21299092
0001a0 e3 94 0f 3e 4b e9 e7 3c ec 59 42 bd 8b 63 de bd
       0.1402164 0.028309485 -0.047449037 -0.1085883
0001b0 72 2d 2b be 29 e5 fa 39 e0 84 55 3e 91 76 27 be
       -0.16716555 0.00047854453 0.20851469 -0.16353823
0001c0 1a 87 0d bc 91 73 24 3e dc 5c 11 be a1 d1 9f 3d
       -0.008638168 0.1605971 -0.1419558 0.078036554
0001d0 3f 31 6b 3e 67 ba ac 3c 3f 4d 0d be 05 9b c5 bc
       0.22968005 0.021084977 -0.13798998 -0.02412177
0001e0 14 d5 64 be 57 ac 24 3e 16 18 4f be 3c 14 09 3e
       -0.22346908 0.16081367 -0.20224032 0.13386625
0001f0 4f a7 66 be 34 2b 59 bd 8a 7a 02 3e 47 44 fa 3d
       -0.2252476 -0.053019717 0.12742057 0.12220054
000200 91 30 b9 bd 2f 99 81 bc 67 2d 59 bd 3d c0 0f 3e
       -0.090424664 -0.015820114 -0.053021815 0.14038177
000210 fd b9 00 3e 82 19 5c 3e 3b d9 bc bd 1c 42 25 3d
       0.12570949 0.21494105 -0.09221121 0.04034625
000220 b8 a0 27 bd 22 a8 37 bd e6 92 5a 3e 9b ee a8 bc
       -0.040924758 -0.04483808 0.213451 -0.020621588
000230 ce 63 6f 3e e7 de 1e bd 49 5e 72 be f0 4a 66 be
       0.23377916 -0.038786795 -0.2366878 -0.22489524
000240 e9 df fb bb 57 f9 07 3e ca 23 bd 3c f4 73 6e 3d
       -0.0076866043 0.1327871 0.023088355 0.05821605
000250 6a 1e bf bd 1a 3e b8 3d 0c 2e e1 bd 32 64 16 bd
       -0.09331973 0.0899622 -0.10995111 -0.036716647
000260 5e 36 ac bd 1b 2a 49 be 1e dd 2b 3e cf 74 67 be
       -0.08408807 -0.19644968 0.16783568 -0.22603153
000270 2d b6 e7 3c 52 eb 8c bd 8a 95 36 3e 31 60 24 3d
       0.02828511 -0.06880821 0.17830482 0.040130798
000280 a7 e2 b8 3d 95 9e ca bd 0c 24 ca 3d 55 39 93 3c
       0.090276055 -0.09893528 0.09870157 0.017971674
000290 87 71 4f 3d d4 99 fe 3d ee 72 b2 3c 8c 6c 14 be
       0.050645377 0.12431684 0.021783318 -0.14494532
0002a0 dc 95 36 3c 22 5e 48 bd 49 33 4c be 90 34 05 3d
       0.011144128 -0.048917897 -0.19941439 0.03252083
0002b0 4c 88 31 be 1b d0 e8 3c 5d f6 a6 3d 7d be 62 be
       -0.1733715 0.028419545 0.08152459 -0.22142978
0002c0 af 87 ac bd e8 5c 5c 3d 89 66 3f bc 8e b1 78 3e
       -0.08424317 0.05379954 -0.011682161 0.24286482
0002d0 b8 05 a9 3d e4 8d 79 3b c0 bd 3f be fa 84 54 3d
       0.08253044 0.0038078958 -0.18724728 0.05188463
0002e0 9a 33 39 be 76 c6 06 3e 23 a7 e6 3c 66 20 54 be
       -0.1808609 0.13161644 0.028155869 -0.20715484
0002f0 f5 af 90 bd 9a 41 32 be 0c 71 c0 bd 4c fc 31 3e
       -0.07064811 -0.17407838 -0.09396562 0.173814
000300 35 78 57 bd 58 af 22 be 22 c3 d6 3d 7d aa 2d 3e
       -0.052604873 -0.15887201 0.104864374 0.16959567
000310 0b 61 b2 3d 7b 97 eb bd a2 7e 67 be 4f f4 3c be
       0.08709916 -0.11503502 -0.226069 -0.18452571
000320 ac fa 55 bc 91 cb 2b 3d 01 a3 69 be 9b d9 f7 3d
       -0.013060253 0.041942183 -0.22816087 0.12102052
000330 8f 4f 81 3d 73 64 5e be 97 cc 17 3e d5 13 20 3e
       0.06314003 -0.21718006 0.14824139 0.15632565
000340 9e 22 39 3b 4f f4 b4 3d 54 ca 7d be d3 d2 7f 3e
       0.0028249393 0.08835661 -0.24784213 0.24982767
000350 d5 0d 3e 3e a7 fd 0e 3e 4b 1a 40 3e 40 51 e1 bb
       0.18559964 0.13963948 0.1876003 -0.006876141
000360 63 3d 64 3e 38 7f 41 3e 7c 0a a6 bd 39 9f 2a 3e
       0.22289042 0.18896186 -0.081074685 0.16662301
000370 f5 5c 40 be 92 a2 08 3d cf 80 1e be 19 a5 57 be
       -0.1878546 0.033358164 -0.15478824 -0.21059074
000380 1c ce d5 3d 24 4d 43 be 53 f6 c5 bd 30 18 66 3e
       0.10439703 -0.19072396 -0.09666123 0.22470164
000390 d3 31 e7 bd 2c 54 88 bd 43 bb 38 bc 9d c5 c4 3d
       -0.112888 -0.066566795 -0.011275115 0.09608004
0003a0 02 d7 d1 3d 9a e0 63 3d 6c 85 3a be 6f cf 17 3e
       0.102460876 0.05563412 -0.18214959 0.14825223
0003b0 8e df 64 3d 5c ca fa 3c 68 ae 59 3e 61 41 af 3d
       0.05587726 0.03061407 0.21257937 0.08557392
0003c0 1f cb d0 bc 4f d7 3f 3d e4 8b 07 bd f2 84 2e be
       -0.02548748 0.046836194 -0.033092394 -0.17042902
0003d0 ff 72 7f 3d b6 32 94 3d 81 7a 02 3e e1 a3 be bd
       0.06236553 0.07236235 0.12742044 -0.09308601
0003e0 46 4e e6 3d b7 8e 74 3d 5f a2 3f be 46 73 be bd
       0.11245398 0.059706416 -0.18714283 -0.092993304
0003f0 95 97 7b be 21 7e b9 bd e0 e8 0d be ca 2f 04 be
       -0.24569543 -0.0905726 -0.13858366 -0.12908855

conv1.nn.3.bias f4 [16]
000000 65 ea e7 3d 1c 23 4a 3e d3 c5 f6 3c 46 b5 40 3e
       0.11324004 0.19739956 0.030123627 0.1881915
000010 89 44 00 3d 58 57 0c 3e 41 d5 83 bc 05 d6 6e bd
       0.03131536 0.13705194 -0.016092898 -0.058309574
000020 9d 21 5a 3e e3 80 32 bd 48 34 f1 bd ba 9d 85 3d
       0.21301885 -0.043579947 -0.1177755 0.065242246
000030 79 7c 0c 3d ac 8c ee 3d 44 51 76 be e6 3a a3 bc
       0.034298394 0.11647925 -0.24054438 -0.019925546

conv1.nn.4.weight f4 [16]
000000 24 11 81 3f 6d 4e 7f 3f e8 60 7d 3f 45 4b 81 3f
       1.0083356 0.99729043 0.9897599 1.0101095
000010 d2 8f 7d 3f fe de 80 3f c3 19 7f 3f 5a e5 7e 3f
       0.9904758 1.0068052 0.99648684 0.9956871
000020 49 81 80 3f 25 36 81 3f 01 09 7e 3f 38 4e 7e 3f
       1.0039455 1.0094649 0.9923249 0.993381
000030 35 7f 80 3f ad 7f 7e 3f c5 b4 80 3f f1 66 7d 3f
       1.003882 0.9941357 1.0055166 0.989852

conv1.nn.4.bias f4 [16]
000000 a8 9d 05 3c 98 ea 48 bb 81 be 2a bc 44 a3 23 3c
       0.008155264 -0.0030657407 -0.010421396 0.009987656
000010 2a 6f 19 bc 3e d1 e2 3b 29 d3 6d bb d7 fe 93 bb
       -0.0093648825 0.0069219163 -0.0036289191 -0.0045164633
000020 09 c3 87 3b df 5e 21 3c b2 23 f7 bb cb 22 dc bb
       0.004143123 0.009849279 -0.007542097 -0.006718015
000030 10 3f 77 3b d5 ea c4 bb 70 5c ad 3b 06 46 23 bc
       0.0037726797 -0.0060094395 0.0052905604 -0.009965425

conv1.nn.4.running_mean f4 [16]
000000 34 c2 48 3e 3c 25 79 3e af 73 82 be 80 28 08 3f
       0.19605333 0.2433061 -0.25478885 0.531868
000010 40 8f b9 3e be 35 37 be aa 8b b8 bd ec 17 4e bd
       0.36242104 -0.17891595 -0.09011014 -0.050315782
000020 c6 6b 89 3e 19 a3 be bd a3 5a 8f be 18 9e 58 bd
       0.26840037 -0.09308452 -0.27998838 -0.052885145
000030 e6 2d ee bd 5e 18 cc 3e 32 e3 a4 bc a2 81 bf be
       -0.11629848 0.3986234 -0.020127866 -0.3740359

conv1.nn.4.running_var f4 [16]
000000 d2 52 aa 3b 20 8e 8c 39 07 95 de 3b 95 ad a9 3b
       0.005197861 0.00026808772 0.006792668 0.0051781633
000010 d2 a6 aa 3b ae e7 b5 3d 8f 91 37 3c 80 19 05 3d
       0.005207875 0.0888208 0.0112041375 0.03249502
000020 ed 88 ce 3c ab 61 f1 3c 84 31 79 3c e0 40 09 3d
       0.025211776 0.029465517 0.015209559 0.033509135
000030 da ec 50 3d 4c 62 71 3e 2c cf 0f 3d 66 ca cd 3c
       0.05100713 0.23572654 0.035109684 0.025120925

convs.0.nn.0.weight f4 [16, 16]
000000 63 d7 7e be a7 98 1d 3d 6b 58 43 3e 2f 74 01 be
       -0.24886851 0.03847566 0.19076698 -0.12641977
000010 00 f0 7d 3e be 2f ae 3d b5 92 07 3e 40 20 21 be
       0.24798584 0.085052 0.13239558 -0.15734959
000020 fb 29 39 be ae 4d 69 be f7 92 6f be b2 37 11 be
       -0.1808242 -0.22783539 -0.23395906 -0.14181402
000030 8b 1c 3f 3e 97 7e 2a be 06 0f 1d be 62 1a f9 bd
       0.18663232 -0.16649853 -0.15337762 -0.12163235
000040 68 ee 76 bd 7d a7 1c be 71 96 55 3e 8d 3b 9c bd
       -0.060285956 -0.15298267 0.2085817 -0.07628546
000050 c4 1b a6 3d 7c b0 da 3c a1 76 0a be d7 88 7f 3e
       0.081107646 0.026695482 -0.13521816 0.24954544
000060 e0 ef f7 bd d1 ea 4f 3d 68 c9 19 be f0 84 2d 3d
       -0.121062994 0.050761048 -0.15018237 0.042363107
000070 b9 1c 00 be 46 04 5e 3e 7e 82 1d be d8 0f f7 3d
       -0.12510957 0.21681318 -0.1538181 0.12063569
000080 17 2b 47 3e 9c 60 1c be bc 3c 85 bd 4c 40 9a 3d
       0.19450031 -0.15271229 -0.06505725 0.07531795
000090 9d 47 67 3e 8d 69 27 bc a9 42 1f be 3f 19 54 3e
       0.22585912 -0.010218036 -0.15552773 0.20712756
0000a0 b3 fc 53 3e fd 6a 26 be 93 94 57 3e f9 21 69 be
       0.20701866 -0.1625175 0.2105277 -0.22766866
0000b0 eb 64 70 be 75 7d e7 3c 19 08 38 3e 95 d5 4e 3c
       -0.23475997 0.028258065 0.17971839 0.012624164
0000c0 32 b3 da 3d 2e 67 6f 3e bc 08 17 3e 43 7d 50 3e
       0.1067871 0.23379204 0.14749426 0.20360284
0000d0 95 c7 79 3c 3e 94 93 bd bb e9 7a 3e 72 ed c9 3d
       0.015245338 -0.07206009 0.24503224 0.09859742
0000e0 78 e5 22 be 20 a3 29 3e 96 18 7d be 10 34 d7 bd
       -0.15907848 0.16566133 -0.2471641 -0.10507977
0000f0 d5 24 eb bd ad a9 9b 3d a3 5a 14 be 0d 26 21 3e
       -0.114816345 0.076007225 -0.144877 0.15737171
000100 c7 30 b2 bd 4e 84 e8 3c 3c 69 f6 bc fe 08 d9 bd
       -0.0870071 0.0283834 -0.030079477 -0.10597418
000110 c6 c1 a9 3d f3 4a 74 bc a5 e5 b5 3d 28 da 76 be
       0.082889125 -0.014910447 0.08881692 -0.24106658
000120 ce 05 c9 3d dc 3a 0c 3e 2e a2 52 be 85 74 90 3d
       0.0981556 0.13694328 -0.20569679 0.07053474
000130 da 69 eb 3d 97 bd 66 3e 74 c0 9c 3d ff 50 c6 bd
       0.11494799 0.2253326 0.07653895 -0.096834175
000140 92 3a cf bd 75 c4 97 bd 4a 50 5e be 27 13 a3 bd
       -0.10118593 -0.07410518 -0.21710315 -0.079626374
000150 ff 01 21 3e 8e 93 ee 3d e8 95 67 3e 86 15 56 3e
       0.15723418 0.116492376 0.22615778 0.20906648
000160 c8 bc 79 be 7a d6 11 bd 38 3c 0a 3e 77 fe c9 bd
       -0.2438842 -0.03560493 0.13499534 -0.098629884
000170 e0 4c 53 3e 19 29 b9 3d 90 9d 6c 3e 88 ab 10 be
       0.20634794 0.09041042 0.2310698 -0.14127934
000180 ed 95 17 be 16 23 00 be 5e c1 eb 3d 96 34 8d 3d
       -0.14803286 -0.12513384 0.11511491 0.068947956
000190 c8 91 b5 3d cf fd 29 3e 52 a9 5c bc 38 75 44 3e
       0.08865696 0.16600727 -0.0134681035 0.1918534
0001a0 06 ad 64 bd af de 4a be 01 0e 99 3d af 92 71 be
       -0.05582907 -0.1981151 0.07473374 -0.23591112
0001b0 ad ca 2c be 43 ca 9d bd c7 6d 30 be 17 f1 8f 3d
       -0.1687419 -0.07704594 -0.17229377 0.07028406
0001c0 aa 8d 1f be 6f 07 be bd 3b 5f 51 3d ee 1d 11 be
       -0.15581384 -0.092787616 0.05111621 -0.14171574
0001d0 a6 39 9c bd 78 ca 02 3e ea 58 20 3e 24 c2 5f be
       -0.07628183 0.12772548 0.15658918 -0.21851403
0001e0 8d f7 1f bc 27 ab cf bd f0 f8 35 be e9 4a 85 bc
       -0.009763611 -0.101400666 -0.17770743 -0.016271072
0001f0 a5 48 dc bd 2a a9 42 be 79 53 28 3a 8a 12 3c be
       -0.10756043 -0.19009843 0.000642113 -0.18366447
000200 8f 09 ca 3c 28 a2 c4 bd 14 e4 d6 bd 2c 89 89 3d
       0.024662761 -0.09601241 -0.10492721 0.067156166
000210 a8 af fd bd 64 74 47 3e 78 91 55 3e 3c 3e 18 3d
       -0.123870194 0.19477993 0.20856273 0.037168726
000220 c8 06 af 3d a0 25 3f be 35 e3 39 bd 7f d1 8a 3c
       0.08546215 -0.18666697 -0.045382697 0.016945599
000230 c8 3e cd 3d c8 dd 91 3d 34 b4 e9 bd a1 5f 88 bc
       0.1002174 0.071223795 -0.11411324 -0.016647162
000240 f1 28 1f bc cf ab ec bd ed 3a 19 3e af f0 c6 bd
       -0.009714351 -0.115562074 0.14963885 -0.097138755
000250 06 f2 79 3e 5d 33 d9 3d 16 4f 60 3d 66 6f 10 3d
       0.24408731 0.106055 0.054762922 0.035262488
000260 3a 45 33 bd df ba 6e be 9a 17 3c be e1 8f aa 3d
       -0.04376719 -0.23313473 -0.18368378 0.08328224
000270 41 1b f7 3d 06 2f 4a 3e 27 31 0a be df e2 09 3d
       0.12065745 0.197445 -0.13495313 0.033663627
000280 29 29 46 bd 17 54 ab 3d 44 f7 75 be d2 dc 7d be
       -0.048379097 0.08365648 -0.24020106 -0.24791268
000290 84 f9 3b 3e f0 b7 de 3b 1a 7b 6e be 4d 81 0c be
       0.18356901 0.0067968294 -0.23289147 -0.137212
0002a0 84 52 36 3e 1f a9 71 3e 6d a4 79 3c 93 18 8b bc
       0.17804915 0.23599671 0.015236956 -0.016979491
0002b0 5b 4b af 3d a5 30 1a bd af ec 54 bd 8c 10 4e 3e
       0.08559295 -0.037644047 -0.05198353 0.201235
0002c0 94 12 23 be 18 b4 44 3e b0 69 89 3d 80 6f fb 3c
       -0.15925056 0.19209325 0.067096114 0.030692816
0002d0 66 7c 34 3e 90 fc b4 bd 0c f3 52 be 0c a5 a2 bd
       0.17625579 -0.08837235 -0.20600528 -0.079416364
0002e0 e8 07 01 be 6c f5 81 bd 4e dc 5d be 9c 70 c6 3d
       -0.12600672 -0.06345639 -0.21666071 0.09689447
0002f0 ac f8 ca bd 08 12 6d be 8c 8a 34 3e 90 4d f7 bd
       -0.09910712 -0.2315141 0.17630976 -0.12075341
000300 d5 7b 5f be 82 1f 2a bd 08 de 2c be ba 4d 4c 3e
       -0.21824582 -0.041533954 -0.16881573 0.19951525
000310 2c c7 97 3d b5 37 88 3d 19 5f c4 3d 1d ec 1f 3c
       0.07411036 0.0665125 0.09588451 0.009760884
000320 fd 67 6e 3b 46 ae 7d be 1d 0b 0c 3e b5 f9 16 3e
       0.00363779 -0.24773511 0.13676114 0.14743693
000330 6f 50 cc bd ad eb 2f 3e f6 8e 2b 3b bf 67 3d 3d
       -0.09976279 0.17179747 0.002617774 0.046241518
000340 f2 ce d9 bc 44 2e 62 be 14 cc 96 ba 54 91 c0 3d
       -0.026587937 -0.22087961 -0.0011504912 0.09402719
000350 af a3 7d be 2d 9b 78 3e 58 dd ba bd ec 3a 33 be
       -0.24769472 0.24277945 -0.09124249 -0.17502946
000360 b7 d8 1f 3e ac c7 65 3e 64 f7 cd bc 6e de 14 be
       0.15610014 0.2243945 -0.02514238 -0.14537975
000370 a3 7d 4d be cc 04 00 be 9d f8 d0 bd 4a 17 2e bc
       -0.20067458 -0.1250183 -0.10203669 -0.01062567
000380 ad 70 7a 3c ab be ba 3b a9 d9 e4 bd 5f a8 a6 3d
       0.015285653 0.005698999 -0.11174328 0.08137583
000390 c2 06 09 bd 0b d8 ec 3d 87 94 7b be 6c 16 2f 3e
       -0.03345371 0.115646444 -0.24568377 0.17098397
0003a0 86 ea a2 bd 6f 63 ee bd 96 fc 5b 3e 79 ce 11 bd
       -0.07954888 -0.11640059 0.21483073 -0.0355973
0003b0 d3 d7 31 be a1 3a b9 bd f2 59 65 3e 49 b2 9f bd
       -0.17367487 -0.09044386 0.22397593 -0.07797677
0003c0 e9 fc 21 3e 3a b8 1a 3c 32 bd c7 3d 86 dc 2a 3e
       0.15819134 0.009443337 0.09752883 0.16685686
0003d0 49 b4 35 be eb 5b 82 3d 47 3d b8 bd 52 89 e9 bd
       -0.17744555 0.06365188 -0.08996063 -0.11403145
0003e0 1f 4e 7e 3e 43 d1 8e bd 88 01 94 bd d8 c3 9b bd
       0.24834488 -0.06973507 -0.072268546 -0.076057136
0003f0 3c 74 43 3d 7d 68 ae bd 32 e7 71 be 81 bc cc bd
       0.04771827 -0.08516023 -0.2362335 -0.09996892

convs.0.nn.0.bias f4 [16]
000000 2c c6 3a bd fa f6 1c 3e e8 c7 7e 3e d2 53 69 3e
       -0.045599148 0.15328589 0.24880946 0.22785881
000010 24 21 c1 bd 40 e9 09 3d 60 93 d6 bd 3e 05 07 be
       -0.09430149 0.03366971 -0.10477328 -0.13185593
000020 12 4f 58 be e0 02 bf bd cd d3 f6 3d 8c c9 0c 3e
       -0.21123913 -0.0932672 0.120521165 0.13748759
000030 ae 48 55 3e f9 77 dc bc c8 a1 0b be 4c 15 bb 3d
       0.20828506 -0.026912676 -0.13635933 0.091349214

convs.0.nn.1.weight f4 [16]
000000 e8 5e 7f 3f 92 d6 7e 3f 2a 42 81 3f 83 ff 7d 3f
       0.9975419 0.9954616 1.0098317 0.99218005
000010 91 b1 7c 3f 48 2b 81 3f da 27 80 3f 5a 33 81 3f
       0.98708445 1.0091333 1.0012162 1.0093796
000020 86 96 7f 3f f3 a4 7d 3f bc ec 7e 3f 0c e7 7f 3f
       0.99839056 0.9907982 0.9957998 0.99961925
000030 1d f2 7d 3f 8d d6 80 3f 21 d4 7f 3f 64 cf 7f 3f
       0.9919756 1.0065476 0.9993306 0.9992583

convs.0.nn.1.bias f4 [16]
000000 4a 50 40 bb 5c 6e 91 bb 90 2d 1c 3c 95 9f 07 bc
       -0.002934473 -0.0044382047 0.009532347 -0.008277793
000010 76 2c 5b bc ed 2d 13 3c f5 ae 95 3a 9b 4c 1e 3c
       -0.0133772995 0.0089831175 0.0011419939 0.009661819
000020 0c 3a d3 ba bf 2e 12 bc eb 30 8c bb d7 b7 45 b9
       -0.0016115322 -0.008922278 -0.0042782924 -0.0001885587
000030 79 f3 02 bc 3e 19 dd 3b 65 bc 19 ba 03 88 3c ba
       -0.007992619 0.006747394 -0.000586456 -0.0007191898

convs.0.nn.1.running_mean f4 [16]
000000 28 7e 4b c0 10 4c 19 3e d0 69 a3 3f a3 09 22 40
       -3.179575 0.14970422 1.2766666 2.5318382
000010 d4 b7 2a 3f 9c 9e b0 3f e3 a6 f8 bf f6 a4 82 c0
       0.6668675 1.3798404 -1.942593 -4.082637
000020 da 30 8e be 55 a8 9c 3e 24 08 12 3e 66 fa de bf
       -0.27771646 0.30597177 0.14260918 -1.7420166
000030 02 b4 af 3e 40 36 13 c0 58 ff 13 bf fb 2c 6b bf
       0.34317023 -2.3001862 -0.578115 -0.9186551

convs.0.nn.1.running_var f4 [16]
000000 91 2b 4e 40 78 93 7f 3f 2f 7f 9d 40 9b d3 54 40
       3.221409 0.99834394 4.9217753 3.3254154
000010 18 ee a3 3f 66 06 77 40 bf a4 f8 3f 0c bd d8 40
       1.2807035 3.8597655 1.9425277 6.773077
000020 c3 d8 98 41 80 55 25 41 32 9f 19 3f 3c 2c ec 41
       19.10584 10.333374 0.6000854 29.521599
000030 c2 78 45 41 ca 36 4b 40 ca 0a 34 3f 13 f2 a2 3f
       12.341982 3.175219 0.7032896 1.2730125

convs.0.nn.3.weight f4 [16, 16]
000000 1e 9c 94 3d bb b7 29 3e 5c b8 c2 bd 82 22 11 3e
       0.072563395 0.16573994 -0.0950782 0.1417332
000010 00 93 96 bd fa 89 19 3e f5 76 1c be c0 99 3c bd
       -0.07352257 0.1499404 -0.15279754 -0.046045065
000020 c9 69 4c be 23 ba 22 3e 86 ed 39 be 12 ba 2e be
       -0.19962229 0.15891318 -0.18157014 -0.17063168
000030 fa 31 d6 3d d5 ab 1e bd ba c8 31 be f9 f6 a1 bd
       0.10458751 -0.03873809 -0.17361727 -0.079084344
000040 68 dc cf 3d 94 4b 00 3e 1c b8 47 be 59 f8 2d 3e
       0.10149461 0.12528831 -0.19503826 0.16989268
000050 2b 80 6d be 6f d4 11 be 41 e3 32 ba bc 9f 59 3e
       -0.23193423 -0.14241193 -0.00068240246 0.2125234
000060 61 d2 b2 bc 73 3e 0f 3d b6 31 2e 3d 82 cc f0 3c
       -0.021828832 0.034971666 0.042527877 0.029394392
000070 00 9d 55 be 0c 86 d9 3d 3e f1 0b 3e 7f 1a da 3d
       -0.20860672 0.106212705 0.13666245 0.10649585
000080 38 48 13 3e 1d 9c a7 3b 30 99 30 be 40 1a 90 3d
       0.14383018 0.0051150457 -0.17245936 0.07036257
000090 e9 8a 5e be a2 8e 0c 3e d1 f1 6f bc 7a 97 d0 3d
       -0.21732678 0.13726285 -0.014645056 0.10185142
0000a0 04 fe cc bd 83 77 4c 3e c1 83 8a 3d fd a5 13 be
       -0.10009387 0.19967465 0.06763411 -0.14418788
0000b0 2e 4a 90 3c e1 84 1c be c7 00 bb bd b5 dc 74 3e
       0.017613497 -0.15285064 -0.09131008 0.23912318
0000c0 c7 05 30 be 65 4b d5 bd 7c b6 19 3e 93 7b c8 bd
       -0.17189704 -0.10414771 0.15011019 -0.09789195
0000d0 17 36 40 3e bb e3 f1 bd 98 8e 98 3d bb a2 80 be
       0.18770634 -0.11811014 0.074490726 -0.25124153
0000e0 28 37 5f 3e 92 02 d8 3c 5b d5 8a 3d b4 19 0d 3e
       0.21798384 0.026368413 0.067789756 0.13779336
0000f0 10 59 72 be 9f d0 dc bd 3f 6e e1 bd 86 82 28 bd
       -0.23666787 -0.10781979 -0.11007356 -0.0411401
000100 f3 13 fa bd f1 79 ff bd b5 58 ad bd d7 97 05 be
       -0.12210836 -0.1247443 -0.08464185 -0.13046204
000110 60 78 5b 3e 65 a2 90 3d 8a c1 e0 3d 06 dc 00 be
       0.21432638 0.07062224 0.10974415 -0.12583932
000120 83 ef 3f bd 50 60 b2 3d 37 cf 89 bc c6 61 68 bd
       -0.046859276 0.087097764 -0.01682244 -0.05673387
000130 df 84 e7 bd 77 d1 f9 bd 92 26 bd 3d 55 3e 88 bc
       -0.1130464 -0.121981554 0.09235872 -0.016631285
000140 9a 2f 58 bd 82 87 a5 3d c8 4e 6f be a9 24 b6 bd
       -0.05277977 0.08082487 -0.23369896 -0.08893711
000150 31 d1 94 bd 73 40 48 be 61 19 78 be 2b f0 63 3e
       -0.072664626 -0.19555835 -0.24228431 0.22259586
000160 32 f1 35 3e 32 5b 4f 3e b9 26 36 be 67 c5 41 3c
       0.1776779 0.20249632 -0.17788209 0.01182685
000170 f0 b8 2a 3e 77 81 5d 3e 5c f7 31 be c6 07 d5 bd
       0.1667211 0.21631418 -0.17379516 -0.10401873
000180 d1 ee 3b 3e ee e2 c6 bc 83 f8 0c be 4c 7d 3c 3e
       0.1835282 -0.02427813 -0.13766675 0.18407172
000190 2f b9 32 be 2a 87 6a 3d 36 f8 63 3e f3 d0 ab bb
       -0.17453454 0.05725781 0.22262654 -0.0052434145
0001a0 2f bf 6c 3e 7b 38 c7 bd 2f ad 05 be 01 95 56 be
       0.23119806 -0.0972757 -0.13054346 -0.20955278
0001b0 c9 b0 bc bd d6 53 3a be ca 6b c8 bd 2e 37 06 be
       -0.092134066 -0.18196043 -0.09786184 -0.13106987
0001c0 d4 bc ca bc b0 61 9d bd 45 c7 4c be cc d2 53 be
       -0.024748243 -0.07684648 -0.1999789 -0.20685881
0001d0 c0 f2 00 3e 8f 00 77 be 66 cd 65 3e a4 81 7d 3e
       0.12592602 -0.24121307 0.22441635 0.24756485
0001e0 ff 5c ef bd 5a e7 3c be 30 a2 fd 3d 66 b5 2d be
       -0.116876595 -0.18447629 0.123844504 -0.1696373
0001f0 ab 7c 4e 3d e8 41 dd 3d 39 84 3f 3d bf a8 9a 3c
       0.05041186 0.10803586 0.046756957 0.018879293
000200 34 ae c8 3d 5f 5a 5e be ca dc a4 3c 2a 68 75 bd
       0.097988516 -0.21714161 0.020124812 -0.05991379
000210 79 5f 87 3c 5f 51 b0 3c ea 85 2b 3d 0c 03 29 be
       0.016525017 0.021523176 0.041875757 -0.16505069
000220 52 3c a3 3a 89 6f 4f 3e 85 27 79 3e 54 66 f2 bd
       0.001245389 0.20257391 0.24331482 -0.11835924
000230 c8 2c 2d 3e 7c 78 e2 3c 85 f5 20 3e 9e 44 eb 3d
       0.16911614 0.027645342 0.15718658 0.11487697
000240 6b 31 cd 3d cc 6a 6b be 5f ff 33 3e 13 fb 86 3d
       0.10019191 -0.22989959 0.17577885 0.06590857
000250 ed 1d 49 3e eb e7 69 be c3 d9 fa 3d 5a c9 25 be
       0.19640322 -0.22842376 0.12248566 -0.16190091
000260 2b 93 5e 3c f8 1f e7 bd 3f 14 5b bd e6 d1 77 bd
       0.013584892 -0.112853944 -0.053486105 -0.06050291
000270 5f 18 12 3e 1a 29 a3 bd 5b 31 0a 3e f8 b4 28 3e
       0.1426711 -0.07966824 0.1349539 0.16475284
000280 83 6a 55 3e 8e 0f 0e be ac 13 36 3e 1b 33 bc 3d
       0.20841412 -0.13873121 0.17780942 0.09189435
000290 47 b4 59 3e 85 ac 56 3c 16 f6 11 be 6f a0 43 be
       0.21260177 0.013102655 -0.1425403 -0.1910417
0002a0 ac fc 6b 3e a2 fd f0 3d e3 19 a1 3d 7b 68 13 3e
       0.23045605 0.117671266 0.078662656 0.14395325
0002b0 26 7b 1a 3e 52 59 64 be ea 75 1f be 23 6f fe bd
       0.1508604 -0.22299698 -0.15572324 -0.124235414
0002c0 03 f5 49 be 02 04 31 3d c8 61 21 be f7 d0 60 bc
       -0.19722371 0.043216713 -0.15759957 -0.013721696
0002d0 1b 1f 0f 3d 5b 2f 3a bd 34 03 1e be 25 eb 5a 3e
       0.034941774 -0.045455318 -0.1543091 0.21378763
0002e0 8c a2 3e bd 4a 69 16 3d 94 9c a3 bd a4 75 82 3d
       -0.046541736 0.036721505 -0.07988849 0.063700944
0002f0 ef cb e2 3c a1 41 79 3e 33 d1 41 3e 65 88 cc bd
       0.027685134 0.24341442 0.1892746 -0.09986953
000300 c3 65 67 bc bf 1f a9 3d 76 8b 6e 3e 90 ed 36 3e
       -0.014123383 0.08258008 0.23295388 0.1786406
000310 40 b5 10 3e 23 e3 ae 3d ad b1 5c be 6f d0 0e be
       0.14131641 0.08539417 -0.21552153 -0.13946699
000320 1f 4f 3b 3e 85 c0 69 be 99 68 16 be 15 64 71 bd
       0.18291901 -0.22827347 -0.14688338 -0.058933336
000330 a0 1b 23 bb cd 94 ea 3c 8c 9c 6d be c4 45 04 be
       -0.0024888292 0.028635407 -0.23204249 -0.12917238
000340 e7 11 0c 3d ce 20 9e bd 9a 0a 65 3e ee a7 68 3e
       0.03419676 -0.07721101 0.22367325 0.2272031
000350 6f ac b7 3c 46 56 f2 3c d3 2b 06 3e db 7b 73 be
       0.02242109 0.029582154 0.13102655 -0.23777716
000360 f3 bf 32 bc 9b 3f 18 bd 04 6b 96 bd 45 8f 08 3e
       -0.010910022 -0.037170034 -0.0734463 0.13335903
000370 16 69 8b 3d 68 96 f6 3d 89 83 78 3e e7 fa 06 bc
       0.06807153 0.120404065 0.24268927 -0.008238531
000380 f1 7e 66 be 04 e1 bf 3d 09 af bd bd bc 33 4b be
       -0.22509362 0.0936909 -0.09261901 -0.19843954
000390 1d 4a 2e be 26 83 0b 3e 92 55 19 be a0 3f 0d 3d
       -0.1702046 0.13624248 -0.14974049 0.034484506
0003a0 c7 7f 01 be ef 16 58 3e c5 70 b7 bd ef ab 6a 3e
       -0.126464 0.21102498 -0.08957056 0.2291715
0003b0 8c f7 fd 3d 58 19 1f be 4e 05 9f bd f3 c7 66 3e
       0.124007314 -0.15537012 -0.07764684 0.22537212
0003c0 5b ad b4 3d 98 42 3c be 75 b5 10 3d 6e f2 35 be
       0.088221274 -0.18384778 0.0353293 -0.17768261
0003d0 97 31 07 be c8 8f 0e 3e 1b 25 30 3e 3c 9a 3a be
       -0.13202511 0.13922036 0.17201655 -0.18222898
0003e0 a7 c6 41 3d 77 ff 75 be c2 56 45 be 2e 52 be 3d
       0.04730859 -0.24023233 -0.19271377 0.09293018
0003f0 87 02 9e bb 51 82 3b 3e 0d d8 e5 3d 6a b1 06 bb
       -0.0048220786 0.1831143 0.11222849 -0.0020552524

convs.0.nn.3.bias f4 [16]
000000 6e 15 8b 3d 8b da a5 3d 93 27 18 be 7e 5a 53 be
       0.06791197 0.080983244 -0.14858846 -0.20639989
000010 89 51 1d 3e 91 cf 31 be 40 08 70 be 3a 86 e0 3d
       0.15363134 -0.17364337 -0.23440647 0.10963102
000020 27 53 60 3e d9 72 f3 bd 7f ff a2 bc 67 40 65 bc
       0.2190672 -0.1188714 -0.01989722 -0.0139924055
000030 3f c8 fd bd 22 1e 16 3d 06 a9 38 be 01 61 01 3c
       -0.123917095 0.03664983 -0.18033227 0.007896663

convs.0.nn.4.weight f4 [16]
000000 5f 5a 81 3f a0 9f 80 3f 24 43 7e 3f 0d e1 81 3f
       1.0105704 1.0048714 0.993212 1.0146805
000010 25 e6 7c 3f 28 a5 7c 3f 04 06 7f 3f 6d 84 81 3f
       0.9878867 0.9868951 0.99618554 1.0118538
000020 f0 b0 80 3f 59 76 7c 3f d1 ad 81 3f 85 40 7c 3f
       1.0053997 0.98618084 1.013117 0.9853595
000030 d2 16 82 3f 5d 9e 7e 3f 0d 51 7d 3f 48 0d 80 3f
       1.0163214 0.99460393 0.989518 1.0004053

convs.0.nn.4.bias f4 [16]
000000 b7 aa 3e 3c 88 bb 96 3b 0d e2 bf bb 54 8b 6c 3c
       0.011637381 0.004599992 -0.005855805 0.014437515
000010 d6 1a 4d bc 1b 07 67 bc 58 6c 75 bb 89 8e 4c 3c
       -0.012518605 -0.014100815 -0.003744861 0.012485155
000020 0e 5b b1 3b b1 d7 60 bc d3 72 54 3c f0 9e 6e bc
       0.005412466 -0.0137233 0.012966829 -0.014564261
000030 3c b0 83 3c 11 df ba bb 66 64 19 bc 77 2a 68 39
       0.016075246 -0.005702861 -0.009362316 0.00022141064

convs.0.nn.4.running_mean f4 [16]
000000 87 46 0e be 00 5a 59 3e 54 12 d8 bd ac 3f c9 be
       -0.13894092 0.21225739 -0.10550371 -0.3930639
000010 f2 c1 1a bd 63 b7 9b be aa ce dc be af 6f c5 bc
       -0.037782617 -0.3041335 -0.43126422 -0.024101106
000020 e6 9b f8 3e 32 52 fa bc 17 0d 45 3e 3c 41 83 3c
       0.4855644 -0.030556772 0.19243275 0.016022317
000030 23 dc 73 be 63 c4 d7 3e 88 b9 95 be c6 4e d6 bd
       -0.23814444 0.4214202 -0.29243112 -0.104642436

convs.0.nn.4.running_var f4 [16]
000000 f5 d7 50 3d e5 ae 21 3e af 96 c0 3d d6 92 2d 3d
       0.050987203 0.15789373 0.094037406 0.04237636
000010 a2 d4 2a 3c e7 e8 f6 3d a8 59 41 3d f9 fb 41 3e
       0.010426672 0.12056141 0.047204643 0.18943776
000020 af 5a 25 3d fd a9 43 3c 15 58 8c 3d c2 d6 31 3e
       0.040369686 0.011942384 0.06852738 0.1736708
000030 26 39 10 3d e8 a4 82 3d 0a 0e 54 3e 8e 74 f3 3b
       0.03521075 0.063791096 0.2070848 0.007429666

convs.1.nn.0.weight f4 [16, 16]
000000 4e a8 6c 3e f8 42 4d 3e 32 c0 74 be 1a e3 5d be
       0.23111078 0.20045078 -0.23901442 -0.21668664
000010 bc 84 10 be 72 8d 10 3e 4c ab 7d be 24 56 20 3e
       -0.14113134 0.14116457 -0.24772376 0.1565786
000020 9c 5c 60 be 00 76 2e be 7b 8c ed bd 7a 91 7c 3e
       -0.21910328 -0.17037201 -0.1159906 0.2466487
000030 e1 3b 26 be 47 2c 10 be 1c fa 41 be c2 84 44 bc
       -0.1623378 -0.1407939 -0.18943065 -0.011994543
000040 1d 62 48 be 8e 93 b1 3d d5 ef 6d bc 31 34 55 be
       -0.19568677 0.08670722 -0.014522512 -0.2082069
000050 8f 57 f8 bd 6f 89 c9 3c 29 a6 c5 3d 25 30 cf 3d
       -0.121260755 0.024601666 0.09650833 0.10116605
000060 d1 3b ea bd bb 47 2b be db cd 75 bd 1c 29 33 3e
       -0.1143719 -0.16726582 -0.060010772 0.1749615
000070 a3 ff 1b be c4 cb bb 3d d2 c1 0c be 62 da 54 bd
       -0.15234236 0.091697246 -0.13745812 -0.05196608
000080 c0 5a 2e 3e 44 8a 6f bd bd ac 28 be 73 55 7e 3e
       0.17026806 -0.05848147 -0.16472144 0.24837284
000090 f0 b3 67 3e 3b 0c 06 be 62 a4 46 3e d3 32 1f be
       0.22627234 -0.13090603 0.19398645 -0.15546732
0000a0 f3 9f de bd ce 7a 53 bc 71 71 2f 3e 6d ce 85 3d
       -0.10870352 -0.012907697 0.17133118 0.06533513
0000b0 87 c0 94 3d 42 4a 94 bd 93 c6 1c bd a6 a0 16 be
       0.07263284 -0.07240726 -0.038275313 -0.1470972
0000c0 27 dd 35 3e 75 20 34 be 91 78 2f 3e 20 85 28 3e
       0.17760144 -0.17590506 0.17135836 0.16457033
0000d0 76 5e 65 3c fc c8 5e 3e 47 31 0f be 92 8a 72 be
       0.013999572 0.21756357 -0.13983642 -0.23685673
0000e0 f6 bf 90 3d 3e dd 3f be f8 0e 33 3e 87 2b 1f 3e
       0.07067864 -0.18736741 0.17486179 0.15543948
0000f0 b9 b3 51 3e 1e 75 b0 bd fb 15 ca 3d c1 e8 1f bd
       0.20478715 -0.08616088 0.09867474 -0.03904033
000100 16 36 93 3d 22 a4 f0 bc 48 66 6a be 91 7f 2d be
       0.071880504 -0.02937514 -0.2289058 -0.16943194
000110 ff 28 86 bd ee 48 a5 bb b2 15 1f 3c 3f fb d7 bc
       -0.06550788 -0.0050440943 0.009709762 -0.02636492
000120 83 67 55 bd f1 80 37 3e d5 c3 74 be dc 0a f3 3c
       -0.05210067 0.17920281 -0.23902829 0.029668264
000130 1b 12 26 3e 8c 1d 5f 3e 54 4b 3d 3e ba 1b 10 be
       0.16217844 0.21788615 0.18485767 -0.14073077
000140 a8 99 16 be ba f0 ff bd 63 a2 2d 3d a0 83 74 3e
       -0.14707053 -0.12497087 0.042391192 0.23878336
000150 7a ba 51 3d 72 f2 02 3e 57 52 0d be ea 1a 3a 3e
       0.05120323 0.12787798 -0.13800941 0.1817433
000160 72 06 40 be f8 5a 4c be 1d ba 8d 3d 81 3f cb 3d
       -0.18752459 -0.19956577 0.06920264 0.09924222
000170 e4 5f 29 3e 91 67 31 3d 50 4a 57 bd d7 3f 62 3e
       0.16540486 0.04331166 -0.052561104 0.22094665
000180 10 38 35 3d 06 e4 c8 3b 42 46 0c 3e 06 0f d5 bd
       0.04424292 0.006130698 0.13698676 -0.10403256
000190 b2 c7 d7 bb b3 38 b0 3d 3a 45 57 bd 49 80 1c be
       -0.006585085 0.086045645 -0.052556254 -0.15283312
0001a0 86 85 3c 3e 28 87 55 3e 75 e0 77 be c2 7e fc 3d
       0.1841031 0.2085234 -0.24206717 0.12328865
0001b0 33 33 53 3e 43 bd 2e 3e d6 31 71 be 26 ad f0 3c
       0.20625 0.17064385 -0.23554167 0.029379439
0001c0 9d ee 13 be 01 90 db bc f1 78 e4 bd f0 68 c4 ba
       -0.14446492 -0.026802065 -0.1115588 -0.0014984887
0001d0 94 a3 73 3e 8a 00 ed bd 14 b0 fb 3d ba 9f 5a be
       0.23792869 -0.115723684 0.122894436 -0.21349993
0001e0 69 50 7c 3e 5a 65 8f 3d 3a b2 65 be 0d 68 ef 3c
       0.24640049 0.07001753 -0.2243127 0.02922442
0001f0 74 6b 1b 3e d7 42 dc bc 80 31 68 be b4 72 72 3e
       0.15177709 -0.02688734 -0.22675133 0.23676568
000200 61 f1 9a 3d 71 1b b7 bc a7 a9 e3 3d 4a 25 64 be
       0.075655706 -0.022351952 0.11116343 -0.2227985
000210 e8 97 e6 3c 9a 1f 48 3d 7a f8 1f 3e 32 ad 18 be
       0.028148606 0.048858263 0.1562213 -0.14909819
000220 7a 50 6f 3e 1e fc 1d be 7f 0e ad bd 69 3d 3d bc
       0.23370543 -0.15428206 -0.084500305 -0.011550286
000230 8d 09 79 be 0a 3c c0 bd 04 7c 1c 3e 09 8c 02 be
       -0.2432005 -0.093864515 0.15281683 -0.12748732
000240 44 50 4e be 6f d5 39 bd 97 f4 93 bd 73 b1 d8 bd
       -0.20147806 -0.04536956 -0.07224386 -0.10580721
000250 e4 6d df bc 29 2e 61 3e fd 61 11 be 47 fb 7b bd
       -0.02727408 0.21990265 -0.14197536 -0.061518934
000260 1e d7 31 3e 52 25 ed bc c2 05 00 be ae f7 b1 bc
       0.17367217 -0.02894846 -0.12502196 -0.021724548
000270 44 f7 44 be ff fb 17 be fa 2b 0f 3e 47 a9 52 3d
       -0.1923495 -0.14842223 0.1398162 0.051430967
000280 5b ad 1b be c3 d5 7b be ca 07 7e 3e 7c 26 ca 3d
       -0.15202849 -0.24593262 0.24807659 0.098706216
000290 7a 12 97 3c 8e a8 4f be 1f f5 7c be 04 7e 75 3e
       0.018441427 -0.20279142 -0.24702881 0.23973852
0002a0 28 66 39 3e 6a 48 52 be 4c b0 31 3d 8e 0c 87 bd
       0.18105376 -0.20535436 0.04338102 -0.065941915
0002b0 84 c7 77 bd a0 60 d0 3d c4 3e 71 3e de e6 8b 3d
       -0.060493007 0.1017468 0.235591 0.06831144
0002c0 a9 a7 c7 3c 74 33 8f 3d 2f 64 76 be a0 79 42 bd
       0.024371939 0.06992236 -0.24061655 -0.047479272
0002d0 de 39 71 3b ff ba ce 3d 44 d3 75 3e 4f 76 2c 3e
       0.0036808173 0.100942604 0.24006373 0.16842006
0002e0 81 2e 50 3e 8b 03 1b 3e 94 bf b5 3c 4c d1 19 3d
       0.2033024 0.1513807 0.022186078 0.037553117
0002f0 9f 46 2c 3e fc be 1e be a2 21 16 be bd 98 3e bd
       0.16823815 -0.15502542 -0.14661267 -0.04653238
000300 3c 17 28 be 62 83 42 3d 54 aa 7b 3e 15 df 3a 3e
       -0.16415113 0.047488578 0.24576694 0.18249162
000310 24 fc 40 bd cb 09 e7 3c d9 c7 7c be 7e 53 d5 3d
       -0.04711546 0.028202912 -0.24685611 0.104163155
000320 89 48 40 3e 20 d3 9f 3d a5 ff 5c 3e fd 89 8a bc
       0.1877767 0.07803941 0.21581896 -0.016911501
000330 02 22 75 be e9 01 a6 bd 44 a0 f2 bd 6c 54 7c be
       -0.23938754 -0.08105833 -0.118469745 -0.2464158
000340 b5 16 da bd ef f7 2e 3e 3a 6a 82 be a5 94 47 3e
       -0.10648862 0.17086767 -0.2547167 0.19490297
000350 a7 ea 9e bb 38 82 1c 3e e4 87 02 be 70 25 52 be
       -0.00484975 0.1528405 -0.1274715 -0.20522094
000360 f4 6c 78 be c0 49 64 be 42 1d 35 3e e7 40 14 be
       -0.24260312 -0.22293758 0.17686942 -0.14477883
000370 32 7f 65 3e 8e 24 c1 3d 55 7f bc 3d d0 4f 30 be
       0.22411802 0.094308004 0.09203974 -0.17217946
000380 1a 7c e8 3d 7f 6b 46 be d9 fb 67 bd 62 a3 2b 3e
       0.113517955 -0.19376944 -0.056636665 0.16761544
000390 de 8b 5a 3e fa 17 ec 3d 0a 10 58 bd 48 25 40 bb
       0.21342418 0.11528011 -0.05274967 -0.0029319096
0003a0 3f 75 9e 3d 3f 72 75 be 90 57 79 3e 82 52 0e 3e
       0.07737207 -0.23969363 0.24349809 0.13898662
0003b0 f0 1a 2a 3e 74 9a 9b bd eb f5 33 bb ac d0 21 3c
       0.16611838 -0.07597819 -0.002745981 0.009876411
0003c0 b1 6d de 3d 07 90 db 3b e2 4f 67 bb fc 32 1d 3e
       0.10860766 0.006700519 -0.0035295417 0.1535148
0003d0 56 f8 de 3d de 11 a6 bd 8c d1 41 3e 05 ab 55 3e
       0.1088721 -0.08108877 0.18927592 0.2086602
0003e0 45 9f 3a 3d 1d 5e 12 3e 55 8d b4 bd 9b 0e 2d 3e
       0.045562048 0.14293714 -0.088160194 0.16900103
0003f0 c5 29 3d 3e e0 f6 aa 3d c8 da 7a bd a3 9b 47 3d
       0.18472965 0.08347869 -0.061243802 0.04873241

convs.1.nn.0.bias f4 [16]
000000 df 30 cb 3d c5 fc 6f 3e 4f 29 02 3e c4 4d f7 bd
       0.09921431 0.23436268 0.1271107 -0.120753795
000010 d8 16 1d 3e 26 6a 38 3d 7d ce 29 3e 98 9d 5d 3e
       0.15340745 0.045023106 0.16582675 0.21642148
000020 c6 ca 1c be 22 b9 1d be 31 35 ab bc 65 6f 5d 3e
       -0.15311727 -0.15402654 -0.020899387 0.21624525
000030 18 10 62 3d 5e f6 e7 3d 43 44 a7 3d 49 14 32 be
       0.05519113 0.11326288 0.08167317 -0.1739055

convs.1.nn.1.weight f4 [16]
000000 ee 18 80 3f cc 4d 7d 3f 24 35 7d 3f 98 4b 81 3f
       1.0007608 0.98946834 0.9890921 1.0101194
000010 03 41 80 3f 29 f2 81 3f d8 15 80 3f 81 9f 80 3f
       1.001984 1.0152026 1.0006666 1.0048677
000020 9c 73 81 3f 86 f5 81 3f 70 57 7d 3f e3 e3 7f 3f
       1.0113406 1.0153053 0.98961544 0.999571
000030 af c3 7d 3f e4 19 80 3f 6a 28 80 3f d5 59 7f 3f
       0.99126714 1.0007901 1.0012333 0.9974645

convs.1.nn.1.bias f4 [16]
000000 0e bf 5a 3a 3c ae 2b bc 99 22 32 bc 15 2d 27 3c
       0.00083445094 -0.010478552 -0.010872507 0.0102036195
000010 af aa d9 3a 31 0b 77 3c 1b 31 3b 3a 21 a7 9a 3b
       0.0016606654 0.015078352 0.0007140801 0.0047196303
000020 b3 0d 3a 3c 29 4a 78 3c 46 b6 2b bc 2a 79 e0 b9
       0.011355805 0.0151544 -0.010480469 -0.00042814884
000030 9b ca 23 bc a6 c6 55 3a f8 88 ac 3a d5 b7 25 bb
       -0.009997035 0.0008154906 0.0013163378 -0.0025286574

convs.1.nn.1.running_mean f4 [16]
000000 36 f2 2a c0 a3 68 ef bf 20 98 49 3f e3 08 d2 3f
       -2.6710334 -1.8703808 0.7874775 1.6408962
000010 3d 2e 86 bd 6e 84 d0 3f c6 b7 eb 3f 2f 93 00 3e
       -0.06551788 1.6290414 1.8415458 0.12556146
000020 5e f2 d1 bf 0c e7 14 c0 cd 66 83 bc ba c0 1d 40
       -1.640209 -2.326602 -0.01604023 2.464888
000030 f6 09 84 bd 55 da a8 bf e6 e4 08 40 e9 ec 90 40
       -0.064472124 -1.319163 2.1389709 4.5289197

convs.1.nn.1.running_var f4 [16]
000000 dd 18 3b 42 e8 b6 a3 41 b8 1a 80 41 44 15 85 41
       46.77428 20.46431 16.013046 16.635384
000010 00 3c e9 40 60 0c 1c 40 08 00 c6 40 6e b8 a8 40
       7.288574 2.4382553 6.187504 5.2725134
000020 68 23 12 41 16 8a 6c 40 c3 e6 f2 40 4f 0b cd 3f
       9.133644 3.695928 7.590669 1.6019076
000030 07 a1 36 40 a8 e7 98 3f f0 5c 5d 41 a8 ad 20 40
       2.8535783 1.1945696 13.83519 2.5105991

convs.1.nn.3.weight f4 [16, 16]
000000 a8 7c f0 bc b9 ee 28 be 73 b1 a9 3d 2e f6 60 bd
       -0.029356316 -0.16497315 0.08285799 -0.054922275
000010 44 77 f5 3c cd 84 19 be 79 ca 8a bc 0a 10 ab bd
       0.029964097 -0.14992066 -0.01694225 -0.083526686
000020 e7 41 db 3c bf c9 0c be 3e 0a 6e 3d 23 ee 4a be
       0.026764823 -0.13748835 0.058115236 -0.19817404
000030 5d 32 24 3e 50 b2 6b be 66 32 60 3e 20 5b 6e be
       0.16034837 -0.2301724 0.21894225 -0.23276949
000040 27 24 40 be ca 79 79 3e a9 10 60 be 4d 5f 04 3e
       -0.18763791 0.24362865 -0.21881355 0.1292698
000050 96 7e 12 be 06 5f 0a be 58 36 19 bd 77 87 23 3e
       -0.14306101 -0.13512811 -0.037405342 0.15969644
000060 60 16 57 bd ce ec 61 bd c0 42 3f be a5 12 11 3e
       -0.052511573 -0.055157475 -0.18677807 0.14167269
000070 b9 76 79 3e 16 b3 22 be 23 e6 95 3d f8 a8 2f be
       0.24361695 -0.15888628 0.07319286 -0.171543
000080 07 68 49 be 7f a1 8b bc 81 61 6a 3e 86 dc 03 3e
       -0.1966859 -0.01704478 0.22888757 0.12877092
000090 cf 20 38 be 2e 11 0b 3d 85 53 97 3d 63 9f 50 be
       -0.17981265 0.03395193 0.07388977 -0.20373301
0000a0 9d f8 c9 bd 70 7c 6e be 66 40 86 3c 6d 11 ad bc
       -0.09861872 -0.23289657 0.01638813 -0.021126473
0000b0 b4 1f 58 bd 5b 4f f1 bd 29 5c 22 be f9 3a f4 bd
       -0.05276461 -0.11782714 -0.15855469 -0.11925311
0000c0 32 e7 5d 3e 7b 74 6b be d1 02 df 3d 75 8e 58 3e
       0.21670225 -0.22993653 0.10889209 0.21148093
0000d0 b9 4a 3d 3e 16 6a 2a 3e 9a ca eb 3c e3 c7 01 3d
       0.18485536 0.16642031 0.028783131 0.031684767
0000e0 0b c8 23 be eb c7 83 bd 8d e1 2a be da 01 06 3e
       -0.15994279 -0.06434616 -0.16687603 0.13086644
0000f0 90 1d ac b9 28 02 f4 bd ef 6a 4c 3d 25 18 b9 bd
       -0.00032828422 -0.11914474 0.049906667 -0.09037808
000100 c2 29 0e 3e 65 f3 35 be fa 7d ff 3d 93 9c 3b 3e
       0.13883117 -0.17768629 0.124752 0.18321447
000110 9c 18 7c 3e 5b 8a 57 be 70 c3 b0 3c 49 f0 00 be
       0.24618763 -0.21048872 0.021577567 -0.12591662
000120 ba 80 e0 bd cc 69 29 be e2 f2 8f 3d e7 47 60 be
       -0.10962053 -0.16544265 0.07028748 -0.21902429
000130 84 f8 82 be f7 7e 1b be 34 83 40 be fd fa d1 bd
       -0.25580227 -0.15185152 -0.1880005 -0.1025295
000140 7b 7e d7 bd 0a 03 58 b9 7e 4d 19 bd c3 ae 43 3e
       -0.10522171 -0.00020600497 -0.037427418 0.19109635
000150 9a d0 4a be f8 b0 2a be 86 8d f7 bd ed 16 83 3e
       -0.19806138 -0.1666907 -0.1208754 0.25603428
000160 6a e8 54 bd 28 03 54 be f5 72 80 3d 34 c8 0c be
       -0.05197946 -0.20704329 0.06271926 -0.13748246
000170 61 61 19 3e 79 10 df 3d 7a 78 0a bd 62 55 06 3e
       0.14978553 0.10891814 -0.0338063 0.13118508
000180 f6 08 3c 3e 4d 09 96 bd 97 23 83 3d d5 5f 06 3e
       0.18362793 -0.07325993 0.064032726 0.13122495
000190 10 7b dd bd 31 ed 04 3e 12 00 84 3d dc d0 5e be
       -0.10814488 0.12981106 0.06445326 -0.21759361
0001a0 85 28 31 be 1c 04 d9 3c ef 05 3a 3c 91 42 95 ba
       -0.17300613 0.026491217 0.011353954 -0.0011387636
0001b0 41 2d 37 3d 14 63 00 be 70 82 67 be 3e b9 97 3d
       0.044720892 -0.12537795 -0.22608352 0.07408379
0001c0 db ed c0 3d 13 ef 54 be d9 5e 54 3e 53 36 10 be
       0.09420367 -0.20794325 0.20739307 -0.14083223
0001d0 d1 1b ae 3b cd 2d 12 bc ab 5d 64 be 37 bd 46 be
       0.0053133746 -0.008922053 -0.22301356 -0.19408117
0001e0 ed aa 37 3e ea 4c 08 3d de e2 46 3e b0 d9 81 be
       0.17936297 0.033276476 0.1942248 -0.25361395
0001f0 bc 43 8f 3d c0 1a 45 be bb 8f f3 3d ac 70 f4 3d
       0.06995341 -0.19248486 0.11892649 0.11935553
000200 e2 54 14 be 8b 92 68 3d ef 12 df bc 19 62 59 be
       -0.14485505 0.05678038 -0.027230708 -0.21228828
000210 92 17 c2 bd b0 05 80 be 82 1a 9e bc 49 18 d2 bd
       -0.09477152 -0.2500434 -0.01929975 -0.10258538
000220 32 af 50 3c af 99 0d 3e 13 90 1a be 20 39 0d bd
       0.012737082 0.13828157 -0.15094022 -0.034478307
000230 6f 53 49 be b9 a4 6d 3e 7a 9f 5a be 4c af 98 3d
       -0.19660734 0.23207368 -0.21349898 0.0745531
000240 cc 12 31 3e 52 6d 50 3e f5 37 63 3e 65 96 87 3d
       0.17292327 0.20354202 0.22189315 0.06620482
000250 f4 a6 36 be a2 ee d9 3c d2 95 f2 bc 0c 6c 6f 3e
       -0.17837125 0.026603047 -0.029612456 0.2338106
000260 78 cc f6 3d 59 02 3a 3d 47 c6 24 be 78 3d b5 3d
       0.12050718 0.045412395 -0.16091262 0.08849615
000270 59 3a 4f 3e d0 ef 95 3d 1c 40 3b 3e 08 93 42 3e
       0.20237102 0.07321131 0.18286175 0.190014
000280 46 5c 35 bd cf 01 58 3e f2 ce 65 3d bc dc 5f 3e
       -0.044277452 0.2109444 0.05610556 0.21861547
000290 1b ea cc bc eb 1d 46 3d c7 47 83 3c d2 13 33 be
       -0.025013974 0.048368376 0.016025437 -0.1748803
0002a0 60 cc 77 3e 15 a9 3c be 3f fc 72 be cc 1e 48 be
       0.24199057 -0.18423875 -0.23729037 -0.19542998
0002b0 b7 e4 1d be 95 cd c4 3d 48 66 59 3e ac 46 b4 bd
       -0.15419279 0.09609524 0.21230423 -0.08802542
0002c0 b3 79 cb 3c 2f 19 77 be 3e 2f ba 3d 0c 03 6b be
       0.024838304 -0.241307 0.09091042 -0.22950381
0002d0 de 84 7c be 33 ac ec 3d 45 2b 88 bc c3 a0 c0 bd
       -0.2466006 0.11556282 -0.016622195 -0.09405663
0002e0 4e 32 86 bd cb 42 c6 bd f3 fa 22 3d c3 8e 4d be
       -0.065525636 -0.096807085 0.039790105 -0.2007399
0002f0 58 a3 44 3d 93 1b 47 be 9d 96 14 be 4d ec c5 bd
       0.04800734 -0.19444112 -0.1451058 -0.096642114
000300 09 1d 32 be ae a5 4e be 19 48 8c 3d 7f 31 03 be
       -0.17393889 -0.2018039 0.06849689 -0.1281185
000310 89 93 1e be 8e 0a c1 bc 9f 54 8a bd 13 8d 86 bd
       -0.15485968 -0.023564603 -0.067544214 -0.065698765
000320 19 a3 53 be d1 5f 22 3e 7f 51 0b 3c 10 fe 3d be
       -0.20667686 0.15856864 0.008503317 -0.18553948
000330 46 91 e8 bc b8 cd e2 bd e9 6c 83 be e1 2f 21 3e
       -0.028389584 -0.11074394 -0.2566903 0.1574092
000340 94 c8 2e be e7 13 f9 bd 6d 17 37 3e 77 cd f8 3d
       -0.17068702 -0.12161999 0.1788003 0.12148564
000350 09 d1 d4 3b df 02 3b be 01 ed 6b be 73 76 19 be
       0.0064946455 -0.18262814 -0.23039629 -0.14986591
000360 75 62 1b bd b8 c6 fe 3d 6a 2f a9 bd bf 7d 55 3e
       -0.037935693 0.12440246 -0.08260997 0.2084875
000370 26 72 15 3e b3 2a 4e be e8 92 62 be 83 5d 64 be
       0.14594325 -0.20133476 -0.22126353 -0.22301297
000380 44 d3 c7 3d d4 05 c9 3d 91 5e d1 3d 64 55 2a be
       0.097570926 0.09815565 0.10223115 -0.16634136
000390 45 08 6f be 2e 96 ef 3c ae fa 3e 3e 04 38 b7 ba
       -0.23342998 0.029246416 0.18650314 -0.0013978486
0003a0 10 b2 78 be 4b a7 24 3d 1b 80 e4 bd d3 c5 b2 3c
       -0.24286675 0.040198606 -0.11157247 0.021822846
0003b0 c4 ef 3f 3d 6e 53 47 3e 92 8c 4a be 47 15 c5 bd
       0.046859518 0.1946542 -0.19780186 -0.09623199
0003c0 e4 b8 06 be 47 b3 30 be 3e 58 64 3e 3b 9c 3b 3d
       -0.13156468 -0.17255889 0.22299287 0.04580329
0003d0 6c 85 72 3e b8 ef c8 3d 90 69 a7 bc 5a b8 53 3e
       0.23683709 0.09811348 -0.020436078 0.20675793
0003e0 69 2c b9 3d 8f 4c 8c bd 20 75 da 3d 8d 35 b6 3d
       0.09041674 -0.0685054 0.10666871 0.08896933
0003f0 d6 2b 1d bc 88 34 0a 3e 36 5a 61 be 58 a4 29 3e
       -0.009592971 0.13496602 -0.22007069 0.16566598

convs.1.nn.3.bias f4 [16]
000000 06 0d 62 3e f6 51 0d 3e f8 8d 38 3d 8c ec fb 3d
       0.2207528 0.13800797 0.045057267 0.12300977
000010 8b 79 bc bd fc 72 22 3e 67 aa a6 bd 87 1e 97 3d
       -0.0920287 0.15864176 -0.081379704 0.073788695
000020 07 f7 b2 3d b4 24 aa 3d 40 59 b7 3c 78 a0 69 3b
       0.08738523 0.08307782 0.022381425 0.0035648625
000030 e6 ae 2c be 05 8b 6c 3b 25 72 c4 bc 64 c2 a6 3b
       -0.16863593 0.0036093604 -0.02398021 0.005089091

convs.1.nn.4.weight f4 [16]
000000 da 8d 80 3f 34 ec 7e 3f 5b de 7e 3f 41 4f 81 3f
       1.004329 0.9957917 0.9955804 1.0102311
000010 50 f5 7e 3f da 93 80 3f 10 e1 80 3f f9 de 7f 3f
       0.9959307 1.0045121 1.0068684 0.99949604
000020 16 1e 7e 3f 2a fd 7d 3f a9 69 7e 3f 0c f0 7d 3f
       0.9926466 0.9921442 0.99379975 0.9919441
000030 84 15 7f 3f ce a1 80 3f 08 c0 80 3f c6 31 7f 3f
       0.99642205 1.0049379 1.0058603 0.99685323

convs.1.nn.4.bias f4 [16]
000000 d7 82 8e 3b dc 35 a9 bb 69 bd 9e bb bc 9a 23 3c
       0.0043490934 -0.0051638912 -0.004844357 0.009985622
000010 77 4c 84 bb be e8 8b 3b 33 53 dc 3b 32 9e c5 b9
       -0.0040374356 0.0042696884 0.0067237853 -0.00037692633
000020 b8 76 01 bc e9 45 e9 bb 3d f2 c4 bb 02 38 08 bc
       -0.00790184 -0.0071189296 -0.0060103224 -0.008314135
000030 8b a4 85 bb f5 2f a4 3b f3 f7 b6 3b 9f d8 82 bb
       -0.004078453 0.0050105997 0.005583757 -0.0039931084

convs.1.nn.4.running_mean f4 [16]
000000 ab d3 0c be 66 6d 1d bd 80 e0 d1 be 29 a9 8c 3e
       -0.1375262 -0.03843441 -0.40991592 0.2747281
000010 8a c7 0b bf 43 ea 99 3d e6 45 35 be df ce d4 bc
       -0.5460135 0.07515385 -0.17702445 -0.02597755
000020 26 b9 bd be 16 df 4b 3f 2c d7 c5 3c fa be 23 bf
       -0.3705532 0.7963728 0.024150454 -0.6396328
000030 8a 32 43 bf fa 92 d0 be 62 18 12 be 65 41 c5 3e
       -0.7624899 -0.40737134 -0.14267114 0.38526455

convs.1.nn.4.running_var f4 [16]
000000 e5 30 46 3e 03 71 2a 3d cb 50 b5 3d 4b eb 1e 3d
       0.1935459 0.041611683 0.08853301 0.03879861
000010 cd 96 23 3d 72 40 4b 3e 52 4e f4 3c 4d 47 84 3e
       0.039938737 0.19848803 0.029822502 0.25835648
000020 0f ca 4e 3e fe 91 88 3d 85 b2 9b 3d 6e 23 e1 3d
       0.20194267 0.06668471 0.07602409 0.10993086
000030 cc 82 4b 3d a6 d2 c5 3d 8c 4f 6e 3e 70 87 34 3e
       0.049685284 0.096593186 0.23272532 0.1762979
