experiments/results/SHRIROOK/runs/2026-02-05T16:59:13-gin-shrirook/seed_1/best_weights.pt (torch, 119371 bytes, 180 tensors)

conv1.nn.0.weight f4 [16, 1]
-0.5941782 -0.39277494 0.6503904 -0.72083664 0.74618566 -0.67071855 -0.3194623 -0.54815304
0.9677048 -0.48830295 -0.55519414 -0.32467794 0.7545247 0.4072188 -0.11324453 -0.66526794
00000000: 101c 18bf cc19 c9be fc7f 263f c088 38bf
00000010: 0606 3f3f 36b4 2bbf 9090 a3be c253 0cbf
00000020: 80bb 773f d802 fabe 3421 0ebf 303c a6be
00000030: 8828 413f fc7e d03e c0ec e7bd 004f 2abf

conv1.nn.0.bias f4 [16]
0.6270176 0.46033347 -0.20969677 0.94877017 0.59616697 -0.17398953 0.9261004 0.28965938
-0.7429441 -0.401358 -0.97538936 -0.85504115 0.5212339 -0.023114681 -0.56926143 0.05348468
00000000: 3a84 203f d4b0 eb3e c0ba 56be 9ae2 723f
00000010: 669e 183f 502a 32be ea14 6d3f 3c4e 943e
00000020: 9631 3ebf cc7e cdbe 1eb3 79bf fae3 5abf
00000030: 966f 053f 005b bdbc 1ebb 11bf c012 5b3d

conv1.nn.1.weight f4 [16]
1.0 1.0 1.0 1.0 1.0 1.0 1.0 1.0
1.0 1.0 1.0 1.0 1.0 1.0 1.0 1.0
00000000: 0000 803f 0000 803f 0000 803f 0000 803f
00000010: 0000 803f 0000 803f 0000 803f 0000 803f
00000020: 0000 803f 0000 803f 0000 803f 0000 803f
00000030: 0000 803f 0000 803f 0000 803f 0000 803f

conv1.nn.1.bias f4 [16]
-1.6284332e-07 -1.8550777e-07 -1.7780809e-07 7.5860626e-08 -7.1536492e-09 -2.414342e-07 1.7599417e-07 9.8334134e-08
-8.515598e-08 4.3436025e-08 1.54374e-07 9.066165e-08 2.2105374e-07 -4.3022568e-09 9.855681e-08 -5.8275845e-08
00000000: 08da 2eb4 fd2f 47b4 84eb 3eb4 d2e8 a233
00000010: 2acc f5b1 779e 81b4 e9f8 3c34 c32b d333
00000020: ffde b6b3 6a8e 3a33 01c2 2534 c5b1 c233
00000030: ca5a 6d34 0dd3 93b1 2ea6 d333 f84a 7ab3

conv1.nn.1.running_mean f4 [16]
-4.101942 -2.6658363 4.965202 -4.7888155 6.530716 -5.5094385 -1.6182374 -4.0721173
6.958001 -4.2848873 -5.389337 -3.435453 6.5223575 3.2166352 -1.4684601 -5.239297
00000000: 1c43 83c0 109d 2ac0 efe2 9e40 fa3d 99c0
00000010: a0fb d040 524d b0c0 6722 cfbf c94e 82c0
00000020: f2a7 de40 cc1d 89c0 7375 acc0 76de 5bc0
00000030: 27b7 d040 5add 4d40 80f6 bbbf 52a8 a7c0

conv1.nn.1.running_var f4 [16]
0.34614953 0.15297128 0.41413993 0.5080173 0.544158 0.44023898 0.10222562 0.29505387
0.91312635 0.23476876 0.30260414 0.105490625 0.55631995 0.16420098 0.015506459 0.4331621
00000000: 833a b13e 81a4 1c3e 260a d43e 6c0d 023f
00000010: f04d 0b3f 0167 e13e aa5b d13d 4d11 973e
00000020: a6c2 693f 3967 703e eeee 9a3e 780b d83d
00000030: fc6a 0e3f 4d24 283e ce0e 7e3c 6cc7 dd3e

conv1.nn.3.weight f4 [16, 16]
-0.24231018 0.014631382 0.22801732 0.11052683 0.06280572 0.099371046 -0.13656278 0.16034143
-0.17343713 -0.04443492 -0.0977554 -0.0006645704 0.13198529 0.14129882 0.19209845 0.13172187
0.03570754 0.063252434 0.1985602 -0.017713098 0.13631256 0.107116625 0.025870116 0.10176726
0.23306565 -0.15553433 0.18702644 -0.030566214 -0.034343578 -0.20750503 0.06543936 0.09784271
0.05201507 0.03428218 0.15290704 0.22023895 -0.061498046 0.073422186 -0.2232075 0.062041435
-0.15599373 0.2170051 -0.11427117 -0.19806623 -0.085467026 0.08570813 0.07306855 -0.07148475
-0.13181552 -0.14564234 0.24358623 0.02969156 0.034297235 -0.24493048 0.21665162 0.10201647
0.18370156 0.057507478 0.22261438 0.07473784 -0.1899678 -0.046180688 0.09852617 -0.027724223
0.24310957 -0.22130533 -0.24863231 0.1933247 -0.12883556 -0.18401964 0.15606816 -0.21088599
0.012002492 -0.24475022 -0.19089688 0.039797563 -0.14103737 0.011474455 0.24076422 -0.13947926
-0.15521789 0.031718373 0.16169196 0.11414105 -0.16115534 0.08577123 -0.0791685 -0.17442983
0.009575218 0.2363421 0.1029329 -0.04589352 0.19370478 0.090218365 -0.22100276 -0.11593315
-0.17854151 0.051165402 -0.013221353 0.19968098 -0.18198484 0.1850811 -0.19308579 0.20241523
-0.084427625 0.05985278 -0.13484034 -0.07655108 -0.24443027 0.05158493 -0.057971627 -0.13973525
0.019027114 0.13171583 0.18672022 -0.24712113 0.026328743 0.16706812 0.00017899436 -0.039110422
-0.04773861 0.07922432 -0.13582855 -0.14134759 -0.0994415 0.20599857 -0.18348062 -0.022527128
-0.22493844 -0.15655152 -0.15397696 -0.12736897 -0.12061502 0.1879866 -0.20622273 0.051420875
-0.23528583 0.0072328914 0.08942467 0.23611258 -0.12731351 0.1646354 -0.24287705 0.07223788
-0.13692603 -0.09576714 0.06624332 -0.07668319 -0.11937517 0.06488788 -0.09382218 -0.05137968
0.2072278 0.040745616 0.14382872 0.2225604 0.08752525 0.23744068 -0.13179189 -0.07725814
-0.07914215 -0.018663704 0.24921465 -0.007972211 0.08431417 -0.07935172 0.09693742 0.210166
0.024925321 -0.004272876 -0.05429226 -0.13239834 0.11901918 -0.19566077 -0.035993993 -0.042745322
0.1542739 0.061154008 -0.058154374 -0.21702564 0.011293501 -0.19172117 0.13965034 -0.12983692
0.051603854 0.15470743 -0.24760586 0.039877176 0.14777005 0.034803063 -0.18571672 -0.1427362
0.19165215 0.023118794 -0.11134982 0.0961355 0.17049474 -0.13751593 -0.048722476 0.15411064
-0.04150802 0.0173226 -0.049921036 0.10024315 -0.22074562 -0.0023629665 0.17636484 0.22673973
-0.033759177 0.20337409 0.15826017 -0.07810637 -0.10474256 -0.093339086 -0.026948184 0.18333885
-0.00053616706 0.12920177 0.2230196 -0.10032526 0.021185607 0.025291473 -0.13316995 0.0865345
0.20803663 0.15658301 -0.21260941 -0.19852743 0.1879974 0.16736612 -0.014470518 -0.18957487
-0.17459768 0.2479769 -0.23881862 0.15616435 -0.047483027 0.16527084 -0.034771144 0.17116815
-0.21091546 0.054098174 0.09707697 0.24552907 0.20898664 -0.23410974 0.10681185 0.21199663
-0.054455966 0.02092447 -0.045633987 -0.14736931 -0.18252331 -0.14556947 0.028512409 -0.22506838
00000000: 2920 78be 77b8 6f3c 5f7d 693e e45b e23d
00000010: 49a0 803d 0c83 cb3d 1dd7 0bbe 8b30 243e
00000020: 8199 31be 6401 36bd fc33 c8bd 9136 2eba
00000030: 2727 073e a3b0 103e 75b5 443e 19e2 063e
00000040: 1242 123d 7e8a 813d 5d53 4b3e 0f1b 91bc
00000050: 8595 0b3e f65f db3d 91ed d33c 5a6b d03d
00000060: c3a8 6e3e 6444 1fbe dc83 3f3e ff65 fabc
00000070: daab 0cbd 337c 54be 1205 863d c261 c83d
00000080: c10d 553d 796b 0c3d aa93 1c3e 5286 613e
00000090: 60e5 7bbd 5f5e 963d 8290 64be 291f 7e3d
000000a0: d2bc 1fbe 9636 5e3e 0107 eabd e0d1 4abe
000000b0: 5609 afbd be87 af3d f7a4 953d 9966 92bd
000000c0: a6fa 06be 4423 15be ab6e 793e b73b f33c
000000d0: 427b 0c3d 0ecf 7abe ecd9 5d3e 03ee d03d
000000e0: 431c 3c3e f68c 6b3d 06f5 633e 2710 993d
000000f0: eb86 42be f627 3dbd 17c8 c93d e91d e3bc
00000100: b7f1 783e dd9d 62be 7899 7ebe e9f6 453e
00000110: 78ed 03be a56f 3cbe 55d0 1f3e 7ff2 57be
00000120: 1aa6 443c cd9f 7abe 797a 43be c502 233d
00000130: 1a6c 10be 5aff 3b3c e58a 763e a7d3 0ebe
00000140: 70f1 1ebe 20eb 013d 9492 253e c8c2 e93d
00000150: e805 25be d4a8 af3d 1823 a2bd bc9d 32be
00000160: 60e1 1c3c aa03 723e 7cce d23d d8fa 3bbd
00000170: 8c5a 463e 68c4 b83d 8c4e 62be 5c6e edbd
00000180: 96d3 36be d092 513d 609e 58bc 2c79 4c3e
00000190: 3c5a 3abe e685 3d3e 48b8 45be f045 4f3e
000001a0: 64e8 acbd 3028 753d 9613 0abe d0c6 9cbd
000001b0: ee4b 7abe b84a 533d a873 6dbd c216 0fbe
000001c0: c0de 9b3c 84e0 063e 9633 3f3e 520d 7dbe
000001d0: 60af d73c e813 2b3e 6fb0 3b39 4032 20bd
000001e0: 9089 43bd 5c40 a23d a416 0bbe 6cbd 10be
000001f0: fca7 cbbd 4af1 523e 58e2 3bbe d08a b8bc
00000200: 4356 66be 0b4f 20be 23ac 1dbe 036d 02be
00000210: 0205 f7bd 8f7f 403e 0d2c 53be b29e 523d
00000220: c5ee 70be e401 ed3b 4824 b73d 7fc7 713e
00000230: 795e 02be 2f96 283e c3b4 78be 74f1 933d
00000240: 5636 0cbe 9021 c4bd 94aa 873d 140c 9dbd
00000250: f87a f4bd f0e3 843d d825 c0bd 8073 52bd
00000260: 8633 543e e0e4 263d d647 133e e0e6 633e
00000270: 7040 b33d a623 733e 74f4 06be 8439 9ebd
00000280: 4815 a2bd a0e4 98bc 2032 7f3e e09d 02bc
00000290: e8ac ac3d 2883 a2bd 2087 c63d c235 573e
000002a0: 3030 cc3c 7b03 8cbb 9061 5ebd 6e93 07be
000002b0: 54c0 f33d 4c5b 48be 706e 13bd b815 2fbd
000002c0: faf9 1d3e a07c 7a3d 4833 6ebd f83b 5ebe
000002d0: 6008 393c 8e52 44be 8000 0f3e f8f3 04be
000002e0: 905e 533d a06b 1e3e 648c 7dbe 4056 233d
000002f0: 0851 173e a88d 0e3d 862c 3ebe 7029 12be
00000300: 7640 443e a063 bd3c 600b e4bd b0e2 c43d
00000310: 2c96 2e3e fad0 0cbe 3891 47bd 2ecf 1d3e
00000320: 5004 2abd 20e8 8d3c 007a 4cbd 484c cd3d
00000330: 240b 62be 00dc 1abb fc98 343e 762e 683e
00000340: 1047 0abd 4c41 503e f40e 223e 3cf6 9fbd
00000350: 4483 d6bd 9028 bfbd 70c2 dcbc 2ebd 3b3e
00000360: 908d 0cba 784d 043e 405f 643e 5477 cdbd
00000370: 708d ad3c 1030 cf3c b45d 08be 0039 b13d
00000380: 8e07 553e 4c57 203e 48b6 59be c64a 4bbe
00000390: 6482 403e 0662 2b3e c015 6dbc ea1f 42be
000003a0: bcc9 32be a8ed 7d3e de8c 74be 8ce9 1f3e
000003b0: 907d 42bd c23c 293e 306c 0ebd b446 2f3e
000003c0: 39fa 57be 0c96 5d3d 4ad0 c63d f96b 7b3e
000003d0: 9800 563e 77ba 6fbe 2cc0 da3d a515 593e
000003e0: 380d 5fbd cb69 ab3c b4ea 3abd fbe7 16be
000003f0: 64e7 3abe 2a10 15be db92 e93c 5378 66be

conv1.nn.3.bias f4 [16]
0.008285731 -0.053709567 -0.028214425 -0.13465577 0.2082878 0.17730322 -0.23684195 0.19213921
0.124379694 -0.034527957 0.13963494 -0.001119554 0.17942178 -0.11181134 -0.22605067 0.033839166
00000000: e0c0 073c 90fe 5bbd f021 e7bc 34e3 09be
00000010: 6649 553e fa8e 353e b286 72be 24c0 443e
00000020: c8ba fe3d 306d 0dbd 76fc 0e3e 00be 92ba
00000030: 58ba 373e 58fd e4bd d479 67be f09a 0a3d

conv1.nn.4.weight f4 [16]
0.9999932 0.9999965 1.0000072 1.0000039 1.0000066 1.0000106 1.0000008 0.99998933
1.0000049 0.9999906 0.99999386 1.000012 0.9999898 0.99999565 1.0000099 0.9999934
00000000: 8eff 7f3f c5ff 7f3f 3c00 803f 2100 803f
00000010: 3700 803f 5900 803f 0700 803f 4dff 7f3f
00000020: 2900 803f 62ff 7f3f 99ff 7f3f 6500 803f
00000030: 55ff 7f3f b7ff 7f3f 5300 803f 91ff 7f3f

conv1.nn.4.bias f4 [16]
-6.8328104e-06 -3.2430178e-06 6.8052027e-06 3.7927173e-06 6.1597966e-06 1.1355232e-05 9.894499e-07 -1.1163987e-05
4.6369923e-06 -9.655661e-06 -6.099667e-06 1.2646515e-05 -9.294653e-06 -3.90684e-06 9.34192e-06 -6.7377155e-06
00000000: 6545 e5b6 9fa2 59b6 3f58 e436 6386 7e36
00000010: 40b0 ce36 5a82 3e37 3dcd 8435 f64c 3bb7
00000020: 7697 9b36 c0fe 21b7 beab ccb6 5e2c 5437
00000030: 3bf0 1bb7 8017 83b6 3ebb 1c37 8914 e2b6

conv1.nn.4.running_mean f4 [16]
0.2921741 0.3428002 0.0016995047 0.10024658 -0.19218934 0.21283443 -0.50893635 0.1422646
-0.26238057 0.10690438 0.205131 -0.18673551 0.44628534 0.11432213 -0.053454656 -0.099832535
00000000: d897 953e 8283 af3e eac1 de3a 144e cd3d
00000010: 48cd 44be 45f1 593e a749 02bf d0ad 113e
00000020: bf56 86be aff0 da3d dc0d 523e 9837 3fbe
00000030: 837f e43e b921 ea3d 45f3 5abd 0075 ccbd

conv1.nn.4.running_var f4 [16]
0.016850213 0.01212409 0.011908705 0.00462846 0.016755855 0.06960971 0.045278806 0.10602846
0.014801115 0.117843136 0.04981592 0.14246377 0.22754942 0.020205379 0.067677855 0.0067406115
00000000: 7509 8a3c 1fa4 463c bb1c 433c 56aa 973b
00000010: 9343 893c 898f 8e3d 4576 393d 7325 d93d
00000020: 6080 723c be57 f13d c70b 4c3d 06e2 113e
00000030: b702 693e c085 a53c b09a 8a3d 59e0 dc3b

convs.0.nn.0.weight f4 [16, 16]
-0.20499161 -0.06728694 0.12070319 -0.2265248 -0.16296399 0.14031062 -0.13148844 0.11377254
0.097661436 -0.20791554 -0.20311815 -0.22431773 0.08189869 0.035737753 -0.17249277 -0.1427595
-0.13870183 -0.11828557 0.12618566 0.21111238 0.13367033 -0.03971702 0.1584135 -0.12980756
-0.19328472 0.0530757 0.14162657 0.13271213 0.20188186 0.047251552 0.12581572 0.056916595
0.15689081 0.104373366 0.002306372 -0.19791022 -0.10126692 0.10676348 -0.19273955 -0.123105794
0.1657269 0.04292199 -0.18899432 -0.08461365 -0.15758464 -0.13407138 -0.16247016 -0.037175775
-0.107091665 0.14913842 -0.1279532 -0.1242542 0.19101793 0.0138236275 0.087926745 -0.09871477
0.07266015 0.24662766 0.036454022 -0.20550346 0.120343745 -0.22508264 0.196102 -0.18723589
-0.1034457 0.07174729 -0.15767065 -0.008793028 0.18734479 -0.07663125 -0.08081253 0.16936499
-0.19240397 -0.24442253 -0.23964894 -0.15392411 -0.06954299 0.0958056 -0.11881031 -0.09193429
-0.03783667 -0.24669743 0.002574563 0.07193214 -0.24223346 0.12906635 0.19894189 -0.035942912
-0.12947789 0.11566323 -0.045517653 0.23344663 -0.12237492 -0.091732025 -0.08671114 -0.11086249
-0.17418027 -0.168358 -0.20449412 0.14374658 0.045754787 0.079502024 0.13026336 -0.030535841
-0.24552128 0.0030208617 0.18807405 -0.043910984 -0.24850208 0.19240633 0.11966707 0.042486187
-0.06511409 0.0726804 -0.09275855 0.19816732 -0.10488922 0.1984162 -0.10679455 -0.21355483
-0.03808078 -0.17690131 0.0936675 -0.09270603 -0.11889689 -0.09481157 -0.15112975 -0.24830067
0.14913985 -0.13294613 -0.23392186 0.03366676 0.051406413 -0.19033802 -0.10653028 0.10174978
0.09405187 0.22041091 0.04067871 -0.13897455 0.0895322 0.14827248 0.07803309 0.11107141
-0.11291903 -0.09945495 -0.055127397 -0.19023973 0.033213638 0.041256785 0.23907968 0.13905644
0.24961913 0.0653702 0.12519911 0.11660263 0.17747763 0.17138636 0.042543694 -0.16812807
0.123707496 -0.07609432 0.1577891 0.088250645 0.14358804 -0.20651405 0.023621446 0.20361994
0.10827298 0.17644002 0.11133221 -0.23040526 -0.21633595 -0.09005063 0.21818556 0.12286247
-0.17381448 0.03742811 0.18981826 0.24040788 -0.21283245 0.013727451 0.2358258 0.123086065
-0.11457825 0.14289156 -0.05255583 0.05273992 -0.18101472 0.049939692 0.15593138 0.03751421
0.117524326 0.12591018 0.05777416 -0.09664149 -0.1767178 -0.24758725 0.052781675 -0.067211896
0.048298426 -0.2250778 0.1576614 0.003416465 -0.07932893 -0.027723065 -0.17274253 -0.071875036
-0.117961586 0.08835629 0.24777219 0.174611 0.11026734 0.091799796 0.23524281 0.073700994
0.2083242 0.0031839013 -0.23105848 -0.04210788 0.20589879 -0.17463866 0.014724851 -0.24167916
-0.07083693 0.08718327 -0.050527424 0.032616466 -0.04370591 -0.052680105 -0.07272625 -0.12950352
0.04115987 -0.15761378 -0.20096448 -0.026773334 -0.0742178 0.11988434 -0.020072758 -0.14431944
-0.23330888 -0.23274982 -0.14770678 -0.21544555 -0.012487829 -0.24850583 0.23053154 0.15232202
-0.11931458 0.24702075 0.13726613 0.03869313 0.012237519 -0.10295099 0.02454555 -0.1119957
00000000: 52e9 51be bccd 89bd 3c33 f73d 1ef6 67be
00000010: 08e0 26be 96ad 0f3e e8a4 06be 9401 e93d
00000020: b802 c83d d0e7 54be 34fe 4fbe 8cb3 65be
00000030: 80ba a73d c061 123d f2a1 30be 8c2f 12be
00000040: da07 0ebe b43f f2bd d036 013e d82d 583e
00000050: e0e0 083e 50ae 22bd 2637 223e 46ec 04be
00000060: 6eec 45be e865 593d 8e06 113e b0e5 073e
00000070: 1eba 4e3e d88a 413d d6d5 003e 6021 693d
00000080: fca7 203e b4c1 d53d 8026 173b faa8 4abe
00000090: 0865 cfbd d0a6 da3d 845d 45be e41e fcbd
000000a0: 50b4 293e f8ce 2f3d ba87 41be ec49 adbd
000000b0: de5d 21be 024a 09be 945e 26be a045 18bd
000000c0: e052 dbbd beb7 183e 2a06 03be fc78 febd
000000d0: 349a 433e 7f7c 623c f012 b43d f82a cabd
000000e0: d8ce 943d f68b 7c3e d050 153d 806f 52be
000000f0: c876 f63d 107c 66be f6ce 483e c4ba 3fbe
00000100: 57db d3bd 3ef0 923d 6a74 21be a210 10bc
00000110: 50d7 3f3e d8f0 9cbd 0a81 a5bd 046e 2d3e
00000120: 8c05 45be e649 7abe 8866 75be 489e 1dbe
00000130: 8e6c 8ebd ba35 c43d d252 f3bd 0c48 bcbd
00000140: a0fa 1abd 409e 7cbe 00ba 283b 2851 933d
00000150: 0c0c 78be f829 043e 6cb7 4b3e e038 13bd
00000160: da95 04be d8e0 ec3d b870 3abd a20c 6f3e
00000170: b49f fabd 00de bbbd 9c95 b1bd e00b e3bd
00000180: 505c 32be 0a66 2cbe e866 51be 4e32 133e
00000190: 5f69 3b3d f5d1 a23d c263 053e 4d26 fabc
000001a0: ee69 7bbe a6f9 453b 7c96 403e 01dc 33bd
000001b0: 5477 7ebe 2a06 453e 0214 f53d ff05 2e3d
000001c0: 895a 85bd 76d9 943d 32f8 bdbd 60ec 4a3e
000001d0: 29d0 d6bd 9e2d 4b3e 1ab7 dabd 1eae 5abe
000001e0: 98fa 1bbd 9e25 35be bfd4 bf3d a9dc bdbd
000001f0: 3680 f3bd 922c c2bd c2c1 1abe 8842 7ebe
00000200: 1eb8 183e 0823 08be 3689 6fbe 28e6 093d
00000210: 888f 523d f8e7 42be 8c2c dabd 3062 d03d
00000220: 449e c03d 66b3 613e b89e 263d 584f 0ebe
00000230: a85c b73d bed4 173e d0cf 9f3d 6879 e33d
00000240: 1842 e7bd 09af cbbd 44cd 61bd 34ce 42be
00000250: 060b 083d e0fc 283d 4ed1 743e d064 0e3e
00000260: 289c 7f3e d0e0 853d 3234 003e 5ccd ee3d
00000270: b2bc 353e e87f 2f3e 4c42 2e3d c429 2cbe
00000280: 5b5a fd3d 57d7 9bbd 7793 213e c1bc b43d
00000290: be08 133e 6b78 53be c381 c13c bf81 503e
000002a0: 39be dd3d b1ac 343e 2402 e43d 5bef 6bbe
000002b0: 2c87 5dbe 776c b8bd 096c 5f3e 529f fb3d
000002c0: 6cfc 31be 384e 193d b85f 423e 7c2d 763e
000002d0: c0f0 59be 1ae9 603c 527c 713e 8c14 fc3d
000002e0: 00a8 eabd 2a52 123e c844 57bd d005 583d
000002f0: ec5b 39be 908d 4c3d 7aac 1f3e 80a8 193d
00000300: 98b0 f03d 99ee 003e 99a4 6c3d f9eb c5bd
00000310: 83f5 34be 8387 7dbe 9931 583d 64a6 89bd
00000320: 92d4 453d cb7a 66be fd71 213e c5e6 5f3b
00000330: 3577 a2bd 7b1b e3bc 6be3 30be 3833 93bd
00000340: d895 f1bd 24f4 b43d feb7 7d3e 3acd 323e
00000350: d8d3 e13d 8801 bc3d 7ee3 703e 8cf0 963d
00000360: f052 553e 00a9 503b 989a 6cbe 5079 2cbd
00000370: 22d7 523e 7ad4 32be 8040 713c be7a 77be
00000380: f412 91bd 248d b23d d8f5 4ebd d898 053d
00000390: f804 33bd 18c7 57bd 80f1 94bd 929c 04be
000003a0: 4097 283d 8265 21be a2c9 4dbe c053 dbbc
000003b0: 80ff 97bd ec85 f53d a06f a4bc 7ac8 13be
000003c0: 86e8 6ebe f855 6ebe 7240 17be c29d 5cbe
000003d0: c099 4cbc 5078 7ebe 7610 6c3e 4efa 1b3e
000003e0: 345b f4bd 02f3 7c3e 7e8f 0c3e b07c 1e3d
000003f0: e07f 483c f8d7 d2bd c013 c93c 005e e5bd

convs.0.nn.0.bias f4 [16]
-0.16796553 0.1994287 0.08778283 -0.14550939 -0.017859995 -0.086256534 -0.028520375 -0.23031461
0.11474919 0.12847075 -0.015339901 -0.14098728 0.21446067 -0.034606576 0.16251534 0.24361038
00000000: 28ff 2bbe 0a37 4c3e 7cc7 b33d 6a00 15be
00000010: 204f 92bc 44a7 b0bd 90a3 e9bc 98d7 6bbe
00000020: a001 eb3d d68d 033e 3554 7bbc f85e 10be
00000030: 949b 5b3e a0bf 0dbd 6c6a 263e 0075 793e

convs.0.nn.1.weight f4 [16]
0.9999057 1.0000643 1.0000263 0.9998807 0.9996946 0.99987864 0.9999715 1.0001531
0.999851 0.99982446 1.0001904 1.0001252 1.0000982 0.9999642 1.0001568 1.0002257
00000000: d2f9 7f3f 1b02 803f dd00 803f 2ef8 7f3f
00000010: fceb 7f3f 0cf8 7f3f 22fe 7f3f 0405 803f
00000020: 3cf6 7f3f 7ff4 7f3f 3d06 803f 1a04 803f
00000030: 3803 803f a7fd 7f3f 2305 803f 6507 803f

convs.0.nn.1.bias f4 [16]
-0.000104964296 5.451938e-05 2.7805472e-05 -0.00010983383 -0.000265142 -0.00013255194 -1.4810171e-05 0.00014779062
-0.00016127218 -0.00015776331 0.00018822256 0.00011710362 9.717033e-05 -3.345909e-05 0.00013740234 0.00025041273
00000000: 4720 dcb8 bdab 6438 cc3f e937 9756 e6b8
00000010: c202 8bb9 a4fd 0ab9 3379 78b7 3ef8 1a39
00000020: 2c1b 29b9 446d 25b9 9c5d 4539 8795 f538
00000030: ecc7 cb38 6d56 0cb8 a913 1039 d449 8339

convs.0.nn.1.running_mean f4 [16]
-4.8648944 2.9375665 -2.8115866 -0.287727 -4.2270246 -1.2336767 -0.5483629 -3.9543216
1.4940765 3.0151103 2.5658073 1.8715912 -2.2083035 1.7826756 -3.2257755 -1.7896373
00000000: 37ad 9bc0 1701 3c40 09f1 33c0 f450 93be
00000010: c943 87c0 1ee9 9dbf 8361 0cbf 9b13 7dc0
00000020: e63d bf3f 91f7 4040 3036 2440 4d90 ef3f
00000030: d854 0dc0 b72e e43f 1b73 4ec0 d612 e5bf

convs.0.nn.1.running_var f4 [16]
9.606253 3.5127416 2.684474 6.762606 6.0836916 9.525349 1.6811951 0.3280787
1.7412839 2.6830404 0.4991806 2.636895 0.91703624 26.488316 11.988103 3.364109
00000000: 36b3 1941 c2d0 6040 6cce 2b40 4567 d840
00000010: 9aad c240 d467 1841 6731 d73f eef9 a73e
00000020: 64e2 de3f efb6 2b40 9994 ff3e e3c2 2840
00000030: e3c2 6a3f 12e8 d341 45cf 3f41 904d 5740

convs.0.nn.3.weight f4 [16, 16]
0.04511767 0.024728358 0.15805326 -0.1753724 -0.056013294 0.18917109 -0.031927623 0.16631837
-0.23223059 0.16495168 0.20636559 0.22456639 -0.123083845 0.08181487 -0.14604317 0.124608636
-0.22154225 -0.13054231 0.0723393 0.20906 0.1473226 -0.06174994 0.054311972 0.035132248
0.1852211 0.1457509 0.16612686 0.062454324 0.23761296 -0.20437431 0.09336073 0.04949444
-0.07981906 0.04436943 0.20499472 0.124939196 0.16281763 0.035486605 0.018120974 -0.06352747
-0.07625396 0.07907546 0.23613119 -0.15095702 -0.005773919 0.22720978 -0.0656779 -0.04324508
-0.24483731 0.060721163 -0.23402584 -0.22422528 0.24379122 -0.03407797 0.10856191 0.11744722
-0.20244625 -0.20027614 0.15116629 0.014582935 -0.13104537 0.15734738 -0.24099794 0.2428231
-0.20087 0.14092696 0.24547528 -0.01172327 -0.00827774 -0.19099818 -0.17452125 -0.11429974
0.17010571 -0.13107637 0.17033589 -0.24792191 -0.0046457606 -0.017783782 0.040329535 -0.08856814
-0.0804224 -0.2413462 0.12514205 -0.11588558 0.18696015 0.11179368 0.12930611 0.13171908
-0.157773 0.24558309 -0.11628534 0.12797138 0.12890758 0.18500413 -0.2255616 0.16603242
0.17745426 -0.04922232 -0.12275773 0.15928838 -0.20757821 -0.04300165 0.24353042 0.06660625
-0.24769405 0.24917972 -0.19255844 0.18417361 0.094233006 -0.04973489 -0.06586379 -0.077608645
-0.13937798 -0.15767756 -0.06153305 0.14937171 0.116758406 -0.19817092 0.21260333 0.16964242
-0.083710566 0.23597686 0.062043805 -0.069390744 -0.20432818 -0.023367165 -0.15674224 0.19619448
-0.11523202 -0.20607537 0.19609204 -0.123024076 0.15920565 0.19478893 0.100854605 -0.22212255
-0.005114614 0.0053820303 -0.14997497 0.22924408 -0.1908122 -0.21308959 -0.2147524 0.16102883
-0.17778486 -0.14898884 0.23722616 -0.02649062 0.20670658 -0.09157205 0.06296843 -0.11249679
-0.0065955324 0.013262729 0.21850726 0.13358822 -0.116650075 -0.22721627 -0.02599298 0.07468405
0.10226176 0.21338937 -0.0448204 -0.20038122 0.1233694 -0.09472035 0.13491493 0.101731636
0.20356843 -0.18969038 -0.01984713 -0.17168906 -0.19778478 -0.23611704 -0.09940868 -0.23338097
-0.083708785 -0.069643445 -0.07197757 -0.006767619 0.13612267 -0.2023132 0.093046285 0.024521858
-0.08573555 0.10376559 -0.0002607177 -0.047034267 0.068974815 -0.0019738963 -0.21658492 -0.15498652
0.12629282 -0.14594328 -0.1556292 0.089011006 -0.16057232 0.0110615315 -0.15811832 0.03849727
0.015936216 0.09104171 -0.07829752 -0.07140905 -0.089049615 -0.21550915 0.16612098 0.13547148
0.21198016 0.102074645 -0.09684473 0.20495674 -0.16611493 -0.024911959 -0.24257682 -0.152238
0.1457613 -0.122314095 0.20512731 0.1644818 -0.10690809 -0.07972471 0.18951207 0.17240228
-0.1840286 0.03743347 -0.03281485 -0.12449818 -0.21877156 0.13626055 -0.024436813 0.19286512
0.17113711 -0.21561997 0.19256228 0.13684113 0.13155426 -0.0331184 0.11441843 -0.24034517
0.19157678 -0.116865486 -0.062894784 -0.17112163 0.029566549 0.15208966 -0.044261303 0.19591898
-0.22170672 0.025273 0.021865241 0.06014638 -0.15954742 -0.22311714 -0.0619411 -0.23977822
00000000: 4ecd 383d 2093 ca3c b7d8 213e d394 33be
00000010: 326e 65bd 11b6 413e 8ac6 02bd 5d4f 2a3e
00000020: dbcd 6dbe 18e9 283e 8051 533e bbf4 653e
00000030: 6213 fcbd 8e8e a73d 578c 15be d032 ff3d
00000040: f9db 62be e2ac 05be a026 943d d313 563e
00000050: bcdb 163e 81ed 7cbd 3b76 5e3d d5e6 0f3d
00000060: 9aaa 3d3e b93f 153e 291d 2a3e 1bd0 7f3d
00000070: d050 733e 8047 51be e933 bf3d afba 4a3d
00000080: 2d78 a3bd b8bc 353d 23ea 513e 1fe0 ff3d
00000090: aab9 263e 675a 113d 7072 943c b11a 82bd
000000a0: 092b 9cbd 51f2 a13d 60cc 713e 7a94 1abe
000000b0: 2533 bdbb aea9 683e 2382 86bd c121 31bd
000000c0: a2b6 7abe c1b6 783d 78a4 6fbe 509b 65be
000000d0: 68a4 793e 5795 0bbd b555 de3d 2b88 f03d
000000e0: 124e 4fbe 3015 4dbe 56cb 1a3e 43ed 6e3c
000000f0: c230 06be ac1f 213e 2ac8 76be 9ea6 783e
00000100: deb0 4dbe 284f 103e df5d 7b3e f512 40bc
00000110: 5c9f 07bc 0795 43be b3b5 32be fb15 eabd
00000120: 3130 2e3e e238 06be 886c 2e3e 3edf 7dbe
00000130: 773b 98bb 4baf 91bc 9530 253d 3763 b5bd
00000140: 80b4 a4bd 7523 77be 3d25 003e 6b55 edbd
00000150: 7b72 3f3e 16f4 e43d d268 043e 5ee1 063e
00000160: 3f8f 21be 227a 7b3e 0227 eebd ee0a 033e
00000170: 5900 043e b971 3d3e 9ff9 66be 6704 2a3e
00000180: 92b6 353e 589d 49bd 6868 fbbd 7e1c 233e
00000190: 628f 54be 8022 30bd 0a60 793e dc68 883d
000001a0: 82a3 7dbe f828 7f3e 0a2e 45be 0298 3c3e
000001b0: 3cfd c03d d0b6 4bbd 98e3 86bd 48f1 9ebd
000001c0: 1ab9 0ebe 3a76 21be 140a 7cbd e6f4 183e
000001d0: 081f ef3d 51ed 4abe b0b4 593e beb6 2d3e
000001e0: 7270 abbd eba3 713e a521 7e3d bc1c 8ebd
000001f0: 683b 51be 7f6c bfbc 0a81 20be 35e7 483e
00000200: c4fe ebbd 6c05 53be 5acc 483e 0cf4 fbbd
00000210: ce06 233e c076 473e dc8c ce3d 1874 63be
00000220: 7e98 a7bb be5b b03b 0a93 19be f6be 6a3e
00000230: 4664 43be 2834 5abe 0ee8 5bbe bee4 243e
00000240: 3c0d 36be 8890 18be 6aeb 723e db02 d9bc
00000250: e4aa 533e 208a bbbd 98f5 803d b864 e6bd
00000260: 561f d8bb eb4b 593c 5ec0 5f3e 5acb 083e
00000270: 3ce6 eebd 62ab 68be 3bef d4bc f4f3 983d
00000280: 9d6e d13d be82 5a3e 9995 37bd bc30 4dbe
00000290: 19a9 fc3d befc c1bd 2427 0a3e ad58 d03d
000002a0: 3e74 503e 323e 42be 7396 a2bc 42cf 2fbe
000002b0: 1888 4abe aac8 71be c796 cbbd 6cfb 6ebe
000002c0: 836f abbd 39a1 8ebd fa68 93bd e7c2 ddbb
000002d0: be63 0b3e 312b 4fbe 0d8f be3d 10e2 c83c
000002e0: 1f96 afbd 0e83 d43d f0b0 88b9 01a7 40bd
000002f0: ab42 8d3d 7c5c 01bb 70c8 5dbe c9b4 1ebe
00000300: e852 013e 2872 15be 435d 1fbe 674b b63d
00000310: 126d 24be 6d3b 353c c5e9 21be 50af 1d3d
00000320: ab8c 823c 1374 ba3d 735a a0bd e83e 92bd
00000330: a55f b6bd 6eae 5cbe 9e1b 2a3e 09b9 0a3e
00000340: 5411 593e 830c d13d 8856 c6bd 2ee0 513e
00000350: 081a 2abe 2a14 ccbc 0f66 78be 47e4 1bbe
00000360: 7342 153e d07f fabd e50c 523e eb6d 283e
00000370: a1f2 dabd b546 a3bd 740f 423e 398a 303e
00000380: fe71 3cbe d753 193d dd68 06bd e7f8 febd
00000390: a705 60be e387 0b3e b62f c8bc 6f7e 453e
000003a0: 913e 2f3e 7bcb 5cbe 0c2f 453e 1520 0c3e
000003b0: 29b6 063e 29a7 07bd 3654 ea3d 0b1d 76be
000003c0: b42c 443e 2c57 efbd fbce 80bd 823a 2fbe
000003d0: 8c35 f23c 64bd 1b3e 574b 35bd fc9e 483e
000003e0: 1607 63be 5309 cf3c bc1e b33c 0d5c 763d
000003f0: 6660 23be d278 64be f3b5 7dbd 6c88 75be

convs.0.nn.3.bias f4 [16]
-0.21485555 0.023425492 -0.18776447 -0.2068316 0.149566 0.19778013 0.17768183 -0.17625451
0.1173538 -0.18500778 0.12136155 0.23911887 -0.020398647 0.1306394 -0.13596866 -0.011821925
00000000: 1803 5cbe d1e6 bf3c 5445 40be aacb 53be
00000010: d427 193e e086 4a3e 3af2 353e 107c 34be
00000020: 3057 f03d ae72 3dbe 688c f83d 94db 743e
00000030: 101b a7bc 56c6 053e 5e3b 0bbe bfb0 41bc

convs.0.nn.4.weight f4 [16]
0.9998578 0.9998913 0.999901 1.0000908 1.0001352 0.99991083 1.0000305 1.0000197
1.0001378 0.9999874 1.0000898 0.9998466 1.0000316 1.0000029 0.9999338 1.0001075
00000000: aef6 7f3f e0f8 7f3f 83f9 7f3f fa02 803f
00000010: 6e04 803f 28fa 7f3f 0001 803f a500 803f
00000020: 8404 803f 2dff 7f3f f102 803f f2f5 7f3f
00000030: 0901 803f 1800 803f a9fb 7f3f 8603 803f

convs.0.nn.4.bias f4 [16]
-0.00013486132 -0.00010676121 -9.470127e-05 9.587492e-05 0.00013680449 -9.3773815e-05 3.5146924e-05 1.789678e-05
0.00013647288 -1.6676007e-05 8.8316854e-05 -0.00014858201 3.3877568e-05 -1.4966838e-06 -6.5372406e-05 0.000108679924
00000000: 8f69 0db9 fde4 dfb8 5b9a c6b8 7510 c938
00000010: 2d73 0f39 6fa8 c4b8 b96a 1338 0b21 9637
00000020: 291a 0f39 74e3 8bb7 c036 b938 aecc 1bb9
00000030: c317 0e38 aae1 c8b5 8b18 89b8 17eb e338

convs.0.nn.4.running_mean f4 [16]
0.09111966 0.43632844 0.13121246 -0.41035628 -0.059097588 0.49269608 0.23539446 -0.15198927
-0.07649964 -0.17796695 -0.17830053 -0.0146124745 -0.21743137 0.329226 -0.116524175 -0.3189463
00000000: f29c ba3d 7166 df3e 8f5c 063e 381a d2be
00000010: 5010 72bd a942 fc3e 3f0b 713e 13a3 1bbe
00000020: d8ab 9cbd f83c 36be 6a94 36be 2969 6fbc
00000030: 54a6 5ebe 4f90 a83e 3aa4 eebd ee4c a3be

convs.0.nn.4.running_var f4 [16]
0.080109976 0.017901093 0.021297166 0.05752604 0.07477343 0.012636442 0.1446293 0.023797771
0.41499335 0.18241002 0.0785913 0.022791004 0.025459325 0.016171739 0.20149915 0.048968155
00000000: b310 a43d 50a5 923c 6577 ae3c 6da0 6b3d
00000010: d022 993d 1409 4f3c b419 143e 8bf3 c23c
00000020: 027a d43e b1c9 3a3e 7af4 a03d 33b4 ba3c
00000030: 1390 d03c 987a 843c cb55 4e3e d592 483d

convs.1.nn.0.weight f4 [16, 16]
-0.12189097 -0.24176319 -0.15260644 -0.24266043 0.1642031 -0.13928767 0.2487795 0.2227731
0.2378558 -0.06848573 0.1229376 -0.23587555 0.07384105 0.07014026 0.17610827 -0.008586353
0.095114976 0.025665836 -0.15693054 -0.18144225 -0.1910261 0.121669896 -0.014890158 0.22315104
0.21600325 0.23094271 -0.10396723 -0.21591967 0.06479805 -0.21250853 -0.063444324 0.0018684048
-0.22232023 -0.20259479 -0.17211103 0.051082253 0.17343484 0.13666737 -0.11931074 0.06620518
0.2406788 0.07316544 0.15677778 0.15508297 -0.009338834 0.042499978 -0.17384665 -0.21645851
-0.056953546 -0.12917262 0.11577952 -0.034921687 0.16091883 0.10818328 -0.1332403 -0.12619746
-0.1909022 0.22964677 -0.082561694 -0.08096072 0.16613987 -0.18941969 0.0079008285 0.24425371
0.016696438 0.008553067 0.07902604 0.2106275 0.23340198 0.09267656 -0.014646662 -0.11877479
0.14344747 0.04464739 -0.037196763 0.23814613 -0.24159254 0.07825759 -0.14405829 -0.16759877
0.18621992 0.08192905 0.07556524 -0.22094554 -0.2268714 0.022880886 0.23243979 -0.11533885
0.11363601 -0.041494675 0.2075286 -0.17939475 0.024256283 -0.18884598 -0.00687206 0.0137192495
0.12156292 -0.08883507 0.24008824 0.0029548455 0.24090074 0.20043717 0.038686436 -0.20660251
0.1164354 0.08036302 0.0023767976 0.11173689 0.20332102 0.14113578 -0.09818102 0.0029361236
0.18239209 -0.037189912 -0.112459116 -0.14644359 -0.052560177 -0.109507084 -0.19245806 0.20428464
-0.10939794 -0.18615426 0.21751414 0.17830163 0.08288644 0.23931572 -0.053745195 0.049937323
0.20322166 -0.21877141 0.03671828 0.18336701 -0.23137681 0.16168736 -0.16025943 0.08687139
0.16975543 -0.19344726 -0.047879905 -0.119795494 -0.12335759 0.07399627 0.052502953 -0.18849574
-0.073558174 0.07649015 0.031494237 0.021472627 -0.10498107 -0.24292105 -0.006690666 0.11295314
-0.039864756 -0.16072711 0.062140714 0.067697674 -0.032565158 -0.0064176423 0.17747393 0.10899604
-0.01197702 0.22441249 -0.15612997 -0.14596963 -0.154467 0.121531226 -0.20954157 -0.065914154
-0.14678699 0.17834741 -0.23735034 0.038537286 0.026399285 0.075645514 0.20790246 0.21017525
-0.09150899 0.11920173 -0.1348767 0.19421545 0.10289122 -0.07526583 -0.042804904 -0.23082998
-0.06025234 -0.1689137 -0.098751016 0.2052595 0.23730654 -0.20117854 0.16472442 0.0036925725
-0.105545655 0.01980383 -0.08827439 -0.18619806 0.025689807 0.20675167 -0.12499452 -0.15157075
-0.05800261 0.14584723 -0.06319571 -0.21678174 0.090628505 0.14412957 0.23961851 0.010161847
-0.10132082 0.075742945 0.16746533 0.12135941 -0.086786225 -0.039990343 0.09824403 0.16070701
-0.17229642 -0.21488683 -0.19118947 0.02316956 -0.11240215 0.1282095 0.18153468 0.01738085
-0.24763468 0.11376568 0.15303366 -0.018777512 -0.04863831 -0.062868886 0.2226366 0.131095
0.105581135 -0.021780644 -0.1617409 0.02011739 -0.0018990431 -0.12352652 0.07240424 -0.14082485
0.04311239 -0.11384595 -0.07835689 -0.05324984 0.23201227 -0.13591109 -0.014054163 0.23911609
-0.24654469 0.11770414 -0.09272062 0.037308034 0.19166076 -0.0875889 0.19741248 0.016948095
00000000: f9a1 f9bd c590 77be dd44 1cbe fa7b 78be
00000010: dc24 283e 6da1 0ebe 0ec0 7e3e a21e 643e
00000020: 7990 733e 3f42 8cbd b5c6 fb3d 5c89 71be
00000030: fa39 973d b2a5 8f3d ba55 343e c6ad 0cbc
00000040: a4cb c23d 2941 d23c 66b2 20be ffcb 39be
00000050: 599c 43be 112e f93d d9f5 73bc b581 643e
00000060: f52f 5d3e 3f7c 6c3e c5ec d4bd 0c1a 5dbe
00000070: d7b4 843d d69b 59be 19ef 81bd 43e5 f43a
00000080: eaa7 63be 0275 4fbe e03d 30be a03b 513d
00000090: e798 313e 88f2 0b3e 3059 f4bd 9596 873d
000000a0: 8174 763e c3d7 953d 5b8a 203e 12ce 1e3e
000000b0: e901 19bc 7514 2e3d db04 32be 4da7 5dbe
000000c0: 1f48 69bd d445 04be d01d ed3d 0b0a 0fbd
000000d0: e8c7 243e 328f dd3d 2570 08be e839 01be
000000e0: de7b 43be 8628 6b3e 1b16 a9bd bcce a5bd
000000f0: 9220 2a3e 3cf7 41be 7a72 013c a51d 7a3e
00000100: f8c6 883c 2a22 0c3c 68d8 a13d bcae 573e
00000110: ee00 6f3e 35cd bd3d 8ef8 6fbc 3240 f3bd
00000120: e5e3 123e 2ee0 363d a25b 18bd 94dc 733e
00000130: 0964 77be 8445 a03d 0484 13be 039f 2bbe
00000140: 6fb0 3e3e 6bca a73d f3c1 9a3d 8c3f 62be
00000150: fa50 68be b270 bb3c b204 6e3e c636 ecbd
00000160: ffb9 e83d 52f6 29bd 6182 543e 42b3 37be
00000170: 1db5 c63c d760 41be 042f e1bb b4c6 603c
00000180: fbf5 f83d 29ef b5bd b1d9 753e 15a6 413b
00000190: afae 763e 673f 4d3e ab75 1e3d 9c8f 53be
000001a0: af75 ee3d 5e95 a43d 0cc4 1b3b 50d6 e43d
000001b0: 6333 503e e685 103e 2113 c9bd fb6b 403b
000001c0: fec4 3a3e 7354 18bd f750 e6bd 4ff5 15be
000001d0: 5749 57bd 4045 e0bd ba13 45be fe2f 513e
000001e0: 070c e0bd 399f 3ebe 07bc 5e3e b494 363e
000001f0: 5ec0 a93d 2e0f 753e ec23 5cbd 148b 4c3d
00000200: 5719 503e 9d05 60be e865 163d 90c4 3b3e
00000210: 0bee 6cbe 5f91 253e 0c1b 24be a1e9 b13d
00000220: 5ed4 2d3e 0a17 46be b81d 44bd 5757 f5bd
00000230: e7a2 fcbd 5b8b 973d 560d 573d 0705 41be
00000240: aba5 96bd dea6 9c3d 1a00 013d 5de7 af3c
00000250: 5100 d7bd 4cc0 78be 603d dbbb fa53 e73d
00000260: 3a49 23bd a695 24be 4387 7e3d 14a5 8a3d
00000270: 0b63 05bd 164b d2bb babb 353e 5139 df3d
00000280: 433b 44bc 63cc 653e 89e0 1fbe 1079 15be
00000290: 992c 1ebe 5de5 f83d 1192 56be 00fe 86bd
000002a0: 544f 16be b4a0 363e f80b 73be 46d9 1d3d
000002b0: 5043 d83c 09ec 9a3d 62e4 543e 2e38 573e
000002c0: 1169 bbbd 0920 f43d 1e1d 0abe 6ae0 463e
000002d0: a2b8 d23d f924 9abd 3254 2fbd b25e 6cbe
000002e0: 28cb 76bd b7f7 2cbe f93d cabd 8c2f 523e
000002f0: 7c00 733e bf01 4ebe 85ad 283e 16ff 713b
00000300: 5228 d8bd a43b a23c 34c9 b4bd b4aa 3ebe
00000310: 6e73 d23c b6b6 533e 20fd ffbd 5d35 1bbe
00000320: 2594 6dbd fa58 153e c16c 81bd 08fc 5dbe
00000330: 709b b93d b496 133e 8e5e 753e e07d 263c
00000340: 4a81 cfbd 1e1f 9b3d 087c 2b3e 488b f83d
00000350: fabc b1bd eacc 23bd 2a34 c93d 6190 243e
00000360: 796e 30be 4b0b 5cbe 2cc7 43be 17ce bd3c
00000370: 1933 e6bd 5a49 033e 3ae4 393e 4962 8e3c
00000380: f293 7dbe fbfd e83d dbb4 1c3e 4cd3 99bc
00000390: f738 47bd 67c1 80bd d9fa 633e c53d 063e
000003a0: ec3a d83d 526d b2bc 689f 25be 3acd a43c
000003b0: 50e9 f8ba 79fb fcbd ad48 943d 6434 10be
000003c0: 9e96 303d 1128 e9bd 9479 a0bd 811c 5abd
000003d0: a094 6d3e 472c 0bbe 6f43 66bc d9da 743e
000003e0: 3676 7cbe de0e f13d 4fe4 bdbd 4fd0 183d
000003f0: b842 443e cf61 b3bd 7f26 4a3e bbd6 8a3c

convs.1.nn.0.bias f4 [16]
-0.20954992 -0.15945964 0.022322861 -0.18538669 -0.10276278 0.1817986 0.0024478296 0.09938248
-0.16493416 -0.10165269 -0.10406962 0.1271421 0.043784015 -0.091769695 0.08776787 -0.18439817
00000000: 4194 56be 6349 23be 6fde b63c 02d6 3dbe
00000010: 4b75 d2bd 6a29 3a3e c46b 203b 0b89 cb3d
00000020: 80e4 28be 492f d0bd 7422 d5bd 8a31 023e
00000030: de56 333d c0f1 bbbd a4bf b33d e0d2 3cbe

convs.1.nn.1.weight f4 [16]
1.0040118 1.0044445 0.99427253 0.9932902 1.006347 0.9932031 1.0072312 0.9940421
1.0039605 0.99462926 1.0092767 0.9913853 0.99434865 1.0059861 1.0047225 1.0043879
00000000: 7583 803f a391 803f a588 7e3f 4448 7e3f
00000010: facf 803f 8f42 7e3f f4ec 803f 8b79 7e3f
00000020: c781 803f 06a0 7e3f fb2f 813f 6dcb 7d3f
00000030: a28d 7e3f 27c4 803f bf9a 803f c88f 803f

convs.1.nn.1.bias f4 [16]
0.0039626923 0.004409126 -0.005553559 -0.0067645 0.0064094076 -0.0066438797 0.0071377093 -0.006149444
0.003948887 -0.0052479263 0.009268231 -0.008383433 -0.0056194738 0.0060255826 0.0049246107 0.0044313944
00000000: 79d9 813b 6e7a 903b a1fa b5bb bda8 ddbb
00000010: 0206 d23b e7b4 d9bb 72e3 e93b 4681 c9bb
00000020: aa65 813b ccf6 abbb c7d9 173c ab5a 09bc
00000030: 9023 b8bb 4072 c53b a15e a13b 3b35 913b

convs.1.nn.1.running_mean f4 [16]
0.26407638 -0.4167385 -0.03273761 -0.18843056 1.5770507 0.16461372 4.143512 0.6234038
-1.2470018 -0.083111964 -0.31738812 -0.3325716 -0.4633661 -0.055670056 0.0096559115 0.872475
00000000: 0535 873e c05e d5be df17 06bd f1f3 40be
00000010: ccdc c93f 8090 283e a697 8440 6497 1f3f
00000020: c19d 9fbf 9b36 aabd b280 a2be d346 aabe
00000030: 523e edbe 4906 64bd d433 1e3c 865a 5f3f

convs.1.nn.1.running_var f4 [16]
1.4145399 9.9561205 6.0903783 1.304093 2.748009 1.877306 2.6829844 1.7198589
2.1560621 2.3144982 5.1661654 3.0132554 1.5715413 4.2302985 1.7554398 0.9717809
00000000: a50f b53f 454c 1f41 61e4 c240 85ec a63f
00000010: 61df 2f40 904b f03f 04b6 2b40 5624 dc3f
00000020: ecfc 0940 bd20 1440 3a51 a540 2dd9 4040
00000030: 4428 c93f 9b5e 8740 40b2 e03f a2c6 783f

convs.1.nn.3.weight f4 [16, 16]
0.18854569 -0.23881114 0.01707745 0.18639597 -0.22030793 -0.060490247 -0.21018407 -0.026555287
0.098120734 0.20019904 -0.24618223 -0.041885275 -0.21376936 -0.12631133 -0.1681767 0.13400456
-0.20747249 -0.20981215 0.18276164 0.14295885 -0.15680207 -0.21658881 -0.2163199 -0.21281485
-0.06686713 -0.1516979 0.19460344 -0.05857072 0.15765303 0.03237246 0.0071644676 -0.16286139
-0.14828394 -0.114337265 -0.15087065 -0.1842862 -0.21231635 -0.09169011 -0.20580381 0.07367995
0.025306799 0.07360683 0.10394416 0.23760843 0.036797196 -0.1751268 -0.1741072 -0.08164261
-0.23721626 0.091465436 -0.05743136 -0.23929696 0.23167828 -0.029686283 -0.21672952 -0.10473984
-0.22506438 -0.04922003 0.025992082 -0.19201575 -0.20421404 -0.022127308 0.18232049 -0.12103028
-0.11002469 0.11988113 0.07226875 0.13912895 0.08234813 -0.20653467 0.007136716 0.20533067
-0.2076423 0.00436939 0.12616459 0.12987769 -0.011192016 -0.025938049 0.07151846 -0.21405843
-0.24843834 0.009052682 -0.19161052 0.009625261 -0.1785948 0.05706161 -0.12015394 0.24920684
0.071288474 -0.107729934 0.24944878 -0.17699236 -0.037533417 -0.028001893 -0.03150869 0.20295028
-0.13630363 0.19740745 -0.1946713 -0.15025353 -0.23439151 0.043563846 0.14101508 -0.1294176
-0.09279095 -0.029910833 0.18216398 0.08231772 -0.07851033 -0.0871674 -0.044025358 -0.008093628
-0.12070061 -0.025103832 0.14945538 0.036218647 -0.008821095 0.08202752 0.099861085 -0.116357975
-0.053951092 -0.16491975 -0.18255568 0.23114188 0.018661361 0.12610514 0.06438556 -0.12529707
0.06776062 -0.16178392 0.08352628 0.20821396 0.056295067 -0.089300856 0.18538179 -0.23675664
0.0408569 -0.17590585 0.17466128 -5.3984426e-05 0.07882142 -0.17178251 -0.22333883 0.10815848
-0.020797288 -0.058729354 0.17563461 0.07514964 0.15286462 -0.2117316 0.12624346 -0.121991344
0.016127393 0.022597155 0.019448807 0.0077585927 0.094062865 -0.21379697 -0.14982626 0.046511434
0.011447887 -0.034072194 0.058624513 -0.020279445 -0.19550055 0.019984044 -0.23794249 0.18515089
0.14339955 0.05622598 -0.20830318 -0.19868675 -0.07778197 0.11493616 -0.00042906532 -0.12135503
0.15668593 0.19964881 0.08112875 0.21167614 0.0007318663 -0.073950954 -0.15735538 0.090254955
-0.13448311 0.030152868 0.1601683 -0.031107623 -0.12841459 -0.080088526 -0.012615619 0.083992995
-0.065512374 -0.01661201 -0.021837352 0.15487045 -0.13190556 0.18426049 -0.10837768 0.1371406
-0.05416914 -0.1762399 0.15957136 -0.24841864 -0.11179566 -0.19879913 0.1789009 0.20314397
0.23884824 -0.13697502 -0.106497645 0.05550688 -0.18833812 -0.21769847 0.057465564 0.013547611
-0.13990265 0.00074314204 -0.068148695 0.21845576 0.05396416 0.22506091 0.23719518 -0.075964466
-0.23875074 -0.01857226 0.025839342 -0.16594869 0.163864 0.18057883 -0.07016115 0.030909792
0.0954716 0.1631931 -0.2266075 -0.24055636 -0.1040381 0.15442751 0.10054943 0.14738695
0.23923413 -0.09347397 0.09384937 -0.0062134652 -0.1124691 0.025674745 -0.19734651 -0.13785978
0.014820251 -0.13793439 0.1581954 0.018657234 -0.24897915 0.12493721 0.13221677 -0.16911447
00000000: 1f12 413e e88a 74be 02e6 8b3c 96de 3e3e
00000010: 6798 61be 9fc4 77bd 7e3a 57be 798a d9bc
00000020: 86f3 c83d fa00 4d3e 3217 7cbe e58f 2bbd
00000030: 5be6 5abe c257 01be 8336 2cbe 7e38 093e
00000040: ab73 54be ffd8 56be de25 3b3e ce63 123e
00000050: b990 20be 75c9 5dbe f782 5dbe 23ec 59be
00000060: a2f1 88bd b256 1bbe 2046 473e dae7 6fbd
00000070: cc6f 213e fc98 043d e9c3 ea3b 23c5 26be
00000080: bfd7 17be a829 eabd d67d 1abe 86b5 3cbe
00000090: 7569 59be 06c8 bbbd 3cbe 52be 83e5 963d
000000a0: 3450 cf3c 2dbf 963d ade0 d43d a04f 733e
000000b0: a8b8 163d 7154 33be 2849 32be 3e34 a7bd
000000c0: d2e8 72be 3b52 bb3d 253d 6bbd 430a 75be
000000d0: 123d 6d3e a630 f3bc 58ee 5dbe d781 d6bd
000000e0: 4777 66be f19a 49bd 59ed d43c c79f 44be
000000f0: 7c1d 51be 5444 b5bc 39b2 3a3e b9de f7bd
00000100: a054 e1bd 3d84 f53d a301 943d d277 0e3e
00000110: 23a6 a83d d37d 53be 1ddb e93b 3442 523e
00000120: 2fa0 54be 1a2d 8f3b 4a31 013e a8fe 043e
00000130: b85e 37bc 087c d4bc 4578 923d 2232 5bbe
00000140: 9f66 7ebe b351 143c 8c35 44be 45b3 1d3c
00000150: 8ee1 36be 6fb9 693d 4513 f6bd 1430 7f3e
00000160: b1ff 913d 83a1 dcbd 806f 7f3e 7c3d 35be
00000170: a4bc 19bd 3a64 e5bc 420f 01bd 33d2 4f3e
00000180: 2e93 0bbe 2e25 4a3e ea57 47be 10dc 19be
00000190: 5404 70be 0170 323d 4266 103e 0c86 04be
000001a0: 2e09 bebd 9007 f5bc 3289 3a3e 3196 a83d
000001b0: 06ca a0bd d284 b2bd ef53 34bd 239b 04bc
000001c0: e231 f7bd 8da6 cdbc d50a 193e 015a 143d
000001d0: 5b86 10bc 0bfe a73d f883 cc3d 174d eebd
000001e0: d2fb 5cbd b9e0 28be e0ef 3abe 75b0 6c3e
000001f0: b6df 983c b521 013e 94dc 833d e04d 00be
00000200: 14c6 8a3d afaa 25be d40f ab3d 0a36 553e
00000210: a895 663d 5ee3 b6bd b9d4 3d3e 5570 72be
00000220: 9159 273d aa20 34be 68da 323e 566d 62b8
00000230: 206d a13d c1e7 2fbe efb2 64be 3182 dd3d
00000240: 135f aabc 318e 70bd 8fd9 333e 0ee8 993d
00000250: 8b88 1c3e 2bd0 58be f745 013e 99d6 f9bd
00000260: 981d 843c ab1d b93c 1b53 9f3c cb3b fe3b
00000270: 08a4 c03d 98ed 5abe 0e6c 19be c682 3e3d
00000280: eb8f 3b3c 498f 0bbd 4220 703d 1421 a6bc
00000290: 4c31 48be 94b5 a33c 32a7 73be 3298 3d3e
000002a0: 55d7 123e 374d 663d 6e4d 55be 8a74 4bbe
000002b0: 274c 9fbd a663 eb3d 2cf4 e0b9 fc88 f8bd
000002c0: 4772 203e bd70 4c3e d526 a63d a1c1 583e
000002d0: b7da 3f3a 9973 97bd c521 21be 97d7 b83d
000002e0: f1b5 09be 2603 f73c 2903 243e 6ad5 febc
000002f0: 1d7f 03be 7405 a4bd beb1 4ebc 8504 ac3d
00000300: 5a2b 86bd e915 88bc 3fe4 b2bc 5c96 1e3e
00000310: 4012 07be c8ae 3c3e 1ef5 ddbd 966e 0c3e
00000320: 76e0 5dbd 3b78 34be ad66 233e 7561 7ebe
00000330: 1ff5 e4bd 0092 4bbe cc31 373e f904 503e
00000340: a294 743e 2e43 0cbe 701b dabd 2f5b 633d
00000350: b5db 40be 59ec 5ebe 0361 6b3d cdf6 5d3c
00000360: a442 0fbe 6bcf 423a 8b91 8bbd deb2 5f3e
00000370: 8609 5d3d 5e76 663e 4be3 723e 4293 9bbd
00000380: 137b 74be da24 98bc 07ad d33c 74ee 29be
00000390: f7cb 273e a8e9 383e a6b0 8fbd 8836 fd3c
000003a0: 9d86 c33d 181c 273e cc0b 68be 6854 76be
000003b0: ed11 d5bd 3f22 1e3e dcec cd3d 9bec 163e
000003c0: cbf9 743e 486f bfbd 1934 c03d 539a cbbb
000003d0: 3356 e6bd d853 d23c 3415 4abe 1d2b 0dbe
000003e0: a3d0 723c ac3e 0dbe fafd 213e 0ed7 983c
000003f0: 64f4 7ebe 14df ff3d d563 073e 582c 2dbe

convs.1.nn.3.bias f4 [16]
-0.06407185 -0.15084977 -0.07556887 -0.2057612 0.16429518 -0.07511532 -0.1717579 0.1795984
0.07098011 -0.09523168 -0.07098358 0.24072857 0.20947725 0.09349379 -0.24779366 0.024129326
00000000: 1a38 83bd 5d78 1abe dac3 9abd 10b3 52be
00000010: ff3c 283e 10d6 99bd 4ee1 2fbe a5e8 373e
00000020: 055e 913d d408 c3bd d75f 91bd 8d81 763e
00000030: 3481 563e ac79 bf3d 9fbd 7dbe ddaa c53c

convs.1.nn.4.weight f4 [16]
0.9942282 0.99960744 1.0055269 0.9928093 0.9987702 0.99697375 1.0000185 0.9930325
0.9959386 1.0047675 1.0038257 1.0132924 1.008736 1.0010364 0.99705386 0.99043256
00000000: bd85 7e3f 46e6 7f3f 1bb5 803f c028 7e3f
00000010: 67af 7f3f ac39 7f3f 9b00 803f 6137 7e3f
00000020: d5f5 7e3f 399c 803f 5c7d 803f 91b3 813f
00000030: 431e 813f f621 803f ec3e 7f3f fd8c 7d3f

convs.1.nn.4.bias f4 [16]
-0.0049835164 -0.0008417194 0.0053512934 -0.0072133737 -0.0011346167 -0.002659069 -0.00044509477 -0.0072412523
-0.003916357 0.0051075057 0.003740455 0.0132973995 0.0076782294 0.0012492331 -0.0027382378 -0.009928907
00000000: c44c a3bb d5a6 5cba e759 af3b 2a5e ecbb
00000010: 6bb7 94ba c643 2ebb 9c5b e9b9 0748 edbb
00000020: c954 80bb dd5c a73b 6c22 753b 56dd 593c
00000030: a899 fb3b 4fbd a33a 0274 33bb dbac 22bc

convs.1.nn.4.running_mean f4 [16]
-0.42886984 -0.63114876 -0.55130506 -0.7693747 0.24917659 -0.18909648 -0.41534644 0.16796982
0.037418805 -0.1318101 -0.3278042 0.42713088 0.15471022 0.18554711 -0.24953419 -0.12785019
00000000: d494 dbbe f792 21bf 5422 0dbf bef5 44bf
00000010: 2628 7f3e 82a2 41be 4aa8 d4be 4800 2c3e
00000020: 7644 193d 3af9 06be f4d5 a7be e6b0 da3e
00000030: 5b6c 1e3e 1000 3e3e e485 7fbe 29eb 02be

convs.1.nn.4.running_var f4 [16]
0.06888093 0.19070557 0.19400844 0.1366102 0.13401337 0.11940522 0.077910446 0.094964504
0.19557913 0.086588785 0.064667895 0.0369609 0.06502961 0.22423933 0.19218896 0.038101256
00000000: 7211 8d3d 5248 433e 26aa 463e 8be3 0b3e
00000010: cd3a 093e b98a f43d 838f 9f3d c07c c23d
00000020: e545 483e 7655 b13d 9a70 843d 5064 173d
00000030: 3f2e 853d ff9e 653e 2fcd 443e 1010 1c3d

convs.2.nn.0.weight f4 [16, 16]
0.017122682 0.08788972 -0.15984088 -0.098483466 -0.16443855 0.017435867 -0.091928825 0.1761396
-0.047040947 0.043547403 0.15415302 -0.194749 -0.18518247 -0.09551054 0.16468069 -0.017041136
0.11523365 0.1700362 -0.043964468 0.13453555 -0.05334532 -0.043530226 0.15853475 -0.107913524
-0.09516184 -0.13206626 -0.19899987 -0.21313113 -0.12758978 0.045253098 -0.11934456 -0.102907896
-0.19783175 -0.0141918985 -0.014487325 -0.09698051 0.1239298 0.17852826 -0.23836347 -0.24643956
-0.09122667 -0.19332723 -0.09993158 0.20099427 -0.15701167 0.11647626 -0.22671343 0.081550546
-0.2425421 0.16347408 0.20313582 -0.18927367 -0.060322694 -0.22888294 0.011640162 -0.19151136
-0.12964292 0.14596692 0.22680005 -0.035008203 0.22604403 -0.10068549 -0.16908956 0.16641568
0.13543703 0.17270048 0.15447554 0.19393975 -0.19063959 0.032800272 0.17463675 -0.13830912
-0.06542036 0.04707654 -0.02034889 0.19117571 -0.24165231 0.08740075 0.007808487 -0.14381832
-0.031625137 0.12621267 -0.08750387 0.037368815 0.14291607 -0.09439812 0.23490863 0.22688872
-0.16544917 -0.18547411 -0.0609703 -0.089857996 -0.14662284 -0.0014289016 -0.23366334 -0.05393314
0.20333278 -0.11795666 0.08324051 0.024115322 -0.14773959 -0.21373348 0.19694191 0.13396655
0.03816751 -0.07228984 -0.18502147 0.18733422 -0.1834343 0.12169018 0.17140375 0.17952289
-0.17631015 0.19981557 0.18074605 0.19446643 0.11755739 0.22918183 -0.022003781 0.21564469
-0.24397002 0.05333797 0.15524943 0.09109949 -0.029585157 -0.10989651 0.23945561 -0.06163509
0.12736878 -0.19410776 -0.2244502 -0.24232933 0.19746274 0.22966905 -0.027823808 -0.10377975
0.056561965 -0.23437655 -0.20138736 0.061009686 -0.16994005 -0.024719356 0.23416372 -0.18264693
-0.14249133 0.17225537 0.060230244 -0.020816114 0.22435614 0.14892854 0.013764109 -0.22434662
-0.20922582 0.20362236 0.22992669 -0.1798318 0.026005933 -0.1483524 0.20397028 0.21858989
-0.054406192 0.046874605 -0.00093246583 -0.10600098 0.0121464245 0.083225295 -0.21775149 0.18864399
0.09404832 -0.13846768 0.20599791 0.11930097 0.024860637 -0.15738738 -0.10510362 -0.07685242
0.026367692 0.20077197 0.25242203 -0.07575337 -0.07567209 -0.11276292 0.05057378 0.09825014
0.1274373 -0.054723106 0.20802478 -0.032369882 0.017964989 0.09331491 0.20525807 -0.10259827
0.13542825 -0.06821966 0.01953012 0.16312958 -0.13109669 -0.021281598 -0.22349656 -0.13504545
0.03898873 0.032961216 0.19795148 0.045050208 0.23531729 -0.15350099 0.10129475 0.023576332
-0.2010038 -0.20680735 -0.17884688 0.17975308 -0.0754141 -0.16090278 0.0002877298 0.17874792
0.08476243 -0.15830298 -0.104804486 -0.24535704 -0.029782718 -0.051976413 0.18582365 0.22604716
0.019524682 -0.1699568 0.067243375 0.2401211 -0.07885584 0.17889324 -0.19431037 -0.06339541
-0.17758013 -0.19944601 0.074480414 0.07652269 0.027952721 -0.14344761 0.1598635 -0.051055722
-0.038213726 -0.1298242 -0.059918012 -0.06029836 0.15605588 0.20342955 -0.20417574 -0.16293944
-0.21207547 0.09596104 0.015625887 0.03927371 -0.18448476 -0.14026985 0.1113542 -0.119185455
00000000: de44 8c3c 87ff b33d 54ad 23be b3b1 c9bd
00000010: 9462 28be aad5 8e3c 2e45 bcbd f05d 343e
00000020: 02ae 40bd c35e 323d 4ada 1d3e 486c 47be
00000030: 79a0 3dbe 089b c3bd 0ea2 283e da99 8bbc
00000040: 9fff eb3d f81d 2e3e 1614 34bd b0c3 093e
00000050: 9f80 5abd c04c 32bd ef56 223e c401 ddbd
00000060: 36e4 c2bd 613c 07be 9fc6 4bbe 0c3f 5abe
00000070: e5a6 02be 505b 393d ec6a f4bd 60c1 d2bd
00000080: 6894 4abe 2385 68bc 3f5c 6dbc b89d c6bd
00000090: e8ce fd3d 1dd0 363e 8e15 74be a75a 7cbe
000000a0: 0cd5 babd 93f7 45be eea8 ccbd 71d1 4d3e
000000b0: abc7 20be 1b8b ee3d 9127 68be f903 a73d
000000c0: f55c 78be c065 273e d602 503e f5d0 41be
000000d0: ee14 77bd 4a60 6abe 61b6 3e3c 8e1b 44be
000000e0: 1dc1 04be 5a78 153e 463e 683e c364 0fbd
000000f0: 1678 673e 3234 cebd d025 2dbe df68 2a3e
00000100: 01b0 0a3e 65d8 303e d62e 1e3e 2498 463e
00000110: 0637 43be 9459 063d fad3 323e e8a0 0dbe
00000120: 1cfb 85bd 54d3 403d b7b2 a6bc 91c3 433e
00000130: b473 77be 2aff b23d 56de ff3b 1c45 13be
00000140: 5c89 01bd e53d 013e 3b35 b3bd 0b10 193d
00000150: 9758 123e cd53 c1bd e38b 703e 8455 683e
00000160: 826b 29be edec 3dbe febb 79bd 7807 b8bd
00000170: 4c24 16be fb49 bbba 7145 6fbe ffe8 5cbd
00000180: 7836 503e 4393 f1bd 007a aa3d 7f8d c53c
00000190: 0c49 17be f3dc 5abe 24ab 493e 872e 093e
000001a0: 8955 1c3d b20c 94bd 4576 3dbe 8bd4 3f3e
000001b0: 33d6 3bbe b338 f93d 7784 2f3e d9d4 373e
000001c0: a68a 34be 749c 4c3e 7e15 393e 3522 473e
000001d0: eec1 f03d a4ae 6a3e 4641 b4bc f6d1 5c3e
000001e0: 47d3 79be ea78 5a3d b5f9 1e3e 5f92 ba3d
000001f0: 925c f2bc 6c11 e1bd da33 753e 1375 7cbd
00000200: f66c 023e 2fc4 46be 46d6 65be 2e25 78be
00000210: ac33 4a3e 5d2e 6b3e c1ee e3bc 7a8a d4bd
00000220: 85ad 673d 6800 70be 7d38 4ebe 4be5 793d
00000230: c404 2ebe 3f80 cabc 9dc8 6f3e cc07 3bbe
00000240: 3fe9 11be b663 303e fdb3 763d 8e86 aabc
00000250: 9ebd 653e b980 183e dc82 613c 1fbb 65be
00000260: 4b3f 56be 6182 503e e771 6b3e d425 38be
00000270: 650a d53c b1e9 17be 96dd 503e 07d6 5f3e
00000280: 07d9 5ebd 96ff 3f3d b970 74ba 0b17 d9bd
00000290: cc01 473c 0672 aa3d 3ffa 5ebe e42b 413e
000002a0: 689c c03d 79ca 0dbe 1ef1 523e 1154 f43d
000002b0: 89a8 cb3c 282a 21be 9140 d7bd cd64 9dbd
000002c0: 0f01 d83c 2b97 4d3e 763d 813e 9524 9bbd
000002d0: f8f9 9abd 3ff0 e6bd 7426 4f3d 5f37 c93d
000002e0: ec7e 023e 5625 60bd 7304 553e 4896 04bd
000002f0: 502b 933c e31b bf3d 2c2f 523e 0b1f d2bd
00000300: b4ad 0a3e c0b6 8bbd a1fd 9f3c 710b 273e
00000310: 363e 06be bf56 aebc 48dc 64be 5b49 0abe
00000320: a6b2 1f3d 5702 073d cbb3 4a3e 9186 383d
00000330: 04f7 703e 5d2f 1dbe 9f73 cf3d 2723 c13c
00000340: f1d3 4dbe 4ec5 53be a323 37be 3111 383e
00000350: b572 9abd b3c3 24be 71da 9639 b209 373e
00000360: ed97 ad3d 2d1a 22be bca3 d6bd e03e 7bbe
00000370: e3fa f3bc 38e5 54bd 8e48 3e3e e878 673e
00000380: 3af2 9f3c 2809 2ebe e5b6 893d 4ee2 753e
00000390: 2c7f a1bd ca2f 373e 4cf9 46be 74d5 81bd
000003a0: 91d7 35be 933b 4cbe 3089 983d eeb7 9c3d
000003b0: 1bfd e43c eee3 12be 42b3 233e ce1f 51bd
000003c0: ff85 1cbd a3f0 04be 976c 75bd 6afb 76bd
000003d0: 1dcd 1f3e d64f 503e 7213 51be 99d9 26be
000003e0: 502a 59be 3987 c43d dc01 803c 78dd 203d
000003f0: 93e9 3cbe e6a2 0fbe ac0d e43d 8117 f4bd

convs.2.nn.0.bias f4 [16]
-0.22310083 0.103447944 -0.18104964 -0.1838448 0.18040775 0.23539622 -0.033260837 -0.10315121
-0.031803686 -0.0004474754 0.0020465506 0.110291086 -0.18705161 0.15315358 -0.14646867 0.21149991
00000000: 8b74 64be 84dc d33d 1465 39be d041 3cbe
00000010: cfbc 383e b50b 713e 843c 08bd f140 d3bd
00000020: 9544 02bd 229b eab9 6c1f 063b 4be0 e13d
00000030: 758a 3fbe 4bd4 1c3e e2fb 15be 6f93 583e

convs.2.nn.1.weight f4 [16]
0.9976463 0.99960524 1.0113273 0.9898457 1.002366 1.0056957 0.9991848 1.0005355
0.99419314 1.0057541 1.0148404 0.9975709 1.003586 1.0039037 0.9969395 0.98944587
00000000: bf65 7f3f 21e6 7f3f 2c73 813f 8766 7d3f
00000010: 874d 803f a3ba 803f 93ca 7f3f 8c11 803f
00000020: 7183 7e3f 8dbc 803f 4ae6 813f ce60 7f3f
00000030: 8275 803f eb7f 803f 6d37 7f3f 534c 7d3f
