experiments/results/SHRIROOK/runs/2026-02-05T16:59:13-gin-shrirook/seed_1/best_weights.pt (torch, 119371 bytes, 180 tensors)

conv1.nn.0.weight f4 [16, 1]
00000000: 521a 18bf ce16 c9be a785 263f 5289 38bf
00000010: 6905 3f3f c2b5 2bbf a9b6 a3be 3050 0cbf
00000020: a2bc 773f 6f05 fabe b427 0ebf 683a a6be
00000030: 4d28 413f e580 d03e 74c4 dbbd 6e4a 2abf
-0.5941516 -0.3927521 0.6504769 -0.72084534 0.7461763 -0.67074215 -0.31975296 -0.54809856
0.96772206 -0.4883227 -0.5552933 -0.32466435 0.7545212 0.4072334 -0.1073083 -0.6651982

conv1.nn.0.bias f4 [16]
00000000: 3e85 203f fdb0 eb3e 12b9 56be 56e2 723f
00000010: 4f9e 183f f62b 32be 2515 6d3f d94d 943e
00000020: 7231 3ebf 897e cdbe 92b3 79bf fae3 5abf
00000030: 816f 053f 6f65 bdbc 6ebe 11bf 5b17 5b3d
0.6270331 0.4603347 -0.20969036 0.9487661 0.5961656 -0.17399582 0.9261039 0.28965643
-0.742942 -0.401356 -0.9753963 -0.85504115 0.52123266 -0.023119656 -0.569312 0.05348907

conv1.nn.1.weight f4 [16]
00000000: fdc4 813f a418 7d3f 25d5 813f 7cca 7c3f
00000010: b100 823f a76a 7c3f d39d 813f da51 7c3f
00000020: 745b 7d3f 5931 823f 2783 813f c409 7f3f
00000030: 9ed4 813f b55e 813f cc66 7c3f 9130 7c3f
1.0138241 0.98865724 1.0143172 0.98746467 1.0156461 0.9860024 1.0126289 0.98562396
0.9896767 1.017131 1.011815 0.99624276 1.0143011 1.0107027 0.98594356 0.98511606

conv1.nn.1.bias f4 [16]
00000000: ffee 613c a0b0 23bc 1372 6e3c 2074 3dbc
00000010: 1439 7a3c 6d47 60bc b3d3 403c 5915 6bbc
00000020: aeb5 3abc fda3 973c 5455 303c 39f4 aabb
00000030: 049b 673c 76ec 3e3c c3e7 62bc 5b3f 79bc
0.013789891 -0.009990841 0.014553565 -0.011563331 0.015272398 -0.013688904 0.011769223 -0.014348351
-0.011395855 0.018510813 0.010762531 -0.005217102 0.01413608 0.011653056 -0.013849202 -0.015212859

conv1.nn.1.running_mean f4 [16]
00000000: 8ed6 83c0 0b5d 2bc0 e297 9f40 fcee 99c0
00000010: ffd8 d140 670d b1c0 aa74 d0bf 21dc 82c0
00000020: 2ea3 df40 99b0 89c0 592e adc0 7cbb 5cc0
00000030: 4d95 d140 00c0 4e40 869c b6bf 005b a8c0
-4.1199408 -2.677554 4.9872904 -4.810423 6.557739 -5.532886 -1.6285603 -4.089371
6.9886694 -4.3028073 -5.4119077 -3.4489431 6.549475 3.2304688 -1.4266517 -5.2611084

conv1.nn.1.running_var f4 [16]
00000000: 49a1 b03e 5c5c 1a3e c9b4 d33e 8dfe 013f
00000010: 7b4a 0b3f 611a e13e 0fa0 cc3d 4b4f 963e
00000020: 8048 6a3f b69f 6e3e 2748 9a3e a6f5 d23d
00000030: 846c 0e3f 20f4 253e 4d5e 383c a865 dd3e
0.3449805 0.15074295 0.41348866 0.5077904 0.54410523 0.43965438 0.09991466 0.2935737
0.91516876 0.23303112 0.30133173 0.1030076 0.5563433 0.16206408 0.011252952 0.4324162

conv1.nn.3.weight f4 [16, 16]
00000000: 823f 83be 06a4 1c3a 2dd0 773e 1e9e c53d
00000010: d745 9d3d 4ac5 ae3d ff35 1abe aad1 153e
00000020: b446 23be fc7c 6fbd baf1 e4bd c9d1 70bc
00000030: de79 153e 4f03 1f3e 9356 363e 6c06 f13d
00000040: 3065 c33c 8420 533d aac8 5a3e 86ec f0bc
00000050: bd08 1b3e 546c c33d 0ca0 653c 4e79 b83d
00000060: b6f5 7d3e 7b67 2bbe 3761 333e 6c91 2dbd
00000070: bebe 9dbc 3f0a 45be d824 5c3d 196f b03d
00000080: 8d64 523d e578 093d 9ace 1a3e 8dc7 603e
00000090: 857e 81bd 31e1 943d f03a 65be 7f24 7b3d
000000a0: e979 21be 9a8b 5d3e 8d5b ebbd 6282 4bbe
000000b0: 5a98 b2bd 68f5 ab3d b427 943d e3e3 93bd
000000c0: 3585 11be 12b0 1fbe 3e75 803e f8cc 9e3c
000000d0: a763 2a3d 19ae 82be 2b4f 533e 03d4 bb3d
000000e0: d69b 433e 595f 413d 4f6b 593e 70f6 833d
000000f0: 110f 3bbe f051 1fbd ddad b43d 8cc3 1bbd
00000100: 3eb3 6c3e 63dc 6ebe 6f88 74be d4b7 393e
00000110: 6fbb f3bd 32ae 48be d691 133e f530 64be
00000120: 0ce1 b23c 7e6f 83be 4db8 4fbe ff0d e43c
00000130: 4a5e 06be ff5c ae3c 5d4c 6a3e 2a12 1bbe
00000140: dc96 1abe 9853 133d ec81 233e f478 f23d
00000150: c815 27be 255d b83d d96d 99bd c943 2ebe
00000160: a9ae f73b 7a5f 763e 4881 db3d 128e 2abd
00000170: cf4b 443e 85a9 b43d 74f4 5dbe 3cba e4bd
00000180: c4e6 41be ae41 253d 6a0e aabb f363 413e
00000190: 7522 32be 6071 323e 9dcb 50be 8e31 443e
000001a0: 9171 9cbd 47d8 483d f125 15be 7af0 b2bd
000001b0: 6016 72be 8a17 743d c5e2 8cbd 492b 1abe
000001c0: 3ca0 8d3c f218 053e ccf6 3f3e 62d5 7ebe
000001d0: a8c6 dd3c 544c 293e 6775 ccba 3b50 27bd
000001e0: b57c 40bd 73af 9e3d d9dd 0cbe 8b85 12be
000001f0: 1923 cabd 35b3 533e e4a9 3dbe 2dc7 c6bc
00000200: dbfc 71be 61f3 2bbe ef63 14be e211 0ebe
00000210: d077 e4bd 66db 343e aed2 5ebe 9f0e 243d
00000220: 0bab 67be 03ee 87bb d4d8 9f3d 1221 663e
00000230: 2034 f2bd 26d8 313e 712c 82be 8152 793d
00000240: 2509 0fbe 89c6 c9bd c63a 8a3d 78b2 a2bd
00000250: d1eb f1bd dc7d 7e3d 92cb c5bd e7bc 5dbd
00000260: 9a7b 553e ed95 1b3d e375 103e 9b13 613e
00000270: 15ce b53d a569 743e e6c6 09be 62de a3bd
00000280: 8269 abbd f731 bebc 9bbc 803e 7348 4dbc
00000290: 6239 b13d 88d6 abbd c932 bd3d 4c8c 523e
000002a0: ce68 de3c 19b8 10bc 2e05 71bd 363e 0cbe
000002b0: 574a f83d ad17 46be f214 26bd 1abc 41bd
000002c0: fdec 1e3e 2e48 7e3d bfc5 6fbd d548 5dbe
000002d0: 37c1 323c ad5f 43be 87f3 0f3e 2301 04be
000002e0: 2bcc 513d 045f 1f3e ba99 7cbe 1323 273d
000002f0: d8ec 163e f2fd 0c3d aa39 3dbe 9536 11be
00000300: c30c 453e 48c5 c33c 34b2 e4bd 937b c63d
00000310: e542 2e3e c604 0cbe df5f 44bd 559b 1e3e
00000320: fe51 2bbd 284d 943c dd49 49bd 3ce5 ce3d
00000330: 3b5e 62be 5a92 2fbb 2d65 353e a3fa 683e
00000340: 4c8b f2bc 2581 543e 637f 213e 8f74 97bd
00000350: b2a0 d7bd d7a8 b6bd 21bf babc d4fc 3f3e
00000360: 6b05 8eba 1a8f 083e 619e 683e 55f5 c4bd
00000370: 9f21 a93c 55cf ca3c d91d 04be 85b8 b93d
00000380: 8a5e 513e afae 1c3e a8fe 57be 41f4 4ebe
00000390: 5439 423e 64b9 273e 52d3 93bc 5fc8 45be
000003a0: 1f12 31be 8943 7a3e d434 78be f63f 1c3e
000003b0: bca5 3bbd a1f1 2a3e 850e 1dbd 269e 2b3e
000003c0: 72bf 61be f082 363d 6fb9 d33d 38a6 713e
000003d0: 9773 5c3e 437f 79be 9e35 c73d 0b51 4f3e
000003e0: 113b 45bd dd6b 3a3c c3fa 61bd ddad 20be
000003f0: b876 34be 10a2 0ebe eb6c 9b3c 0b3d 70be
-0.2563439 0.0005975369 0.24200507 0.09649299 0.076793365 0.08533724 -0.1505966 0.14630762
-0.1594494 -0.058468804 -0.11178918 -0.014698454 0.1459727 0.15528606 0.17806463 0.11768803
0.02385196 0.05154468 0.2136561 -0.029409658 0.15140052 0.09542146 0.014015209 0.09007512
0.24800763 -0.16738693 0.17517553 -0.042375013 -0.019255992 -0.1924219 0.053746074 0.0861494
0.051365424 0.03356256 0.15117875 0.21951123 -0.0632296 0.07269514 -0.22385764 0.061314102
-0.15769161 0.21635285 -0.11492071 -0.19873956 -0.08720465 0.08396417 0.07234135 -0.072212
-0.1421097 -0.15594509 0.2508945 0.019384846 0.041598942 -0.2552345 0.20635669 0.091712974
0.19102415 0.04721007 0.21232341 0.064434886 -0.18267466 -0.0388965 0.08822224 -0.038028285
0.2311525 -0.23326258 -0.2388017 0.18136531 -0.119009845 -0.195977 0.14411101 -0.222843
0.021835826 -0.25671 -0.20285149 0.027838705 -0.13121906 0.021284578 0.22880693 -0.15143648
-0.15096611 0.035968393 0.1596753 0.11839476 -0.16316903 0.09002141 -0.07491655 -0.17018045
0.007558663 0.24059859 0.10718018 -0.041639395 0.19169544 0.08821396 -0.21675283 -0.11168334
-0.18935686 0.04034584 -0.0051897066 0.18885784 -0.17395957 0.17426062 -0.20390172 0.19159529
-0.076388486 0.049034383 -0.14565255 -0.087372735 -0.23641348 0.05959276 -0.0687919 -0.15055574
0.01728832 0.12997797 0.1874649 -0.24886087 0.027072266 0.16533023 -0.0015598953 -0.040847998
-0.04699393 0.07748308 -0.13756503 -0.14308755 -0.098699756 0.20673831 -0.1852184 -0.024264896
-0.23631613 -0.1679206 -0.14491247 -0.13874009 -0.11155665 0.17661819 -0.21760055 0.040053006
-0.22623841 -0.0041482463 0.078050286 0.22473553 -0.11826348 0.1736761 -0.2542453 0.060869697
-0.13968332 -0.09852321 0.067494914 -0.079441965 -0.118125565 0.062131748 -0.096579686 -0.05413523
0.20847932 0.037984777 0.1410747 0.21980135 0.08877198 0.23868425 -0.1345478 -0.080014005
-0.083697334 -0.023217184 0.25143895 -0.01252948 0.08653523 -0.08390528 0.09238202 0.20561332
0.027149584 -0.008832955 -0.05884283 -0.13695607 0.12123554 -0.19344969 -0.04054732 -0.04729853
0.15520091 0.062080555 -0.058538195 -0.21609814 0.010910324 -0.19079466 0.14057742 -0.12891059
0.0512201 0.1556359 -0.24668017 0.040804934 0.14738786 0.03442187 -0.18479028 -0.14180978
0.1924315 0.023897782 -0.11166802 0.09691539 0.17017706 -0.13673696 -0.047942992 0.15488942
-0.04182624 0.018103197 -0.049142707 0.10102317 -0.22106259 -0.0026790113 0.17714377 0.2275186
-0.029607438 0.2075239 0.1577125 -0.07395279 -0.10528697 -0.089189224 -0.022796215 0.1874879
-0.0010835355 0.13335839 0.22716667 -0.09617106 0.020645915 0.024757067 -0.12902011 0.090683974
0.2044622 0.15301012 -0.21093237 -0.20210363 0.18967181 0.16379315 -0.018045101 -0.19314717
-0.17292069 0.24439825 -0.24238902 0.15258774 -0.045812353 0.16693737 -0.038343925 0.16759548
-0.22045687 0.044558465 0.10338103 0.23598564 0.21528469 -0.24364953 0.097270235 0.20245759
-0.048152033 0.011378256 -0.055170786 -0.15691324 -0.17623413 -0.1392901 0.018972835 -0.23460786

conv1.nn.3.bias f4 [16]
00000000: 0f01 2e3c 3e16 5cbd 85c1 e6bc 9cda 09be
00000010: 6156 553e 369f 353e 5481 72be 11c3 443e
00000020: 36cb fe3d 6a41 0dbd 20fb 0e3e d1c2 93ba
00000030: d6b9 373e 43fa e4bd 5470 67be c459 0a3d
0.01062037 -0.05373215 -0.02816845 -0.13462299 0.20833732 0.17736515 -0.23682147 0.19215037
0.12441103 -0.03448621 0.13962984 -0.001127327 0.17941985 -0.11180546 -0.22601444 0.033777013

conv1.nn.4.weight f4 [16]
00000000: 423c 7c3f 0bda 813f ec79 7c3f 7031 7c3f
00000010: d5d5 813f e5bd 7c3f 0676 7c3f 0fa6 813f
00000020: c6cc 813f 5aa5 813f cfb0 813f 22b7 7c3f
00000030: c5c8 813f 60e0 813f c180 7c3f 18cc 813f
0.98529446 1.0144666 0.9862354 0.98512936 1.0143381 0.98727256 0.9861759 1.0128802
1.0140617 1.0128586 1.0132083 0.9871694 1.0139395 1.0146599 0.9863396 1.014041

conv1.nn.4.bias f4 [16]
00000000: 11c5 6abc d0f3 673c 1404 5ebc 483a 6ebc
00000010: 4b19 6e3c bf62 5abc 48d0 60bc 3e54 5c3c
00000020: 7694 683c 9e4b 5b3c 15f5 5e3c 40e1 5cbc
00000030: b439 603c 1e93 6b3c c453 5bbc 35b8 683c
-0.014329211 0.0141572505 -0.013550777 -0.0145402625 0.0145323975 -0.013329207 -0.013721533 0.013447819
0.014195552 0.013384728 0.013608237 -0.013481438 0.0136856325 0.014378337 -0.0133866705 0.014204075

conv1.nn.4.running_mean f4 [16]
00000000: 3ed2 7d3e 9c1f a03e 1063 e6bb ab84 8c3d
00000010: 4c6d 73be d4aa 773e c07e 10bf d584 123e
00000020: 7045 9dbe 09dd cb3d dafb 423e f170 2bbe
00000030: 7a10 e33e 3712 0f3e 76b2 80bd 9bce 0bbe
0.24787232 0.31274116 -0.007030852 0.06861242 -0.23772162 0.2418626 -0.56443405 0.14308484
-0.3071704 0.099542685 0.19041386 -0.16742302 0.44348508 0.13971792 -0.06284039 -0.13653032

conv1.nn.4.running_var f4 [16]
00000000: b72f 783d ae01 983b 2b36 023c 83dd 8a3b
00000010: 1b58 a83b 6b5f 523d 568f 7d3c 22d3 e43d
00000020: 89ee 983b ca09 003e a1d2 803d 3ce1 013e
00000030: e77d 693e 18a1 cc3c 6deb 5c3d eaea 8c3c
0.06059238 0.004638872 0.007947485 0.004237832 0.005137456 0.05136053 0.0154760685 0.11173083
0.0046671075 0.12503734 0.06290174 0.12683576 0.22801934 0.02497916 0.053935457 0.01720186

convs.0.nn.0.weight f4 [16, 16]
00000000: 2d45 4fbe 0f7a 84bd a086 fc3d 5a4d 65be
00000010: 8f98 28be 4ef4 0d3e b1fb 03be 8492 e53d
00000020: 3e92 c43d 4a9f 56be f0b5 51be b66c 67be
00000030: 4e0d ad3d d109 1d3d f0f7 2dbe e0e7 13be
00000040: 6a78 17be 2d71 e2bd bc38 053e 66c1 4e3e
00000050: 20b2 103e 3ffb 4bbd 6dd1 2a3e 855c 0fbe
00000060: a21d 3ebe c7a4 2f3d 9395 063e 1b25 fb3d
00000070: be7a 573e 7192 643d 2071 093e 645f 3f3d
00000080: a769 273e 1805 ca3d 0155 083a bde8 43be
00000090: 8c3a dbbd b389 e83d 784f 4bbe bef7 edbd
000000a0: 16cc 233e 111d 4c3d d573 3abe 5067 9fbd
000000b0: 9f77 27be b064 0fbe 3551 2cbe 88e5 f7bc
000000c0: 3207 f6bd 4f26 0b3e ff95 10be 38cc 0cbe
000000d0: 055d 503e e14b d73c f7f2 983d 6ba7 b0bd
000000e0: e653 ae3d d1a6 843e cc58 483d ebad 45be
000000f0: 3e54 db3d 940d 74be 8c3e 3b3e 27f8 32be
00000100: 247e efbd a594 6e3d 5147 2fbe b99d b6bc
00000110: b917 4d3e f26e 82bd a226 c1bd baad 3a3e
00000120: 56c5 37be 3b0a 6dbe ac26 68be 6a5d 10be
00000130: 3f12 aabd bb8f a83d 667c 07be 74c7 a1bd
00000140: dc41 18bd 66ed 7bbe 19eb 543b 2db2 943d
00000150: 9a2a 78be 630b 043e 0b68 4c3e c8b2 13bd
00000160: 63b4 04be e6a3 ec3d aaea 3abd 0eee 6e3e
00000170: 493e f9bd 377c babd db33 b0bd f048 e3bd
00000180: 3670 33be 3b4d 2dbe 2b4f 52be 7143 123e
00000190: 260b 3e3d 1b27 a43d 1475 043e 93e6 f4bc
000001a0: 90c1 7abe 1df6 6f3b 903e 413e e831 31bd
000001b0: 385e 7fbe 011f 443e d341 f33d 38a7 303d
000001c0: df8d 97bd 9f5c 813d b874 d1bd 2930 413e
000001d0: be71 cabd 31fb 513e 3e32 eebd 0ae5 53be
000001e0: c022 03bd a65c 2ebe 0a68 cd3d f741 b0bd
000001f0: d77d 03be 07aa d5bd 9580 24be 6c77 77be
00000200: b3bf 0f3e ce23 11be cf89 78be 53d3 cb3c
00000210: 3803 6d3d 3a49 3cbe 4e2c ecbd 5197 dd3d
00000220: c1d6 cd3d da4d 683e ff0a 413d d7b0 07be
00000230: 685c a53d add3 0e3e 9bcd 8d3d 5fb2 f03d
00000240: 584b f6bd beca dabd dc01 80bd 7d5a 4abe
00000250: e4e2 1b3d 59db 3c3d 7944 6d3e a058 133e
00000260: c148 823e 34c8 8f3d 7528 053e 29bc f83d
00000270: 982f 2e3e cdf1 273e a109 103d 3634 27be
00000280: e41c d83d 9413 c1bd 4a4b 143e a580 8f3d
00000290: 2d8d 223e c14a 49be 2084 2e3c 6eaf 5a3e
000002a0: 0dc7 fc3d 5bda 3e3e 865d f83d aec1 61be
000002b0: 28cf 6abe d584 ddbd 0624 523e 8651 0d3e
000002c0: dc36 32be 3862 183d c024 423e 9ff2 753e
000002d0: 77de 59be c70e 623c 6841 713e 0f39 fc3d
000002e0: 7483 eabd 6864 123e aafb 56bd 324f 583d
000002f0: d896 39be 7aa1 4b3d 7b71 1f3e b9f1 193d
00000300: bb18 e53d 10f6 f53d 27d7 543d 91cf d1bd
00000310: 28b3 32be be26 7bbe 0d67 403d 6ae9 84bd
00000320: 40e2 4e3d 661c 64be bbd0 233e 5108 bc3b
00000330: ff5c aebd 5d5d 09bd 54d7 36be 2074 8ebd
00000340: e321 f1bd 2f69 b53d 7bf2 7d3e 9f07 333e
00000350: ff48 e13d 6d76 bb3d f21d 713e 0d66 963d
00000360: 940d 553e bc59 3f3b dcdf 6cbe 798f 2dbd
00000370: 9a11 533e f399 32be 60e9 743c 1ec0 77be
00000380: f1cc 94bd 31cb ae3d 5979 56bd 3630 fc3c
00000390: c34b 2fbd 1f0c 54bd 8eb2 98bd dbae 03be
000003a0: d34f 2c3d d277 20be c9db 4cbe 3cde d3bc
000003b0: c9c0 9bbd b7c3 f13d 9e78 b3bc 47da 12be
000003c0: 60f2 6ebe af5f 6ebe 4e4a 17be 9ba7 5cbe
000003d0: 1236 4cbc ff71 7ebe bd06 6c3e 9300 1c3e
000003e0: bc4e f4bd 47f9 7c3e c495 0c3e f795 1e3d
000003f0: 75e4 473c 65eb d2bd d4c5 c83c 7251 e5bd
-0.20241232 -0.06468593 0.12330365 -0.22392789 -0.16464446 0.13862726 -0.12888981 0.11209586
0.09598206 -0.20959201 -0.2047956 -0.22600064 0.08449803 0.03833944 -0.16989112 -0.14443922
-0.14792028 -0.11056743 0.13009924 0.20190963 0.1413045 -0.049800154 0.16681452 -0.14000137
-0.18565992 0.042881753 0.13142996 0.12262937 0.21042916 0.05580372 0.1342206 0.04672183
0.16348897 0.09864253 0.0005200655 -0.19131751 -0.10704526 0.11354389 -0.19854534 -0.11619519
0.15995821 0.049832407 -0.18208249 -0.07783377 -0.16354226 -0.14003253 -0.16827853 -0.030260816
-0.12013091 0.13588832 -0.14119719 -0.13749778 0.20347984 0.0262813 0.07468217 -0.086256824
0.08512096 0.2590852 0.04891281 -0.19304626 0.10709427 -0.23833305 0.18285578 -0.17477475
-0.11693981 0.058247227 -0.17117049 -0.022292005 0.2002858 -0.063688174 -0.09431197 0.18230334
-0.17946371 -0.23148434 -0.22671002 -0.14098135 -0.083042614 0.082305394 -0.13231048 -0.07899371
-0.037172183 -0.24602279 0.0032488762 0.07260547 -0.24235001 0.12894969 0.19961564 -0.03605917
-0.12959437 0.11554699 -0.04563395 0.23332998 -0.12170083 -0.09105723 -0.08603641 -0.11097896
-0.17523274 -0.16923992 -0.20538013 0.1428354 0.04639735 0.08015271 0.12935287 -0.029895103
-0.244879 0.00366152 0.18871522 -0.043260485 -0.24938285 0.19152452 0.11877789 0.043128222
-0.07400107 0.06316494 -0.102273405 0.18866028 -0.09884976 0.20505978 -0.11630677 -0.2069284
-0.032015562 -0.1702753 0.100296095 -0.08606332 -0.12840973 -0.10432821 -0.16064675 -0.2416665
0.14037971 -0.14173815 -0.2427132 0.02488104 0.057864398 -0.18387309 -0.11531888 0.10819877
0.10050727 0.22685948 0.047129627 -0.13251053 0.08074266 0.13947935 0.06923982 0.117527716
-0.120260894 -0.10683201 -0.06250355 -0.19761081 0.038058177 0.046107624 0.23170651 0.14389277
0.25446132 0.070206076 0.13003714 0.12145264 0.17010343 0.16400833 0.035165433 -0.1632851
0.105523854 -0.09427562 0.14481845 0.07006959 0.15874167 -0.19657423 0.010651618 0.21355984
0.123426534 0.18637984 0.12127213 -0.22046539 -0.22930586 -0.10816351 0.20521554 0.1380063
-0.1740374 0.037203044 0.18959332 0.24018334 -0.2127627 0.0137974685 0.23560107 0.123155706
-0.11450854 0.14296114 -0.0524861 0.0528099 -0.18123949 0.049714543 0.15570633 0.03758404
0.111863576 0.12009823 0.051962998 -0.10244668 -0.17451155 -0.24526498 0.046973277 -0.06489833
0.050508738 -0.22276458 0.15997593 0.005738296 -0.08513831 -0.033536304 -0.17855579 -0.06955743
-0.117740415 0.08857953 0.2479953 0.17483376 0.11000251 0.09153447 0.2354658 0.073436834
0.20805961 0.0029197773 -0.2313227 -0.042373154 0.20612183 -0.1744154 0.014948219 -0.2419438
-0.07265652 0.085348494 -0.05236182 0.030784708 -0.04279686 -0.051769372 -0.074559316 -0.12859671
0.042068314 -0.15670708 -0.20005716 -0.025862806 -0.0760513 0.11804908 -0.0219081 -0.14341079
-0.23334646 -0.23278688 -0.14774439 -0.21548311 -0.012464063 -0.24848174 0.23049445 0.15234594
-0.1192908 0.24704467 0.13729006 0.038717236 0.0122004645 -0.10298804 0.024508394 -0.11197175

convs.0.nn.0.bias f4 [16]
00000000: 310d 2cbe f932 4c3e 21c0 b33d 3320 15be
00000010: 88e0 9bbc 0f91 b0bd 8851 e9bc 5b28 6cbe
00000020: a70e eb3d 9c7a 033e 0334 e3bc 0961 10be
00000030: 2538 5b3e 91dc 0dbd 4366 263e 3e75 793e
-0.16801907 0.1994132 0.0877688 -0.14563064 -0.019027963 -0.08621418 -0.02848126 -0.2306227
0.11477404 0.1283974 -0.027734762 -0.14099516 0.21408136 -0.034634177 0.16249947 0.2436113

convs.0.nn.1.weight f4 [16]
00000000: 408c 7c3f 8433 823f 72f8 813f 85e5 813f
00000010: 699e 813f 62e6 7c3f 53ea 813f b3b4 813f
00000020: 0ba0 813f 6764 813f 6b94 7c3f d060 7c3f
00000030: f5af 7b3f d968 813f a7c9 7c3f 3812 823f
0.98651505 1.0171971 1.0153944 1.0148169 1.0126468 0.98789036 1.0149635 1.013327
1.0126966 1.0108765 0.9866397 0.98585224 0.98315364 1.0110122 0.987452 1.016181

convs.0.nn.1.bias f4 [16]
00000000: a431 64bc c44a 893c 6dbe 803c b60c 773c
00000010: 5335 563c c9b7 44bc b6c4 7b3c ce74 5b3c
00000020: f0d1 443c cae3 3e3c 5e6f 56bc 6b73 6cbc
00000030: 2a37 88bc 5dcb 3e3c b311 53bc 7cf0 863c
-0.013927851 0.016759284 0.015715802 0.015078714 0.013074237 -0.012006708 0.015366724 0.013394548
0.012012944 0.011650989 -0.013088075 -0.014431815 -0.016627867 0.011645165 -0.012882638 0.016472094

convs.0.nn.1.running_mean f4 [16]
00000000: 5e9a a3c0 edbd 3540 4782 33c0 1b9b 92bd
00000010: 61fe 84c0 6672 d4bf 0a66 30bf 9936 7ec0
00000020: 40fe cf3f 3f6e 3e40 c0a0 2e40 b5b9 ec3f
00000030: ead0 17c0 4c6d 0640 a1c3 4dc0 8caf 09c0
-5.1125937 2.8397171 -2.8048265 -0.0715849 -4.156052 -1.6597412 -0.689057 -3.9720824
1.6249466 2.975479 2.7285614 1.8494173 -2.372126 2.100421 -3.2150652 -2.1513395

convs.0.nn.1.running_var f4 [16]
00000000: 9a56 9d41 d406 8f40 c3d5 3440 f41e bc3f
00000010: 7d5b 7d40 bb68 b63f ef13 113f 8eba 0e3f
00000020: 76c1 6b40 cf57 2440 f0b1 b640 9ada 2340
00000030: ac8f ba3f 1614 c240 cddc 0541 b5f4 8540
19.667286 4.4695835 2.825547 1.4696946 3.958709 1.4250711 0.5667104 0.5575341
3.683683 2.5678594 5.709221 2.5602174 1.4575095 6.064952 8.366406 4.1861215

convs.0.nn.3.weight f4 [16, 16]
00000000: f213 753d 8030 353c 7ca1 2f3e d0cc 25be
00000010: 3009 29bd 7984 4f3e 77be 8cbc 9868 393e
00000020: 8805 60be 84b0 363e b6ce 443e 69f2 573e
00000030: 010c 0cbe 1890 8b3d b58e 23be 4062 0d3e
00000040: 677a 54be 0019 14be e8fa b03d 6675 643e
00000050: 4e3d 253e 2b43 43bd f504 8c3d 296d 493d
00000060: 2f15 4c3e f4a6 233e 3bba 1b3e cf1f 463d
00000070: b4e4 643e 9cb3 5fbe 9c5b a23d a532 823d
00000080: 6f08 bebd 0608 613d 2fbc 443e c360 e53d
00000090: eb71 193e bc99 943c f209 3b3a a8c5 a5bd
000000a0: 17b0 bfbd 56b3 7c3d f9b6 7c3e cab9 0fbe
000000b0: b9cc 173c dc0f 783e 486b 4fbd 05fb 65bd
000000c0: c534 6dbe d3df 3f3d b8cf 61be c8c8 57be
000000d0: cb91 833e 4a8d a8bc 8157 f93d c8c3 053e
000000e0: a87a 41be aa42 3fbe 83b5 0c3e be72 3a3a
000000f0: 1965 14be 90ea 123e 7c7e 82be c13d 833e
00000100: 3ce7 5bbe ee21 1e3e 220b 6e3e ac73 d1bc
00000110: 267d b5bc 7de8 50be f111 40be 4067 02be
00000120: b4dd 203e 5064 14be 6f16 3d3e 5539 6fbe
00000130: 4e16 113c 9f54 8cbb da7c 5c3d 63c4 d1bd
00000140: b2d9 c9bd 5ada 73be 7955 f43d ec9a 04be
00000150: 44cc 2c3e ff18 e83d 6622 043e 66b8 f63d
00000160: 29e0 1fbe 17a1 6a3e 7826 debd 3fa5 0b3e
00000170: bb57 073e 8eb8 403e 0fa1 63be 9b05 243e
00000180: 7fdc 433e 056d 81bd 0f1f dfbd ec40 313e
00000190: a769 46be 6efb eebc 54c5 833e 92bd a43d
000001a0: fc7a 6fbe 5ea6 863e 2579 53be 814d 2e3e
000001b0: 815f a43d 2179 82bd b481 a3bd eea7 82bd
000001c0: b209 05be 3cf9 22be 4d8f 86bd 1d17 223e
000001d0: 573c 013e df32 4fbe d9e7 553e 120f 2a3e
000001e0: bc01 b4bd b7ba 7a3e 40f0 4a3d 8401 a7bd
000001f0: 37c1 52be 1d92 cbbc e606 22be 4fe9 513e
00000200: e86d e3bd 99d8 5abe 694a 4d3e c1fa f2bd
00000210: 154b 273e 81de 4b3e 06f2 d63d 3e45 5fbe
00000220: aaf6 5bba 9f17 1e3c cf3d 21be 84f1 623e
00000230: 9217 4bbe 11e8 61be 84a1 63be 4a64 293e
00000240: 50f9 43be 3b5b 0abe c700 653e 722b 24bd
00000250: 41bf 453e e85f d7bd 8539 4a3d 361e 01be
00000260: 3f55 a5bc bce5 a8b9 05f6 6d3e 5700 173e
00000270: bb7c d2bd a776 5abe 5d8d 46bc 3b3c 7a3d
00000280: c42d e83d de42 523e ef89 1dbd 053a 41be
00000290: beac 093e 80f9 b4bd 1985 153e 3d0c e73d
000002a0: 71ef 563e 36c5 3bbe d152 07bd bc09 38be
000002b0: 03c0 52be 9402 7abe 0e0f dcbd ed76 68be
000002c0: 2120 9dbd 06f0 afbd c23d 5cbd 3314 3b3c
000002d0: d053 123e 5e68 3ebe 680e c93d 53c1 f23c
000002e0: 3cbd 8dbd 86c1 f93d 30b4 5bbc 49c3 84bd
000002f0: 404d 583d de66 95bc 5e56 6ebe d511 0cbe
00000300: 9444 ed3d b28f 08be 3751 2abe 455e a03d
00000310: 6d19 2fbe 0eea bc39 3d98 2cbe 41ea e53c
00000320: 733f ac3b de93 a43d dfd9 86bd d603 71bd
00000330: eba2 9cbd 65cf 4fbe 73fc 363e b186 ff3d
00000340: 1067 643e e32b b93d fc4f aebd 5c6a 5d3e
00000350: 44c5 1ebe 52f6 3dbc ed65 6bbe 3fe6 0ebe
00000360: b3dd 223e 5131 debd a56d 463e f68e 1c3e
00000370: 14b7 f6bd db09 bfbd 952b 343e e194 3c3e
00000380: 001d 35be c28a 3f3d f9fa 1ebd f638 03be
00000390: 9c91 58be 6388 053e 13b6 9dbc 98f2 4c3e
000003a0: b021 293e 41b9 60be 11a4 433e 1588 153e
000003b0: 5f18 103e 6042 c3bc b129 fd3d 6443 7cbe
000003c0: 1433 3d3e 81de cfbd 5698 9ebd 271e 3ebe
000003d0: 55ce bb3c e0f6 0c3e 1390 50bd 4ed1 413e
000003e0: 39e7 71be 0c24 303c d760 0a3d c87c 9a3d
000003f0: 4eba 13be 49bf 54be 4015 3fbd 1137 82be
0.059833474 0.011058927 0.17151445 -0.16191411 -0.041268528 0.20265378 -0.017180664 0.18106306
-0.2187711 0.17840773 0.19219479 0.21088566 -0.13676454 0.06814593 -0.15972407 0.1380701
-0.20749818 -0.14462662 0.086416066 0.22310409 0.16136667 -0.04767148 0.06836883 0.04917637
0.19929956 0.15981656 0.1520776 0.04837018 0.22352868 -0.2184586 0.07927629 0.06357316
-0.09278952 0.054939292 0.19212411 0.112000965 0.14984863 0.018139713 0.0007134966 -0.080943406
-0.09359758 0.061694466 0.24679174 -0.14035717 0.009265118 0.242248 -0.05063942 -0.056147594
-0.23164661 0.046844315 -0.22051895 -0.21072686 0.2569717 -0.020575184 0.12174893 0.13062966
-0.18894446 -0.18677774 0.13741116 0.0007112435 -0.1449169 0.14347291 -0.25487125 0.25633052
-0.21474928 0.1544263 0.23246434 -0.025567852 -0.022154402 -0.20401187 -0.18756844 -0.12734699
0.15709573 -0.14491391 0.18465589 -0.23361714 0.0088554155 -0.0042825486 0.053830005 -0.10242536
-0.09855975 -0.23813763 0.11930365 -0.12949723 0.16874796 0.113328926 0.12903747 0.1204689
-0.15612854 0.22913013 -0.10847181 0.13637255 0.1321706 0.18820402 -0.22229408 0.16017763
0.19127081 -0.06319622 -0.10894596 0.17309922 -0.1937624 -0.029172625 0.25736487 0.0804397
-0.23386759 0.26298803 -0.20651682 0.17021753 0.080260284 -0.0637076 -0.07983723 -0.06379686
-0.1299198 -0.15915388 -0.06570301 0.1582913 0.12620674 -0.2023425 0.20889224 0.16607311
-0.08789393 0.24485289 0.049545527 -0.08154586 -0.20581518 -0.024849946 -0.15822944 0.20499156
-0.11104947 -0.21371688 0.20047916 -0.11864234 0.16337235 0.19909097 0.10495381 -0.21803758
-0.0008390943 0.009649186 -0.15746234 0.22162443 -0.1983321 -0.22061183 -0.22229582 0.16542163
-0.19138074 -0.13511364 0.22363578 -0.040080495 0.19311239 -0.105163395 0.04937126 -0.12609181
-0.02018225 -0.00032214622 0.2323838 0.14746223 -0.10277697 -0.21334325 -0.012118665 0.061092597
0.11336854 0.2053332 -0.03846162 -0.18869789 0.13444802 -0.08836651 0.14601554 0.11281631
0.20989777 -0.18336949 -0.033037964 -0.17972463 -0.20581059 -0.24415046 -0.10745059 -0.22701617
-0.07672144 -0.08590703 -0.053769834 0.01141839 0.14289784 -0.185945 0.09817201 0.0296332
-0.06920859 0.12195115 -0.013409659 -0.0648256 0.052808046 -0.018237527 -0.23275134 -0.13678677
0.11585346 -0.13336065 -0.16632544 0.078304805 -0.17099543 0.0003603254 -0.1685495 0.028065803
0.005256587 0.08036016 -0.06584524 -0.05884155 -0.07648262 -0.20293958 0.17869739 0.12476862
0.2230494 0.09041574 -0.085113496 0.21622604 -0.15504938 -0.011594372 -0.229881 -0.1395502
0.15904884 -0.1084925 0.19377764 0.1528891 -0.12046638 -0.09328052 0.1759475 0.18416168
-0.17686844 0.04676319 -0.038813565 -0.12814698 -0.21149296 0.13040309 -0.019251859 0.20014417
0.16516757 -0.21945669 0.19105555 0.14602692 0.14071797 -0.023835361 0.12361468 -0.24635082
0.18476516 -0.10149861 -0.077438995 -0.1856619 0.022925535 0.1376605 -0.05091865 0.189275
-0.2362336 0.010750782 0.03378376 0.075433314 -0.14426538 -0.20776094 -0.046651125 -0.25432637

convs.0.nn.3.bias f4 [16]
00000000: f832 5bbe a797 2e3c 395f 3dbe c49a 53be
00000010: 3091 1a3e 8aaa 4b3e b7d1 333e a0f3 33be
00000020: 8629 f03d d4c4 3cbe 5c60 fa3d 4238 763e
00000030: 0d4c 9bbc 3b4b 063e aa2f 0bbe 3d61 4bbc
-0.21406162 0.010656274 -0.18493356 -0.20664507 0.15094447 0.19889274 0.17560469 -0.17573404
0.1172667 -0.18434459 0.1222541 0.24044898 -0.018957162 0.13114636 -0.13592401 -0.01241332

convs.0.nn.4.weight f4 [16]
00000000: d775 7c3f c4c7 813f 5888 813f f05e 7c3f
00000010: 9a26 823f 23cf 7c3f 7fb5 813f 9978 813f
00000020: 430d 823f 8284 7c3f 66db 813f fc93 813f
00000030: f960 7c3f 7811 7c3f 01f9 813f 4575 7c3f
0.9861731 1.0139089 1.0119734 0.98582363 1.016803 0.98753566 1.0133513 1.0114928
1.0160297 0.9863969 1.014508 1.0123286 0.9858547 0.98464155 1.0154115 0.9861644

convs.0.nn.4.bias f4 [16]
00000000: 8ce1 64bc 632e 653c d07b 453c 4f3d 69bc
00000010: 2f94 8a3c 7fc1 4bbc 14e7 5b3c 6296 3e3c
00000020: 496d 823c 3369 5fbc 6eed 6b3c 8d60 4f3c
00000030: 6529 67bc a53c 7cbc 4f74 813c 3da2 64bc
-0.01396979 0.01398811 0.012053445 -0.0142358085 0.016916363 -0.01243627 0.013421793 0.011632534
0.015921252 -0.013635921 0.014399869 0.012657297 -0.01410899 -0.015395318 0.01580253 -0.013954696

convs.0.nn.4.running_mean f4 [16]
00000000: 1097 f73d 996f ea3e bc5a d93d f014 c1be
00000010: f783 a1bd 07f3 f23e 32c7 843e de29 09be
00000020: d428 9abd 9f97 4fbe 9a70 1ebe cb51 153c
00000030: e4f9 75be ccf6 b03e 592e e3bd 45a8 b2be
0.1208936 0.45788267 0.10613009 -0.37711287 -0.078864984 0.4745104 0.25933224 -0.13394877
-0.075273186 -0.20272683 -0.15472642 0.009113739 -0.24021107 0.3456329 -0.110928245 -0.34894004

convs.0.nn.4.running_var f4 [16]
00000000: 3c16 ab3d efff 2e3d 79fe e83b be6a ba3c
00000010: 6fbc 453e db37 a33d d36a c83d 10e4 203d
00000020: 7721 e13d ad26 d53d ced8 393e e9ba 413c
00000030: 0587 ee3c 00a1 353d 17a6 c83e 02ef 9c3d
0.0835385 0.042724546 0.0071104136 0.022755977 0.19310163 0.07969638 0.09786 0.039279997
0.10992711 0.104077674 0.1814911 0.011824348 0.029117117 0.044342995 0.39189216 0.076627746

convs.1.nn.0.weight f4 [16, 16]
00000000: 0492 f2bd e659 75be cb7b 1dbe 1e12 75be
00000010: 5f3e 2a3e a71f 11be 361e 7c3e ce71 663e
00000020: befb 753e 6599 87bd 5528 003e d5d2 70be
00000030: 7860 923d 9d58 8d3d 27d4 373e d0a4 d3bb
00000040: 7fc7 c23d b2ff d13c a2b7 20be 4bcd 39be
00000050: e19f 43be a126 f93d b734 74bc 277f 643e
00000060: 312f 5d3e 877b 6c3e 08ee d4bd 1422 5dbe
00000070: edb7 843d 7e9b 59be 96fd 81bd 1f71 f43a
00000080: 27a1 56be 8f7c 42be 5f36 23be 6c8a 183d
00000090: 8d9f 3e3e 935f fd3d c24f 07be bf88 a13d
000000a0: ffb5 813e 45c6 af3d 180a 123e 7faa 113e
000000b0: d7c3 8f3b 2a8e 663d f231 40be 0527 6bbe
000000c0: 85a4 30bd c6ea 12be e325 053e 24ed acbc
000000d0: bb58 333e 423c c03d c0a4 16be cbe4 0fbe
000000e0: dd26 52be 8a7d 5c3e 196b c6bd 1838 c2bd
000000f0: c9e3 1b3e 2f61 33be 660f b23c c578 6b3e
00000100: aa9c f63c d7cb b23c 2312 be3d 3d47 4a3e
00000110: c437 7d3e e6c4 a23d 164a e7bc 35e0 d7bd
00000120: 3693 203e 5ca1 6d3d 4ded 4fbd 15e2 653e
00000130: 29a4 69be 1adc bb3d 0c06 21be 6df1 39be
00000140: 8b94 3e3e 957d a73d b96d 9a3d 890a 62be
00000150: c769 68be 0993 bc3c cd1f 6e3e 975f ecbd
00000160: e3a2 e83d 8021 2abd 0cb1 543e 1b96 37be
00000170: ae08 c63c 3187 41be aa98 dcbb 6f6b 623c
00000180: 85d2 033e 0987 aebd f7da 683e 2b3b 853c
00000190: 0536 823e c5fc 563e 6488 d03c 5148 46be
000001a0: 919a 043e bc40 bf3d 1066 7c3c b6c1 c93d
000001b0: a272 4d3e 6cf9 073e 54fc c0bd 00d4 1f3c
000001c0: 7f3d 2c3e 5b95 bebc 8f95 01be 535d 24be
000001d0: bc3f 88bd 7977 c3bd c6b6 36be 0092 5f3e
000001e0: d947 c3bd 243d 30be 251e 6d3e 79f1 443e
000001f0: 82b9 c63d f1a1 663e 2220 8bbd d2ca 823d
00000200: c815 433e f608 6dbe 1393 c43c 700a 493e
00000210: 18f7 79be 5fdc 323e 6bd4 16be 5fe4 973d
00000220: 3ed0 203e 3b11 53be 27f0 0ebd 90c2 dabd
00000230: ac4f 0bbe d0f9 7a3d 041b 863d d6c6 33be
00000240: ef13 aabd 93e3 ab3d bfaa b23c d131 443c
00000250: a9e3 eabd fffe 70be 4f74 1c3a 76bf f63d
00000260: 5759 04bd f9dc 1cbe 2cac 8e3d d68f 993d
00000270: 10dc cebc 161a 84bc 5d03 2c3e fd99 ee3d
00000280: 1222 d2bc 4a51 583e 97e8 2dbe c12d 08be
00000290: 932f 2cbe 014f 0a3e 56bd 48be c5e4 a1bd
000002a0: b1c2 23be b72e 293e 3a1f 65be e62b 553d
000002b0: c969 593c 04d7 7d3d b12a 623e 7f2a 653e
000002c0: 1fd6 d1bd 14de 023e 9b59 15be 40e8 3b3e
000002d0: fdb5 bc3d 62ce 87bd 97a5 0bbd 1c36 63be
000002e0: 3fc7 51bd 67ba 23be 9fc3 b7bd 6518 5b3e
000002f0: 7030 7c3e ee3d 59be f876 1d3e b342 4c3c
00000300: c94d e3bd 22f4 ca3c 8641 bbbd 07c4 45be
00000310: 1eab a93c 176b 573e 59c0 f5bd 1cf4 17be
00000320: f11d 6abd df46 163e b7a2 7fbd 71df 58be
00000330: 5115 c03d fce3 0f3e e205 703e a902 4c3c
00000340: 06f0 cebd 78e3 9a3d d8c1 2b3e 3817 f93d
00000350: fd32 b1bd 6357 24bd bbed c83d 9770 243e
00000360: 708c 30be 3e29 5cbe 6ce8 43be 3eb2 bc3c
00000370: 2476 e6bd 698e 033e 192b 3a3e c057 8d3c
00000380: 5de1 7dbe aa7b e73d 6663 1d3e abff 9dbc
00000390: c1bf 44bd 8af3 82bd 0a08 633e 2853 053e
000003a0: 242e d63d 78bc b9bc e19b 26be c0cc a53c
000003b0: b3ea f5ba 3087 fbbd 42c9 933d 440a 11be
000003c0: 8a65 203d f2cc f2bd 9719 9abd d9f3 68bd
000003d0: acf6 703e 1ef8 08be 2871 3fbc b136 703e
000003e0: 1e92 80be 40b5 e73d 5419 c7bd a500 223d
000003f0: cdb5 463e a202 adbd 5c42 463e 8faa 483c
-0.118442565 -0.23960075 -0.15379255 -0.23932692 0.16625355 -0.1417223 0.246209 0.2250435
0.24021813 -0.066210546 0.12515385 -0.23517926 0.07147306 0.06901667 0.17952023 -0.006458856
0.09510707 0.02563462 -0.1569505 -0.1814472 -0.19103958 0.12165571 -0.014905146 0.2231413
0.21600033 0.23093997 -0.10396963 -0.21595031 0.064803936 -0.21250722 -0.06347196 0.0018649435
-0.20959912 -0.18992828 -0.1593871 0.037241384 0.18615551 0.12371745 -0.13214019 0.0788741
0.25334165 0.08582739 0.14261663 0.14225195 0.0043873596 0.056287922 -0.18769053 -0.22964104
-0.043125648 -0.14347371 0.13002734 -0.021109171 0.17514317 0.09386493 -0.14711285 -0.14052121
-0.20522638 0.21532264 -0.09688396 -0.09483355 0.15223612 -0.17517541 0.021735858 0.22995289
0.030104 0.021825714 0.09280803 0.19753738 0.24728304 0.07947712 -0.02823357 -0.10540811
0.15681157 0.058015212 -0.050763417 0.22449525 -0.22816528 0.091728404 -0.15724963 -0.18158503
0.18611352 0.0817825 0.07540459 -0.22074331 -0.22696601 0.02301933 0.23254319 -0.1154167
0.11359193 -0.041535854 0.20770663 -0.17928354 0.02417406 -0.18899228 -0.006732066 0.0138195595
0.12873276 -0.0852185 0.22739778 0.016263565 0.2543184 0.20994861 0.025455661 -0.19363524
0.12949587 0.09338519 0.015405193 0.098514006 0.2006326 0.1327874 -0.09423128 0.009755135
0.16820334 -0.023264578 -0.12654708 -0.16051225 -0.06652781 -0.09544272 -0.1784316 0.21833038
-0.09535188 -0.17210823 0.2315603 0.1923274 0.097033516 0.22522713 -0.06793238 0.06386341
0.19051278 -0.2314795 0.023995912 0.19632888 -0.24410665 0.17466877 -0.14729469 0.07416605
0.15704438 -0.20612042 -0.034896996 -0.10681641 -0.13604611 0.061273396 0.065481216 -0.17556319
-0.08304583 0.08393016 0.021809934 0.011974768 -0.11469204 -0.23534773 0.0005968259 0.12048237
-0.032311764 -0.1531867 0.06966433 0.07498138 -0.025251418 -0.01612572 0.16798158 0.11650465
-0.025651012 0.2112476 -0.16983257 -0.13298704 -0.16815023 0.135067 -0.19603476 -0.079049625
-0.15992238 0.16521727 -0.22375193 0.052043818 0.01326985 0.061972633 0.22086598 0.22379492
-0.102459185 0.12780029 -0.14584963 0.18350315 0.09214399 -0.06631161 -0.034093466 -0.2218861
-0.051215407 -0.15989076 -0.08972859 0.21396025 0.24627852 -0.2121503 0.15377414 0.012467074
-0.11098821 0.024774615 -0.09143357 -0.1931306 0.020711478 0.21036945 -0.11999578 -0.14839214
-0.05715746 0.14675473 -0.062411036 -0.21178986 0.09379066 0.14051813 0.23439744 0.012451806
-0.101043746 0.075629175 0.16773164 0.12162632 -0.08652303 -0.0401224 0.098109685 0.16058575
-0.17241073 -0.21500108 -0.1913163 0.023034211 -0.11253002 0.12847294 0.18180503 0.017253757
-0.24793 0.11302884 0.15369949 -0.019286951 -0.048034433 -0.06394108 0.22171035 0.13020003
0.104580194 -0.022672877 -0.162704 0.020239234 -0.0018761962 -0.12281644 0.07216121 -0.14164072
0.039159335 -0.118554965 -0.07524412 -0.056873176 0.23531598 -0.13375899 -0.011684693 0.23458363
-0.2511148 0.113138676 -0.09721628 0.039551396 0.19405289 -0.08447768 0.19361252 0.012247696

convs.1.nn.0.bias f4 [16]
00000000: b98c 56be e249 23be e51d b63c 6195 47be
00000010: 6c31 d3bd a229 3a3e 0705 1a3b 1059 d63d
00000020: fc7e 28be 4f14 d0bd b94a d6bd 3534 023e
00000030: a753 333d bdf0 bbbd 14c8 b33d e9d2 3cbe
-0.20952119 -0.15946153 0.022231052 -0.19490577 -0.10312161 0.18179944 0.0023501532 0.10466206
-0.1645469 -0.101601236 -0.10463471 0.12715228 0.04378095 -0.091767766 0.08778396 -0.18439831

convs.1.nn.1.weight f4 [16]
00000000: b00f 803f 471d 803f 02ad 783f ff57 773f
00000010: 5e56 843f c4ae 783f 9ec5 833f 218a 773f
00000020: 8e24 803f c377 773f eefd 833f c7ed 763f
00000030: adc9 783f 028a 843f 32a3 803f 8fa3 833f
1.0004787 1.0008935 0.9713899 0.96618646 1.0338857 0.9714167 1.0294683 0.96695143
1.0011156 0.96667117 1.0311868 0.9645657 0.9718273 1.0354617 1.0049803 1.0284289

convs.1.nn.1.bias f4 [16]
00000000: 8ee5 cb39 7202 333a 2306 f5bc 85d9 0cbd
00000010: 894d 0a3d e16b f7bc f106 f33c a3e0 0abd
00000020: a62d 2e3a 4c27 04bd 5957 043d 2901 12bd
00000030: c1fe e7bc ec6b 0a3d 8f10 ad3b 11fc e83c
0.0003889021 0.00068286725 -0.029910153 -0.03438713 0.03376535 -0.030202808 0.029666396 -0.033905637
0.00066443754 -0.03226404 0.032309864 -0.035645638 -0.028319718 0.03379433 0.005281515 0.028440507

convs.1.nn.1.running_mean f4 [16]
00000000: 8abf c23e f876 49bf 81cb 8f3d f7b8 9fbe
00000010: 56a3 d93f 41cd a63d 2827 9240 4ada 843f
00000020: c720 e6bf 0256 023e 5971 5dbe 88d7 6e3b
00000030: cacb a4be 2735 e9bc 2d46 64bd 5a6f 663f
0.38036758 -0.78697157 0.07021237 -0.31195804 1.7002971 0.08144618 4.56728 1.0379117
-1.7978753 0.12728122 -0.2162527 0.0036444385 -0.3218673 -0.028467728 -0.055730987 0.9001366

convs.1.nn.1.running_var f4 [16]
00000000: d9d7 753f c885 ae40 8030 2f3f 8b73 4f40
00000010: b975 0940 e414 ae40 19f0 f73f dfd0 e240
00000020: 3b93 5241 e64c 8640 da79 c440 356f 423f
00000030: 6674 a840 b975 d840 8f06 9940 5685 0b41
0.9603248 5.4538307 0.6843338 3.2414272 2.1478102 5.44005 1.9370147 7.087997
13.160945 4.196887 6.1398745 0.7595094 5.264209 6.7643704 4.7820506 8.720053

convs.1.nn.3.weight f4 [16, 16]
00000000: 2ffb 393e 7c43 65be 732c 2f3d 7a21 223e
00000010: 01d6 5cbe 4926 b2bd ebc5 5dbe 4bd7 8dbc
00000020: fdc2 b13d e77d 513e decd 82be a2f2 1ebd
00000030: ef06 60be 77bb 10be eb56 25be d191 153e
00000040: d1e2 5ebe 8144 61be f5c8 303e 4b0c 083e
00000050: 7a02 2bbe d8cb 52be 3fed 67be 27f1 4ebe
00000060: 29c6 9dbd aa5a 10be d94d 523e 3f06 44bd
00000070: d112 173e f8d6 303d 071f 933c 9f34 31be
00000080: fa04 00be 3388 babd 808c 15be 53e3 24be
00000090: 6644 71be 3821 8cbd 5cb8 57be 08f5 8c3d
000000a0: 954b 033b c012 4e3d 7c49 023e 4c76 5b3e
000000b0: b3c5 023d 572e 4bbe bd55 2dbe bd27 b1bd
000000c0: 3541 6fbe bc32 a13d 1fbf 3dbd a5f4 71be
000000d0: 47ae 6e3e e5b9 28bd 5227 5abe 6247 c2bd
000000e0: 0bd3 6cbe d9d3 5cbd 451c 663c 669d 3abe
000000f0: 7372 5bbe f4e0 1dbc 4cf4 473e 4207 e5bd
00000100: db88 dfbd 8935 d33d ea77 8a3d b2a3 1f3e
00000110: 3e33 a73d ab3c 50be f5d5 273c 9da1 4a3e
00000120: de30 55be 2fc7 c23b 19ae 043e 7575 073e
00000130: 5b9a e9bb 83c2 b3bb 44eb 8c3d 4fbe 69be
00000140: 961e 86be 4c52 ca3b 0031 52be df4f 073d
00000150: 9485 2abe ac64 a53d 1855 0abe 9e2a 663e
00000160: 6c65 aa3d ff8f d6bd cbf8 8b3e f540 29be
00000170: f41d 55bd 48f7 cfbc d3e5 37bd 8fe5 363e
00000180: 789e fcbd 0fc0 563e dae8 39be fba3 0cbe
00000190: ac77 7fbe cb42 fd3c ad1a 1d3e ceee e8bd
000001a0: 379f a5bd dab3 2fbd a6b1 2d3e adb0 8f3d
000001b0: 9a3e c2bd 66cb cbbd e9e8 64bd a600 983b
000001c0: 837b 0dbe 834d 2ebd 183a 073e 1b15 9c3c
000001d0: 4889 6c3a ed67 983d 9a6e e03d 79f9 c7bd
000001e0: 6916 35bd 94b5 15be 9fee 42be ebde 7f3e
000001f0: 905c e83c a839 143e d7a3 673d 7fa9 ecbd
00000200: 9434 883d 3d5b 34be 180a c63d ce07 493e
00000210: 01fb 913d 8262 eabd bfdc 573e 448a 58be
00000220: 891f fa3c b95b 3ebe 776c 183e 4b71 6e3c
00000230: 13a1 9e3d fe1f 21be 3419 57be 5869 093e
00000240: 4ba8 c8bc a7f6 79bd 97a5 363e 1367 923d
00000250: 5c2e 1f3e b12d 5bbe 5347 153e 22f8 d1bd
00000260: 0b54 76bb 650e 313b 5b4d 8b3c 6a0f 2a3c
00000270: 2ba6 bb3d e13d 58be 4ea9 16be 631c 873d
00000280: 533c 6e3b 0c93 b8bc d400 543d 9181 cfbc
00000290: d08d 49be 183d df3c 7d4d 78be e213 353e
000002a0: 660b 1f3e f387 7c3d b3bb 4dbe 225c 53be
000002b0: 96da 8cbd 22f7 d53d b9a8 62bc 593c fcbd
000002c0: 3fb3 253e 8cff 4c3e 29ca ad3d b167 5c3e
000002d0: d953 3e3b 0828 a0bd 17a1 1cbe 17c6 b73d
000002e0: 5d64 0bbe dc2d cf3c 47af 1f3e 9701 09bd
000002f0: 6dc7 02be 3464 a8bd 0a24 61bc 8026 b53d
00000300: 00b6 90bd 361f 21bd d9f7 6cbc e46d 193e
00000310: 3f12 febd 521b 353e eb05 d4bd f340 263e
00000320: 4f50 a2bd 8493 39be 9719 1e3e 6385 64be
00000330: 7b3b 0cbe dc4b 34be f051 4e3e 2603 583e
00000340: 52c3 7e3e 4e74 02be 2386 c7bd 549d 5d3d
00000350: 2b9d 46be 1a16 60be 4514 553d 35b3 1c3c
00000360: 0b02 1dbe 0c24 40bc 27ad 8dbd 4d50 523e
00000370: 3b31 453d ff8e 583e 23db 7c3e 09b0 a6bd
00000380: 2a4e 7abe dced 10bb ed99 aa3c f40a 2fbe
00000390: 0979 233e eea2 3d3e e60a 9bbd 162f 6b3c
000003a0: 8af5 e43d 931f 2c3e 9cf6 62be cd53 83be
000003b0: da9c b4bd ded4 0c3e dabf a93d d65c 123e
000003c0: d15e 813e 74cf aebd 5945 ad3d 9af1 7cbc
000003d0: 4248 fabd 2278 093d 1ce6 53be 9167 febd
000003e0: 04da bf3c fd4e 04be 91dd 293e 9b2e 0b3c
000003f0: 6d56 87be 4113 ed3d 33de fb3d 06eb 1fbe
0.18162225 -0.22389024 0.042767 0.15833083 -0.21566011 -0.086987086 -0.21657531 -0.017314574
0.08679769 0.20458184 -0.2554769 -0.03880561 -0.21877645 -0.14134012 -0.16146438 0.14606406
-0.21766211 -0.21998788 0.17264159 0.1328594 -0.16700163 -0.20585573 -0.22649096 -0.2020918
-0.07703812 -0.14097086 0.20537509 -0.04785752 0.14753272 0.04317376 0.01795913 -0.1730523
-0.12501898 -0.09108009 -0.14604378 -0.16102342 -0.23561248 -0.068422735 -0.21066421 0.068826735
0.0020034064 0.05031085 0.12723345 0.21431845 0.031926822 -0.19841896 -0.16927238 -0.086501576
-0.23364718 0.07871005 -0.046324845 -0.2362848 0.23308669 -0.041192908 -0.21304062 -0.094862714
-0.23127382 -0.05391297 0.014044826 -0.18224105 -0.21430378 -0.009636153 0.19526786 -0.11183025
-0.10914775 0.103129454 0.06761153 0.15589789 0.081640705 -0.20335643 0.010243882 0.19788213
-0.20819423 0.0059441547 0.12957038 0.132284 -0.0071289963 -0.005485834 0.06880811 -0.22826503
-0.2619521 0.0061743613 -0.20526505 0.033035155 -0.16652519 0.08075842 -0.13509023 0.22477195
0.08320126 -0.10476684 0.2733825 -0.16528685 -0.05203052 -0.025386468 -0.04489691 0.17861007
-0.12334913 0.20971702 -0.18155232 -0.13734429 -0.24947995 0.030915638 0.15342207 -0.113736734
-0.080870084 -0.04289613 0.16962299 0.0701612 -0.094845966 -0.099509045 -0.055886183 0.004638749
-0.13816647 -0.04255439 0.13205755 0.019053033 0.0009023142 0.07441697 0.109585956 -0.0976438
-0.044210825 -0.14620048 -0.19036339 0.2498738 0.02836445 0.14475119 0.056552734 -0.11555766
0.066506535 -0.1761293 0.09669894 0.19631884 0.07127953 -0.1144457 0.21080302 -0.21146494
0.030532615 -0.18589677 0.14885126 0.014553378 0.07745566 -0.1573486 -0.21005708 0.13419092
-0.02449431 -0.06102624 0.17836605 0.07148566 0.15545028 -0.21404149 0.1457799 -0.10252406
-0.0037586715 0.0027016636 0.01700466 0.010379652 0.091625534 -0.21117355 -0.14713022 0.06597211
0.0036351874 -0.022531055 0.051758602 -0.025330337 -0.19683003 0.027250811 -0.2424831 0.17683366
0.15531692 0.06165309 -0.20091133 -0.20640615 -0.068776295 0.104475275 -0.013834172 -0.12316198
0.16181658 0.20019358 0.084858246 0.2152393 0.0029041676 -0.07820135 -0.15295826 0.089733295
-0.13612504 0.025290422 0.15594207 -0.03344878 -0.12771387 -0.08222237 -0.013741503 0.08845234
-0.07065964 -0.039336406 -0.014463388 0.14983326 -0.12405824 0.17686203 -0.10352691 0.16235714
-0.07925474 -0.18122679 0.15439449 -0.22316508 -0.13694565 -0.17607063 0.20148444 0.21094951
0.24879196 -0.12739679 -0.097423814 0.054105118 -0.19395892 -0.21883431 0.052021284 0.009564211
-0.1533281 -0.011727344 -0.06917792 0.20538445 0.048142653 0.21148299 0.24692969 -0.08139045
-0.2444388 -0.0022114431 0.02082535 -0.17094022 0.1596414 0.18519184 -0.07570438 0.014354488
0.11179645 0.1680892 -0.22164387 -0.25649872 -0.088189796 0.13753077 0.08288546 0.14293227
0.25267652 -0.08535662 0.08460493 -0.015438462 -0.12220813 0.033561833 -0.20693249 -0.124220975
0.023419388 -0.12920757 0.16588427 0.008494998 -0.26433125 0.11575938 0.122982405 -0.15616998

convs.1.nn.3.bias f4 [16]
00000000: 8cf1 82bd f9c0 16be cf03 aebd 1d03 53be
00000010: 222d 283e 28e9 9abd fedb 32be e4f5 323e
00000020: 4641 913d d027 c5bd 40b4 91bd 4095 763e
00000030: 3d26 563e 007e bf3d 94ab 7ebe 4cc5 c53c
-0.06393728 -0.1472205 -0.0849682 -0.20606656 0.16423467 -0.07564002 -0.17466733 0.17476612
0.07092528 -0.09626734 -0.07114458 0.24080372 0.20913024 0.093502045 -0.2487014 0.02414193

convs.1.nn.4.weight f4 [16]
00000000: 2c68 7f3f a385 803f 1534 813f 937f 803f
00000010: 97ee 803f aadb 803f f80b 7d3f a47f 7d3f
00000020: eeb0 793f 27b9 803f be90 7d3f bacf 833f
00000030: 1b44 7e3f d9dc 813f dcdb 7f3f 8476 823f
0.9976833 1.0040783 1.0094019 1.0038933 1.0072812 1.0067036 0.9884639 0.9902289
0.975356 1.0056504 0.99048984 1.0297768 0.9932267 1.0145522 0.99944854 1.0192418

convs.1.nn.4.bias f4 [16]
00000000: 348d fe39 de00 a33b 6b76 283c 4063 ac3b
00000010: 10b4 d43b f36a 113c cb68 12bc 0913 42bc
00000020: 5ea8 c3bc b6e5 143c 7548 26bc 971a fa3c
00000030: 2d90 20bc 0d1d 8a3c a7b8 0139 7aa6 873c
0.0004855186 0.0049744686 0.010282139 0.005260855 0.0064911917 0.008875596 -0.008936117 -0.011845359
-0.023883995 0.0090879705 -0.010149111 0.030530257 -0.009799999 0.016859556 0.00012371187 0.016558874

convs.1.nn.4.running_mean f4 [16]
00000000: 4908 edbe a9b6 1fbf 0636 19bf 11f6 3ebf
00000010: 4d99 7b3e e422 52be 76b4 dbbe b1bc 3e3e
00000020: a1d5 a83d 52b7 d9bd b10e b2be 6119 dd3e
00000030: 02a1 283e 837c 1b3e cd12 83be 69fd e9bd
-0.46295384 -0.6238809 -0.5984806 -0.7459422 0.24570198 -0.20521122 -0.42911118 0.18626668
0.082438715 -0.10630669 -0.34776834 0.43183425 0.1646767 0.15184216 -0.2560028 -0.11425287

convs.1.nn.4.running_var f4 [16]
00000000: c271 503e 56e4 1e3c 7d02 923d 03e5 8b3e
00000010: a3e1 3f3d f7d6 a93c 51e1 ff3c d838 293d
00000020: fa49 0d3e 35b4 6e3d 1415 183e 66b5 4b3d
00000030: 9d99 a03c 819c 823e 1f90 2e3e 0924 4a3d
0.20355895 0.009697994 0.07129381 0.2732316 0.046846043 0.020732386 0.031235369 0.041313976
0.13797751 0.058277328 0.1485179 0.049733542 0.019604499 0.25510028 0.17047165 0.049350772

convs.2.nn.0.weight f4 [16, 16]
00000000: afe8 9f3c 3991 b13d 939a 24be 85e8 c5bd
00000010: 2ad6 3cbe 4070 863c 6d1d bebd 2d1e 203e
00000020: d472 41bd 2deb 2f3d ca9e 1f3e f077 44be
00000030: 2a88 3bbe 7c88 ecbd 1d4e 2a3e 8732 0bbd
00000040: ef0a fa3d d18a 393e 1415 4cbd 08d3 153e
00000050: c801 2abd d4d9 4abd a929 1c3e e354 c6bd
00000060: 2258 dbbd b63b 00be 85b1 3fbe 8681 66be
00000070: 01d2 08be 4cef 693d b74c dcbd 3754 babd
00000080: 608a 41be 2395 2c3b 9fad d13b 8403 d4bd
00000090: 5928 f13d 6019 403e 69fa 69be 3e90 81be
000000a0: 9168 b1bd 70a3 59be fe31 b9bd e326 573e
000000b0: 30dd 16be b206 e23d eee2 6abe 8ef7 cb3d
000000c0: 24c8 82be 17f0 1d3e 6610 5a3e 2e7e 35be
000000d0: 1a9a 45bd 62cf 60be da39 ac3c fcae 37be
000000e0: 2968 0fbe 1f69 0b3e 1afb 713e 462b 45bd
000000f0: 0818 713e 6238 b5bd 9010 23be f4b8 363e
00000100: a44c 0f3e 688b 353e 2f32 193e 720d 4b3e
00000110: 42ba 3ebe d9f1 633d 3937 4a3e 3135 25be
00000120: c9d5 2dbd e4fc c43c 6f23 83bc 8054 5b3e
00000130: 391b 60be a16b 833d ba39 7dbc 4bc0 0ebe
00000140: ce5e f2bc 3368 033e 36bc aebd 5fa3 103d
00000150: 334d 143e 9e43 bcbd ed68 733e 635c 663e
00000160: 89cf 26be 93cb 3bbe dcf5 80bd 498d b1bd
00000170: 1941 18be 77da 053a 2869 71be 4e4b 64bd
00000180: 8d46 703e b9b9 cebd d850 b73d d9cf 973c
00000190: f9a8 32be 2b5e 54be 8998 383e 1475 dc3d
000001a0: 2612 ef3c dcf0 a1bd c342 32be 4039 5c3e
000001b0: c03e 35be 1f37 ed3d 2fab 373e 0e4f 363e
000001c0: 116e 23be 718c 533e 8c91 483e 9727 3a3e
000001d0: 7fb1 cf3d 1077 783e 48a5 0bbc e413 4d3e
000001e0: 6bb1 76be 3d3f 153d 6046 313e fbb6 d93d
000001f0: 6fa5 59bc 18c6 febd 1555 723e 5f1d 5bbd
00000200: 1813 033e a70d 47be a6fd 66be 6070 76be
00000210: 14ca 4d3e df2b 683e 966f edbc ebc3 cabd
00000220: 2633 643d 4875 6bbe 238f 50be 69a0 7a3d
00000230: 38eb 2cbe 1db7 aabc 3c96 763e 5762 3cbe
00000240: 4452 fdbd c74c 373e 4758 a63d bb6a 20bd
00000250: ae21 513e a3fb 2d3e f300 043c 83b2 5ebe
00000260: 04e3 4ebe 2fb5 3b3e cf63 633e b9fd 3dbe
00000270: 44f5 a63c 09bd 2cbe 36c2 653e 8069 673e
00000280: f509 5fbd 6b6a 6a3d 1385 d8bc b3b6 bebd
00000290: fc2b 043d 83c4 6c3d 93a4 78be 186d 533e
000002a0: 687b da3d 4332 e6bd bef4 453e ad30 de3d
000002b0: 6f5f b43a 6ebf 0fbe 1392 edbd 6528 67bd
000002c0: a09c 923c dbfd 463e d208 863e ecd9 88bd
000002d0: 4f02 a8bd d1ed d3bd 49d1 7b3d 1f1c bc3d
000002e0: 4651 f83d 8901 7abd 993c 4c3e c26f c5bc
000002f0: 998c df3c 3b0c ad3d 224b 5b3e 2017 e3bd
00000300: 0459 073e df6d 93bd ca99 9c3c f673 213e
00000310: 67cc 0bbe 744e afbc 58d6 62be 476b 10be
00000320: f9ef 2d3d e4d1 013d 71fc 443e 17db 4f3d
00000330: 9e06 733e 68db 22be a3f3 bf3d 5220 823c
00000340: 8972 4dbe 1b45 5bbe 400d 36be 73b5 2f3e
00000350: d189 9fbd 4f51 24be 2037 d33a 2b88 353e
00000360: ccde b73d 151a 22be be1f e3bd 44ec 74be
00000370: 4f1f f2bc 6c19 5fbd dcf9 393e c932 633e
00000380: 260b a5ba 3192 27be 049f ae3d 1080 7c3e
00000390: b552 94bd b1d8 2c3e 684b 51be 500c 68bd
000003a0: aee5 3cbe e435 60be e22d 553d 68b3 8c3d
000003b0: 01ce 923c b70d 0cbe 02cf 293e 63b0 37bd
000003c0: 91cf 47bd 6562 0bbe bad4 34bd 111a 89bd
000003d0: 70a5 113e 3111 603e a646 41be 94a6 34be
000003e0: 6e8d 54be 7415 a93d f35e 413c b4d5 473d
000003f0: d444 2dbe afbd 1dbe dd9a d83d 5a0f 03be
0.019520132 0.08670277 -0.1607459 -0.0966349 -0.18441072 0.016410947 -0.09282956 0.15636511
-0.04722865 0.04294889 0.15587917 -0.19186378 -0.18313661 -0.1154947 0.1663136 -0.033983734
0.12209117 0.1811936 -0.04982479 0.14631283 -0.041505605 -0.049524143 0.15250267 -0.096841596
-0.107101694 -0.12522778 -0.18720062 -0.22510347 -0.1336136 0.057112977 -0.1075682 -0.09098094
-0.18900442 0.002633401 0.006398871 -0.10352233 0.11775274 0.1875968 -0.2284943 -0.2530536
-0.086625226 -0.21253753 -0.090427384 0.21010928 -0.14732814 0.11036433 -0.2293813 0.09959327
-0.2554332 0.15423618 0.21295318 -0.17723915 -0.048242666 -0.2195411 0.02102368 -0.17937845
-0.14004578 0.1361432 0.23630944 -0.048136972 0.23544323 -0.08848645 -0.15924287 0.17843992
0.1399408 0.1772896 0.1496055 0.19829348 -0.18625739 0.055650566 0.19747628 -0.16133572
-0.04244021 0.024046369 -0.016008107 0.21418953 -0.21885385 0.06417013 -0.015455658 -0.13940541
-0.029586222 0.12832718 -0.08531992 0.035312053 0.14482574 -0.091925845 0.23770495 0.2249618
-0.16290106 -0.18339376 -0.06296894 -0.08669526 -0.14868583 0.0005106101 -0.2357527 -0.05573588
0.23464413 -0.100940175 0.089509666 0.018531727 -0.1744727 -0.20739047 0.18026938 0.107645184
0.029183459 -0.079072684 -0.1740828 0.21506214 -0.17699718 0.11582779 0.17936395 0.17803594
-0.15959956 0.20659043 0.19586772 0.18179165 0.101412766 0.24264169 -0.008523293 0.20027119
-0.24091117 0.03643726 0.17312002 0.10630604 -0.013284071 -0.12440127 0.23665269 -0.053494807
0.12800252 -0.19438802 -0.22557697 -0.24066305 0.20096618 0.22672985 -0.028983872 -0.0990065
0.05571284 -0.22993958 -0.20367102 0.061188135 -0.16886604 -0.020839268 0.24080747 -0.18396889
-0.123692065 0.17900382 0.08122306 -0.039164286 0.20423004 0.16990523 0.008056867 -0.21747784
-0.20203787 0.18330835 0.22206043 -0.18553819 0.020380624 -0.16868986 0.22437367 0.22598839
-0.054452855 0.057230394 -0.026430642 -0.09312191 0.03226851 0.057804596 -0.2428153 0.20647085
0.10668069 -0.112400554 0.19331643 0.10849128 0.0013761352 -0.14037868 -0.11600127 -0.056435008
0.01789695 0.19432776 0.26178604 -0.0668219 -0.08203565 -0.10348094 0.061478887 0.09185051
0.12124877 -0.06103662 0.19944991 -0.024101142 0.027288722 0.084495984 0.2141538 -0.11088395
0.1321755 -0.071986906 0.019116301 0.15766892 -0.13652192 -0.021399714 -0.22152078 -0.14103423
0.042465184 0.031694308 0.19236924 0.05074605 0.23732993 -0.1590401 0.09372642 0.015884552
-0.20063223 -0.2141308 -0.17778492 0.17159061 -0.07789958 -0.16046642 0.0016114451 0.17727725
0.08978042 -0.15830262 -0.11090039 -0.23918253 -0.029555945 -0.054467604 0.1816172 0.22187342
-0.0012591823 -0.16364361 0.085264236 0.24658227 -0.072423376 0.16879536 -0.20438921 -0.056652367
-0.18446991 -0.21895558 0.05204571 0.068701565 0.017920496 -0.13677107 0.16582873 -0.04484595
-0.048781935 -0.13611753 -0.044148184 -0.06694425 0.14223266 0.21881558 -0.18874606 -0.1764167
-0.20757076 0.08256045 0.011802423 0.048787788 -0.16920787 -0.1540439 0.10576413 -0.12798825

convs.2.nn.0.bias f4 [16]
00000000: 695f 69be 711c c63d 866e 2ebe dcbd 3bbe
00000010: 2be4 3d3e 2a5e 703e 8b9b 16bd 73c2 d6bd
00000020: 3d51 01bd 83d1 0fbb 285e 943a 4ef6 e33d
00000030: f753 3fbe c4ea 1c3e fa76 17be 75b9 603e
-0.22790302 0.096733935 -0.17034349 -0.18334144 0.1854407 0.2347342 -0.03676943 -0.10486307
-0.031571615 -0.0021944947 0.0011319565 0.11130963 -0.18684374 0.15323931 -0.1479148 0.21945746

convs.2.nn.1.weight f4 [16]
00000000: 5e52 823f a02e 7e3f b120 7f3f 9538 783f
00000010: 4aa7 803f 82f2 803f 01df 823f b1f0 823f
00000020: 3d10 803f 79b2 813f f8a8 7d3f 1490 803f
00000030: ef7d 7f3f 19d7 7b3f 4360 7e3f 5e04 783f
1.0181386 0.99289894 0.9965926 0.9696134 1.0051053 1.0074008 1.0224305 1.0229703
1.0004956 1.013259 0.9908595 1.0043969 0.99801534 0.9837509 0.99365634 0.96881664

convs.2.nn.1.bias f4 [16]
00000000: 9f5e 893c 193e f8bb 897a 2abb 35c1 04bd
00000010: 5b65 ef3b 3c0a ff3b 9fb6 b83c 8a83 ba3c
00000020: 204b e939 cc5e 663c e206 edbb 2a37 9f3b
00000030: 96c7 1bbb 4b15 8ebc 6520 a1bb 47be f2bc
0.016768752 -0.007575762 -0.0026012978 -0.03241082 0.0073057837 0.0077832025 0.022548018 0.0227678
0.00044497196 0.014060687 -0.0072334865 0.004858871 -0.0023770086 -0.017344138 -0.004917192 -0.029631747
