experiments/results/SHRIROOK/runs/2026-02-05T17:13:45-gin-shrirook/seed_3/best_weights.pt (torch, 119371 bytes, 180 tensors)

conv1.nn.0.weight f4 [16, 1]
0	0x3dbe458f	0.09290611
1	0x3f53b419	0.8269668
2	0x3ed00289	0.40626934
3	0xbf7b9674	-0.9827645
4	0x3e1e227f	0.15442847
5	0x3d4b5454	0.04964097
6	0x3f10485e	0.56360424
7	0xbf36a5e0	-0.71346855
8	0x3f2b09da	0.6681191
9	0x3ed03064	0.4066192
10	0x3ef97f78	0.48730063
11	0xbc2a8838	-0.010408454
12	0xbe8379a4	-0.25678742
13	0xbf0ab391	-0.54180247
14	0x3f229a47	0.6351666
15	0x3e653607	0.22383891

conv1.nn.0.bias f4 [16]
0	0x3ed540f3	0.41651115
1	0xbed61fd4	-0.41821158
2	0x3f5c855a	0.8614098
3	0xbf67f6a8	-0.9061074
4	0x3f2009ca	0.62514937
5	0x3eff2984	0.4983636
6	0x3f3a345a	0.7273613
7	0x3e3bedb8	0.18352401
8	0xbe10f661	-0.14156486
9	0x3e63166f	0.22176526
10	0x3eb89a28	0.36055112
11	0x3f33d821	0.7025166
12	0xbf727269	-0.94705826
13	0xbf517fba	-0.8183552
14	0xbf461458	-0.7737479
15	0x3f73d57c	0.95247626

conv1.nn.1.weight f4 [16]
0	0x3f7ee3ed	0.9956654
1	0x3f80512e	1.0024774
2	0x3f8004cd	1.0001465
3	0x3f802d7e	1.0013883
4	0x3f80238a	1.0010846
5	0x3f7f5ef2	0.9975425
6	0x3f7fe5c9	0.9996
7	0x3f803249	1.0015346
8	0x3f7fb00f	0.9987802
9	0x3f801c11	1.0008565
10	0x3f8035ea	1.0016453
11	0x3f7ff672	0.9998542
12	0x3f7f1918	0.99647665
13	0x3f805ade	1.002773
14	0x3f802ba7	1.0013322
15	0x3f803907	1.0017403

conv1.nn.1.bias f4 [16]
0	0xbb823b05	-0.003974321
1	0x3b135300	0.0022479892
2	0x395c8bda	0.00021032934
3	0x3ad24977	0.0016043623
4	0x3a78ca5a	0.0009490602
5	0xbb14f16b	-0.0022726904
6	0xb99fa647	-0.0003045073
7	0x3adb11bc	0.0016713659
8	0xbaa15368	-0.0012308182
9	0x3a7027e5	0.0009161218
10	0x3abb6462	0.0014296884
11	0xb874e33a	-5.8385755e-05
12	0xbb7e9f9c	-0.0038852459
13	0x3b4c203b	0.003114714
14	0x3aa60466	0.0012666106
15	0x3ac73af5	0.0015200066

conv1.nn.1.running_mean f4 [16]
0	0x3f944aa0	1.1585274
1	0x40c5f832	6.1865473
2	0x408365c5	4.106173
3	0xc10c153e	-8.755186
4	0x3fede43b	1.8585275
5	0x3f6513c5	0.8948329
6	0x40a751aa	5.2287188
7	0xc0b078f0	-5.514763
8	0x40a63996	5.1945295
9	0x405e0968	3.469324
10	0x4088146a	4.252492
11	0x3f1e902a	0.61938727
12	0xc03fde71	-2.9979517
13	0xc0a4a8a7	-5.1455874
14	0x408992ba	4.299161
15	0x402f5fbb	2.740218

conv1.nn.1.running_var f4 [16]
0	0x3c099a85	0.008398657
1	0x3f2a591e	0.6654223
2	0x3e2474af	0.16060136
3	0x3f709495	0.9397672
4	0x3cbe17ca	0.023204703
5	0x3b1d2358	0.0023977365
6	0x3e9e3f9a	0.309079
7	0x3efd9855	0.49530283
8	0x3ede61ad	0.43433896
9	0x3e24bd3a	0.16087809
10	0x3e6c99ac	0.23105496
11	0x38dd1131	0.00010541303
12	0x3d8366a7	0.06416064
13	0x3e923e0a	0.28562957
14	0x3ec8fc80	0.39255142
15	0x3d47b02d	0.048752

conv1.nn.3.weight f4 [16, 16]
0	0x3e28d965	0.1648918
1	0x3d307320	0.04307854
2	0xbd5c4b53	-0.053782772
3	0x3d17b3da	0.037036754
4	0x3d9136f9	0.07090563
5	0x3abd8662	0.0014459605
6	0xbd290567	-0.041264918
7	0x3e4c8ad8	0.1997484
8	0x3bad6fd0	0.00529287
9	0xbd8d06e9	-0.06886084
10	0xbcd6e530	-0.026232332
11	0x3daf68b6	0.08564894
12	0xbe2852c9	-0.1643783
13	0xbcc92ad0	-0.024556547
14	0x3d237444	0.0399058
15	0xbe20efec	-0.15716523
16	0x3dbe8169	0.09302027
17	0x3e2aacb7	0.16667448
18	0xbe1af4c5	-0.15132435
19	0x3e6fc0d2	0.23413399
20	0x3d8e3447	0.06943565
21	0xbe14e194	-0.14539176
22	0xbe214f40	-0.15752888
23	0x3e662597	0.22475277
24	0xb88b8983	-6.65365e-05
25	0x3e5fe1f3	0.21863537
26	0xbe5dfadc	-0.21677727
27	0xbd8897d6	-0.066695854
28	0xbd56a918	-0.052407354
29	0x3c8abe01	0.016936304
30	0x3e0fef09	0.14056028
31	0xbd081591	-0.033223692
32	0x3e7a5361	0.24445869
33	0xbe30876b	-0.17239158
34	0xbe79e85f	-0.24405049
35	0x3d3c0a53	0.045908283
36	0xbd8e5550	-0.06949866
37	0x3e5d7fcf	0.21630786
38	0x3dae3df8	0.08507913
39	0x3e021c74	0.12706167
40	0xbe560283	-0.20899396
41	0x3d4a35c1	0.04936767
42	0xbe048bbd	-0.12943931
43	0xbd842a84	-0.06453422
44	0x3d05dda6	0.032682084
45	0x3e63e214	0.2225421
46	0xbd9a1ff4	-0.07525626
47	0xbe439f07	-0.19103633
48	0x3e36c1c6	0.17847356
49	0xbd833640	-0.06406832
50	0x3e76f365	0.24116285
51	0x3dcdf382	0.10056211
52	0xbe3ce1dd	-0.18445535
53	0xbe45b47c	-0.1930713
54	0xbdeba493	-0.115059994
55	0xbe302542	-0.17201713
56	0xbc5c3f36	-0.013442805
57	0x3e1f17a2	0.15536359
58	0xbdc64907	-0.096818976
59	0xbdcba150	-0.09942877
60	0xbe05e195	-0.13074334
61	0xbe2c5cca	-0.16832271
62	0xbd8ae63c	-0.06782195
63	0x3e3e0757	0.18557487
64	0xbc4f157b	-0.012639399
65	0xbe794c85	-0.24345596
66	0xbdb88a5d	-0.09010766
67	0x3e71e65f	0.23623036
68	0xbe5303bc	-0.20606893
69	0x3e535ace	0.20640108
70	0xbca67b8b	-0.020322582
71	0xbde41562	-0.11136891
72	0x3e40fcec	0.18846482
73	0x3e5f8819	0.21829261
74	0x3e0fea6c	0.14054269
75	0xbccb0e4b	-0.024787089
76	0x3d7dff41	0.062011007
77	0x3bbb8f7b	0.0057238913
78	0x3e398d5d	0.18120332
79	0x3e4afba0	0.1982255
80	0xbe72dac6	-0.23716268
81	0x3e0071b6	0.12543377
82	0x3dbd2385	0.092352904
83	0xbcd2a710	-0.025714427
84	0x3d09be57	0.033628788
85	0xbe1c0551	-0.15236403
86	0x3d3e929d	0.04652654
87	0xbde59ac8	-0.11211163
88	0xbe3ac6f0	-0.18239951
89	0x3e5eef7b	0.21771042
90	0x3a7b2d49	0.0009581638
91	0x3d2195e5	0.03944959
92	0x3e41f600	0.18941498
93	0xbdcbb243	-0.0994611
94	0x3dea37a0	0.11436391
95	0xbb13cb8b	-0.002255174
96	0xbc80f22a	-0.015740473
97	0x3d30f508	0.04320243
98	0x3e1cf743	0.15328698
99	0xbe414319	-0.18873252
100	0xbe08114c	-0.13287848
101	0xbd3bf15a	-0.045884468
102	0x3d14b2fb	0.0363035
103	0xbe30beea	-0.17260328
104	0xbded972e	-0.11601101
105	0xbe26009a	-0.16211167
106	0xbe1b5531	-0.15169217
107	0xbd0d9a3d	-0.03457092
108	0xbe7e3183	-0.24823575
109	0x3df50045	0.11962942
110	0x3de11aaf	0.109914176
111	0x3e75d8cc	0.24008483
112	0xbd78f142	-0.060776956
113	0xbd86e30e	-0.06586276
114	0x3d953bad	0.07286773
115	0xbe4d42bd	-0.2004499
116	0x3de20c48	0.11037499
117	0xbe0d5773	-0.1380289
118	0xbe7cc741	-0.24685384
119	0xbe6e063f	-0.2324457
120	0xbd7b360c	-0.06133084
121	0xbe2bed0d	-0.16789646
122	0x3e2c0c2a	0.16801515
123	0xbe41111a	-0.1885418
124	0xbdf959b5	-0.121753134
125	0x3ca25b82	0.019819025
126	0xbe236cbe	-0.1595945
127	0xbe40a940	-0.18814564
128	0x3d600beb	0.054698866
129	0x3cd89c6d	0.026441777
130	0xbddbb943	-0.10728695
131	0x3e758e94	0.2398017
132	0xbd9fcbff	-0.07802581
133	0xbd9912af	-0.07474267
134	0x3dc12321	0.094305284
135	0xbe1b9c8c	-0.15196437
136	0xbe51ab14	-0.20475417
137	0xbe1cd248	-0.15314591
138	0x3e235fc0	0.15954494
139	0x3d8abcef	0.067743175
140	0x3e7547ce	0.23953173
141	0xbdec8179	-0.115481324
142	0xbe62eb6a	-0.22160116
143	0xbd3a785d	-0.045524944
144	0xbe61e071	-0.22058274
145	0x3d935eab	0.07195791
146	0xbe0ea22f	-0.13929056
147	0xbe19f818	-0.15036047
148	0x3d2eeda7	0.04270711
149	0xbd134e67	-0.035963442
150	0xbe020e5b	-0.12700789
151	0xbce4bfbc	-0.027923457
152	0x3e01bda2	0.12669995
153	0xbe4c2123	-0.19934516
154	0x3e52c2e4	0.20582157
155	0xbdba3c0a	-0.09093483
156	0x3e7b282e	0.24527046
157	0xbe70ab8b	-0.23502938
158	0xbd057cb0	-0.032589614
159	0x3e745a91	0.23862673
160	0x3e3dd42e	0.18537971
161	0x3e45b57c	0.19307512
162	0x3e40dbf3	0.18833904
163	0xbcd7a9a7	-0.026326014
164	0xbde214c2	-0.110391155
165	0x3e2793bc	0.1636495
166	0x3de2846d	0.110604145
167	0x3e624b36	0.22099003
168	0xbe2711e7	-0.16315423
169	0x3d3d5e41	0.046232466
170	0xbdeca46e	-0.115548
171	0x3e7a3fe7	0.2443844
172	0x3e729949	0.23691286
173	0xbe6d611f	-0.2318158
174	0xbd2804a8	-0.041020066
175	0x3db91acc	0.09038314
176	0xbe0ba11e	-0.1363568
177	0xbe5f6dd7	-0.21819244
178	0xbd863e54	-0.06554857
179	0x3d878af6	0.066183016
180	0x3de4d486	0.11173348
181	0xbe0c56a2	-0.13704923
182	0x3e2a710b	0.16644685
183	0xbddff469	-0.109352894
184	0x3c0b9865	0.00852022
185	0xbc7f99c8	-0.015600629
186	0xbe7f23a0	-0.24915934
187	0x3cadae71	0.021201344
188	0x3e5d00e8	0.21582377
189	0x3d4ecb11	0.050486628
190	0x3d97931c	0.07401106
191	0x3e07f7f2	0.13278177
192	0x3e4e2dc5	0.20134647
193	0xbd815327	-0.06314688
194	0xbbb6878e	-0.0055703586
195	0xbe77a373	-0.24183445
196	0xbe3b71fb	-0.18305199
197	0x3e5b3d1f	0.21410035
198	0xbe1d6257	-0.15369545
199	0xbbcfb2f1	-0.00633847
200	0x3dd29c34	0.102837
201	0x3d8f9752	0.07011284
202	0xbe1f3e3f	-0.15551089
203	0xbe6fee31	-0.23430707
204	0x3e0e1f08	0.13879025
205	0x3d0a9bc9	0.033839975
206	0x3d59336d	0.05302756
207	0x3e1b3137	0.15155493
208	0xbe327e1a	-0.17430916
209	0x3dc54fa4	0.09634331
210	0xbe0c3b20	-0.1369443
211	0xbcc7a934	-0.024372675
212	0xbe4eaf59	-0.20184077
213	0xbd7bd5fd	-0.061483372
214	0xbcea7ad5	-0.028623024
215	0xbd1bc4c8	-0.038029462
216	0xbcac4df0	-0.021033257
217	0xbcfdc636	-0.030978303
218	0xbd969863	-0.07353284
219	0xbd91b235	-0.071140684
220	0x3e42ce58	0.19024026
221	0xbe032050	-0.12805295
222	0x3ddd6124	0.10809544
223	0xbdf36c8f	-0.1188594
224	0xbe251d38	-0.16124427
225	0x3e2634d2	0.16231087
226	0x3e13cfe0	0.14434767
227	0xbe7ef38e	-0.24897596
228	0xbe4dbcf4	-0.20091611
229	0xbe68d21a	-0.22736397
230	0xbe2842d2	-0.1643174
231	0x3e56fc56	0.20994696
232	0xbe05bc46	-0.13060102
233	0xbe7f07a0	-0.24905252
234	0xbe6c3ea4	-0.2307077
235	0xbe397d86	-0.1811429
236	0x3e7986be	0.24367806
237	0xbd2e631c	-0.042574987
238	0xbd718d2d	-0.058972526
239	0xbd8e1207	-0.06937032
240	0x3df0cfbd	0.11758373
241	0x3dc9ddd6	0.09856765
242	0xbdeb021e	-0.11475013
243	0xbe62d44a	-0.22151294
244	0x3e74b2f9	0.23896398
245	0x3d859e39	0.06524319
246	0x3daebdc3	0.08532288
247	0xbe686743	-0.22695641
248	0x3e0f7739	0.14010324
249	0xbe4c7175	-0.19965155
250	0x3e04cc4a	0.12968555
251	0x3e077748	0.13229096
252	0x3d1a1785	0.037620086
253	0x3d83bfa8	0.0643304
254	0x3d4f855d	0.050664295
255	0xbe33e5b0	-0.17568088

conv1.nn.3.bias f4 [16]
0	0xbdf114c4	-0.11771539
1	0x3df10e08	0.117702544
2	0xbdf94f94	-0.121733814
3	0xbdf7bab8	-0.12096161
4	0x3dcb36ce	0.099225625
5	0xbdb83b64	-0.08995703
6	0x3e6686ba	0.22512332
7	0xbe24f9cb	-0.16110913
8	0x3e401b0e	0.1876032
9	0x3e4b9e10	0.19884515
10	0x3e426680	0.18984413
11	0x3db685a8	0.08912212
12	0xbd183058	-0.03715548
13	0x3d6262b0	0.055269897
14	0x3ded2e88	0.11581141
15	0x3d5ac438	0.053409785

conv1.nn.4.weight f4 [16]
0	0x3f7edeab	0.99558514
1	0x3f7edcc4	0.9955561
2	0x3f7ede98	0.995584
3	0x3f7f5b11	0.9974833
4	0x3f808618	1.0040922
5	0x3f7ecd57	0.99532074
6	0x3f809497	1.0045346
7	0x3f808c63	1.0042843
8	0x3f7f31e7	0.9968552
9	0x3f80950a	1.0045483
10	0x3f7ed8bf	0.9954948
11	0x3f808aa4	1.004231
12	0x3f7efa6c	0.99600863
13	0x3f807162	1.0034602
14	0x3f7edee2	0.9955884
15	0x3f809545	1.0045553

conv1.nn.4.bias f4 [16]
0	0xbb940c65	-0.004518079
1	0xbb947d9b	-0.004531575
2	0xbb94039a	-0.004517031
3	0xbb135f86	-0.0022487356
4	0x3b7ec133	0.003887248
5	0xbb936628	-0.004498262
6	0x3b93f7e5	0.0045156353
7	0x3b90d906	0.0044204025
8	0xbb5f6895	-0.0034089435
9	0x3b92649f	0.0044675614
10	0xbb8fb824	-0.004385965
11	0x3b8f7996	0.004378508
12	0xbb76d4a5	-0.0037663367
13	0x3b730021	0.0037078934
14	0xbb93e494	-0.0045133326
15	0x3b93ad0b	0.0045067123

conv1.nn.4.running_mean f4 [16]
0	0xbd841953	-0.06450143
1	0x3e93bb6a	0.28853923
2	0xbe3f8e07	-0.18706523
3	0xbeacfc76	-0.33786362
4	0x3eea6d54	0.45786536
5	0xbd86bb4e	-0.06578694
6	0xbd53fb6a	-0.05175344
7	0xbf6050e4	-0.8762343
8	0x3d53c967	0.051705744
9	0x3d1fe376	0.039035283
10	0x3f2bc115	0.67091495
11	0x3d407351	0.046984974
12	0xbd958248	-0.0730024
13	0xbe974e8f	-0.29552123
14	0xbef28e7a	-0.47374326
15	0x3e223ee0	0.15844297

conv1.nn.4.running_var f4 [16]
0	0x3bc45523	0.0059915944
1	0x3d116955	0.035500843
2	0x3e428c52	0.1899884
3	0x3d777a1f	0.060419198
4	0x3d33c4fc	0.04388903
5	0x3aba7d8d	0.0014228091
6	0x3d6f6d3b	0.05845378
7	0x3c7ece8c	0.015552174
8	0x3e307e5b	0.17235701
9	0x3c1e6d0b	0.009669553
10	0x3c33f3e6	0.010983443
11	0x3da712f6	0.081579134
12	0x3d8f3e69	0.06994326
13	0x3db43ecd	0.08801041
14	0x3eb9c0a6	0.36279792
15	0x3ddf6727	0.109083466

convs.0.nn.0.weight f4 [16, 16]
0	0x3e0bea33	0.13663559
1	0xbdf45c98	-0.11931723
2	0xbd9feecd	-0.078092195
3	0xbe65c078	-0.22436702
4	0xbde72635	-0.11286584
5	0xbdafd08d	-0.085847
6	0x3d9adc10	0.07561505
7	0xbdcd9f94	-0.10040203
8	0x3d2e578a	0.042563953
9	0x3d14f404	0.036365524
10	0x3df78dd8	0.120876014
11	0x3cfba69b	0.030719092
12	0x3d011007	0.031509425
13	0x3c2311d2	0.009952979
14	0x3d2641d9	0.04059014
15	0x3c16de5d	0.009208289
16	0xbe45e19c	-0.19324344
17	0xbd541270	-0.051775396
18	0xbdc1f51c	-0.09470579
19	0xbd053d57	-0.0325292
20	0x3da3ece8	0.08004171
21	0x3e6e9814	0.233002
22	0x3e723d20	0.2365613
23	0xbde7a910	-0.11311543
24	0xbe5210c6	-0.20514211
25	0x3e6c06cc	0.23049468
26	0xbe6024d0	-0.21889043
27	0xbe60d04a	-0.21954456
28	0x3e1d1e04	0.15343481
29	0xbe3b18e8	-0.1827122
30	0x3e7fe954	0.24991351
31	0x3da6f1a0	0.08151555
32	0x3ddd68b2	0.10810985
33	0x3ddc09e5	0.10744075
34	0x3e569cd3	0.20958261
35	0xbe3a46c9	-0.18191065
36	0x3e5bfb6b	0.21482627
37	0x3e183077	0.14862238
38	0xbd57508d	-0.052567054
39	0x3cec4131	0.02883968
40	0x3e1094bd	0.14119239
41	0x3dff567f	0.1246767
42	0xbd6344ad	-0.055485416
43	0xbe33e593	-0.17568044
44	0xbd6baa65	-0.057535548
45	0x3df0f77a	0.117659524
46	0x3e0e166f	0.13875745
47	0xbdfc090d	-0.12306414
48	0xbe7c36ce	-0.24630281
49	0x3e72c730	0.23708797
50	0xbdaaa07c	-0.08331391
51	0x3e3235e7	0.17403375
52	0x3e0b891f	0.13626526
53	0x3b5d14f3	0.003373441
54	0x3dd650c0	0.104646206
55	0xbe053e28	-0.13011992
56	0x3e4636f2	0.19356897
57	0x3db771e4	0.0895727
58	0x3e44959d	0.19197698
59	0x3e6d7b7e	0.2319164
60	0xbe65d5a1	-0.22444774
61	0x3cc94e4e	0.024573471
62	0x3e67ab46	0.2262393
63	0x3e3284bf	0.17433451
64	0xbe727380	-0.23676872
65	0xbe21be96	-0.15795359
66	0xbe1eb774	-0.1549967
67	0xbcc08eb7	-0.023505552
68	0x3e450ce7	0.19243203
69	0xbe02a860	-0.12759542
70	0xbe4d1097	-0.2002586
71	0x3c360ccb	0.0111114485
72	0x3e1198be	0.14218423
73	0x3e58fd1c	0.21190304
74	0xbd233bf4	-0.039852098
75	0x3e42dfe0	0.19030714
76	0x3e7970ae	0.2435939
77	0xbb97801e	-0.004623427
78	0x3d733062	0.059372313
79	0x3c977e16	0.01849274
80	0xbdeb6ea8	-0.114957154
81	0x3cc97645	0.024592528
82	0x3e7069e6	0.23477897
83	0x3d7b52a3	0.061358105
84	0x3cd17227	0.025567127
85	0xbe6b0566	-0.22951278
86	0x3e2d26df	0.1690936
87	0x3e7ca78a	0.24673286
88	0x3d8eeab4	0.0697836
89	0xbe49374e	-0.19650003
90	0x3dfcb893	0.12339892
91	0xbd4f78a3	-0.050652158
92	0xbdfd188d	-0.12358198
93	0x3e16892c	0.14700764
94	0xbcf3854b	-0.029726645
95	0xbe643b65	-0.22288282
96	0xbd979908	-0.07402235
97	0x3e5d7630	0.21627116
98	0x3dbdead0	0.092733026
99	0x3e1c02e2	0.15235475
100	0xbdc13008	-0.09432989
101	0xbc635c3d	-0.013876972
102	0xbd5822df	-0.05276763
103	0x3e119c7e	0.14219853
104	0xbcb27cab	-0.021787962
105	0x3e7626c3	0.24038224
106	0xbd7e19b7	-0.062036242
107	0xbe251e33	-0.16124801
108	0xbc93960f	-0.01801589
109	0xbd8f191c	-0.06987211
110	0x3e41f5d1	0.18941428
111	0xbd853843	-0.06504872
112	0xbda9eaa2	-0.08296706
113	0x3e10c434	0.14137346
114	0xbe5623ca	-0.2091209
115	0xbe6408da	-0.22269002
116	0x3e7d7878	0.24752986
117	0xbd55ce6f	-0.052198824
118	0x3e252458	0.16127145
119	0x3cdb7c4d	0.02679267
120	0x3e65bdb2	0.22435644
121	0x3e79c30e	0.24390814
122	0x3e2c8c3e	0.16850373
123	0xbe6643b4	-0.22486764
124	0x3e5e3fea	0.21704069
125	0xbdff711a	-0.12472744
126	0xbe0f6d84	-0.1400662
127	0x3e145854	0.1448682
128	0xbe77e3bb	-0.24207966
129	0x3e73d035	0.23809893
130	0xbe61ef35	-0.22063906
131	0x3e243974	0.16037542
132	0xbe45019a	-0.19238892
133	0x3e5bd078	0.21466243
134	0xbe0e97a8	-0.1392504
135	0x3e753ee1	0.23949768
136	0x3d8d550e	0.069009885
137	0xbcf1d552	-0.029520664
138	0x3e1a90b8	0.15094268
139	0x3e31f0cd	0.17377014
140	0x3e2f87a2	0.17141584
141	0xbe0151a3	-0.12628798
142	0xbe631d43	-0.22179131
143	0x3db382ce	0.087651834
144	0x3d3d2ab2	0.046183296
145	0xbe026cb8	-0.12736785
146	0x3df2e5e5	0.11860255
147	0xbd839e7d	-0.064267136
148	0x3dcf6ce3	0.1012819
149	0xbe3da6d4	-0.18520671
150	0xbe6f19d8	-0.23349702
151	0x3e7ca9d8	0.24674165
152	0x3e596d6a	0.21233144
153	0xbe37871c	-0.17922634
154	0xbdfaf7d5	-0.122543015
155	0x3e2b9996	0.16757807
156	0xbe3e0230	-0.18555522
157	0x3e764d9e	0.24053046
158	0xbd9130af	-0.07089364
159	0x3e312704	0.1730004
160	0x3db70862	0.08937146
161	0xbe623903	-0.2209206
162	0xbe68f647	-0.22750197
163	0x3e77f857	0.24215828
164	0xbd3106a4	-0.043219224
165	0xbe3d8891	-0.18509127
166	0xbe35e9b5	-0.17764933
167	0xbe371709	-0.17879881
168	0x3c1a0e7f	0.00940287
169	0x3e26db05	0.16294487
170	0x3e432941	0.19058706
171	0x3e768307	0.2407342
172	0xbddde623	-0.10834911
173	0x3da99249	0.08279855
174	0xbe1e6f0f	-0.15472053
175	0x3d0a44ac	0.033756897
176	0xbc54e170	-0.012993202
177	0x3d0ab27e	0.03386163
178	0x3b89bfa0	0.0042037517
179	0x3d6d4341	0.057925466
180	0x3e65b680	0.224329
181	0xbdeb577b	-0.11491295
182	0xbd330c2f	-0.04371279
183	0xbe2cba30	-0.168679
184	0xbe5d1954	-0.21591693
185	0xbbf568cc	-0.0074892994
186	0xbdbdb2e7	-0.092626385
187	0xbe22ee44	-0.15911204
188	0x3e6517f6	0.22372422
189	0x3d9d1171	0.07669342
190	0xbe4e4bc2	-0.20146087
191	0x3d50a3f9	0.050937627
192	0xbe3f7adc	-0.18699211
193	0x3e25db4e	0.1619694
194	0xbe74ce2e	-0.23906776
195	0xbca7bdf6	-0.020476323
196	0xbe34887e	-0.17630193
197	0xbe0dd4c7	-0.138507
198	0xbe6f0794	-0.23342735
199	0xbe745cc0	-0.23863506
200	0xbd0c9bf9	-0.034328435
201	0x3e129f4a	0.14318576
202	0xbe5847ea	-0.21121183
203	0x3e683548	0.22676575
204	0x3d7c2b3d	0.061564673
205	0xbdb79409	-0.08963782
206	0x3e753f90	0.23950028
207	0x3db225c2	0.08698608
208	0x3e283b8d	0.16428967
209	0xbe5593b0	-0.2085712
210	0x3c9205f4	0.017825104
211	0xbd66bd91	-0.05633313
212	0x3e1dc797	0.15408169
213	0x3e42ca27	0.19022427
214	0xbe22c205	-0.15894325
215	0xbd4bd7a9	-0.049766216
216	0xbe4c447e	-0.19948003
217	0xbdde72d8	-0.108617485
218	0x3e0b144c	0.13581961
219	0x3e6af215	0.2294391
220	0xbd7a4aa2	-0.06110633
221	0xbe3b744e	-0.18306085
222	0xbe7fb4cf	-0.24971317
223	0xbe7864a2	-0.24257138
224	0xbe511477	-0.20417963
225	0xbe65776c	-0.22408837
226	0xbe532a0d	-0.2062151
227	0x3c561dce	0.013068629
228	0xbd96ca9c	-0.073628634
229	0x3e1fc52e	0.15602562
230	0xbe72b586	-0.23702058
231	0x3e33348e	0.17500517
232	0xbd52bb3d	-0.051448096
233	0xbe212939	-0.15738381
234	0x3defafa6	0.11703424
235	0x3e266297	0.16248547
236	0x3d59afe5	0.05314626
237	0x3da10946	0.07863097
238	0xbe51f3de	-0.20503184
239	0xbe48ee47	-0.19622146
240	0xbe112607	-0.14174663
241	0x3e6a711a	0.22894707
242	0xbdfd5a88	-0.12370783
243	0xbe1c8782	-0.15286067
244	0x3e662c02	0.22477725
245	0xbe3d9f68	-0.1851784
246	0xbe4cf5a8	-0.20015585
247	0xbc02c322	-0.007981094
248	0xbdf451d8	-0.11929673
249	0x3d23694f	0.039895352
250	0x3db2901f	0.08718895
251	0xbdcd0bad	-0.100119926
252	0xbd84a5ba	-0.06476922
253	0xbe591d7a	-0.2120265
254	0xbdc1ab04	-0.09456447
255	0x3e4fc2da	0.20289174

convs.0.nn.0.bias f4 [16]
0	0xbe01b6a8	-0.12667334
1	0xbe60cce2	-0.21953157
2	0xbe0a63ba	-0.13514605
3	0xbe291426	-0.16511592
4	0x3e714744	0.23562342
5	0xbd6cd5db	-0.057821136
6	0x3c733938	0.014845185
7	0xbe7627e4	-0.24038655
8	0x3e6cdf9c	0.23132175
9	0x3d56a1e0	0.05240047
10	0xbdd1570e	-0.102216825
11	0xbe755c80	-0.23961067
12	0xbe1488d6	-0.14505324
13	0xbd62d1cb	-0.055375855
14	0xbe035b3e	-0.12827775
15	0xbe72c92c	-0.23709553

convs.0.nn.1.weight f4 [16]
0	0x3f7ce039	0.98779637
1	0x3f81667c	1.0109401
2	0x3f80289f	1.0012397
3	0x3f7d9c90	0.9906702
4	0x3f7c5935	0.9857362
5	0x3f7dc5d9	0.99130017
6	0x3f7ddea8	0.9916787
7	0x3f80f3f0	1.0074444
8	0x3f805ca0	1.0028267
9	0x3f8046e3	1.0021633
10	0x3f7f8676	0.99814546
11	0x3f7fc501	0.9990998
12	0x3f80470a	1.0021679
13	0x3f81a499	1.0128356
14	0x3f7e96cc	0.9944885
15	0x3f80b641	1.005562

convs.0.nn.1.bias f4 [16]
0	0xbc4c6a18	-0.012476467
1	0x3c2daa18	0.010599636
2	0x3ad10da7	0.0015949503
3	0xbc155b6c	-0.009116035
4	0xbc64e05f	-0.01396951
5	0xbc13ff9f	-0.009033113
6	0xbc0a5107	-0.00844217
7	0x3bee87b2	0.0072793597
8	0x3b2d9237	0.0026484856
9	0x3b1f82df	0.002433948
10	0xbac402f7	-0.0014954497
11	0xba483f2b	-0.00076388073
12	0x3b11857e	0.0022204812
13	0x3c4df3ae	0.012570305
14	0xbb89fc80	-0.0042110085
15	0x3bbb650a	0.005718832

convs.0.nn.1.running_mean f4 [16]
0	0xbf7c3238	-0.9851413
1	0x3ed6cf3d	0.41954985
2	0x40120ea9	2.2821448
3	0x40861737	4.190334
4	0x3f7a2455	0.9771169
5	0x3d687b7d	0.056758393
6	0x3fc3b3f2	1.528929
7	0x401a8dd9	2.4149077
8	0x3fe6d541	1.803383
9	0xbc6cebee	-0.014460547
10	0xbf6d31f0	-0.92654324
11	0xbf9250f0	-1.143095
12	0xc036b825	-2.8549893
13	0xc01bc92d	-2.4341538
14	0xc04c84cd	-3.1956055
15	0xc01b6ede	-2.4286418

convs.0.nn.1.running_var f4 [16]
0	0x3fc1b064	1.5131955
1	0x4226ad9b	41.669537
2	0x40872e44	4.2243977
3	0x4064be84	3.5741282
4	0x40626383	3.5373237
5	0x412a61c6	10.64887
6	0x3e98beea	0.29833156
7	0x41e30263	28.376165
8	0x40d1a927	6.5518985
9	0x41e1e65d	28.237482
10	0x4005e058	2.0918179
11	0x4132c18c	11.172253
12	0x40746a2d	3.8189805
13	0x3ed71f96	0.42016286
14	0x3f3e011b	0.74220437
15	0x4022eb04	2.5455942

convs.0.nn.3.weight f4 [16, 16]
0	0xbe1be514	-0.15224105
1	0x3d2b0b6c	0.04175894
2	0xbe71bf5d	-0.23608156
3	0x3e274fb1	0.16338994
4	0x3e2cd296	0.16877207
5	0x3e7ca6b7	0.24672972
6	0xbe60782b	-0.2192084
7	0xbe0802d7	-0.13282333
8	0xbe47b4df	-0.1950259
9	0xbe586b92	-0.21134785
10	0x3e3602bd	0.17774482
11	0x3e3711bb	0.17877857
12	0xbe79488b	-0.24344079
13	0x3dac080a	0.08399971
14	0xbc8ca861	-0.017170133
15	0xbe4cc442	-0.19996741
16	0xbb99ee81	-0.0046976213
17	0xbd868081	-0.06567479
18	0x3e170d8b	0.1475126
19	0xbd9af8a1	-0.075669535
20	0xbe6f5c1a	-0.23374978
21	0x3d6eac5e	0.05826985
22	0x3e78f919	0.24313773
23	0xbdb94ed8	-0.090482414
24	0x3e30aab3	0.17252617
25	0xbe29caaa	-0.16581216
26	0x3d9a8488	0.075448096
27	0x3e829cb1	0.2551017
28	0x3e436360	0.19080877
29	0x3e2224e9	0.15834393
30	0xbc9d25cd	-0.019183064
31	0x3d36abc8	0.044597417
32	0xbe4c2ebf	-0.19939707
33	0x3dfccb47	0.123434596
34	0x3ddbc660	0.107311964
35	0x3e19f2e1	0.15034057
36	0xbd452909	-0.048134837
37	0xbe1d3c5b	-0.15355055
38	0x3a85d985	0.0010211921
39	0x3d0226ce	0.03177529
40	0xbd0b3940	-0.033990145
41	0xbe806a2b	-0.25081
42	0xbe511560	-0.2041831
43	0x3e680d85	0.22661407
44	0x3d96c863	0.073624395
45	0x3d90b162	0.07065083
46	0x3e7d2c12	0.24723843
47	0xbdbe65f9	-0.092967935
48	0x3e742c33	0.23844986
49	0x3e4d1b01	0.20029832
50	0x3de29e16	0.11065309
51	0xbddaf2ab	-0.106908165
52	0xbe69941e	-0.22810408
53	0xbceb893e	-0.028751966
54	0xbd5ececa	-0.05439643
55	0xbd4786d3	-0.048712563
56	0x3e58cd71	0.2117212
57	0x3e1e6be6	0.15470847
58	0xbdc6e295	-0.09711186
59	0x3e27f2e9	0.16401257
60	0x3e156ac9	0.14591517
61	0x3e73d863	0.23813014
62	0xbda13319	-0.07871074
63	0x3e713d24	0.2355848
64	0x3d6ebd44	0.058285967
65	0xbd986e9f	-0.07442974
66	0xbe0cc58d	-0.13747235
67	0xbe69f045	-0.22845562
68	0xbe16af68	-0.1471535
69	0xb88cd37c	-6.715112e-05
70	0xbe13ee55	-0.14446385
71	0xbe3f8144	-0.18701655
72	0xbd2c0591	-0.041997496
73	0x3d554860	0.052070975
74	0xbe281f0c	-0.16418093
75	0xbd986c67	-0.07442551
76	0xbe3b5a0a	-0.18296066
77	0x3e39c068	0.18139803
78	0xbbf370f8	-0.0074292384
79	0xbe56a782	-0.20962337
80	0x3e7ce426	0.24696407
81	0x3e390a4a	0.18070331
82	0xbe3f89b4	-0.18704873
83	0x3da9ea68	0.082966626
84	0x3e1a39ed	0.1506116
85	0xbc9e5c6e	-0.019331183
86	0x3cee5490	0.029093057
87	0x3e7c831a	0.24659386
88	0xbcfe04e6	-0.031008195
89	0xbd19cfa8	-0.037551552
90	0x3e1ec1a5	0.15503557
91	0xbe695c20	-0.22789049
92	0x3a01ac7a	0.00049466605
93	0x3dd6905e	0.104767546
94	0x3dc3c448	0.09558922
95	0x3c6a45ef	0.0142989
96	0x3e1d8531	0.1538284
97	0xbc10d59e	-0.008839993
98	0x3df5e241	0.12006045
99	0x3e6e8fd5	0.23297055
100	0xbd868d42	-0.065699115
101	0xbd676198	-0.056489557
102	0x3cd9b11e	0.026573714
103	0xbddffe20	-0.10937142
104	0x3bac339e	0.0052551767
105	0xbd80f7fc	-0.06297299
106	0xbc4fc3e1	-0.0126809785
107	0x3d742a34	0.05961056
108	0xbe07f1df	-0.1327586
109	0xbe49e9c6	-0.19718084
110	0xbe3d2644	-0.18471628
111	0xbe6db43a	-0.23213282
112	0xbb48350b	-0.0030549194
113	0xbd8805ad	-0.066417076
114	0x3e46216a	0.19348684
115	0xbde05e29	-0.109554596
116	0x3e1fa1f6	0.15589127
117	0xbe26f403	-0.1630402
118	0xbe6af778	-0.22945964
119	0xbe459fe8	-0.1929928
120	0xbd2c7eb4	-0.04211302
121	0x3cccdaae	0.025006618
122	0x3d48247e	0.048862927
123	0x3bb16f1a	0.0054148557
124	0x3da937c9	0.08262593
125	0xbc272a99	-0.010203027
126	0x3c8fcb42	0.017552976
127	0x3e112cfd	0.14177318
128	0x3e4e0d7a	0.20122328
129	0xbd0393c8	-0.032123357
130	0x3e61b475	0.22041495
131	0xbe4b8643	-0.19875436
132	0x3c479e7b	0.012183781
133	0xbe477962	-0.19479898
134	0xbdbf9c42	-0.09355976
135	0x3ce9dbb2	0.028547142
136	0x3d991e27	0.07476454
137	0xbe42ca5d	-0.19022508
138	0xbcc7930e	-0.024362113
139	0xbd3bf975	-0.045892198
140	0x3c18c6c5	0.009324734
141	0x3e15ffd4	0.14648372
142	0xbe684465	-0.2268234
143	0xbdf54e90	-0.11977875
144	0x3e4b9187	0.19879733
145	0xbe50bb13	-0.20383863
146	0x3e4cbb7c	0.19993395
147	0xbd23dbe7	-0.040004637
148	0x3e405dce	0.18785784
149	0x3e063409	0.13105787
150	0x3e262076	0.1622332
151	0xbe7792ca	-0.2417709
152	0x3e668657	0.22512184
153	0xbdb638a8	-0.08897525
154	0xbe4a9aa4	-0.19785553
155	0xbe0eb117	-0.13934742
156	0x3c26ca7b	0.010180111
157	0x3e22ea47	0.15909682
158	0x3d579bd3	0.05263884
159	0x3c5e4efb	0.013568635
160	0x3e09793a	0.1342515
161	0xbe6b06dd	-0.22951837
162	0x3e13a539	0.14418496
163	0xbe133cc7	-0.14378653
164	0xbe2612f5	-0.16218169
165	0x3e3b2000	0.18273926
166	0xbc1d2aa4	-0.009592686
167	0x3c2916fc	0.010320421
168	0xbd41788a	-0.047234096
169	0xb9f84a99	-0.00047357826
170	0x3e37d1df	0.17951153
171	0xbe53e648	-0.20693314
172	0x3d187a95	0.03722628
173	0xbe25fb99	-0.16209258
174	0xbe71dd4e	-0.23619577
175	0xbcb32f48	-0.021873131
176	0xbe5cccf2	-0.21562555
177	0x3b9e50ef	0.0048314254
178	0xbdec3937	-0.1153435
179	0xbe2c239a	-0.16810456
180	0x3e1aa354	0.15101367
181	0xbc75550b	-0.014973889
182	0x3e218ecd	0.1577713
183	0x3e757638	0.23970878
184	0x3d4d134c	0.05006723
185	0x3e4f0112	0.20215252
186	0xbdd9045f	-0.10596537
187	0xbe31564c	-0.17318076
188	0x3d3edfc1	0.046600107
189	0xbda0f3fe	-0.07859038
190	0xbdab37d2	-0.08360256
191	0x3cf18c4b	0.029485842
192	0xbdd49d96	-0.1038162
193	0xbcd16085	-0.02555872
194	0x3da3dbf4	0.08000937
195	0x3de7519d	0.112948634
196	0xbd0c5749	-0.03426293
197	0xbe55ae7c	-0.20867342
198	0xbe2bb8c2	-0.16769698
199	0xbe3db72a	-0.18526903
200	0x3da205b5	0.07911245
201	0xbd801027	-0.06253081
202	0xbe207e73	-0.15673237
203	0x3e0b530c	0.13605899
204	0x3e2940f6	0.16528687
205	0xbe163059	-0.1466688
206	0xbdb40bd8	-0.087913215
207	0xbe27a12a	-0.16370073
208	0xbe6ecfbf	-0.23321436
209	0x3e3aad30	0.18230128
210	0xbc8281d9	-0.015931057
211	0x3b5d8807	0.0033803002
212	0xbe4b7383	-0.19868283
213	0xbdc3a259	-0.0955245
214	0x3e3268c8	0.17422783
215	0x3e42aa95	0.19010384
216	0x3e483f2a	0.19555345
217	0xbe5154bf	-0.20442484
218	0xbd00a007	-0.031402614
219	0x3c6158e8	0.013754107
220	0x3db37deb	0.08764251
221	0xbe2c66b9	-0.1683606
222	0xbd8558bc	-0.06511065
223	0x3e3c749e	0.18403861
224	0xbd89c8b9	-0.06727738
225	0x3e74797c	0.23874468
226	0x3e778d74	0.24175054
227	0x3e7d5b62	0.24741891
228	0x3e80948a	0.25113326
229	0xbd2738a4	-0.0408255
230	0xbe2afa54	-0.16697055
231	0xbe6d527e	-0.23176
232	0x3e0e788d	0.13913174
233	0xbe2bbea9	-0.1677195
234	0xbe226793	-0.15859823
235	0xbe584921	-0.21121646
236	0x3e4e29ec	0.2013318
237	0xbe13891b	-0.1440777
238	0x3e53282f	0.20620798
239	0xbe2cc44d	-0.16871758
240	0xbb00e739	-0.001966907
241	0xbd2a8d88	-0.04163888
242	0x3d8ebe2e	0.06969868
243	0x3d46338c	0.048389003
244	0xbd9b6f11	-0.075895436
245	0xbd17f1fe	-0.037096016
246	0x3e64ab16	0.22330889
247	0x3cf40179	0.029785858
248	0x3e31d50b	0.17366426
249	0x3e4e2c92	0.2013419
250	0xbe35b54e	-0.17744943
251	0xbdd040d9	-0.10168619
252	0x3cc2710a	0.023735542
253	0xbd9b1194	-0.07571712
254	0xbe5d999e	-0.21640632
255	0xbba2e6fc	-0.004971383

convs.0.nn.3.bias f4 [16]
0	0xbe490272	-0.19629839
1	0x3e18a2f9	0.14905919
2	0x3e4be726	0.19912395
3	0xbe01ff31	-0.12695004
4	0x3e036c40	0.12834263
5	0x3e51f252	0.20502594
6	0x3e14500f	0.14483665
7	0x3da08d1f	0.07839417
8	0xbdd98f38	-0.1062302
9	0xbe7ef76b	-0.2489907
10	0x3d8ee96c	0.069781154
11	0x3dabcf5a	0.083891585
12	0x3bdc7a44	0.0067284424
13	0xbc86966f	-0.016429154
14	0x3da7b2ac	0.08188376
15	0xbdbe56f6	-0.0929393

convs.0.nn.4.weight f4 [16]
0	0x3f7ca295	0.9868558
1	0x3f7df566	0.99202573
2	0x3f80a541	1.0050431
3	0x3f81baed	1.013517
4	0x3f80f412	1.0074484
5	0x3f7ea6b0	0.99473095
6	0x3f8105de	1.0079916
7	0x3f7e7f65	0.9941314
8	0x3f7decf1	0.9918967
9	0x3f7e9956	0.9945272
10	0x3f7c79bf	0.9862327
11	0x3f7c1bb8	0.98479795
12	0x3f81052d	1.0079705
13	0x3f8173a1	1.0113412
14	0x3f7ff299	0.9997955
15	0x3f81d3a1	1.0142709

convs.0.nn.4.bias f4 [16]
0	0xbc54914f	-0.012974097
1	0xbc043baf	-0.00807087
2	0x3ba74ca6	0.0051055728
3	0x3c5ab6a9	0.013349214
4	0x3bf7f430	0.007566951
5	0xbbaee396	-0.005337189
6	0x3c048196	0.008087536
7	0xbbc3813b	-0.005966333
8	0xbc0648bf	-0.008196055
9	0xbbb07177	-0.00538462
10	0xbc648768	-0.013948299
11	0xbc78beb1	-0.015182183
12	0x3bf08f44	0.0073412973
13	0x3c379491	0.011204855
14	0xb90f0321	-0.00013638708
15	0x3c6c160f	0.014409556

convs.0.nn.4.running_mean f4 [16]
0	0xbef0d26b	-0.47035536
1	0x3efbc976	0.4917714
2	0x3e6838bc	0.22677892
3	0x3ece7ee3	0.40331182
4	0xbf034697	-0.51279587
5	0x3f196ebd	0.599346
6	0xbdb99882	-0.09062292
7	0x3bf4814c	0.0074617025
8	0xbea1b1f5	-0.31581083
9	0xbd3d4bf6	-0.04621502
10	0xbe479f5c	-0.19494385
11	0x3d4f5b8d	0.05062442
12	0xbebe20a5	-0.3713428
13	0x39f87e32	0.0004739627
14	0x3e24201c	0.16027874
15	0xbd981135	-0.07425157

convs.0.nn.4.running_var f4 [16]
0	0x3e4028b3	0.18765526
1	0x3bddf596	0.006773661
2	0x3e092f42	0.13396934
3	0x3c997ae7	0.018735362
4	0x3dd9dbb2	0.10637607
5	0x3dc68760	0.096937895
6	0x3d68cd85	0.056836624
7	0x3bf47184	0.007459821
8	0x3c801767	0.01563616
9	0x3dfa204a	0.1221319
10	0x3ed7702b	0.42077765
11	0x3d354764	0.044257537
12	0x3c1f3a75	0.009718527
13	0x3e49293d	0.19644637
14	0x3c37f893	0.011228698
15	0x3dab0cb9	0.08352036

convs.1.nn.0.weight f4 [16, 16]
0	0xbe590505	-0.21193321
1	0xbe4bac24	-0.19889885
2	0xbe266c70	-0.16252303
3	0x3da0f2a8	0.07858783
4	0x3e312ed7	0.17303024
5	0xbe3cf1dc	-0.18451637
6	0xbe712c9c	-0.23552173
7	0xbe5b28d9	-0.21402301
8	0x3cb53872	0.022121642
9	0xbd67c5f8	-0.056585282
10	0xbe58006b	-0.2109391
11	0xbd4019dc	-0.04689966
12	0xbd08e7ff	-0.033424374
13	0xbd0992ef	-0.033587392
14	0x3e09ca65	0.13456114
15	0x3df03841	0.117294796
16	0xbe4d5b2e	-0.20054314
17	0xbe2f304a	-0.17108265
18	0x3e78d23e	0.24298951
19	0x3da1fc4a	0.079094484
20	0x3d93e13e	0.07220696
21	0xbe24b57b	-0.16084854
22	0x3e2a55b6	0.16634259
23	0xbd1aa4c3	-0.037754785
24	0xbe6760d8	-0.22595537
25	0x3e17cf1b	0.14825098
26	0x3dfa115b	0.122103415
27	0x3e210b62	0.15726998
28	0xbdb39a98	-0.08769721
29	0x3bb20750	0.0054330006
30	0x3e24cf53	0.16094713
31	0xbe43dcbe	-0.19127175
32	0x3d8cf113	0.06881919
33	0x3e673570	0.22578979
34	0xbbee02e5	-0.0072635286
35	0x3e307219	0.17231025
36	0x3e09bde6	0.13451347
37	0xbdfde647	-0.123974375
38	0x3dbd4db3	0.092433356
39	0xbe3aceab	-0.182429
40	0x3d95d6ba	0.073163465
41	0xbbe48502	-0.0069738636
42	0x3e78c6c1	0.24294569
43	0x3e04fca8	0.12987006
44	0xbccb9441	-0.024850966
45	0xbdc0a2d5	-0.09406058
46	0x3df297ff	0.11845397
47	0x3e395cda	0.18101826
48	0x3d2b6a35	0.041849334
49	0xbd6df190	-0.0580917
50	0xbdf10aae	-0.11769615
51	0xbe068f9f	-0.13140725
52	0x3e5c8573	0.21535282
53	0x3ced2513	0.028948342
54	0x3e09c844	0.13455302
55	0x3dea720c	0.11447534
56	0xbe4a4f55	-0.19756825
57	0xbe2172f9	-0.15766515
58	0xbc9aaf2a	-0.018882353
59	0xbcfd49a0	-0.030918896
60	0x3d49db79	0.04928157
61	0xbd6c982b	-0.057762306
62	0xbe34cde7	-0.1765667
63	0x3df720d5	0.12066809
64	0xbceb5787	-0.02872826
65	0xbe1075f8	-0.14107502
66	0x3df140de	0.117799506
67	0xbe7ea4f8	-0.24867618
68	0xbd808091	-0.06274522
69	0x3d060b06	0.032725357
70	0xbe20871a	-0.15676537
71	0x3d90d32c	0.07071528
72	0x3e0f2d66	0.13982162
73	0xbd81ee28	-0.06344253
74	0x3e01bfe8	0.12670863
75	0xbe583a29	-0.21115936
76	0x3d86f850	0.065903306
77	0xbd4162d7	-0.0472134
78	0xbdad95e7	-0.08475857
79	0x3ca70f8a	0.020393152
80	0x3e6937bd	0.22775169
81	0xbe47d7f6	-0.19515976
82	0x3d476a87	0.048685577
83	0x3e5d6967	0.21622239
84	0x3d1a1b71	0.037623826
85	0x3e39d781	0.18148614
86	0xbe4c7938	-0.19968116
87	0x3e48d7da	0.19613591
88	0xbe2de4bb	-0.16981785
89	0xbe0e1084	-0.13873488
90	0x3e72b853	0.23703127
91	0x3d88eedd	0.066861846
92	0x3e037dd6	0.12840971
93	0x3e6c4c13	0.23075895
94	0xbe587754	-0.2113927
95	0xbe3c975b	-0.18417113
96	0x3e3b81d1	0.1831124
97	0xbe093928	-0.1340071
98	0x3c9bbf24	0.019012041
99	0xbe59fdef	-0.21288274
100	0x3d8e185a	0.069382384
101	0x3b67a773	0.003534761
102	0xbd9edfd9	-0.07757539
103	0xbe2c3376	-0.16816506
104	0x3e584dfa	0.21123496
105	0x3e370e60	0.17876577
106	0xbe30cd2d	-0.17265768
107	0xbe7ba986	-0.24576387
108	0xbd8ad797	-0.06779402
109	0xbe705c1c	-0.23472637
110	0x3e214fc6	0.15753087
111	0x3e19749c	0.14985889
112	0x3c9ff755	0.019527117
113	0xbe7336b6	-0.2375134
114	0x3e6e81ab	0.23291652
115	0xbd40632a	-0.04696957
116	0x3dc62e49	0.09676797
117	0xbe5ab6f8	-0.2135886
118	0x3e4f5b3c	0.20249647
119	0xbd8252b6	-0.06363432
120	0xbe5ef001	-0.21771242
121	0x3e2d7399	0.16938628
122	0xbd893c18	-0.06700915
123	0x3e585fef	0.21130346
124	0x3c90b021	0.01766211
125	0xbe0095a5	-0.12557085
126	0x3d664f71	0.056228105
127	0x3e0976f6	0.13424286
128	0xbd9a365d	-0.075299
129	0xbd9705a6	-0.07374124
130	0x3c7b7c70	0.015349492
131	0x3e1f1555	0.15535481
132	0x3e19abe5	0.15006979
133	0x3cd1e0cc	0.025619887
134	0x3e49c6d6	0.19704756
135	0x3d85d053	0.06533875
136	0xbe2b4904	-0.16727072
137	0xbd52fe1c	-0.05151187
138	0xbe2646d0	-0.1623795
139	0xbd7eb8fb	-0.06218813
140	0xbdcdd3e8	-0.100501835
141	0x3e3242c0	0.17408276
142	0xbe22e575	-0.15907843
143	0x3c840371	0.016114922
144	0x3dae3146	0.08505492
145	0x3dc70a11	0.09718717
146	0xbe4d3674	-0.20040303
147	0xbdf31e5b	-0.11871024
148	0xbe03544c	-0.12825125
149	0x3e21f71e	0.15816924
150	0x3daeeb03	0.08540919
151	0xbe2d5905	-0.1692849
152	0x3df34219	0.118778415
153	0xbd770d91	-0.060315672
154	0x3d95f3f4	0.07321921
155	0x3da0e2d3	0.07855763
156	0x3de633ed	0.11240373
157	0x3dd9f31d	0.10642073
158	0xbe0ae732	-0.13564757
159	0xbd121f19	-0.03567419
160	0xbe72d7d6	-0.23715147
161	0xbbec29cd	-0.0072071315
162	0xbe796dcd	-0.24358292
163	0xbe497a57	-0.19675575
164	0xbcf399a7	-0.029736353
165	0x3d98e674	0.074658304
166	0xbdcc377b	-0.099715196
167	0x3d1b4971	0.037911836
168	0xbe6a2e65	-0.2286926
169	0x3b8f3ffd	0.0043716417
170	0xbda4b79c	-0.08042833
171	0xbcd2f10f	-0.025749711
172	0x3e030dfd	0.12798305
173	0xbdcef6a7	-0.10105639
174	0xbde61ae5	-0.112355985
175	0x3e15efa2	0.14642194
176	0x3e2eed02	0.17082599
177	0x3df7c84c	0.120987505
178	0x3e3611ca	0.17780223
179	0xbdf752b7	-0.120763235
180	0x3e0df390	0.13862443
181	0x3e6089a0	0.219275
182	0xbe6e44df	-0.2326846
183	0x3d9ca2a8	0.07648212
184	0xbd04f54c	-0.032460496
185	0xbe7eae15	-0.24871095
186	0xbd8497d5	-0.06474272
187	0x3e777468	0.24165499
188	0xbe5989e3	-0.21244006
189	0x3e57302a	0.21014467
190	0xbe66cae6	-0.22538337
191	0x3d64a103	0.055817615
192	0xbd688343	-0.056765806
193	0x3e32a4ce	0.1744568
194	0x3d810731	0.063002
195	0x3e038338	0.12843025
196	0xbdf5a49a	-0.11994286
197	0xbdb98502	-0.09058572
198	0x3e2a6cc0	0.16643047
199	0xbcfdfaa6	-0.031003308
200	0xbc083cd4	-0.008315284
201	0xbd89446d	-0.06702504
202	0x3d1e6d1b	0.03867827
203	0x3db90282	0.090336815
204	0xbe5f4c91	-0.21806552
205	0xbe71e066	-0.23620757
206	0xbc5850a0	-0.013202816
207	0x3da3f642	0.08005954
208	0xbe2bb850	-0.16769528
209	0xbdf94b25	-0.12172536
210	0xbe327e86	-0.17431077
211	0x3d90fc3a	0.070793584
212	0xbc45fd50	-0.01208432
213	0x3e130232	0.14356306
214	0xbe679848	-0.22616684
215	0x3e71dc8c	0.23619288
216	0xbe4a1f83	-0.19738583
217	0x3e2df2c7	0.16987143
218	0xbe0d8d54	-0.13823444
219	0x3db63f2d	0.088987686
220	0x3cb5acf2	0.022177193
221	0xbd5a801b	-0.053344827
222	0x3e358003	0.17724614
223	0x3e3100e2	0.17285493
224	0x3dfe187e	0.12407015
225	0xbddc6570	-0.10761535
226	0xbe63ee1e	-0.22258803
227	0x3e341357	0.17585503
228	0xbe383eb1	-0.17992665
229	0xbd58a62d	-0.052892853
230	0xbda25f38	-0.07928318
231	0xbe068cd6	-0.13139662
232	0x3dc138b7	0.094346456
233	0x3d87ff4f	0.06640493
234	0x3e0db22e	0.13837501
235	0xbc56bffd	-0.013107297
236	0xbe4ab6c8	-0.19796288
237	0x3da65b9b	0.08122941
238	0xbd2ee450	-0.042698205
239	0xbdcb53c0	-0.099280834
240	0x3e3c392e	0.18381187
241	0x3de7570e	0.11295901
242	0xbe6d2e57	-0.23162208
243	0xbe617693	-0.22017889
244	0x3e5a65a5	0.21327837
245	0x3d5cc0ce	0.05389481
246	0xbe39b148	-0.18134034
247	0x3d87ae24	0.066250116
248	0x3bfa3fc1	0.0076369946
249	0x3d3a3c9f	0.04546797
250	0xbd5a97ee	-0.053367548
251	0x3e36cf3f	0.17852496
252	0xbdd483a4	-0.10376671
253	0xbe7ba45c	-0.24574417
254	0x3ca94a98	0.020665452
255	0x3e1c5322	0.15266088

convs.1.nn.0.bias f4 [16]
0	0x3d87c8a7	0.06630068
1	0x3e52ff2a	0.2060515
2	0x3c34916e	0.011021001
3	0x3e3d1d78	0.18468273
4	0x3dd516a2	0.104047075
5	0xbe538852	-0.20657471
6	0x3d9e6f8f	0.07736122
7	0x3e3c30d6	0.18378004
8	0xbd56c4af	-0.052433666
9	0x3e26fa59	0.16306438
10	0x3e775c62	0.24156335
11	0xbe6ac47e	-0.22926518
12	0xbd881aaa	-0.06645711
13	0x3e4511f5	0.19245131
14	0x3dfb1343	0.12259533
15	0x3e1d8128	0.153813

convs.1.nn.1.weight f4 [16]
0	0x3f82324b	1.0171598
1	0x3f81be99	1.0136291
2	0x3f7f7ef8	0.99803114
3	0x3f7e6294	0.9936917
4	0x3f7ca679	0.9869152
5	0x3f807cb5	1.0038058
6	0x3f8246b6	1.0177829
7	0x3f7c6465	0.9859069
8	0x3f7fc5c9	0.9991117
9	0x3f815476	1.01039
10	0x3f7d2f1d	0.98900014
11	0x3f7d4148	0.98927736
12	0x3f7f33cd	0.99688417
13	0x3f7e3cd0	0.9931154
14	0x3f80fe8f	1.0077685
15	0x3f7d71e4	0.9900191

convs.1.nn.1.bias f4 [16]
0	0x3c8d9c27	0.017286373
1	0x3c62fc53	0.013854104
2	0xbb1a107c	-0.002350836
3	0xbbaed57e	-0.005335509
4	0xbc5246c1	-0.012834252
5	0x3b800317	0.0039066183
6	0x3c9101ef	0.017701117
7	0xbc6e14ac	-0.014531296
8	0xbab2dc44	-0.0013645967
9	0x3c299619	0.0103507275
10	0xbc38a6bb	-0.01127022
11	0xbc305c7c	-0.0107642375
12	0xbb50d8fb	-0.0031867612
13	0xbbe64151	-0.0070268293
14	0x3be9d940	0.007136494
15	0xbc1e2766	-0.009652948

convs.1.nn.1.running_mean f4 [16]
0	0xc0813a5b	-4.0383735
1	0x3eed21bb	0.46314797
2	0x405da21e	3.4630198
3	0xbf6120f7	-0.87940925
4	0xbfcd1682	-1.6022494
5	0x40019167	2.0244997
6	0xbfa1e83f	-1.2649001
7	0x3f2f6531	0.6851378
8	0xbd343869	-0.04399911
9	0x3ed76232	0.42067105
10	0xc06f41b5	-3.7383854
11	0x3faf7715	1.3708216
12	0xbf272fda	-0.6530739
13	0xbadd1380	-0.0016866773
14	0xbfc2435c	-1.5176806
15	0xbe50c95f	-0.20389317

convs.1.nn.1.running_var f4 [16]
0	0x40210663	2.5160148
1	0x404c0990	3.1880836
2	0x415121f3	13.070788
3	0x40511ac6	3.2672591
4	0x400057be	2.0053554
5	0x4162a843	14.1660795
6	0x3ff68e51	1.9262182
7	0x40c21731	6.065331
8	0x3f7a500b	0.97778386
9	0x3fd7de53	1.6864723
10	0x41221a68	10.131447
11	0x41cc2f77	25.523176
12	0x403a2118	2.90827
13	0x40af8440	5.484894
14	0x4054b47d	3.3235161
15	0x40f4c02f	7.64846

convs.1.nn.3.weight f4 [16, 16]
0	0x3d30233c	0.043002352
1	0x3af33e5f	0.0018558017
2	0xbe58c707	-0.21169673
3	0xbe69e9df	-0.22843121
4	0xbe179e76	-0.14806542
5	0xbe1f2298	-0.1554054
6	0x3e82c493	0.255406
7	0xbe4002a7	-0.18751012
8	0xbe7a43d1	-0.24439932
9	0xbdeee68c	-0.11665067
10	0xbd8a5dbd	-0.067561604
11	0x3c3f1e33	0.011664915
12	0xbe727854	-0.23678714
13	0xbde375a7	-0.11106425
14	0xbe4a85c9	-0.19777597
15	0x3e144733	0.14480285
16	0x3d8a8a1c	0.067646235
17	0x3e4daad7	0.20084701
18	0xbe36103f	-0.17779635
19	0xbe453bb8	-0.19261062
20	0xbe3c75f1	-0.18404366
21	0x3cce365b	0.025172403
22	0xbe17ee0e	-0.14836904
23	0xbe227810	-0.15866113
24	0x3e3258b9	0.17416658
25	0x3ca1c3ae	0.019746628
26	0x3d490de0	0.049085498
27	0x3d871ef6	0.06597702
28	0x3b944555	0.0045248666
29	0x3d909a5e	0.07060693
30	0x3e5e3198	0.21698606
31	0x3e017157	0.12640892
32	0xbd4268d4	-0.047463253
33	0x3e8078f7	0.2509229
34	0x3e02e50e	0.1278269
35	0x3e210392	0.15724018
36	0xbd7dfb03	-0.06200696
37	0x3d121870	0.035667837
38	0xbe2870ed	-0.16449328
39	0xbd86a594	-0.0657455
40	0x3e1ca3bb	0.15296833
41	0xbce6810a	-0.028137702
42	0x3c9a8f6f	0.018867223
43	0xbe6f16e7	-0.2334858
44	0x3b954442	0.004555256
45	0x3e28acd7	0.16472183
46	0x3d921c23	0.07134273
47	0xbdb033a1	-0.086035974
48	0x3e13cf53	0.14434557
49	0x3e02a385	0.1275769
50	0x3e402f21	0.18767978
51	0x3e3f8cd4	0.18706065
52	0xbe3a0239	-0.1816491
53	0x3e81aa9f	0.25325486
54	0x3e6182f7	0.22022615
55	0xbd214869	-0.039375696
56	0xbe648103	-0.22314839
57	0xbe68547e	-0.22688481
58	0xbc6718e2	-0.014105054
59	0xbe251c5b	-0.16124098
60	0xbe466114	-0.1937297
61	0x3ce3cf66	0.027808856
62	0xbcef315a	-0.029198337
63	0x3dd0327a	0.10165878
64	0xbca64f8a	-0.020301599
65	0x3cb4f468	0.022089198
66	0x3dde5e73	0.108578585
67	0xbe5723e1	-0.2100978
68	0xbd82e6c8	-0.06391674
69	0xbe6065b5	-0.21913798
70	0x3d125573	0.035726022
71	0xbd9f7363	-0.0778568
72	0xbe2eea45	-0.17081554
73	0xbd99dbe0	-0.07512641
74	0x3e711d41	0.23546316
75	0xbe7b9248	-0.2456752
76	0x3e0392eb	0.12849014
77	0x3d77029b	0.06030522
78	0x3e5cf300	0.21577072
79	0xbe5e39a0	-0.2170167
80	0x3c409ca5	0.011756097
81	0xbe71b1d1	-0.23602988
82	0xbe1ae4a7	-0.15126286
83	0x3d910bbe	0.07082318
84	0xbe61bfa6	-0.22045764
85	0x3db4b192	0.08822931
86	0xbd5700e0	-0.05249107
87	0xbe642a7d	-0.22281833
88	0xbd7a261a	-0.061071493
89	0xbe6a9788	-0.22909367
90	0x3dc300d6	0.09521644
91	0xbe3bf8dc	-0.18356651
92	0xbd924fe8	-0.07144147
93	0xbe47437e	-0.1945934
94	0xbe41e60b	-0.1893541
95	0x3e120656	0.1426023
96	0xbd669a79	-0.05629966
97	0x3e4757d1	0.19467093
98	0x3dd428b0	0.10359323
99	0xbdf4f286	-0.1196032
100	0xbd020e35	-0.03175183
101	0xbd99810f	-0.07495319
102	0xbd3558e7	-0.044274237
103	0x3d735d57	0.059415188
104	0x3e231792	0.1592696
105	0xbe6ba67a	-0.23012725
106	0x3cb3cdac	0.021948658
107	0xbe50d6bf	-0.20394419
108	0x3da085be	0.07838009
109	0xbdddc9e0	-0.1082952
110	0x3d3c3b1f	0.04595482
111	0x3d6ceaac	0.057840988
112	0x3e3148b6	0.17312893
113	0xbe4aec27	-0.19816647
114	0xbe423bce	-0.18968126
115	0xbe1512a4	-0.14557892
116	0x3e32eed2	0.17473915
117	0x3e367d40	0.17821217
118	0xbe522d1e	-0.20525023
119	0xbcc39ad8	-0.023877546
120	0xbdb99b21	-0.090627916
121	0xbe47ddcd	-0.19518204
122	0xbe484aa3	-0.19559722
123	0xbe0c17cc	-0.13680953
124	0x3d0616f2	0.032736726
125	0xbd7407ee	-0.059577875
126	0x3e05db08	0.13071835
127	0x3da6cd7a	0.0814466
128	0x3d1347da	0.035957195
129	0x3e307b7a	0.17234603
130	0xbe346084	-0.17614943
131	0xbe3105cd	-0.17287369
132	0xbe599f1e	-0.21252105
133	0x3e529b22	0.20566991
134	0xbdbdbffc	-0.09265134
135	0x3e0fe2d6	0.14051375
136	0x3e614d45	0.22002132
137	0x3c9546c4	0.01822222
138	0x3ce46403	0.02787972
139	0x3c2e2229	0.010628262
140	0x3ba5f098	0.0050640814
141	0x3e52af57	0.205747
142	0xbd500abd	-0.05079149
143	0x3da393d9	0.07987184
144	0x3e0934cd	0.13399048
145	0x3e0915ff	0.13387297
146	0xbe772cb9	-0.24138154
147	0x3e27f9d8	0.16403902
148	0xbe49fe4c	-0.19725913
149	0xbe6f9644	-0.23397166
150	0x3e5606cb	0.20901029
151	0x3e0e9eac	0.13927716
152	0xbe1a3c5c	-0.15062088
153	0x3dca6ee3	0.09884431
154	0x3e64df5c	0.2235083
155	0xbc7163ba	-0.014733249
156	0x3e365d05	0.17808922
157	0x3e384a58	0.1799711
158	0xbe2c6441	-0.16835119
159	0x3e7b7a3a	0.24558344
160	0x3d5d7b65	0.054072756
161	0xbe05dd9a	-0.13072816
162	0x3e77447d	0.2414722
163	0xbdd9551d	-0.10611937
164	0xbe64b567	-0.22334825
165	0x3d7966a1	0.06088889
166	0x3b82adcb	0.003988003
167	0x3e5837a1	0.2111497
168	0xbd689051	-0.056778256
169	0x3e5a9a9c	0.21348041
170	0xbe758337	-0.23975836
171	0xbd4db80f	-0.05022436
172	0xbd271bfb	-0.04079817
173	0x3e2f4288	0.17115223
174	0xbdf2bbb2	-0.11852206
175	0x3e38e35d	0.18055482
176	0xbe603264	-0.21894222
177	0x3d11a722	0.03555978
178	0xbdb897c3	-0.09013321
179	0xbd1870ec	-0.037217066
180	0x3e4380cf	0.19092105
181	0xbcfd04a7	-0.030886007
182	0x3e4923c8	0.19642556
183	0x3dc07baa	0.09398587
184	0x3b7d94ae	0.0038693356
185	0x3e81b62a	0.25334293
186	0xbe458c7d	-0.19291873
187	0x3de237c0	0.1104579
188	0xbe5a3e96	-0.21312937
189	0x3e242b2f	0.16032098
190	0x3e2f1d2c	0.17100972
191	0xbc13fd0b	-0.009032498
192	0xbe470339	-0.19434823
193	0xbd23cc76	-0.03998991
194	0x3d40895a	0.04700599
195	0xbe6f9d05	-0.23399742
196	0xbc9b0458	-0.01892297
197	0x3d42d3c6	0.047565244
198	0xbd2e19d6	-0.042505108
199	0x3e2e8fff	0.17047118
200	0xb9d88ad9	-0.0004130218
201	0x3e6efddd	0.23339029
202	0x3dfc2988	0.12312609
203	0x3e54dcfa	0.20787421
204	0x3d770f17	0.060317125
205	0xbe6edf0f	-0.23327278
206	0x3e02cfdc	0.12774605
207	0x3bfb0530	0.0076605305
208	0xbc508f9f	-0.012729554
209	0x3e2527a9	0.1612841
210	0xbe1d5cb5	-0.15367396
211	0x3e3b8d70	0.18315673
212	0xbc3c80e7	-0.011505342
213	0xbc895db5	-0.016768316
214	0x3d647519	0.055775736
215	0xbe62e1a2	-0.22156385
216	0x3e44e837	0.19229208
217	0x3e4f0112	0.20215252
218	0xbe71d78b	-0.2361738
219	0x3ce42190	0.027848035
220	0xbe5dfa25	-0.21677454
221	0xbe2e47b3	-0.17019539
222	0x3d993f93	0.07482829
223	0xbb69f3cb	-0.003569829
224	0xbe5a6110	-0.21326089
225	0x3db8abcb	0.09017142
226	0x3db54c3e	0.08852433
227	0xbe10e32b	-0.14149158
228	0xbe4711e3	-0.19440417
229	0xbe3173c9	-0.17329325
230	0x3e3ebde1	0.1862712
231	0x3d70d38d	0.0587955
232	0x3d30f561	0.04320276
233	0xbe221dd8	-0.15831697
234	0x3cc05cb4	0.023481704
235	0x3bd940d8	0.0066300444
236	0xbe261f00	-0.16222763
237	0xbdaa2174	-0.08307162
238	0x3da91d12	0.08257498
239	0xbdceb173	-0.100924395
240	0xbe516959	-0.20450343
241	0xbe0d5ab3	-0.1380413
242	0xbd9f83db	-0.07788821
243	0x3dd521fd	0.104068734
244	0xbe1d80ba	-0.15381137
245	0x3d6e440f	0.058170374
246	0x3e62985b	0.22128431
247	0x3e1108c6	0.14163503
248	0xbd9e9d69	-0.07744867
249	0x3d09c062	0.033630736
250	0x3e33ddef	0.1756513
251	0x3d1608c1	0.036629442
252	0x3cf0ec72	0.02940962
253	0x3dffa826	0.12483244
254	0x3cb1c967	0.021702481
255	0x3d07274b	0.032996457

convs.1.nn.3.bias f4 [16]
0	0x3e2a826c	0.16651314
1	0x3db05cb3	0.08611431
2	0xbd4994d3	-0.049214195
3	0xbe271f23	-0.16320471
4	0xbe487669	-0.1957642
5	0x3cc9a0d2	0.024612818
6	0x3e3ca73e	0.18423173
7	0x3e51e877	0.20498835
8	0xbe2e7c09	-0.17039503
9	0x3e0e25a6	0.13881549
10	0x3aa0e8d8	0.0012276424
11	0xba631fd6	-0.0008664107
12	0xbbb7c292	-0.0056079114
13	0x3dbbaf8e	0.09164344
14	0x3dbf9990	0.093554616
15	0xbd958347	-0.0730043

convs.1.nn.4.weight f4 [16]
0	0x3f80aed3	1.0053352
1	0x3f7f124a	0.9963728
2	0x3f810056	1.0078228
3	0x3f7c5034	0.9855988
4	0x3f7fc8c0	0.99915695
5	0x3f80ceca	1.0063107
6	0x3f8097e4	1.0046353
7	0x3f7fa46d	0.9986027
8	0x3f815df0	1.0106792
9	0x3f7fbf52	0.99901307
10	0x3f7f1088	0.996346
11	0x3f7c9337	0.9866213
12	0x3f7e8868	0.9942689
13	0x3f81b086	1.0131996
14	0x3f7ca92c	0.98695636
15	0x3f7f8416	0.9981092

convs.1.nn.4.bias f4 [16]
0	0x3bb49442	0.005510838
1	0xbb6302e9	-0.0034639186
2	0x3bfcf002	0.007719041
3	0xbc6ce02d	-0.014457745
4	0xba55a2c1	-0.00081495574
5	0x3bcd8847	0.006272349
6	0x3b735cc9	0.0037134162
7	0xbac07490	-0.0014683176
8	0x3c2a60c4	0.010399047
9	0xba7f8a12	-0.0009748052
10	0xbb646199	-0.0034848212
11	0xbc5c5958	-0.013449036
12	0xbbd4a107	-0.0064889225
13	0x3c59d1e9	0.013294675
14	0xbc571248	-0.013126917
15	0xbb01cdaf	-0.0019806435

convs.1.nn.4.running_mean f4 [16]
0	0xbf09a4c9	-0.5376707
1	0x3e2f209a	0.1710228
2	0x3dcbce90	0.09951508
3	0xbd84f277	-0.06491559
4	0xbede3a66	-0.4340393
5	0xbf2ac17b	-0.6670148
6	0x3de4966d	0.11161504
7	0xbe00ce17	-0.12578617
8	0x3d140308	0.036135703
9	0x3ef7b812	0.48382622
10	0x3db0984a	0.08622797
11	0x3e55b51e	0.20869872
12	0x3df382a5	0.11890153
13	0x3d04405c	0.03228794
14	0xbe63a99b	-0.22232668
15	0x3dab0061	0.08349682

convs.1.nn.4.running_var f4 [16]
0	0x3db05d73	0.08611574
1	0x3d44ce65	0.048048396
2	0x3dc925c9	0.0982166
3	0x3e103ca6	0.14085636
4	0x3e04097c	0.12894243
5	0x3d78d0aa	0.060745873
6	0x3d79af53	0.060958218
7	0x3d024917	0.031807985
8	0x3d1b4b35	0.03791352
9	0x3eb70fde	0.35754293
10	0x3d40bb99	0.047053907
11	0x3e869726	0.26287192
12	0x3e1b341c	0.15156597
13	0x3e3caf10	0.18426156
14	0x3c15cd63	0.009143206
15	0x3ca6d483	0.020365005
