experiments/results/SHRIROOK/runs/2026-02-05T18:04:30-pcn3-shrirook/seed_0/best_weights.pt (torch, 679545 bytes, 572 tensors)

convs.0.mp_levels.0.msg_up_nn.1.weight f4 [1, 2]
0.35391876 -0.03653448
00000000: d734 b53e 2ea5 15bd

convs.0.mp_levels.0.update_up_nn.0.weight f4 [16, 1]
-0.37437767 0.3376703 0.43486202 0.031184055 0.6562749 -0.14330804 -0.3974904 0.8716118
-0.8622789 0.6268697 0.22760454 0.007342237 -0.89223254 0.9568215 0.5934202 0.4228642
00000000: 6eae bfbe 1fe3 ac3e 3ca6 de3e b475 ff3c
00000010: a201 283f 58bf 12be dd83 cbbe f321 5f3f
00000020: 4fbe 5cbf 887a 203f 2a11 693e 2697 f03b
00000030: 5a69 64bf 41f2 743f 63ea 173f a881 d83e

convs.0.mp_levels.0.update_up_nn.0.bias f4 [16]
-0.8828123 0.18161143 0.07659217 -0.31904233 0.76775396 0.28735733 -0.18795013 -0.3881244
-0.64679533 -0.55599546 0.6836413 -0.14421698 -0.7764677 0.5234526 0.62019503 0.19727029
00000000: fdff 61bf 59f8 393e 5bdc 9c3d 8459 a3be
00000010: 868b 443f 8020 933e 0076 40be 3eb8 c6be
00000020: 6194 25bf b855 0ebf 1e03 2f3f 9ead 13be
00000030: 96c6 46bf fd00 063f 1ac5 1e3f 3901 4a3e

convs.0.mp_levels.0.update_boundaries_nn.0.weight f4 [16, 1]
-0.6697691 0.41454443 0.8572164 0.83162266 0.44259208 -0.054093964 0.52792066 0.5896809
-0.3584128 0.5609971 -0.19427082 -0.79406464 -0.3532348 0.71085 0.31434685 -0.27278763
00000000: fd75 2bbf 2b3f d43e 8972 5b3f 39e5 543f
00000010: 6e9b e23e a291 5dbd cf25 073f 54f5 163f
00000020: e281 b7be 829d 0f3f eeee 46be d247 4bbf
00000030: 31db b4be 44fa 353f 12f2 a03e d2aa 8bbe

convs.0.mp_levels.0.update_boundaries_nn.0.bias f4 [16]
-0.99446005 -0.7276597 0.81121534 0.619659 0.1661985 0.7806995 -0.23367913 -0.9044645
0.7554029 -0.85570234 0.9201318 0.38632438 -0.74632734 -0.6094147 -0.52349865 -0.23925139
00000000: ef94 7ebf e847 3abf cfab 4f3f f9a1 1e3f
00000010: f12f 2a3e ecdb 473f 9549 6fbe fc8a 67bf
00000020: 1662 413f 4f0f 5bbf c28d 6b3f 4fcc c53e
00000030: 4f0f 3fbf 9a02 1cbf 0204 06bf 51fe 74be

convs.0.mp_levels.0.combine_nn.0.weight f4 [16, 32]
-0.17471844 0.0678195 0.087248035 -0.040636834 0.111747645 -0.15785511 0.11356117 0.0023026639
-0.0010045124 -0.12417132 -0.06657294 0.030863335 -0.15628698 -0.11062553 0.07327823 0.018912468
-0.13865976 0.15451758 -0.011320819 -0.009751025 -0.0046039172 -0.12790973 0.11599126 0.120174184
0.16584955 -0.09408279 -0.09128484 0.15343335 0.018141823 0.10749494 0.09304676 0.05988921
-0.15883192 -0.014528245 -0.07057005 0.056163177 0.013591248 0.023454642 0.061862245 0.1264628
0.07726722 0.056245983 0.06418793 -0.0032018647 0.06525473 0.08392475 0.029744096 0.1734308
0.042904995 -0.026420647 0.029446872 0.13521375 -0.09041946 0.109989725 -0.11645706 -0.15600052
0.1089779 0.084327005 -0.02904776 -0.08288708 0.14726558 0.12684816 -0.14088215 0.13274968
-0.13778643 0.15834403 0.06333521 -0.15047498 -0.12202541 -0.081398375 0.021475546 0.111644514
-0.059055034 0.013940581 0.01934131 -0.07655308 -0.06322595 -0.11166401 0.010161464 -0.1252463
0.024913458 -0.13360402 -0.0024315948 -0.07386958 -0.13880514 -0.13084461 -0.061680656 -0.06773864
-0.1425387 -0.1691 0.086831346 -0.0102348775 -0.12159825 -0.016479507 -0.044355158 0.13721445
-0.15187423 0.05500286 -0.15175876 -0.14000003 0.16445766 -0.08572798 0.08208968 0.085091025
-0.07514851 0.1248423 -0.016661456 0.06506182 0.036202293 0.12444042 -0.02744223 -0.056767087
-0.12759931 -0.1321348 -0.1427514 0.1584255 0.16551884 0.17947152 -0.03750906 0.030079152
-0.03971766 -0.15915218 0.07134666 0.1189454 0.14789857 -0.047000732 0.09908748 -0.028683804
-0.038602427 -0.030342767 0.15159918 -0.07676057 -0.11881122 0.08172615 0.066271305 0.053996958
-0.08508683 -0.0053186743 0.17530885 -0.05641879 0.07339799 -0.17202528 -0.09966911 0.01705487
-0.1500331 0.07214753 0.06572775 -0.15922795 -0.021950964 0.06309475 -0.11269022 0.012078285
-0.13948634 -0.1668847 -0.11878322 -0.046466075 -0.11811244 -0.094096735 -0.14178456 0.05064012
0.099526055 -0.09871913 -0.14546962 0.076581284 0.019237181 -0.16386974 -0.094256125 0.08426354
0.13146453 0.08380518 -0.13716878 0.15631543 -0.052687585 0.100857176 -0.16817701 -0.021414846
0.05996725 0.0886795 -0.07944104 0.016911516 0.04366179 0.03841978 0.027248941 0.09164945
0.08208151 -0.008283214 0.11823409 -0.13850448 -0.066120565 -0.064190514 0.03589621 0.014631103
0.12285042 0.096401684 0.027078524 0.10755098 -0.035146646 -0.05587339 -0.0249649 -0.10987233
0.017012568 0.15553537 0.0774907 0.020142464 -0.05538093 0.014220061 -0.006134278 -0.11060048
0.13240543 -0.02934535 0.1514025 -0.15334861 -0.08951338 0.08891358 0.06798099 -0.027154967
-0.15152512 0.09018119 0.014802454 -0.13866435 0.063725635 0.032271426 0.107647136 -0.12545402
-0.09998778 0.09179129 0.10577933 0.13494885 0.009044663 -0.009673174 0.026099952 -0.004188019
-0.14896323 -0.05870478 0.05747414 0.052988928 0.023821333 -0.16481079 0.052132424 0.105140105
-0.07664449 -0.10697547 0.12782149 -0.01830317 -0.024943776 -0.003422173 0.026728999 0.023209177
0.058150392 -0.0887403 0.09761554 0.0017841168 -0.0062016733 0.13902546 0.057952903 -0.103991024
00000000: 64e9 32be f3e4 8a3d 19af b23d cf72 26bd
00000010: f3db e43d c5a4 21be c292 e83d 4ae8 163b
00000020: d8a9 83ba 884d febd 6557 88bd 1bd5 fc3c
00000030: b209 20be a38f e2bd e612 963d 52ee 9a3c
00000040: d3fc 0dbe db39 1e3e f57a 39bc c3c2 1fbc
00000050: 75dc 96bb c5fa 02be d38c ed3d e21d f63d
00000060: 77d4 293e 7aae c0bd 8cf3 babd a21d 1d3e
00000070: 299e 943c 4f26 dc3d 4d8f be3d 634e 753d
00000080: d6a4 22be e007 6ebc 0887 90bd 5c0b 663d
00000090: d3ad 5e3c f323 c03c 4463 7d3d 777f 013e
000000a0: 473e 9e3d 3062 663d f674 833d 60d6 51bb
000000b0: 46a4 853d bde0 ab3d e4a9 f33c d897 313e
000000c0: 26bd 2f3d 1d70 d8bc 913a f13c 7975 0a3e
000000d0: d62d b9bd 4b42 e13d 0a81 eebd 9abe 1fbe
000000e0: ce2f df3d a3b3 ac3d 91f5 edbc b4c0 a9bd
000000f0: cacc 163e 7ce4 013e 6943 10be 88ef 073e
00000100: e317 0dbe f024 223e e4b5 813d 1d16 1abe
00000110: 75e8 f9bd 31b4 a6bd 7ced af3c e1a5 e43d
00000120: b1e3 71bd 0967 643c ab71 9e3c dcc7 9cbd
00000130: 9b7c 81bd 1ab0 e4bd 457c 263c 9140 00be
00000140: 4f17 cc3c 7ecf 08be 645b 1fbb ef48 97bd
00000150: ef22 0ebe 21fc 05be dba4 7cbd 8eba 8abd
00000160: aaf5 11be 8d28 2dbe a2d4 b13d 30b0 27bc
00000170: 8108 f9bd 0800 87bc c1ad 35bd f281 0c3e
00000180: eb84 1bbe ae4a 613d a666 1bbe 2b5c 0fbe
00000190: 9767 283e 2792 afbd a21e a83d 3444 ae3d
000001a0: 76e7 99bd 52ad ff3d 9b7d 88bc 223f 853d
000001b0: db48 143d 9eda fe3d 87ce e0bc 9b84 68bd
000001c0: 65a9 02be 584e 07be 6c2d 12be 4b3a 223e
000001d0: c57d 293e 62c7 373e 1aa3 19bd 8e68 f63c
000001e0: fcae 22bd caf8 22be 331e 923d a599 f33d
000001f0: b972 173e d783 40bd 60ee ca3d 4cfa eabc
00000200: 941d 1ebd 6591 f8bc d13c 1b3e a534 9dbd
00000210: 4c53 f3bd 0a60 a73d 40b9 873d ea2b 5d3d
00000220: 0142 aebd 4648 aebb 2a84 333e 6417 67bd
00000230: af51 963d 6527 30be 511f ccbd a8b6 8b3c
00000240: 47a2 19be 16c2 933d 459c 863d a70c 23be
00000250: 82d2 b3bc d237 813d 21ca e6bd 00e4 453c
00000260: 82d5 0ebe d3e3 2abe 9e44 f3bd 3653 3ebd
00000270: efe4 f1bd cab5 c0bd f92f 11be 046c 4f3d
00000280: 51d4 cb3d 412d cabd fdf5 14be a6d6 9c3d
00000290: 4b97 9d3c 78cd 27be 5b09 c1bd 5d92 ac3d
000002a0: a39e 063e 0da2 ab3d f975 0cbe 2711 203e
000002b0: f0ce 57bd 358e ce3d 9836 2cbe 306e afbc
000002c0: 38a0 753d 999d b53d fcb1 a2bd 058a 8a3c
000002d0: b5d6 323d 0f5e 1d3d 2c39 df3c b5b2 bb3d
000002e0: 5a1a a83d 51b6 07bc b724 f23d 1ed4 0dbe
000002f0: 386a 87bd 5176 83bd e807 133d 4bb7 6f3c
00000300: 0099 fb3d 3f6e c53d c8d3 dd3c b043 dc3d
00000310: eef5 0fbd 7fdb 64bd 3183 ccbc bf04 e1bd
00000320: f15d 8b3c aa44 1f3e 72b3 9e3d cf01 a53c
00000330: 1dd7 62bd 42fb 683c 0e02 c9bb 8182 e2bd
00000340: 4a95 073e a965 f0bc 4209 1b3e 6b07 1dbe
00000350: ca52 b7bd 5318 b63d 9e39 8b3d 1874 debc
00000360: 6729 1bbe eab0 b83d fe85 723c 07fe 0dbe
00000370: 9682 823d 0b2f 043d 1a76 dc3d 0577 00be
00000380: 65c6 ccbd 12fd bb3d d5a2 d83d 0830 0a3e
00000390: 1130 143c 3b7c 1ebc 91cf d53c a63b 89bb
000003a0: d189 18be 6c74 70bd 016a 6b3d eb0a 593d
000003b0: f524 c33c 29c4 28be cf88 553d b253 d73d
000003c0: c9f7 9cbd f515 dbbd a3e3 023e 88f0 95bc
000003d0: e456 ccbc 8946 60bb c6f6 da3c 2c21 be3c
000003e0: 1b2f 6e3d 79bd b5bd a8ea c73d 07d9 e93a
000003f0: 6837 cbbb b15c 0e3e 0660 6d3d 3ff9 d4bd

convs.0.mp_levels.0.combine_nn.0.bias f4 [16]
0.08610945 0.019219149 0.09714887 -0.07837845 0.14324698 -0.0150045445 0.0643621 0.16534111
0.12071309 0.10488354 0.10270996 -0.04466022 0.1231024 0.09873098 0.04548184 0.04711872
00000000: 275a b03d 7a71 9d3c fdf5 c63d e184 a0bd
00000010: 56af 123e 9fd5 75bc 47d0 833d 2e4f 293e
00000020: 6d38 f73d 2ecd d63d 9959 d23d a3ed 36bd
00000030: 1c1d fc3d 7833 ca3d 2a4b 3a3d 8fff 403d

convs.0.mp_levels.1.msg_up_nn.1.weight f4 [1, 2]
0.47490653 -0.55588007
00000000: f326 f33e 284e 0ebf

convs.0.mp_levels.1.update_up_nn.0.weight f4 [16, 1]
0.5478652 0.03315464 -0.23005672 0.58932066 0.6193831 -0.18360195 -0.51705897 -0.52754974
-0.76350075 -0.25683326 0.5768163 0.4398815 0.60278046 0.616617 0.72491294 0.26117834
00000000: e540 0c3f 29cd 073d fd93 6bbe b8dd 163f
00000010: e48f 1e3f 2602 3cbe fa5d 04bf 800d 07bf
00000020: c974 43bf a67f 83be 3caa 133f 2638 e13e
00000030: d24f 1a3f 9dda 1d3f e593 393f 2bb9 853e

convs.0.mp_levels.1.update_up_nn.0.bias f4 [16]
0.21968462 -0.71054053 -0.17576993 0.69313186 -0.11696019 0.22723243 -0.69772696 0.051432785
-0.95457435 0.4275826 0.5144426 -0.93247795 -0.046830956 0.4072215 -0.9696898 -0.09715338
00000000: 01f5 603e fce5 35bf 08fd 33be 1771 313f
00000010: d388 efbd 9eaf 683e 3c9e 32bf 2fab 523d
00000020: fc5e 74bf 1bec da3e 83b2 033f e0b6 6ebf
00000030: d1d1 3fbd 567f d03e 973d 78bf 5af8 c6bd

convs.0.mp_levels.1.update_boundaries_nn.0.weight f4 [16, 1]
0.8813875 0.7269134 -0.35024852 -0.91442066 0.5091517 0.008668188 0.67286664 -0.43382943
-0.236075 0.20910253 0.64698094 -0.72067654 0.22411038 0.83884656 0.61331344 0.42301393
00000000: 9ca2 613f ff16 3a3f c653 b3be 7917 6abf
00000010: c457 023f 0405 0e3c fd40 2c3f e41e debe
00000020: a5bd 71be f91e 563e 8ba0 253f 427e 38bf
00000030: 317d 653e a6be 563f 1c02 1d3f 4895 d83e

convs.0.mp_levels.1.update_boundaries_nn.0.bias f4 [16]
-0.8880713 0.13065192 -0.4257633 -0.1560998 -0.65267265 0.860279 -0.03997253 -0.6082585
0.8989238 -0.64751315 0.66421777 -0.55973554 0.40379056 0.12587708 -0.15783411 -0.61575377
00000000: a458 63bf 9ec9 053e a6fd d9be a0d8 1fbe
00000010: 8e15 27bf 3f3b 5c3f 3cba 23bd d4b6 1bbf
00000020: df1f 663f 6cc3 25bf 2d0a 2a3f d44a 0fbf
00000030: a3bd ce3e ece5 003e 449f 21be 0aa2 1dbf

convs.0.mp_levels.1.combine_nn.0.weight f4 [16, 32]
0.032726724 -0.0922728 -0.0039466415 0.07430043 -0.12294681 -0.14371663 -0.13491881 -0.031501696
-0.042295586 -0.031873442 -0.032348562 -0.09720319 -0.08901276 -0.15823245 0.06918091 0.13439558
-0.10113671 0.022813924 0.1532923 -0.063462175 -0.11223748 0.0036877568 0.10424169 -0.025071038
-0.009984549 -0.04605863 -0.026507588 -0.034352385 -0.06658697 -0.12611173 0.16551143 -0.16186474
0.05230895 0.10462604 -0.005342581 -0.12727387 -0.0027858869 -0.038951702 0.061464556 0.026552306
0.07354174 -0.1156836 -0.08483732 0.0907263 -0.06020297 -0.07978809 -0.13620538 0.1335587
-0.027199455 -0.04428802 -0.046593484 0.04260558 -0.14103648 0.10792647 0.16612372 0.0324339
-0.116433956 -0.014911303 -0.05874185 0.009928583 -0.15270036 0.0783734 -0.018954286 0.061274357
-0.14547588 0.16660686 0.06536727 0.03078209 0.058722336 0.10802505 -0.02809105 -0.14798266
0.05403323 0.073705755 -0.10821436 -0.12898338 0.15620969 0.14256236 -0.082388006 -0.10983425
0.019089438 -0.07440384 0.013573665 0.1004701 0.15761024 0.017676216 -0.05484566 0.13782695
-0.065898284 0.13689603 -0.10987678 0.06594774 -0.05693426 0.0083298 -0.13618152 0.12286097
-0.16017506 0.024020558 0.018860275 -0.06320366 -0.12975675 0.0046898397 0.07699274 -0.07618094
0.09372704 0.1365557 -0.035985976 0.060507096 -0.14049469 -0.15239097 -0.16766381 -0.09949434
0.11663982 -0.07503444 0.057931967 -0.08254857 -0.035172436 -0.058039874 0.05364452 -0.08640719
-0.047798634 0.046605848 0.04408914 0.10600577 -0.047486577 0.15474528 0.08954612 -0.023388015
0.06644303 -0.010335233 -0.13060543 0.13815483 -0.13550627 0.13834558 0.0020951414 -0.12941846
-0.08638029 -0.12973076 0.08870936 -0.13629153 0.06743919 0.0009293832 -0.09617979 -0.1518382
-0.04791384 0.07680768 -0.06181876 -0.07660208 -0.13319808 -0.16099083 0.039129812 0.10088403
-0.16064219 -0.016793592 0.17864789 0.07017802 -0.026888955 -0.059618946 -0.12756598 0.1304859
-0.035632364 0.028382136 -0.094973765 -0.10553876 0.09739929 -0.12515561 -0.027533988 -0.15943551
0.111800194 -0.065361485 -0.05808927 -0.12853248 0.11608869 -0.072276905 0.029758207 -0.09562869
0.16843727 0.13563249 -0.06416057 0.08671969 0.11257792 0.068340376 0.13431886 0.057762865
-0.08676337 -0.032350797 0.0760099 -0.12305782 0.13134326 -0.08696642 -0.14351064 0.16585135
0.14544867 -0.12496367 0.13789453 0.14439423 0.14324586 -0.012485332 0.01577698 -0.15319932
0.002925808 -0.04852714 0.0481759 -0.17869134 0.0021472585 0.06399576 -0.04838444 0.059546296
-0.0076119616 0.13454583 0.07665489 0.11629188 0.13791043 0.048516013 0.10019596 -0.08397489
0.05023453 -0.13951232 -0.13707687 0.019715369 0.14554402 0.059974447 0.092395924 0.09529794
0.10463543 -0.08340065 -0.083976276 0.14683539 0.1411264 -0.07220172 -0.034538157 -0.17180431
0.051159102 -0.06065058 0.016599458 -0.16972321 0.16219614 0.121385545 -0.044696957 0.09623296
0.11558896 0.032587964 -0.14321458 0.11856669 0.046216924 -0.18017827 0.14848545 0.15106308
0.012411899 0.113496 -0.01122084 -0.053909726 -0.006778724 -0.029560698 -0.13191244 0.10803678
00000000: 750c 063d 86f9 bcbd d452 81bb d32a 983d
00000010: 8acb fbbd 742a 13be 2828 0abe ec07 01bd
00000020: 233e 2dbd ba8d 02bd ed7f 04bd 7712 c7bd
00000030: 524c b6bd b007 22be b9ae 8d3d ff9e 093e
00000040: c320 cfbd 44e4 ba3c a8f8 1c3e 75f8 81bd
00000050: c4dc e5bd 4bae 713b ab7c d53d c761 cdbc
00000060: 3c96 23bc f9a7 3cbd 7126 d9bc 16b5 0cbd
00000070: c05e 88bd 6f23 01be d47b 293e dfbf 25be
00000080: e941 563d 2d46 d63d d110 afbb 1554 02be
00000090: 6d93 36bb d28b 1fbd 42c2 7b3d 3984 d93c
000000a0: 0d9d 963d 86eb ecbd 30bf adbd b6ce b93d
000000b0: 6497 76bd f067 a3bd 6c79 0bbe 9dc3 083e
000000c0: 64d1 debc 5b67 35bd cfd8 3ebd 3083 2e3d
000000d0: de6b 10be 8e08 dd3d 561c 2a3e 69d9 043d
000000e0: ed74 eebd 8a4e 74bc 4b9b 70bd 7fab 223c
000000f0: 7c5d 1cbe 3c82 a03d 0546 9bbc d2fa 7a3d
00000100: a1f7 14be fd9a 2a3e 46df 853d b92a fc3c
00000110: d586 703d 3d3c dd3d 341f e6bc c488 17be
00000120: f351 5d3d 0bf3 963d 7e9f ddbd 3814 04be
00000130: 6ff5 1f3e defb 113e 0bbb a8bd c7f0 e0bd
00000140: 7461 9c3c 0a61 98bd 1464 5e3c 45c3 cd3d
00000150: 9464 213e b6cd 903c d8a5 60bd 8222 0d3e
00000160: aef5 86bd 792e 0c3e 1407 e1bd 9c0f 873d
00000170: e633 69bd b779 083c 2b73 0bbe 889e fb3d
00000180: ee04 24be c3c6 c43c dd80 9a3c ec70 81bd
00000190: f4de 04be 3aad 993b 5fae 9d3d c104 9cbd
000001a0: f6f3 bf3d 42d5 0b3e 0866 13bd 4ad6 773d
000001b0: d7dd 0fbe 610c 1cbe 10b0 2bbe b0c3 cbbd
000001c0: dce0 ee3d a8ab 99bd 124a 6d3d 3a0f a9bd
000001d0: f910 10bd 38bb 6dbd 5bba 5b3d 41f6 b0bd
000001e0: 80c8 43bd c6e5 3e3d d096 343d 8e19 d93d
000001f0: 4981 42bd 8c75 1e3e f563 b73d 3998 bfbc
00000200: 4913 883d 1c55 29bc 6ebd 05be 7678 0d3e
00000210: 28c2 0abe 77aa 0d3e a44e 093b 4686 04be
00000220: 26e8 b0bd 24d8 04be 41ad b53d 0290 0bbe
00000230: 8f1d 8a3d daa1 733a e9f9 c4bd 797b 1bbe
00000240: 4d41 44bd 584d 9d3d ab35 7dbd 8de1 9cbd
00000250: 1465 08be c8da 24be 9546 203d 499c ce3d
00000260: 637f 24be b792 89bc 79ef 363e 7eb9 8f3d
00000270: 3a46 dcbc ff32 74bd a8a0 02be 199e 053e
00000280: 3ef3 11bd a781 e83c 9b81 c2bd b524 d8bd
00000290: 4779 c73d cb28 00be f58e e1bc 1043 23be
000002a0: 80f7 e43d 3edc 85bd 04ef 6dbd 059e 03be
000002b0: e8bf ed3d ea05 94bd 7cc7 f33c fad8 c3bd
000002c0: d27a 2c3e 3ee3 0a3e 9e66 83bd 189a b13d
000002d0: 418f e63d 0af6 8b3d e28a 093e c198 6c3d
000002e0: feb0 b1bd 4582 04bd 14ab 9b3d bd05 fcbd
000002f0: d97e 063e 731b b2bd 74f4 12be f0d4 293e
00000300: 7ff0 143e f4ec ffbd 3934 0d3e 15dc 133e
00000310: 0baf 123e 478f 4cbc ba3e 813c 48e0 1cbe
00000320: eabe 3f3b 65c4 46bd 1854 453d ddfa 36be
00000330: 05b9 0c3b 3610 833d c32e 46bd d1e6 733d
00000340: c36d f9bb 62c6 093e 3dfd 9c3d 702a ee3d
00000350: 6438 0d3e bab8 463d 8a33 cd3d 07fb abbd
00000360: b9c2 4d3d 51dc 0ebe e15d 0cbe 2082 a13c
00000370: 7e09 153e c4a7 753d 133a bd3d 912b c33d
00000380: 1a4b d63d f6cd aabd c1fb abbd 045c 163e
00000390: 7083 103e 7fde 93bd e277 0dbd 78ed 2fbe
000003a0: 358c 513d be6c 78bd 96fb 873c eccb 2dbe
000003b0: bf16 263e fc98 f83d 2814 37bd c915 c53d
000003c0: e8b9 ec3d f57a 053d d8a6 12be 18d3 f23d
000003d0: f54d 3d3d a780 38be 920c 183e 48b0 1a3e
000003e0: 475b 4b3c 9770 e83d 9dd7 37bc 72d0 5cbd
000003f0: 0f20 debb 4729 f2bc 0e14 07be 6342 dd3d

convs.0.mp_levels.1.combine_nn.0.bias f4 [16]
-0.100731015 0.055488218 -0.05658442 0.048308462 -0.057728786 -0.06579585 -0.07810309 0.048017066
0.08771307 -0.049636897 0.051714133 0.062094305 0.05413305 -0.028785752 0.16080953 0.040326834
00000000: 104c cebd 9d47 633d 11c5 67bd 18df 453d
00000010: 0575 6cbd f9bf 86bd 83f4 9fbd 8bad 443d
00000020: e9a2 b33d 0f50 4bbd 33d2 533d 9956 7e3d
00000030: 9eba 5d3d 19d0 ebbc 41ab 243e c02d 253d

convs.0.mp_levels.2.msg_up_nn.1.weight f4 [1, 2]
-0.3682502 0.637021
00000000: 4a8b bcbe cf13 233f

convs.0.mp_levels.2.update_up_nn.0.weight f4 [16, 1]
-0.35333878 -0.59181005 -0.6073298 -0.46178415 -0.89354146 0.21990219 -0.3873591 -0.6817717
0.6386825 0.51602054 0.8848896 0.87525225 0.5663643 -0.3681455 -0.46486068 -0.30435276
00000000: d2e8 b4be dd80 17bf f779 1bbf f96e ecbe
00000010: 22bf 64bf 0a2e 613e ef53 c6be 9788 2ebf
00000020: b280 233f ec19 043f 2088 623f 8810 603f
00000030: 40fd 103f 917d bcbe 3802 eebe 20d4 9bbe

convs.0.mp_levels.2.update_up_nn.0.bias f4 [16]
0.95643127 0.14090781 -0.09210067 -0.585677 0.8871641 0.5053873 0.98307693 -0.3822566
0.03897015 0.41097414 -0.84546584 -0.9890906 0.58032006 0.9719613 -0.19650394 -0.7459225
00000000: aed8 743f 234a 103e 479f bcbd eeee 15bf
00000010: 301d 633f 1061 013f eeaa 7b3f 23b7 c3be
00000020: 2a9f 1f3d 346b d23e 7370 58bf 0b35 7dbf
00000030: db8f 143f 75d2 783f 5438 49be c7f4 3ebf

convs.0.mp_levels.2.update_boundaries_nn.0.weight f4 [16, 1]
0.83821356 -0.66567487 0.7554973 0.41029605 -0.65538836 0.7209185 0.013416009 0.7315097
-0.6667887 -0.9578374 -0.4262063 -0.61944276 -0.46514758 -0.18145414 0.6507115 -0.04717001
00000000: 2a95 563f ab69 2abf 4568 413f 5312 d23e
00000010: 88c7 27bf 1d8e 383f d2ce 5b3c 3844 3b3f
00000020: aab2 2abf d534 75bf b637 dabe cd93 1ebf
00000030: d327 eebe 1dcf 39be 0795 263f 5735 41bd

convs.0.mp_levels.2.update_boundaries_nn.0.bias f4 [16]
-0.30694777 -0.12969619 -0.36465514 -0.14184938 0.33373386 -0.95965415 -0.35501054 0.4159764
0.6023073 -0.64622307 -0.80883515 -0.7647749 -0.041218568 0.7441925 0.87109065 -0.8036998
00000000: 4228 9dbe 14cf 04be 14b4 babe f740 11be
00000010: 2adf aa3e e5ab 75bf f1c3 b5be dcfa d43e
00000020: d030 1a3f e06e 25bf d20f 4fbf 4ac8 43bf
00000030: cdd4 28bd 6683 3e3f ccff 5e3f 45bf 4dbf

convs.0.mp_levels.2.combine_nn.0.weight f4 [16, 32]
-0.08839025 0.15707122 -0.05570109 0.03653529 -0.017377581 0.056996725 -0.012715863 -0.023145104
0.039078556 0.033631407 0.024786215 -0.06537661 0.1008649 -0.08953968 -0.07087901 0.10513216
0.14838561 0.13787092 0.16673864 0.09803717 -0.14292237 -0.110618144 0.10352267 -0.1000732
0.024130933 -0.111313686 -0.0897981 0.14112243 0.029676894 -0.036314018 0.087090954 -0.14069876
-0.12752548 0.14847532 0.08561909 0.12975241 0.02286525 -0.055288505 -0.11666601 -0.0898521
0.030382037 0.08145871 0.0087513365 -0.08289792 -0.16424394 0.035092425 -0.03959539 0.17676151
0.0554436 -0.011589029 0.11769071 -0.16947871 -0.11642777 0.09246124 -0.15881947 -0.15361096
0.004243363 0.030627074 0.00638826 0.044876594 0.11914141 -0.12725766 -0.11726982 0.11092835
-0.0061467313 0.12810345 0.15673654 0.12627628 -0.13131763 -0.12923074 -0.14060129 -0.068012886
0.15980187 0.007059782 0.16140118 -0.08952293 0.019566825 -0.019396376 0.09840867 -0.10087868
0.042574946 0.16986 -0.038911644 -0.17425196 0.06701451 -0.07052206 0.10466205 0.1069002
0.058344238 -0.09488709 0.08666721 -0.046350196 -0.12267522 -0.005725061 -0.08087973 0.074227184
0.050676774 -0.13614379 -0.008715211 -0.084163636 -0.029648213 -0.14507338 0.030910173 0.045247756
0.134913 -0.053638164 -0.07090282 0.13003449 -0.011318828 -0.090080775 0.14145185 -0.08695206
0.01852076 0.00010576278 0.03755527 -0.025871193 0.09393335 0.12439855 0.1578323 -0.008726412
-0.14119966 -0.16320145 0.019240862 -0.0018623706 0.02652273 -0.16695201 -0.14473815 0.13950533
-0.15423721 -0.058133792 0.092962556 0.17174369 -0.0687054 0.05043373 0.038847644 -0.090699166
-0.15119897 -0.03975572 0.023825124 -0.0043065334 -0.1658229 -0.0049770926 -0.17167209 0.04243392
-0.049721707 -0.07639291 0.06064562 0.16787615 -0.1755751 0.14828844 -0.022051916 -0.15087035
-0.11847388 0.15830447 0.16812474 0.03661928 0.012606429 0.058372796 -0.045884583 -0.06796695
0.104999125 -0.056294378 -0.16886665 -0.13863213 -0.042753626 -0.061432797 0.17436332 -0.07704546
-0.15160719 0.009029076 -0.08452443 -0.14399469 0.17324302 -0.019037722 -0.09163982 -0.063156344
0.059798643 -0.16962934 -0.04687869 -0.03117823 0.031148177 -0.13343996 0.060586486 -0.15873161
-0.14759663 -0.09862004 0.10874833 -0.09535735 0.11422249 0.12719595 0.010573605 0.10185054
-0.04089858 0.17069231 -0.16570164 0.09677956 -0.1476597 -0.1119193 0.019381402 0.13842888
-0.025758 0.083313085 -0.037008066 0.011645292 -0.055252086 -0.17009723 -0.12486793 0.056527365
0.102812774 -0.002212088 0.10245137 0.026813531 0.10595786 0.06934677 -0.027168103 -0.095977224
0.033750348 0.007926168 -0.06379321 -0.023669802 -0.07956065 0.1259932 -0.11506251 -0.13414869
-0.15621147 0.17441562 0.0032076607 -0.05953791 -0.06973653 0.0035001389 -0.019131584 -0.12359931
-0.17677404 0.026921498 -0.07671398 -0.13269754 -0.14415118 0.02452117 -0.007922774 -0.007689722
0.0315743 -0.017947253 -0.05808284 0.1438417 0.10291125 0.06959571 -0.104187064 -0.15804376
0.095088035 0.09674098 0.10022954 -0.012164825 -0.051174786 0.03510145 0.12122334 0.14482094
00000000: f305 b5bd 47d7 203e d326 64bd 07a6 153d
00000010: 6e5b 8ebc 6675 693d 3256 50bc cd9a bdbc
00000020: d610 203d 16c1 093d 760c cb3c 2ce4 85bd
00000030: 4292 ce3d 9460 b7bd 0429 91bd 884f d73d
00000040: 66f2 173e 092e 0d3e 89bd 2a3e b6c7 c83d
00000050: 3e5a 12be c48b e2bd b203 d43d 2ef3 ccbd
00000060: 3cae c53c 6ef8 e3bd 11e8 b7bd 6682 103e
00000070: f51c f33c 02be 14bd be5c b23d 5613 10be
00000080: 0a96 02be ea09 183e 1059 af3d d1dd 043e
00000090: e84f bb3c 3376 62bd 97ee eebd 6104 b8bd
000000a0: c0e3 f83c d3d3 a63d c461 0f3c 62c6 a9bd
000000b0: 902f 28be 13bd 0f3d c72e 22bd f800 353e
000000c0: d418 633d e9df 3dbc d407 f13d d48b 2dbe
000000d0: af71 eebd 525c bd3d 92a1 22be 314c 1dbe
000000e0: e90b 8b3b a1e5 fa3c 9c54 d13b 85d0 373d
000000f0: 6900 f43d d54f 02be 292b f0bd 672e e33d
00000100: 856a c9bb 8d2d 033e 8b7f 203e 924e 013e
00000110: 2178 06be 1055 04be c9f9 0fbe 574a 8bbd
00000120: 1aa3 233e be55 e73b 5a46 253e cc57 b7bd
00000130: 9b4a a03c 26e5 9ebc 7c8a c93d 7b99 cebd
00000140: 1163 2e3d c8ef 2d3e d161 1fbd 1b6f 32be
00000150: e73e 893d df6d 90bd 0f59 d63d 7eee da3d
00000160: 5efa 6e3d 2a54 c2bd 947e b13d b4d9 3dbd
00000170: 253d fbbd 4b99 bbbb 46a4 a5bd 6c04 983d
00000180: 7392 4f3d 4769 0bbe 3fca 0ebc fc5d acbd
00000190: cfe0 f2bc 1e8e 14be 5537 fd3c b655 393d
000001a0: a226 0a3e b1b3 5bbd 7f35 91bd c327 053e
000001b0: 9b72 39bc 457c b8bd c1d8 103e ec13 b2bd
000001c0: d9b8 973c f6cc dd38 8ed3 193d d3ef d3bc
000001d0: 2160 c03d abc4 fe3d ca9e 213e 3af9 0ebc
000001e0: a596 10be 481e 27be 039f 9d3c ca1a f4ba
000001f0: 3246 d93c 78f5 2abe 3d36 14be 7cda 0e3e
00000200: 5cf0 1dbe b31d 6ebd 2763 be3d 94dd 2f3e
00000210: 6bb5 8cbd 9993 4e3d b51e 1f3d 7cc0 b9bd
00000220: e7d3 1abe e5d6 22bd e82c c33c d21d 8dbb
00000230: 7acd 29be e116 a3bb cfca 2fbe 31cf 2d3d
00000240: fda8 4bbd e373 9cbd 8b67 783d bae7 2b3e
00000250: f6c9 33be edd8 173e 38a6 b4bc c27d 1abe
00000260: 6fa2 f2bd 911a 223e e428 2c3e 19fe 153d
00000270: 328b 4e3c 5018 6f3d 79f1 3bbd 4232 8bbd
00000280: c809 d73d ef94 66bd 61eb 2cbe 95f5 0dbe
00000290: 6d1e 2fbd f5a0 7bbd 4c8c 323e 03ca 9dbd
000002a0: ea3e 1bbe b1ee 133c 251b adbd 5873 13be
000002b0: 9e66 313e fff4 9bbc a8ad bbbd 1d58 81bd
000002c0: 6cef 743d 50b3 2dbe df03 40bd 7d69 ffbc
000002d0: 762a ff3c 7ca4 08be 8929 783d 8a8a 22be
000002e0: 9223 17be 4ef9 c9bd 72b7 de3d b74a c3bd
000002f0: 7bed e93d a83f 023e ea3c 2d3c 0497 d03d
00000300: 4585 27bd f7c9 2e3e b1ad 29be 5d34 c63d
00000310: 1b34 17be f235 e5bd bfc5 9e3c 4dc0 0d3e
00000320: 7102 d3bc 0da0 aa3d c595 17bd e5cb 3e3c
00000330: 0350 62bd f82d 2ebe c2ba ffbd 3d89 673d
00000340: 818f d23d aef8 10bb 06d2 d13d 0da8 db3c
00000350: 6f00 d93d ae05 8e3d a48f debc b58f c4bd
00000360: ce3d 0a3d c2dc 013c 04a6 82bd 2ce7 c1bc
00000370: b2f0 a2bd 5d04 013e e5a5 ebbd 465e 09be
00000380: e6f5 1fbe 029a 323e 9e37 523b 06de 73bd
00000390: 07d2 8ebd 9662 653b d7b9 9cbc a321 fdbd
000003a0: 4104 35be 798a dc3c 381c 9dbd dde1 07be
000003b0: 5e9c 13be 9fe0 c83c 86ce 01bc 10fa fbbb
000003c0: 0e54 013d 1e06 93bc 46e8 6dbd 3d4b 133e
000003d0: 22c3 d23d 3288 8e3d 0760 d5bd 39d6 21be
000003e0: 84bd c23d 2320 c63d 2545 cd3d f94e 47bc
000003f0: a79c 51bd 8ac6 0f3d f143 f83d f14b 143e

convs.0.mp_levels.2.combine_nn.0.bias f4 [16]
-0.0761922 0.13130514 0.08853576 0.15526445 0.034919925 -0.15177916 -0.13481481 0.088816516
0.11039446 -0.010635182 -0.10128841 0.028182456 0.15018329 0.15112786 -0.15369377 -0.08624103
00000000: a80a 9cbd db74 063e 3d52 b53d a5fd 1e3e
00000010: 3208 0f3d ff6b 1bbe e50c 0abe 6fe5 b53d
00000020: 7e16 e23d 303f 2ebc 4c70 cfbd e5de e63c
00000030: a6c9 193e 43c1 1a3e e661 1dbe 239f b0bd

convs.0.mp_levels.3.msg_up_nn.1.weight f4 [1, 2]
0.03852416 -0.27325943
00000000: 82cb 1d3d a9e8 8bbe

convs.0.mp_levels.3.update_up_nn.0.weight f4 [16, 1]
0.12136073 0.49370363 -0.029716495 0.18659793 -0.95617956 -0.08796194 -0.3374178 -0.53124726
0.17604262 -0.86755806 0.5675473 0.43781412 0.5495484 -0.33163822 -0.15876274 0.4204651
00000000: f98b f83d b9c6 fc3e 0270 f3bc 8713 3f3e
00000010: 2fc8 74bf 6425 b4bd 07c2 acbe d2ff 07bf
00000020: 8444 343e 4918 5ebf c84a 113f 2c29 e03e
00000030: 34af 0c3f 7ccc a9be b392 22be 3447 d73e

convs.0.mp_levels.3.update_up_nn.0.bias f4 [16]
-0.70205534 0.65165454 -0.8428897 -0.3293065 0.8948572 -0.1709885 -0.7906446 0.66351306
0.5774777 0.75702757 -0.7516314 -0.18897744 -0.6483499 -0.5405261 0.17268068 0.043785837
00000000: e6b9 33bf d5d2 263f 9fc7 57bf dd9a a8be
00000010: 5d15 653f 9c17 2fbe af67 4abf fedb 293f
00000020: 94d5 133f 8fcc 413f ea6a 40bf 4d83 41be
00000030: 42fa 25bf eb5f 0abf 34d3 303e c758 333d

convs.0.mp_levels.3.update_boundaries_nn.0.weight f4 [16, 1]
-0.5181867 0.1277643 -0.5678126 -0.35248932 -0.3623079 0.5235568 0.59504336 -0.18526189
0.9425649 -0.7536673 -0.73910725 -0.5003591 0.8452189 0.07884198 0.40080652 0.7655131
00000000: e2a7 04bf a5d4 023e 2b5c 11bf 7b79 b4be
00000010: 6c80 b9be d207 063f c354 183f 4bb5 3dbe
00000020: ef4b 713f 57f0 40bf 2236 3dbf 8917 00bf
00000030: 4460 583f e777 a13d 8336 cd3e abf8 433f

convs.0.mp_levels.3.update_boundaries_nn.0.bias f4 [16]
0.5306757 0.050484452 -0.23110235 0.35758388 -0.3578816 0.12827608 -0.41699672 -0.7811412
-0.27194715 -0.13332857 0.24460724 0.6863266 0.49626753 -0.9968315 0.1980841 -0.6967253
00000000: 5dda 073f c9c8 4e3d 18a6 6cbe 3c15 b73e
00000010: 423c b7be ce5a 033e 9880 d5be dff8 47bf
00000020: a83c 8bbe 4987 08be 527a 7a3e 1ab3 2f3f
00000030: c716 fe3e 5930 7fbf 8fd6 4a3e 975c 32bf

convs.0.mp_levels.3.combine_nn.0.weight f4 [16, 32]
0.14422737 0.1269772 -0.1796696 -0.06988709 -0.060508616 0.120691545 -0.0825225 -0.05484796
0.09144148 -0.0465355 0.10265466 0.13367264 -0.0882898 0.12230302 -0.1519418 -0.071154416
0.017617248 -0.05983502 -0.16059728 0.121627375 -0.103977084 -0.041266046 0.119158186 0.002904757
-0.15718344 0.021304922 -0.08504304 -0.17296702 0.14794977 0.18442635 -0.10679992 0.16598672
0.16125526 -0.06323664 -0.016284656 0.0032624293 -0.048637006 0.06230735 -0.14230126 0.16860716
-0.11914405 0.13123411 0.075862244 0.15818383 0.026980173 0.081692606 -0.15564467 0.07036069
0.004763651 0.049369644 0.11633111 0.13526146 -0.06665105 -0.028932601 -0.08857379 -0.011540457
0.11388685 -0.0089767715 -0.16526908 0.17784458 0.056576636 -0.11845138 -0.080143996 -0.13063674
-0.12372919 -0.011629301 0.0069086705 0.14201267 0.15654226 -0.0031191714 0.09384422 0.016779816
0.1413605 0.0101598585 -0.014916103 -0.14511253 0.06238888 0.04229636 0.00038509537 -0.08019648
-0.005878826 -0.14213663 0.12902643 0.016141785 -0.11612285 -0.17266849 -0.11755993 0.06117708
0.100528486 -0.063986026 -0.11751522 0.12979491 -0.08327629 -0.04429737 0.14192191 -0.16214731
-0.02367013 0.11738659 0.06738109 0.054373536 -0.06525227 -0.042633343 -0.013520401 -0.080326
0.04278571 -0.08922591 -0.09326955 -0.07628958 0.066936865 -0.03525443 -0.015244153 0.13623296
-0.09169686 0.13683292 0.050817892 0.13852924 -0.099389136 -0.040908493 -0.104353204 -0.01102653
0.17691457 0.051956512 -0.0062980517 0.083349295 -0.049767304 0.06544915 0.026188064 0.17601205
0.1515785 0.012133856 -0.026792303 0.024983829 0.1573276 0.063044265 -0.14829764 0.017364897
-0.18049344 0.015977021 -0.03587639 0.0011088982 0.07474201 -0.09865594 0.06232479 -0.08085238
0.1223302 0.045383003 -0.030238593 -0.13220452 0.15693255 -0.12280968 0.017606378 -0.12024035
-0.14635609 -0.06274491 0.16912541 -0.022793876 -0.11774627 0.009144084 0.14912732 0.06856609
-0.095051296 -0.07737105 0.050419554 -0.15245318 -0.018585153 -0.1551233 -0.14646788 0.07747644
0.11745496 -0.01831061 -0.109648846 -0.118025705 0.07419053 -0.14258352 -0.098978706 -0.11094575
-0.13295437 0.019365758 -0.04709579 -0.1528671 -0.01916312 0.0411282 -0.11820276 0.010892815
-0.13914552 -0.0425081 -0.083332784 -0.050601095 -0.07924707 -0.14444076 0.067437656 -0.16876808
-0.15689987 -0.12293698 -0.12900572 -0.16857421 -0.09091849 0.17651767 0.07968087 0.10201796
0.15823604 0.0039041003 -0.110399924 -0.14447583 -0.1279402 -0.15592715 0.08576998 -0.07772393
-0.009485661 0.07335709 -0.15310222 0.100101076 0.13974169 -0.16732843 0.013672285 0.0676538
-0.035778105 0.102443166 -0.14729121 0.13381682 0.018869288 -0.14765823 -0.097165726 -0.10267966
-0.068597995 0.020822074 -0.062201753 0.16470356 -0.029186942 -0.16610016 0.0021565238 -0.16606018
-0.011848104 -0.13716319 0.036940377 0.09623161 -0.17788495 -0.076622225 0.030464994 0.042398572
-0.044474315 -0.0006189761 0.15886287 -0.11949112 -0.15661168 0.07912817 -0.12435602 -0.0034816256
-0.0011103554 -0.15215805 -0.14570391 -0.039403312 -0.009973545 0.10532648 0.12937506 0.08811258
00000000: 57b0 133e 5006 023e 4ffb 37be f620 8fbd
00000010: e2d7 77bd 212d f73d 8e01 a9bd 41a8 60bd
00000020: ac45 bb3d 029c 3ebd 9b3c d23d 7be1 083e
00000030: 48d1 b4bd 017a fa3d a296 1bbe 68b9 91bd
00000040: 0c52 903c 9115 75bd 9d73 24be c617 f93d
00000050: f0f1 d4bd 9606 29bd 3509 f43d bc5d 3e3b
00000060: b2f4 20be a987 ae3c 0c2b aebd 441e 31be
00000070: 2580 173e 43da 3c3e ebb9 dabd 6cf8 293e
00000080: 1920 253e 3682 81bd 6667 85bc 7bce 553b
00000090: 9937 47bd fe35 7f3d 6cb7 11be 5ba7 2c3e
000000a0: cc01 f4bd 3c62 063e aa5d 9b3d f1fa 213e
000000b0: 8605 dd3c 744e a73d 5161 1fbe 4419 903d
000000c0: 6718 9c3b d337 4a3d 013f ee3d fb81 0a3e
000000d0: 5880 88bd 1004 edbc 2d66 b5bd 2f14 3dbc
000000e0: 823d e93d 4f13 13bc 4c3c 29be e41c 363e
000000f0: e7bc 673d a396 f2bd 8922 a4bd a3c5 05be
00000100: bb65 fdbd d388 3ebc 2162 e23b c56b 113e
00000110: 9d4c 203e 036b 4cbb 6631 c03d d375 893c
00000120: cfc0 103e 8975 263c ac62 74bc 6198 14be
00000130: 7b8b 7f3d f33e 2d3d a0e6 c939 0d3e a4bd
00000140: 2ba3 c0bb 448c 11be 811f 043e c73b 843c
00000150: d1d1 edbd 02d0 30be 43c3 f0bd d194 7a3d
00000160: e1e1 cd3d 1b0b 83bd d2ab f0bd f5e8 043e
00000170: c28c aabd 2971 35bd fa53 113e f209 26be
00000180: dce7 c1bc 6168 f03d 19ff 893d c9b6 5e3d
00000190: fba2 85bd 4da0 2ebd ac84 5dbc f581 a4bd
000001a0: 1240 2f3d 13bc b6bd 1b04 bfbd b63d 9cbd
000001b0: 3216 893d f366 10bd 9dc2 79bc a780 0b3e
000001c0: 90cb bbbd ee1d 0c3e 6c26 503d 9cda 0d3e
000001d0: 888c cbbd aa8f 27bd 22b7 d5bd 9ea8 34bc
000001e0: 1829 353e 5ad0 543d e35f cebb 09b3 aa3d
000001f0: cdd8 4bbd 340a 863d 5a88 d63c 813c 343e
00000200: 6537 1b3e 15cd 463c 887b dbbc e3aa cc3c
00000210: 7d1a 213e 5a1d 813d 56db 17be d440 8e3c
00000220: 46d3 38be 3ee2 823c 1ff3 12bd 7358 913a
00000230: 5712 993d 200c cabd 4748 7f3d ef95 a5bd
00000240: 4288 fa3d 87e3 393d edb6 f7bc 9f60 07be
00000250: edb2 203e a483 fbbd 403b 903c 9340 f6bd
00000260: 5fde 15be 6780 80bd 362f 2d3e 39ba babc
00000270: f524 f1bd 11d1 153c d5b4 183e 616c 8c3d
00000280: 41aa c2bd b774 9ebd bc84 4e3d b01c 1cbe
00000290: e43f 98bc a4d8 1ebe adfb 15be f8ab 9e3d
000002a0: 3a8c f03d 2200 96bc 938f e0bd 76b7 f1bd
000002b0: 34f1 973d 6a01 12be 59b5 cabd 8637 e3bd
000002c0: 3125 08be f0a4 9e3c 84e7 40bd 3189 1cbe
000002d0: fafb 9cbc 0b76 283d 4a14 f2bd c777 323c
000002e0: 2a7c 0ebe f91c 2ebd 61aa aabd 1843 4fbd
000002f0: 4a4c a2bd 47e8 13be c11c 8a3d 8ad1 2cbe
00000300: 5caa 20be 62c6 fbbd 131a 04be b89e 2cbe
00000310: 7933 babd 0cc1 343e b92f a33d cbee d03d
00000320: a108 223e efdb 7f3b 5b19 e2bd 79f1 13be
00000330: c102 03be 5eab 1fbe 2ca8 af3d b92d 9fbd
00000340: bf69 1bbc 3e3c 963d d4c6 1cbe cb01 cd3d
00000350: 7218 0f3e 2558 2bbe b801 603c 138e 8a3d
00000360: 108c 12bd b9cd d13d 82d3 16be 4707 093e
00000370: c493 9a3c b833 17be d3fe c6bd b749 d2bd
00000380: 1b7d 8cbd 0e93 aa3c 44c7 7ebd 0da8 283e
00000390: 7419 efbc 2916 2abe 7754 0d3b ae0b 2abe
000003a0: 8d1e 42bc 8274 0cbe cb4e 173d 1415 c53d
000003b0: 7927 36be 1dec 9cbd b991 f93c 20aa 2d3d
000003c0: b32a 36bd c842 22ba f3ac 223e c3b7 f4bd
000003d0: d05e 20be f30d a23d 5eae febd fc2b 64bb
000003e0: 5889 91ba 52cf 1bbe 6833 15be 5e65 21bd
000003f0: 1468 23bc 69b5 d73d e57a 043e 5e74 b43d

convs.0.mp_levels.3.combine_nn.0.bias f4 [16]
-0.08889485 -0.085651174 -0.02641166 0.10808197 -0.0458546 0.084819555 -0.17353441 0.035554297
0.07335262 0.15037203 -0.06089016 -0.11628207 -0.11750087 0.117836796 -0.16030465 0.066282734
00000000: 810e b6bd e269 afbd 445d d8bc 145a dd3d
00000010: 08d2 3bbd e0b5 ad3d 01b3 31be 62a1 113d
00000020: e639 963d 20fb 193e f667 79bd 4b25 eebd
00000030: 4ca4 f0bd 6b54 f13d e726 24be 3ebf 873d

convs.1.mp_levels.0.msg_up_nn.1.weight f4 [16, 32]
-0.14717259 -0.043162145 0.16492054 -0.08716443 0.09843872 -0.06676663 0.1691629 0.13167113
-0.088512026 0.11272176 -0.11104095 0.113690875 0.115637876 0.1371795 -0.042014755 -0.12695833
-0.16675223 0.08758951 0.008332975 0.033202797 0.049417138 0.06974406 -0.09711975 0.016377807
-0.02201876 -0.036452442 0.069541134 0.14339447 0.150022 0.103850916 -0.069998585 0.080458164
0.05139784 0.0073438645 0.0341086 0.06837515 0.055612594 0.16283749 0.11553086 -0.057052076
-0.10899053 -0.08172927 0.06958485 -0.11993063 0.03358405 0.0525718 0.031826336 -0.16345917
-0.1066693 0.049562182 -0.13491963 0.17873424 -0.14460461 0.07659311 0.016169935 -0.17160644
0.07704607 -0.09852303 0.06192135 0.13905746 0.110211 -0.010762384 -0.10748942 0.16726722
-0.09939242 0.113533154 -0.0806401 -0.09795909 0.0143973585 -0.00264534 0.009478431 0.06407083
0.13247386 -0.0066512055 -0.033748228 0.16938475 -0.037771348 0.11884904 -0.16698623 0.07189584
0.055276524 0.07977405 0.109488755 -0.0030030254 -0.07070744 -0.07848087 -0.107555576 0.1169632
-0.06589179 0.055476714 -0.15136658 0.040500227 -0.1257187 -0.0728779 0.02312248 -0.026734762
-0.024017103 -0.1651337 -0.07518794 -0.14311443 0.077263966 -0.16824637 -0.09774096 -0.128236
0.050646935 0.1461157 -0.013926712 -0.17436083 -0.061407954 -0.17865688 0.09530362 0.14709236
0.17889209 -0.04596261 -0.123723984 0.022667684 0.009329041 0.05575265 0.015578498 0.08736345
-0.07901398 -0.11151171 -0.08291222 -0.04307397 -0.1146741 0.033159696 0.007018913 0.02332661
-0.1644549 0.044774074 -0.077338666 0.02707511 -0.16590694 0.12400197 -0.16927463 -0.045833405
0.09700257 -0.038040373 0.09966957 0.002763655 0.12814684 0.06566925 -0.043897618 0.12394465
-0.17620677 -9.9658115e-05 0.04271913 -0.06669303 0.0008637073 -0.116526835 0.16472791 0.068332106
-0.15144888 0.0584534 -0.02241805 0.11198336 0.07277061 0.120194584 -0.0019643537 0.009729606
-0.049947314 -0.14828962 -0.0093640415 0.07938733 0.15667339 -0.09912481 -0.084241316 -0.09474666
0.0024632239 0.17600076 0.17513658 0.067714386 -0.12259675 -0.13474536 -0.04056878 -0.13237198
0.10707296 0.080947906 -0.004435082 0.13602309 -0.15163532 0.18387169 0.030609464 0.0608926
-0.0051978035 0.15385999 0.17456082 0.0914476 0.0042325505 -0.12334382 -0.04037105 0.0012434192
0.07317075 0.175625 -0.12585464 -0.037118763 0.012759843 -0.08351007 0.15885654 0.05530923
-0.06610897 0.034650847 0.05450447 -0.018353567 -0.048182607 -0.16144554 0.170012 -0.015574566
0.098837465 -0.07238526 0.13193807 -0.12120737 0.13386753 -0.08972925 -0.13127905 -0.018151922
0.015222526 -0.07431959 -0.019031476 -0.015791614 -0.14810364 0.010972727 0.07359964 0.06768761
-0.1380178 0.16773206 0.051550113 -0.12371404 0.14727034 0.16300821 -0.012917851 -0.13616139
0.078487284 -0.036155883 -0.13822317 -0.12517577 -0.13431753 0.08765019 0.0695136 0.08394656
0.019150678 0.0639356 -0.117917016 -0.009774658 0.11388875 -0.058896795 0.16640018 -0.16643581
0.08725664 -0.110095076 -0.0635784 -0.069962 0.092639334 0.11744374 -0.09527493 0.060581725
00000000: 69b4 16be caca 30bd eee0 283e 4483 b2bd
00000010: 3d9a c93d f1bc 88bd 0a39 2d3e ccd4 063e
00000020: cb45 b5bd abda e63d 7069 e3bd c3d6 e83d
00000030: 8dd3 ec3d c878 0c3e aa17 2cbd 5d01 02be
00000040: 19c1 2abe 2162 b33d 0887 083c a8ff 073d
00000050: a069 4a3d f9d5 8e3d b8e6 c6bd c02a 863c
00000060: b060 b4bc 284f 15bd 956b 8e3d 00d6 123e
00000070: 5e9f 193e caaf d43d 6b5b 8fbd 40c7 a43d
00000080: 8b86 523d cda4 f03b 76b5 0b3d 4508 8c3d
00000090: 08ca 633d dfbe 263e 729b ec3d 70af 69bd
000000a0: 6d36 dfbd ad61 a7bd 8082 8e3d 319e f5bd
000000b0: 6e8f 093d 8755 573d 555c 023d d761 27be
000000c0: 6f75 dabd b701 4b3d 5f28 0abe 1c06 373e
000000d0: 3b13 14be d9dc 9c3d d076 843c 99b9 2fbe
000000e0: 54ca 9d3d 71c6 c9bd 3ea1 7d3d 1465 0e3e
000000f0: 4eb6 e13d b654 30bc 6a23 dcbd 1948 2b3e
00000100: 418e cbbd 1284 e83d a326 a5bd c69e c8bd
00000110: e6e2 6b3c 715d 2dbb 6c4b 1b3c 9137 833d
00000120: 3aa7 073e 5bf2 d9bb 953b 0abd 3273 2d3e
00000130: 21b6 1abd 2067 f33d 70fe 2abe 203e 933d
00000140: a369 623d 9460 a33d a43b e03d 68ce 44bb
00000150: 10cf 90bd 94ba a0bd 1946 dcbd 678a ef3d
00000160: 46f2 86bd 8d3b 633d d7ff 1abe 91e3 253d
00000170: 67bc 00be 0241 95bd 5b6b bd3c dc02 dbbc
00000180: 84bf c4bc cf18 29be 22fc 99bd 978c 12be
00000190: 923c 9e3d c748 2cbe 6a2c c8bd 4c50 03be
000001a0: 2973 4f3d 5b9f 153e dd2c 64bc a58b 32be
000001b0: e886 7bbd d4f1 36be 8b2e c33d 619f 163e
000001c0: 7d2f 373e 4a43 3cbd 0063 fdbd 94b1 b93c
000001d0: d5d8 183c e45c 643d f53c 7f3c 9ceb b23d
000001e0: 15d2 a1bd 4060 e4bd e2cd a9bd 556e 30bd
000001f0: 41da eabd 76d2 073d e9fe e53b 7217 bf3c
00000200: de66 28be 0565 373d bc63 9ebd 9fcc dd3c
00000210: 82e3 29be bff4 fd3d 5456 2dbe cfbb 3bbd
00000220: 49a9 c63d 39d0 1bbd 8f1f cc3d 701e 353b
00000230: ed38 033e 9a7d 863d fdcd 33bd b1d6 fd3d
00000240: 8c6f 34be 8bff d0b8 41fa 2e3d 5b96 88bd
00000250: 6a6a 623a 9fa5 eebd 6fae 283e b4f1 8b3d
00000260: 6a15 1bbe d56c 6f3d 0fa6 b7bc 8857 e53d
00000270: c208 953d 9428 f63d 63bc 00bb ed68 1f3c
00000280: 8e95 4cbd 3cd9 17be a36b 19bc d395 a23d
00000290: fd6e 203e f301 cbbd b686 acbd 890a c2bd
000002a0: 0a6e 213b 8b39 343e 0157 333e d7ad 8a3d
000002b0: 0114 fbbd b0fa 09be 732b 26bd 858c 07be
000002c0: 1149 db3d 04c8 a53d 2a54 91bb a349 0b3e
000002d0: 4a46 1bbe dc48 3c3e b3c0 fa3c 856a 793d
000002e0: 5652 aabb 798d 1d3e 12c0 323e e148 bb3d
000002f0: 35b1 8a3b af9b fcbd 1d5c 25bd 3afa a23a
00000300: 8cda 953d 0ad7 333e 0ae0 00be d809 18bd
00000310: a90e 513c 5407 abbd 4aab 223e ee8b 623d
00000320: 2464 87bd 0cee 0d3d 1440 5f3d 385a 96bc
00000330: 205b 45bd fb51 25be a017 2e3e 772c 7fbc
00000340: 4c6b ca3d b93e 94bd c61a 073e 923b f8bd
00000350: 9214 093e f8c3 b7bd 046e 06be 57b3 94bc
00000360: e767 793c df34 98bd e6e7 9bbc 6a5d 81bc
00000370: 7ba8 17be f4c6 333c 68bb 963d cd9f 8a3d
00000380: 8a54 0dbe f4c1 2b3e 3626 533d c95d fdbd
00000390: 09ce 163e a0eb 263e 65a5 53bc e46d 0bbe
000003a0: f1bd a03d 3118 14bd 608a 0dbe 142e 00be
000003b0: 898a 09be f181 b33d 255d 8e3d 2dec ab3d
000003c0: e2e1 9c3c abf0 823d 7a7e f1bd e325 20bc
000003d0: 813e e93d c43d 71bd cf64 2a3e 266e 2abe
000003e0: 9cb3 b23d 8779 e1bd 6435 82bd 3d48 8fbd
000003f0: b1b9 bd3d 5886 f03d 811f c3bd 8b24 783d

convs.1.mp_levels.0.msg_up_nn.1.bias f4 [16]
-0.097591266 0.011576513 0.17489661 -0.0016605344 -0.011278486 0.14403765 -0.016580813 0.055917367
0.1544113 0.17685157 0.015819952 0.10619617 -0.1770038 -0.025890067 0.124962136 -0.04008775
00000000: eedd c7bd 6aab 3d3c 1918 333e 4aa6 d9ba
00000010: 66c9 38bc 9b7e 133e 7cd4 87bc 9c09 653d
00000020: ff1d 1e3e 9418 353e d898 813c 617d d93d
00000030: 7c40 35be 6817 d4bc 26ec ff3d 0d33 24bd

convs.1.mp_levels.0.update_up_nn.0.weight f4 [16, 16]
-0.21652412 -0.2373972 0.12988216 -0.08394266 0.05881865 -0.13073973 0.13889724 0.03124376
0.15826482 0.17201853 -0.012853295 -0.20668894 -0.0018694096 -0.23855576 -0.19260056 -0.22982384
-0.2343171 0.22764426 -0.0016802794 0.08054139 -0.07861349 0.118215166 0.2171635 -0.22691086
-0.08122955 0.08714575 -0.20736042 0.1488941 -0.1453677 0.17220347 -0.13604693 -0.21580349
0.105997585 0.025208797 0.14430404 0.021582652 -0.10252124 -0.24498647 -0.20843583 -0.15372948
-0.027783649 0.22051135 0.25358087 -0.2232825 0.12092812 -0.19053315 -0.1459315 0.23817676
0.04438524 0.13654055 -0.21960695 -0.24769644 -0.13663626 0.23404977 -0.20239133 0.09270588
-0.15944695 -0.23629528 -0.12890825 0.14902344 -0.09838001 -0.039585542 -0.22284979 0.002833555
-0.025718082 0.05564408 -0.19940312 -0.045509916 0.19938318 0.0015491493 0.0018992407 -0.2441776
-0.24154931 -0.16898249 0.15177608 -0.030395636 -0.16151488 0.019272804 0.042964883 0.00539307
-0.1907578 -0.13413963 0.08423511 -0.021427944 0.1644012 0.25148374 -0.086395614 0.140407
-0.21000494 -0.133219 0.13120535 -0.011997759 -0.08900799 -0.13364439 -0.06855747 0.031031067
0.15767677 0.22900599 0.1758188 0.13456559 0.11763415 0.1000022 0.08816508 0.019756867
-0.047978837 0.09896092 0.104880944 0.11183804 -0.19466895 -0.06837285 0.14668189 0.18772942
0.23484007 -0.06483954 0.12694488 0.09499945 -0.1404529 0.18855144 -0.16126128 -0.2170086
0.050487082 -0.17999716 0.07138346 -0.064585805 0.16068639 0.10908802 0.10536869 0.049422625
0.0075948257 0.116812825 0.006853992 -0.030954199 0.039758854 -0.017344678 0.18669228 -0.15438779
-0.1736946 0.24023207 0.21261296 -0.09305606 0.14176872 -0.1330206 0.021991802 -0.218084
-0.25115126 -0.129821 -0.19865847 -0.18671101 -0.026278289 0.05717678 -0.038939968 -0.1801363
0.22608818 0.10866849 -0.05231419 -0.13384473 -0.24039789 -0.15218227 0.21467113 -0.07902991
-0.17150815 0.040950548 -0.14361475 -0.052336343 0.081599325 0.026194913 -0.05045635 -0.11991374
0.09422127 0.15798183 -0.053884514 -0.06945818 0.06401933 -0.0031481094 -0.2426179 -0.20356387
0.14482132 -0.22493376 0.0020392856 0.22482966 0.087738514 -0.10065969 0.13847525 0.17199005
-0.2444495 0.16321772 -0.10418728 0.013252401 -0.008609788 0.035494715 0.17691676 -0.20690203
0.14663848 0.07578461 0.1479909 -0.20947075 0.022439098 -0.03089461 -0.14909254 -0.16340406
0.11207525 -0.21053535 -0.15601796 0.22958829 -0.20440927 -0.066313095 -0.05462918 -0.18013623
-0.11991765 0.2525586 -0.14614949 0.0010447317 0.13582122 0.00819397 0.19507082 0.20186552
-0.08554864 -0.20554517 -0.079361506 0.05045474 0.048123028 0.2349357 0.10630928 -0.038143985
-0.15185535 0.12402264 -0.18275587 -0.096163146 -0.15709949 0.010921201 0.06453336 -0.008395102
-0.21618952 -0.001448877 -0.24604036 -0.16950127 -0.2144477 -0.25079843 -0.18627541 -0.1417711
-0.088875085 0.24205802 -0.10111299 -0.20011814 -0.15535443 -0.17747976 0.03178453 -0.14303125
-0.10524018 0.05377545 0.20968683 0.18134089 -0.17694949 0.17196183 -0.13767025 0.18522808
00000000: 80b8 5dbe 4018 73be d4ff 043e 21ea abbd
00000010: d3eb 703d a3e0 05be 143b 0e3e eaf2 ff3c
00000020: 2c10 223e a025 303e a096 52bc 44a6 53be
00000030: fa06 f5ba f647 74be 1539 45be f156 6bbe
00000040: d2f0 6fbe 941b 693e d23c dcba e2f2 a43d
00000050: 1c00 a1bd cb1a f23d 1c60 5e3e 525b 68be
00000060: ae5b a6bd 7979 b23d 4a56 54be b277 183e
00000070: 45db 14be 1b56 303e e34f 0bbe 97fb 5cbe
00000080: 4315 d93d ae82 ce3c 70c4 133e 1ace b03c
00000090: a8f6 d1bd bcdd 7abe 3470 55be 436b 1dbe
000000a0: 899a e3bc bacd 613e 5ad5 813e 2ba4 64be
000000b0: 2aa9 f73d 1f1b 43be 116f 15be 9ce4 733e
000000c0: 4ccd 353d 49d1 0b3e a5e0 60be 23a4 7dbe
000000d0: 60ea 0bbe beaa 6f3e ac3f 4fbe 95dc bd3d
000000e0: 1046 23be 64f7 71be 8600 04be 9a99 183e
000000f0: 757b c9bd 7324 22bd bc32 64be 2ab3 393b
00000100: baae d2bc 0ceb 633d 5530 4cbe 9b68 3abd
00000110: 1b2b 4c3e d30c cb3a f1ef f83a b109 7abe
00000120: b458 77be bf09 2dbe 306b 1b3e 4500 f9bc
00000130: 2864 25be 00e2 9d3c f2fb 2f3d 5ab8 b03b
00000140: 0356 43be e65b 09be 7583 ac3d a889 afbc
00000150: ca58 283e 7ac2 803e 2ff0 b0bd dac6 0f3e
00000160: 890b 57be 906a 08be b25a 063e 4092 44bc
00000170: d249 b6bd 13da 08be dc67 8cbd dd34 fe3c
00000180: 0576 213e 8c80 6a3e d809 343e 90cb 093e
00000190: 2cea f03d f4cd cc3d e58f b43d 27d9 a13c
000001a0: 7585 44bd 06ac ca3d d2cb d63d 580b e53d
000001b0: 4c57 47be 1107 8cbd c733 163e 243c 403e
000001c0: ea79 703e 98ca 84bd d7fd 013e 128f c23d
000001d0: e3d2 0fbe a113 413e ad21 25be 8137 5ebe
000001e0: 8bcb 4e3d 2d51 38be 7e31 923d 9045 84bd
000001f0: f98a 243e 8a69 df3d 8acb d73d 616f 4a3d
00000200: 04de f83b 903b ef3d 7497 e03b a993 fdbc
00000210: 2eda 223d 6d16 8ebc 432c 3f3e d517 1ebe
00000220: ffdc 31be 65ff 753e 36b7 593e 2d94 bebd
00000230: d22b 113e 8d36 08be 2728 b43c 6951 5fbe
00000240: e696 80be ccef 04be 206d 4bbe 2c31 3fbe
00000250: 9145 d7bc 3332 6a3d 847f 1fbd a675 38be
00000260: a983 673e 968d de3d 6747 56bd 980e 09be
00000270: dd2a 76be abd5 1bbe c0d2 5b3e 6fda a1bd
00000280: d59f 2fbe c3bb 273d bf0f 13be a25e 56bd
00000290: 8c1d a73d b796 d63c 51ab 4ebd 5695 f5bd
000002a0: 15f7 c03d fdc5 213e 02b6 5cbd 1740 8ebd
000002b0: 911c 833d 8350 4ebb d470 78be 0c73 50be
000002c0: 0a4c 143e 0955 66be 89a5 053b bf39 663e
000002d0: 40b0 b33d ab26 cebd 75cc 0d3e 291e 303e
000002e0: f850 7abe 8c22 273e 2460 d5bd 9920 593c
000002f0: 1110 0dbc e862 113d ab29 353e 20de 53be
00000300: 6628 163e f634 9b3d ed8a 173e 807f 56be
00000310: 33d2 b73c b116 fdbc b7ab 18be 6553 27be
00000320: b587 e53d 9496 57be 2cc3 1fbe 3119 6b3e
00000330: aa50 51be 29cf 87bd d9c2 5fbd a275 38be
00000340: 6397 f5bd 5c4f 813e 36a8 15be 61ef 883a
00000350: b814 0b3e 0040 063c a5c0 473e d6b5 4e3e
00000360: 2034 afbd 6f7a 52be 4988 a2bd a1a9 4e3d
00000370: a71c 453d fc92 703e aeb8 d93d de3c 1cbd
00000380: f87f 1bbe 95ff fd3d 5b24 3bbe 2ff1 c4bd
00000390: b0de 20be d6ee 323c 112a 843d 9c8b 09bc
000003a0: c960 5dbe 3fe8 bdba 01f2 7bbe be91 2dbe
000003b0: 2e98 5bbe a768 80be fbbe 3ebe 712c 11be
000003c0: 2404 b6bd 0fde 773e 5414 cfbd c5eb 4cbe
000003d0: 3b15 1fbe 41bd 35be 7f30 023d c976 12be
000003e0: 2a88 d7bd a543 5c3d 25b8 563e 6db1 393e
000003f0: 3f32 35be c316 303e 6ef9 0cbe 6eac 3d3e

convs.1.mp_levels.0.update_up_nn.0.bias f4 [16]
-0.036829244 0.2204324 0.06784672 -0.057728667 0.20721808 0.0988087 -0.09763788 -0.13105057
-0.09689738 -0.030873805 -0.024285669 -0.12415342 -0.22531326 0.14839646 -0.10731936 0.06403042
00000000: 43da 16bd 08b9 613e 39f3 8a3d e574 6cbd
00000010: fa30 543e 375c ca3d 5ef6 c7bd 1f32 06be
00000020: 2272 c6bd 10eb fcbc bdf2 c6bc 2644 febd
00000030: 85b8 66be 3ef5 173e 41ca dbbd 6122 833d
