experiments/results/SHRIROOK/runs/2026-02-05T18:00:59-pcn3-shrirook/seed_2/best_weights.pt (torch, 679545 bytes, 572 tensors)

convs.0.mp_levels.0.msg_up_nn.1.weight f4 [1, 2]
00000000: a718 f33e 389c f0be
0.47479746 -0.46994185

convs.0.mp_levels.0.update_up_nn.0.weight f4 [16, 1]
00000000: 2ae2 d6be 315c 6dbf 74af 5d3f da3d 1cbf
00000010: 2304 adbe f6cb fbbe fa11 5cbf d1da 793e
00000020: 1150 0f3f d013 363e 3a6a f8bd 9267 90be
00000030: 95ed 24bd f602 343f 0c12 8d3e c204 6d3e
-0.41969424 -0.927188 0.86595845 -0.6103188 -0.3379222 -0.49179047 -0.8596493 0.24399878
0.55981547 0.17780995 -0.12129636 -0.28204018 -0.04026564 0.7031702 0.2755283 0.23146346

convs.0.mp_levels.0.update_up_nn.0.bias f4 [16]
00000000: 338e aabd 822e c8be 2a7f aabe 7241 b53e
00000010: 71ba f43e 628e 6b3f b885 b43d 4098 353f
00000020: 7474 3a3f 4e98 47be bbbc 303f 5cff ffbe
00000030: 2073 303f 042c 3bbe 0b76 713d 8937 0e3f
-0.083279036 -0.39097983 -0.33300143 0.35401493 0.47798494 0.92014134 0.08814567 0.7093544
0.72833943 -0.19491693 0.6903798 -0.4999951 0.68925667 -0.1827851 0.058950465 0.5555349

convs.0.mp_levels.0.update_boundaries_nn.0.weight f4 [16, 1]
00000000: 569a 68bf f1c2 7f3f 470c 91bd d1bf 0a3f
00000010: 044f febe adfb d7be bf27 19bf a81f 7a3f
00000020: 84ac 36bd 625f 63bf 5030 74bf f6dd 92be
00000030: 4a18 4b3f 4d41 723f 4ca9 1d3f 2444 f23e
-0.908605 0.9990683 -0.0708242 0.5419894 -0.4966966 -0.421842 -0.5982627 0.97704554
-0.044598117 -0.8881742 -0.9538622 -0.28684968 0.7933394 0.9463089 0.6158645 0.47317612

convs.0.mp_levels.0.update_boundaries_nn.0.bias f4 [16]
00000000: 5bfb 56be 9d47 7f3f a3a1 79bf b9f3 5d3f
00000010: 58cf ad3e 416b a7be 5c62 2f3e 680a 19bf
00000020: b851 353f 08f9 0f3f 1a31 6d3f 5b7a 2c3f
00000030: 088b f1bc 5766 5d3f 049f 67bd 8946 c8bc
-0.20994322 0.9971865 -0.97512263 0.86700016 0.33947253 -0.32699016 0.17127365 -0.59781504
0.7082782 0.56239367 0.9265305 0.673742 -0.02948524 0.86484283 -0.056548133 -0.024447696

convs.0.mp_levels.0.combine_nn.0.weight f4 [16, 32]
00000000: 6425 9abd 0a29 8e3d fb76 31bd 16a9 b7bd
00000010: 4938 323e 10b7 c33d fc69 11bd 6c5d 203e
00000020: 7864 2b3e 8fb6 0bbd 8f32 053d d028 16be
00000030: 146e 01be db70 b73d 1511 433d 8aee 42bc
00000040: 6bd6 05be 46ff b33d f045 303e 5aa9 183d
00000050: a02c 06bd 32d4 1a3e 5067 d83d 5b87 eabd
00000060: 1ff8 903d 72a4 f5bd 3c25 053e ba0f f3bd
00000070: cae8 2cbe a714 fbbd 1d18 9b3d d128 06be
00000080: 05e2 2cbe 5068 03be 5eae e4bd 4895 9ebd
00000090: 664c 2d3e 1788 d03d c292 92bd dc60 c8bc
000000a0: 2db6 213e d834 1dbe 15c0 0a3e 4ced 0d3e
000000b0: 7f33 4dbd 6a0d 0e3e 42db d2bd ccc1 833d
000000c0: 56ec 993d 7581 c7bd bb75 00be 4e80 6a3d
000000d0: 39c8 54ba 5efb b73d a424 11be 210a 093e
000000e0: 50a1 84bd 2adb 813d d74b 9c3d 6564 ad3d
000000f0: 7c45 cabd 9f2a 173e bdb2 fb3d c0ca 023e
00000100: bdb5 0b3e d92c 05be e38f 20be fed9 23be
00000110: 9de6 263e f8d7 06be aa00 ee3d 3ee5 083e
00000120: 1573 e4bd d862 4a3d b25b 60bd 4077 283e
00000130: 579b 173e 2518 193e b2a7 0e3e 67be 323e
00000140: c207 22be 6b7f d33d d1b5 c3bd e7dc 613d
00000150: 453f df3d a0bf 023e 5fa7 963d f16f 8d3d
00000160: ff63 273e 58a5 34be 0cfe 06bd 442f 0e3e
00000170: 871f 103d 4ec0 adbd 7f21 53bd 2ec9 643c
00000180: ee9e 023e 2fa9 7bbd 0f13 953d 1e69 a93d
00000190: 7716 493d 8631 4dbd 4b50 c1bd 31e2 ea3c
000001a0: 320e dc3b 6682 cc3d 30dd 29be 503d 3dbb
000001b0: 68f5 043e f573 fabd 17dc 2e3e 08b8 15be
000001c0: 9291 363d 8a64 a43d 6122 34bc 54b0 f63d
000001d0: 9a8a 07be b143 efbd 421e dd3d efad 19be
000001e0: 2af7 933d 28ba 1b3e b365 18bd 9ef1 0b3c
000001f0: 1f91 26be e351 ef3d 91dc a83d b228 1d3d
00000200: 9eea 94bc 9e7b 24bd aa26 bbbd ade8 cb3d
00000210: 6b99 80bd 1e58 053e 7505 29be 9c39 34bd
00000220: 8839 5b3a 5600 f53d 8ec2 f2bd 6909 8d3d
00000230: ce0f a5bc 33e9 f53d f0b7 3abc 6998 e7bd
00000240: d13d cdbd 04da 463d 659f 0ebe 22e2 463c
00000250: 9032 acbd d37a 14be b7a4 2abe 4b1e 1a3e
00000260: d684 66bd 31e2 0e3e 95e4 8e3d d0ad 443a
00000270: 1a56 38be b8fa 0c3e 4bc4 87bd 1d98 093d
00000280: 88b7 34be 6737 61bd afed 383e 7525 fd3d
00000290: d430 153e 5dd7 603c e17f 69bd 1306 d5bd
000002a0: f80d 9f3d 63ec 3f3d 5466 5c3c 87f0 bebd
000002b0: 12bc 93bd 75a7 9cbd 5845 823d eb28 833d
000002c0: ad55 2b3e ef7c 59bd bdbc f6bd 7206 26be
000002d0: 9d08 a9bd 7a9e e8bd 434a e73c d355 fc3d
000002e0: d3d0 12be 5e40 713d 247e d8bd d8af 5ebd
000002f0: d2ce 2ebd 1cfe 0ebe eae5 263e cb74 fdbd
00000300: 6fff 2c3e a74a c2bd f90e b8bd 656a 0bbe
00000310: a56e 88bd 21a6 93bd b0f9 32bd 37ec e2bd
00000320: 25f6 37bd 1a41 943c a625 fbbd dfe6 653d
00000330: d7a5 3cbd 4adb 57bd 5383 8f3d 74e5 27bd
00000340: e018 253e db85 37be 2058 f3bd bb7f ed3c
00000350: 6fb4 9dbc 169d 393e 0a49 d2bd 83d3 7e3d
00000360: bf77 18bd f795 16bd b993 d7bd 32c1 df3d
00000370: 891e f7bd 25b3 4dbb bf0c 123e 4f46 1b3e
00000380: 8ad6 e93d 8b16 053e f2fa ad3d 6dec 18b9
00000390: 2449 c93c f285 32bc 264b 30bb 8ed0 6d3d
000003a0: f2a9 1a3d 3cc0 343c 8c73 7d3c 2026 143e
000003b0: 964b f6bd c1bb b6bd c19b 6abd a9b9 debd
000003c0: f140 2dbe 13de 8d3d 4be1 153e d1a3 cc3d
000003d0: 596c 003e 1a01 6f3b 49e7 f03d 0300 d5bd
000003e0: 48ec 98bc 0c47 f43d 5d83 eabd ccf2 2c3e
000003f0: 9dac fabd 6e8b 643d e5c3 ad3d 454c fb3c
-0.07526663 0.06941421 -0.04332636 -0.089677975 0.17404284 0.09556401 -0.035501465 0.15660638
0.16737545 -0.03410965 0.03251892 -0.14664006 -0.12639648 0.08957072 0.047623713 -0.011897692
-0.13070075 0.08788924 0.17214179 0.03727088 -0.0327574 0.15120009 0.1056658 -0.11451598
0.07078575 -0.11994256 0.13002485 -0.11868234 -0.16885677 -0.122597985 0.075729586 -0.13101508
-0.16883095 -0.12832761 -0.111660704 -0.07743317 0.16923675 0.10182207 -0.07156898 -0.024460249
0.15792151 -0.1535219 0.13549836 0.13860053 -0.05009794 0.13872305 -0.10295726 0.06433448
0.07515781 -0.09741489 -0.1254491 0.057251267 -0.00081169937 0.08983491 -0.14174134 0.1338277
-0.064760804 0.0634063 0.07631653 0.08466414 -0.09876534 0.14762352 0.12289951 0.12772655
0.13643546 -0.1300539 -0.15679888 -0.16001126 0.1629891 -0.13168323 0.116212204 0.13368699
-0.11154763 0.04941067 -0.054774947 0.1645174 0.14805351 0.14950617 0.13931158 0.17455445
-0.15823272 0.103270374 -0.09556163 0.05514231 0.109007396 0.12768412 0.07356142 0.06906117
0.16346739 -0.17641199 -0.03295712 0.13885218 0.035186317 -0.08483945 -0.051545616 0.013963981
0.1275594 -0.061440643 0.07279026 0.08272003 0.04909369 -0.050096057 -0.09439143 0.02867231
0.0067155594 0.09985809 -0.16588283 -0.0028875656 0.1298424 -0.12229148 0.17076145 -0.14620984
0.04457242 0.08026989 -0.010994525 0.12045351 -0.13236466 -0.11682833 0.10796787 -0.15007757
0.07224877 0.15207732 -0.037206363 0.008541493 -0.16266297 0.116855405 0.08245195 0.03836889
-0.01817828 -0.040156953 -0.09138234 0.09956489 -0.06279262 0.13021895 -0.16505988 -0.044000253
0.000836276 0.11962955 -0.118535146 0.068865605 -0.020149138 0.1200737 -0.011396393 -0.11308367
-0.10021556 0.04854776 -0.13927992 0.012138875 -0.084080815 -0.14499979 -0.16664396 0.15050618
-0.056279026 0.13953473 0.06977192 0.0007502707 -0.18001595 0.13767517 -0.06629237 0.033592332
-0.17648137 -0.054984476 0.18059419 0.1236066 0.14569408 0.013723222 -0.05700672 -0.10401549
0.07766336 0.046856295 0.013452131 -0.09323221 -0.07213606 -0.076491274 0.063608825 0.06404289
0.16731901 -0.05309766 -0.12047718 -0.16213396 -0.08253596 -0.11358352 0.028233653 0.12321057
-0.14337473 0.058899276 -0.105709344 -0.054366916 -0.042677708 -0.13964123 0.16298643 -0.12375792
0.16894315 -0.09486895 -0.08987231 -0.13614805 -0.06661729 -0.07209421 -0.04369515 -0.11080211
-0.044912476 0.01809745 -0.1226304 0.05612838 -0.046056595 -0.052699365 0.0700747 -0.040990308
0.1612277 -0.17922156 -0.11882043 0.02899157 -0.019251077 0.1812633 -0.10267837 0.062213432
-0.037223574 -0.03676411 -0.10526223 0.10925521 -0.12066371 -0.0031387296 0.14262675 0.1516354
0.11417873 0.1299688 0.0849513 -0.00014583925 0.024571009 -0.010896193 -0.002690026 0.05806022
0.03775973 0.01103216 0.015469443 0.14467669 -0.120261356 -0.0892253 -0.057277445 -0.108752556
-0.16919304 0.06927123 0.14636724 0.09992183 0.12541331 0.0036469162 0.11762864 -0.10400393
-0.018667355 0.119276136 -0.11450837 0.16889495 -0.122399546 0.055797033 0.084846295 0.030676017

convs.0.mp_levels.0.combine_nn.0.bias f4 [16]
00000000: a8f4 f23d 0a2d 03be 7a51 fbbd 3315 0bbe
00000010: 4dd4 8638 38b9 1bbc 407d 24bd d361 083e
00000020: d913 353d 703d b93d 14c6 07be 1f95 233e
00000030: 523e 1abd dbdf 4c3d 9cec 143e 492b 32be
0.11863071 -0.1281015 -0.122714 -0.13582306 6.429162e-05 -0.009504609 -0.04015851 0.13318567
0.04420838 0.090449214 -0.13259155 0.15974854 -0.03765709 0.050018173 0.14543384 -0.17399324

convs.0.mp_levels.1.msg_up_nn.1.weight f4 [1, 2]
00000000: 862a 06bd 4f82 eb3d
-0.032755397 0.11499464

convs.0.mp_levels.1.update_up_nn.0.weight f4 [16, 1]
00000000: e9d1 2b3f e7fe 48be 6d48 62bf 31f3 383e
00000010: b7fd 653f 3f4b 273b f155 ac3e c96e 0ebf
00000020: 7d7d d8be 6180 d2bd 93ff ba3e 2cb0 05ba
00000030: a879 18be f156 293f f6a6 6f3e 9e47 ca3e
0.6711717 -0.19628488 -0.8839176 0.1806152 0.89840263 0.0025527028 0.33659318 -0.55637795
-0.4228324 -0.102783926 0.36523113 -0.0005099799 -0.14890158 0.6614829 0.23403534 0.39507765

convs.0.mp_levels.1.update_up_nn.0.bias f4 [16]
00000000: bb82 27bf 8c8b 20be 5681 56bf 86b8 5ebf
00000010: 982f c13e cf33 02bf 7584 863e 0e97 0fbf
00000020: 4f86 07be da65 2ebf 1d89 063e 846a 883e
00000030: 3a94 9d3e 8bbe 013f 4a52 13bf 7874 c23e
-0.65433854 -0.15678233 -0.837911 -0.8700031 0.37731624 -0.50860304 0.26272932 -0.56089866
-0.13234828 -0.68124163 0.13138242 0.26643765 0.3077715 0.5068137 -0.5754744 0.37979484

convs.0.mp_levels.1.update_boundaries_nn.0.weight f4 [16, 1]
00000000: 0b80 713f 8e2a f7be 0cca b93d 3d9a a6be
00000010: 3c05 0cbf 56a6 223f fe7e bf3e ed1c 7dbf
00000020: 69ba 8cbd 2c57 5fbf e3f3 2fbf c191 053f
00000030: 64d5 eb3e 611e 9b3e 8fb7 3e3f 37a2 943e
0.94336003 -0.48274654 0.090717405 -0.3253955 -0.5469549 0.6353506 0.37401575 -0.9887226
-0.068714924 -0.8724239 -0.68731517 0.5217553 0.46061242 0.30296615 0.7449884 0.2903001

convs.0.mp_levels.1.update_boundaries_nn.0.bias f4 [16]
00000000: 59d4 2bbf c616 4ebf 9921 a4be d19f 3ebf
00000010: d869 6d3f 425f 193f 053f 643d d184 f43e
00000020: bfa8 efbe 38c7 303d 998f 86be f118 d9be
00000030: c8d1 89be c11f f53e 16a3 353f 2d5b 1ebf
-0.6712089 -0.805035 -0.32056883 -0.7446261 0.9273963 0.59910977 0.055724163 0.4775758
-0.4680843 0.04315874 -0.2628143 -0.4240184 -0.26917863 0.4787579 0.70951974 -0.61857873

convs.0.mp_levels.1.combine_nn.0.weight f4 [16, 32]
00000000: e68c ecbd 7385 a73c 9141 1ebd e471 bbbb
00000010: 9233 1cbe b77e a23d c61b a83c 498c f53c
00000020: e969 e3bd 3e68 34be c613 843d eeb8 3a3e
00000030: e16c 2c3e b1be d83c 7f37 28be 6bdb e13c
00000040: eab9 753d d220 803c 8704 093d 2223 f83c
00000050: 5310 0e3e 031e 1ebe 247b 0c39 98cc f13d
00000060: 80a2 25be 67ae a43d 8e7c 1dbe eb77 5bbd
00000070: b9f2 1fbe 0abb 9b3d 3b02 32bd a663 f1bd
00000080: b4c7 7f3d c34e debc 7407 c0bd c17d e0bc
00000090: f2b5 2a3e 03d6 5b3d 3c38 cf3d 0ae2 093e
000000a0: 8517 65bc d17e 023e 3c7e 00be 40fd 2e3e
000000b0: 5d56 fcbc 24e6 09be b4af 9cbc 5c0f 013e
000000c0: 9b28 753d 5869 003d 61bb 1fbe 4bbc 1b3e
000000d0: c4e5 aebc 4751 91bb 7bbe 15be efad a73d
000000e0: e91b e1bd ce0e 193e f397 21bd 79da 2f3e
000000f0: 8245 51bd 2e09 1ebd 83aa a93d e336 ffbb
00000100: 5ff7 88bd 7483 ebbc 48ef 2dbc 1542 f3bd
00000110: 0a3b 213e cbbc c3bd 0ad2 89bd caa1 3e3d
00000120: f5ee dcbd 805d fabc 3406 f23d 8b74 2ebd
00000130: 9c50 b2bc 3257 b03d 4b23 283e 8a7c 143e
00000140: 00d4 07be 516a e9bc a92a 14be 7fde 4fbc
00000150: fa39 d5bd 3b08 d93d 18b5 223d 65c2 0d3e
00000160: a851 393e 5a62 87bd e03d fe3c 985d e13d
00000170: a8c5 eabd 5a35 923d 1fed 24be 870c 1bbd
00000180: a16f d3bd bdd2 1f3e 2637 193e da0e 85bd
00000190: 65f0 243d 5f47 82bd 6240 1b3e 3733 a93c
000001a0: 9bbd fdbd 9205 083d b3a7 3bbe 3d0a 04be
000001b0: 17c0 35bd fb9a abbd bc45 eabd bd01 afbc
000001c0: 8bc2 233e fbf8 f3bd 836c debd e278 84bc
000001d0: 8104 28bd eed5 e2bd c02c 213e 75f9 59bd
000001e0: 45a9 c9bd 273c 2a3d cb0a 233e 0ed7 92bc
000001f0: 6196 0dbe ebb2 f1bc de8a 253e 2648 dc3c
00000200: 33de 1a3e 1293 37be 2ff5 3c3d 4038 023e
00000210: 51de c3bd 668a 51bd bbd6 20be 26af ddbd
00000220: 264d d93d 6c67 503d c70a 383e e785 eebd
00000230: 8001 14be ef1b 6a3d 6423 2cbe 9e95 d7bd
00000240: 42f2 63bb ca85 03bb 511f 29be 632e 1dbe
00000250: 8865 6f3d 7c28 f63d aa6b 143d e2ba 2bbe
00000260: 0e17 123d 447d 23be accd 3ebd 2b1e 263c
00000270: 691f ca3d 05ae 67bd 3389 993d fb32 8ebd
00000280: c31e be3d f83c 34be 0a1a ccbd ebc6 9dbd
00000290: 1ff7 74bd 472a 1b3e 8005 44bd 033a fabd
000002a0: 05d0 75bd bf3d 23be 831d c63d 515c 54bd
000002b0: 9cfe c13d 6141 353e 6271 06be d5b4 cebd
000002c0: f1a7 e4bd e700 91bc e992 98bd ec5f 0bbe
000002d0: 0154 aabd 1237 d4bd ee52 4cbb 9bba 20be
000002e0: ffc0 b9bd 1637 f33c 73ec c0bd c6a0 853d
000002f0: 66f8 b6bd b2ab 143e aa51 eebc 2ae7 be3d
00000300: 87e5 9a3d e5bc 223e deff 91bd 856e e4bd
00000310: 1e15 5f3d 7f30 cbbd fd67 13be 9906 da3d
00000320: 7808 873d 7933 e93c 9e0a bcbc 8544 153e
00000330: 664c cdbd d1d4 253e a05e ffbd bbaf 5f3d
00000340: 7572 133e bb80 283e c98f bbbd 5721 f63d
00000350: 91fd 28bd 5ae3 7cbd d487 623c 8429 34bd
00000360: 5983 153e 8b80 c6bd 305b 713c b7cf 1a3e
00000370: 0abc 673d b476 0ebc f57f dfbd 382b 33be
00000380: 65ba 86bd 1a4d 093e 6046 9bbc b6ad 18be
00000390: 8ec5 14be ecfd f9bd cf4a bb3d 665d 39bb
000003a0: 3031 8c3d c34e bfbd 872e 8fbc 98c2 253e
000003b0: 43ca 843d bc97 283d ace3 9b3d c714 333e
000003c0: da56 f1bd e09a 8e3d 8e53 25be 308f afbc
000003d0: 5d4b 2fbe 3ad7 26be a39c a83c f695 c7bd
000003e0: 1e61 203e 2231 27be 1858 f83d 00f4 263d
000003f0: b0d9 013e aa76 a4bc 6ae6 bd3d 920f 6f3c
-0.11550312 0.020449376 -0.038636748 -0.005720364 -0.15254048 0.07934325 0.020521056 0.02997412
-0.11104185 -0.1761789 0.06449084 0.18234608 0.16838409 0.026458116 -0.1642742 0.027570447
0.059991755 0.01564065 0.033451583 0.03029019 0.13873415 -0.15441136 0.00013397314 0.11806601
-0.1617527 0.08041077 -0.15379545 -0.05358116 -0.15619935 0.07604034 -0.04345916 -0.117865846
0.06244631 -0.027137166 -0.093764216 -0.027403714 0.16670969 0.053670894 0.10118148 0.13465133
-0.013982658 0.12743689 -0.12548155 0.17088795 -0.0308029 -0.13466698 -0.01912675 0.12603515
0.059853178 0.031350464 -0.15598823 0.15208547 -0.021349795 -0.004434738 -0.14623444 0.08187472
-0.109916516 0.14947054 -0.03945155 0.17173184 -0.05109168 -0.038582973 0.08284476 -0.0077885254
-0.06687807 -0.028749205 -0.010616131 -0.118778385 0.15745178 -0.09557494 -0.06729515 0.046541013
-0.10787765 -0.030562162 0.118175894 -0.042591613 -0.021766953 0.08610381 0.16419713 0.14500633
-0.13264465 -0.028493078 -0.14469399 -0.012687325 -0.10411449 0.10597273 0.039723486 0.13843687
0.18097556 -0.06610556 0.031035364 0.1100418 -0.11463481 0.07139082 -0.1610608 -0.037853744
-0.10324026 0.15607734 0.14962444 -0.06496973 0.04026832 -0.06361269 0.15161279 0.020654304
-0.1238968 0.033208437 -0.18325691 -0.1289453 -0.044372644 -0.083791696 -0.11439082 -0.021363134
0.15992181 -0.11912724 -0.10860541 -0.016170923 -0.04101992 -0.1107596 0.15739727 -0.053216416
-0.09846739 0.041561272 0.15922086 -0.017924812 -0.13826896 -0.02950426 0.16166255 0.026889872
0.15123825 -0.17927197 0.046132263 0.1271677 -0.09563888 -0.051157378 -0.15706913 -0.108244225
0.10610418 0.05087988 0.17972861 -0.116466336 -0.14453697 0.057155546 -0.16810375 -0.10526584
-0.0034781848 -0.0020068758 -0.16515853 -0.15349726 0.058446437 0.120194405 0.03623549 -0.16770509
0.035666518 -0.15965754 -0.046582863 0.010139029 0.09869272 -0.056562442 0.07496872 -0.069433175
0.09283211 -0.17601383 -0.09965904 -0.07703956 -0.059805986 0.15152846 -0.047856808 -0.12218096
-0.060012836 -0.15941523 0.09673598 -0.051845852 0.09472391 0.17700721 -0.1312919 -0.10093085
-0.11164845 -0.017700626 -0.07449896 -0.1361081 -0.08316804 -0.10362066 -0.003117736 -0.15696184
-0.09070014 0.029689353 -0.09420099 0.06524806 -0.08934097 0.14518622 -0.029091675 0.09321435
0.0756331 0.1589237 -0.07128881 -0.111538924 0.0544635 -0.09921359 -0.14395137 0.1064579
0.06593412 0.028466927 -0.022954281 0.1457692 -0.100243375 0.16194464 -0.1246922 0.05461095
0.1439913 0.16455357 -0.09158284 0.12018078 -0.041257445 -0.061740257 0.013826329 -0.043984905
0.14600886 -0.096924864 0.014731213 0.151183 0.056575812 -0.008695293 -0.10913078 -0.17496955
-0.06578521 0.13408318 -0.018954456 -0.14910015 -0.14528486 -0.12206635 0.09145128 -0.002828443
0.06845319 -0.093411945 -0.01747824 0.16187513 0.06483891 0.04116033 0.07611784 0.17488395
-0.11784144 0.06963134 -0.16145155 -0.021430582 -0.17118593 -0.1629304 0.020582503 -0.097454
0.15662047 -0.16327336 0.121261775 0.04076004 0.12680697 -0.020076115 0.092724636 0.014591115

convs.0.mp_levels.1.combine_nn.0.bias f4 [16]
00000000: 7947 943d 5d99 1c3e 1536 35bd 73f6 273d
00000010: ebd6 9bbd 145c 2c3e 9db7 1ebe 53ef 063e
00000020: 4b62 3cbd b715 353d 948d d3bd 40bc de3c
00000030: bf2c d53d bd48 2cbc c91c b3bc f688 06bd
0.07240195 0.15292878 -0.04424103 0.041006517 -0.07609352 0.16832 -0.1549973 0.13177232
-0.045992177 0.044210162 -0.10329738 0.027189374 0.10408925 -0.010515389 -0.021864312 -0.03284546

convs.0.mp_levels.2.msg_up_nn.1.weight f4 [1, 2]
00000000: 0f79 01bf 5ba6 2ebf
-0.50575346 -0.6822259

convs.0.mp_levels.2.update_up_nn.0.weight f4 [16, 1]
00000000: b0ca bebb 0a68 693e 8382 2cbf facb 1d3f
00000010: 6356 653f a2f6 edbe 6610 29be d465 eebe
00000020: e75b 393f 9759 443c f745 2cbf 2486 413f
00000030: 89c4 1d3e 243b adbe d48b 2dbe 6e54 a3be
-0.005822502 0.22793594 -0.67386645 0.6163937 0.8958494 -0.46477228 -0.16510162 -0.46562064
0.72405857 0.0119842505 -0.6729426 0.7559531 0.15407003 -0.33834183 -0.16947871 -0.31900352

convs.0.mp_levels.2.update_up_nn.0.bias f4 [16]
00000000: 994d 12bf 73f8 33bf 1c93 f33d a840 3b3f
00000010: 30d4 2ebf 011e c0be 6356 eb3e 57e4 663f
00000020: 526f 623f fc9b 99be 83fe cb3e 8363 66bf
00000030: 3929 3dbf bb7f f9be 042a edbe e83a e83c
-0.57149655 -0.7030098 0.11893293 0.7314553 -0.6829252 -0.3752289 0.45964345 0.9019217
0.8845111 -0.3000182 0.39842615 -0.8999559 -0.73891026 -0.48730263 -0.46321118 0.028348401

convs.0.mp_levels.2.update_boundaries_nn.0.weight f4 [16, 1]
00000000: d582 d6be 9294 30be d4dc 20bf fbc1 a53e
00000010: 4da1 333f 2ea1 22be 23f0 92bd c6da 7abf
00000020: e946 67be 59ff 21be 67fd ef3e 7d74 20bf
00000030: b2ff 2b3f 2e34 e83d f925 1e3f ccb5 623f
-0.41896692 -0.17244175 -0.62836957 0.32374558 0.70168 -0.15881798 -0.07174709 -0.9799007
-0.22585644 -0.15820064 0.46873018 -0.62677747 0.67187035 0.113380775 0.6177669 0.8855865

convs.0.mp_levels.2.update_boundaries_nn.0.bias f4 [16]
00000000: 9c76 bb3e 5f52 fa3d cb93 b1bd 97ad 193f
00000010: c71f 90be ef13 ddbe 3211 3f3f e47e 2a3f
00000020: c2f7 6d3f c7aa 24bf 119b 09bf c608 713f
00000030: 88d2 87be 611f bbbe 0e9e 58bf 2aa8 0bbf
0.3661393 0.12222742 -0.086707674 0.600305 -0.28149244 -0.4317927 0.7463561 0.6659987
0.92956173 -0.64323086 -0.5375224 0.9415401 -0.2652781 -0.36547378 -0.8461617 -0.54553473

convs.0.mp_levels.2.combine_nn.0.weight f4 [16, 32]
00000000: 6207 08be fa85 1dbe da84 083e cfbf eabd
00000010: ad4b a7bb 8779 2ebe 0197 113e ad61 bc3a
00000020: a8bd 1fbe 1df8 1ebe 446d f1bb a91f 863d
00000030: 6cb3 a93d 9314 023e 1d6f d2bd cd61 1e3e
00000040: bd74 f3ba 86f7 ea3d a986 88bd c0ac 1b3e
00000050: f223 bebd 2368 56bd 740f 1ebe 4ba4 853d
00000060: 5c43 ec3a b1b1 0bbe 5953 06be 7f65 073e
00000070: 498f 33bd 41ef 2e3e 1d24 163e b8c6 e0bd
00000080: ef6b 1f3e 2265 b2bc ed6d d53c e047 9bbd
00000090: 2053 c53d c314 2b3e c158 06bd 5991 bf3d
000000a0: 009f 093d 583c 71bc b8b7 8dbd 8dd6 86bc
000000b0: a0f6 bebd 0c52 273e d248 603a 95ec ca3d
000000c0: 286e 5abd 36fb 4a3d 7803 1cbe 8b15 1fbe
000000d0: 231a 04be 952d 27be 1ee6 10be b61a 943c
000000e0: 7f03 a83d 65ce 123e dab5 d43d d67d c23d
000000f0: 61ac 8ebd e55e 203e e348 303e 9b68 6dbd
00000100: d81d d33d 58c6 2e3e c646 f3bc a1f8 31be
00000110: c6d8 823d e29d 01be 6eb9 2ebe b760 b6bd
00000120: 89d3 203d bff1 76bd b66b b2bd 328a a63d
00000130: 1e9e 9ebd f200 e339 fbff 0f3e 59f2 153e
00000140: d20c ff3d 6444 03bd d66c ebbd 3c67 0f3d
00000150: a90e 8bbd ed99 e3bd 13bb 253d 8d65 05be
00000160: ee97 6bbd cf0e 32be dfc8 863d 8d1e 313d
00000170: 9f77 7d3d 7d00 06bd 8fbd 933c 63e8 17be
00000180: 8beb 61bd aed1 a63c f8cc eb3d 8858 bbb9
00000190: 4d11 1b3e f2fb 543d 2b3f 68bd 5a44 273e
000001a0: ef40 2f3e 907f 8b3d 3e55 11be ff22 b33c
000001b0: a8a4 9ebd bc8f cfbd de7b 7ebc 2827 e1bd
000001c0: e054 db3d f595 8cbc eaa3 8b3c 33e6 ff3a
000001d0: 62a7 f6bd 942a 0c3c 3c83 9f3c b622 0cbe
000001e0: b56b 1c3e a3f1 8bbd c7f1 2c3e 9f0e 103e
000001f0: 81a7 1f3e 06ef 0dbe a30c 6cbd 7fe7 1cbd
00000200: 51d1 21bd a2de 673d ab11 44bc 5157 2a3e
00000210: 9811 573d 45ba e73d 84e6 03bd 536d 143e
00000220: 74bc 1cbe 1d4a d73d a439 033d be9b 1ebd
00000230: 0da8 f0bd f8ec 0cbd dfb8 113d a9b9 cb3d
00000240: af0e f0bd 9d1d 1fbd c0d3 783d 71f6 a43d
00000250: 776d 31be cb28 963d 5a5a 0e3e 258a 223e
00000260: ad74 d83d 02fe 80bd 3fea f5bd b05b dabc
00000270: 1591 293e 966d a2bd a0cc 20bd 8d5b ccbd
00000280: acf0 0abe 7eb5 69bc 0d7e 11be 854c f23d
00000290: 57e0 28be 1443 ff3d aa5c 94bd d847 0ebe
000002a0: c025 d93c 5702 12be cbaa b53d 1970 073e
000002b0: 92aa 8ebd e372 c2bd 8ea8 5e3d b649 423d
000002c0: ad1a 3dbe 4d09 1bbe c7d8 19be 90c7 b8bd
000002d0: dfdf 003e 7364 0dbd 2df0 2f3e 779c a93d
000002e0: e091 1c3e b4ce 96bb 76ef ce3d 12bc 00be
000002f0: 1559 a73d c4a0 92bd 224d 2b3d 378a 0f3e
00000300: 6ddf 833d 16b5 aaba 90ee f0bd 6028 213e
00000310: dbf1 4fbd f999 153e eaa6 9d3c 6b22 573d
00000320: 390e 9a3d 640b bbbc 4c51 fabd 2e37 16be
00000330: 327a a0bc 6927 11be 1eab 123e 4f43 e23c
00000340: f10a e93c 9e1e d6bb f404 17be b0a3 9f3d
00000350: fc12 073e 2068 d93b 6ad2 353e 6e7d 253e
00000360: 161a 1fbe b51d 1e3e 3d99 adbd b0c9 a43d
00000370: 01e8 193e 0ca9 3d3e 10be a2bd ba66 a8bd
00000380: 492f 2bbe 53c1 a4bd e634 163e 0165 febd
00000390: b983 5b3a 8110 51bd 9d94 28ba b64f e23d
000003a0: 147f 123e 47d7 fb3d d981 0a3e 91fa 633d
000003b0: 8ff8 443d 405b b0bd d2fd 2dbc c176 b03d
000003c0: 3c8c 21bd e6b6 993d 705d f5bd 9ac0 643d
000003d0: e451 153e 3637 f8bd c5e9 20bd 04dd 013d
000003e0: a77d 35bd 5d2e 1fbe f3ad e13d a6d1 8abc
000003f0: 015c a13d 66ae bd3d a586 db3d b12c 213e
-0.13284066 -0.15383139 0.13331929 -0.11462366 -0.005105457 -0.17038547 0.1421776 0.0014372371
-0.15599692 -0.15524335 -0.007367762 0.065490074 0.08286175 0.12703161 -0.102750994 0.15466996
-0.001857422 0.114729926 -0.066663094 0.15202618 -0.092842 -0.052345406 -0.15435582 0.06525477
0.0018025446 -0.13642003 -0.13117732 0.13222311 -0.04383782 0.17083456 0.14662214 -0.109754026
0.15568517 -0.02177674 0.026053393 -0.075820684 0.096349955 0.16707139 -0.032799486 0.09353895
0.0335989 -0.01472386 -0.06919807 -0.016459728 -0.09324384 0.16339892 0.0008555773 0.09908406
-0.05332771 0.04955598 -0.15235698 -0.15535562 -0.12900595 -0.16325982 -0.14150283 0.018079143
0.08203792 0.14336546 0.10386248 0.094966576 -0.069664724 0.156612 0.17215304 -0.057961088
0.103084266 0.1706785 -0.029696833 -0.1738 0.063890025 -0.12657884 -0.17062923 -0.08905166
0.039264236 -0.06028914 -0.087119505 0.081318274 -0.07745002 0.00043297518 0.14062493 0.1464323
0.12453617 -0.032047644 -0.11495368 0.03501056 -0.067899056 -0.111133434 0.04046161 -0.1302702
-0.05751794 -0.17388462 0.06581282 0.043242026 0.061881658 -0.03271531 0.018034725 -0.14834742
-0.055156272 0.020363655 0.11513704 -0.0003573338 0.15143318 0.051998086 -0.056700867 0.16334668
0.17114614 0.0681144 -0.14192674 0.021867273 -0.077462494 -0.10134837 -0.015532462 -0.109937966
0.10709548 -0.017161349 0.017045934 0.0019523561 -0.120436445 0.008555073 0.019471757 -0.13685116
0.15275462 -0.06833198 0.16889106 0.14068078 0.15591241 -0.13860711 -0.05762924 -0.03830671
-0.03950626 0.056608804 -0.011967103 0.16634871 0.052507013 0.11314825 -0.03220226 0.14494829
-0.15306264 0.10512183 0.032037392 -0.038722746 -0.11750803 -0.03440568 0.035576697 0.09947521
-0.11721551 -0.0388466 0.060748816 0.080548175 -0.17326914 0.073319994 0.13901654 0.1587301
0.10569129 -0.06298448 -0.120075695 -0.026655048 0.1655925 -0.07931058 -0.039257646 -0.099783994
-0.13568372 -0.0142644625 -0.14208241 0.11831001 -0.16491829 0.12463966 -0.07244237 -0.13894594
0.026507258 -0.14258705 0.08870467 0.13226356 -0.069661275 -0.09494569 0.054359965 0.047433577
-0.18467207 -0.15140267 -0.150241 -0.090224385 0.125854 -0.034519624 0.17181464 0.082817964
0.15290022 -0.0046022777 0.10104267 -0.12571743 0.08171288 -0.0715957 0.041821606 0.14017569
0.064390995 -0.0013023939 -0.11764252 0.15738058 -0.05076776 0.14609517 0.01924463 0.052523058
0.07522244 -0.02283258 -0.122225374 -0.14669487 -0.019589517 -0.1417519 0.14323089 0.027619986
0.0284476 -0.0065344116 -0.14747983 0.07794893 0.13190836 0.006634727 0.17756048 0.16161129
-0.15537295 0.1544102 -0.084764935 0.08046281 0.15029909 0.18521518 -0.07946408 -0.082227185
-0.16717257 -0.08044686 0.14668617 -0.12421609 0.0008373815 -0.05104113 -0.00064308365 0.1105036
0.14306289 0.1229692 0.13526095 0.05565888 0.048088606 -0.086111546 -0.0106195975 0.086164005
-0.03944038 0.07505588 -0.119807124 0.05584774 0.1458202 -0.12119906 -0.03928544 0.031704918
-0.044309285 -0.1554503 0.11019506 -0.016945671 0.078788765 0.092617795 0.10719041 0.15739705

convs.0.mp_levels.2.combine_nn.0.bias f4 [16]
00000000: 61c5 14be d1f9 843d 5d5a 333e 6361 633d
00000010: 046d b3bb 71b8 313e 0a9e 13be d6d3 1ebc
00000020: f690 d33d 8c32 0abe 8bd6 90bc 1161 a8bd
00000030: ba88 07be 9a1b f2bd d1d7 3abb 02ae 78bc
-0.14528419 0.06492961 0.1751494 0.055512797 -0.005475642 0.17355515 -0.14415756 -0.00969406
0.103303835 -0.13495845 -0.017680427 -0.08221639 -0.13235751 -0.11821671 -0.0028509984 -0.015178205

convs.0.mp_levels.3.msg_up_nn.1.weight f4 [1, 2]
00000000: e77e 24be ce8c c33e
-0.16064034 0.38193363

convs.0.mp_levels.3.update_up_nn.0.weight f4 [16, 1]
00000000: 8238 083f 1b85 093e 093a dbbd b760 f9be
00000010: fb0e 41bf 374f 613e 89af 7abf b96a 55bf
00000020: 921f a03e dce5 5e3e cfd0 743e 4517 1fbf
00000030: 628a 9cbb 41e5 94be 226d 7a3f 9002 ee3e
0.53211224 0.13429682 -0.10704429 -0.487066 -0.75413483 0.22002874 -0.97924095 -0.8336597
0.31274086 0.21767372 0.23907779 -0.6214488 -0.0047772387 -0.29081157 0.97822773 0.4648633

convs.0.mp_levels.3.update_up_nn.0.bias f4 [16]
00000000: d94a 35be 8d33 54be 5eb9 66be 1546 1c3f
00000010: 599d 6e3f 20de 77bf d74d 6abe c1cf 3d3f
00000020: 0bf5 823e 762e 97bc d9d8 5bbe a9bd 7a3e
00000030: 1dd8 093f 7ce3 30bf c993 d83e 9f11 f3bc
-0.17704333 -0.2072279 -0.2253165 0.61044437 0.93208843 -0.9682331 -0.22881256 0.7414513
0.25577578 -0.018454771 -0.2146944 0.24486412 0.5384539 -0.69097114 0.4230025 -0.029671488

convs.0.mp_levels.3.update_boundaries_nn.0.weight f4 [16, 1]
00000000: 9c04 7b3f b182 c33e fb2e 9f3e 7bf4 073f
00000010: d16d 2cbf eb4c a53e 4a3b c03e 9d94 e8be
00000020: 88b8 913e ef33 1ebd 495a f4be bc5b 33bf
00000030: 5cca 7cbf 6ad4 eabe cccb 1fbf d1e1 303f
0.9805391 0.38185647 0.3109053 0.5310742 -0.67355067 0.32285246 0.37545234 -0.45425883
0.284611 -0.038623746 -0.47725132 -0.7006185 -0.98746276 -0.45865184 -0.62420344 0.6909457

convs.0.mp_levels.3.update_boundaries_nn.0.bias f4 [16]
00000000: 4ea3 61bf 8341 043f 62b0 36bf edd3 1abd
00000010: c8f1 51be 8637 c2bd b9a8 1abf c003 fbbd
00000020: 51c0 cfbe 5071 f2bd b559 3ebf d33e d63e
00000030: 5f38 34bf e429 cabd 617d af3e 34b5 24bf
-0.8813981 0.5166246 -0.7136289 -0.037799764 -0.20502388 -0.094832465 -0.604137 -0.12256575
-0.40576413 -0.11838019 -0.7435563 0.41844806 -0.70398515 -0.09871271 0.34275344 -0.64338994

convs.0.mp_levels.3.combine_nn.0.weight f4 [16, 32]
00000000: b44b ee3d ffbd 40bd 6e67 e3bc e881 e33d
00000010: 1e39 83bd cf65 cebc c123 073b 5c3d 10be
00000020: 12c6 92bd 7360 253d fabb edbd 579a ed3d
00000030: 4ae3 383e d2fb ed3d 229a a23d 09aa 92bd
00000040: 02d5 f83d db85 6a3d 5c70 dabd d7eb b6bd
00000050: 0f27 eabd f503 abbd 2eb7 83bd bde8 17be
00000060: 20bd 46bd 0bae b8bd 0833 10bd e334 183d
00000070: a2e6 10bd 3b76 ae3d 91d4 40bd 38cf 033d
00000080: 094b ed3c aca4 1a3d 4002 3d3c 7d43 b6bd
00000090: c124 6a3d 59cc 0d3e 150b fdbd d5ae e4bd
000000a0: 8baf 91bc db60 413b 5ce2 ecbc 1818 173e
000000b0: 8d1e f4bc 201a dfbd ab2a a33d e30e f6bd
000000c0: 5f2c 1c3e 76e7 05be c024 ef3d e31a e6bd
000000d0: 9bb6 29be a47d 293e 864c fbbd fab6 993d
000000e0: 8b46 153e 78f7 ef3c 43db dabd 7c61 753d
000000f0: 5a0b e7bd adc6 f13d 11b2 a4bb 2015 16be
00000100: d32d 253d 8262 c13d 900d 3cba 7baf f33d
00000110: e686 123e 3e17 91bd 0a48 c8bd 363e 8fba
00000120: f33b fcbd af7f d6bd 66cc 09be 270f 87bd
00000130: 7d27 f7bc 5dda 90bd 4c06 1fbe b416 cfbd
00000140: 056e c23d 84ed 083e e0c1 26be e292 c43d
00000150: b076 58bc 245c 8d3d 34e5 a03d 15b6 953c
00000160: 2243 bf3b f81e 06bc acd4 fe3d 6a69 b3bc
00000170: aeb3 d03d fe6c d93d 148a 233d 1042 19bd
00000180: 8518 3bbc 11ed 933d 66c5 18be b070 51bd
00000190: b2d7 ad3d e94f 043e aa40 f33d ac74 0abc
000001a0: e2eb 20be c037 053e 2a52 523c 536b bb3d
000001b0: 20f1 e7bd dc9e a5bc dd9d 2ebe 3f14 b5bd
000001c0: 39c8 693b 84b8 f43d 27b3 fbbd 4c9b 1d3e
000001d0: 37ff 16be 32da 19be 78db d13c d8c4 0bbe
000001e0: 1d15 d03d d214 b03d d800 163d 4a60 093e
000001f0: 4bf2 a73d ec62 323d c3a1 96bd caa1 2fbd
00000200: 4ed7 b43d 4501 f9bd 8bf2 ca3d 4e3b 9d3d
00000210: 234b 46bd 920c 2ebe 1c05 0fbe 4748 163d
00000220: a023 273e e678 2dbe 0868 d7bd 89c1 e13d
00000230: 6e9b 6b3d cd41 0fbe e6d8 9dbd 3c37 afbc
00000240: 1149 35be 7778 d93d 695d c93d e0df 9f3d
00000250: f0b2 dd3d d6d3 5fbd 04c3 fcbd e2b8 953d
00000260: ffcc d0bd fa23 ccbd 181a c43d 8e05 ce3d
00000270: 0d63 963d de66 853d 5f60 843a 37fd 713b
00000280: 5d43 e2bd 9082 f83d dda9 d83d 0082 ad3d
00000290: b6b8 cc3d 8259 1d3e 4f25 033e 48f2 0b3d
000002a0: 5a6d d0bd f08e d63c 69c4 bebd 1e64 2f3e
000002b0: b954 633d 0777 c03d 0210 a83d b4b3 753d
000002c0: 2282 a5bd 9348 6a3d 8c8b 33bd bb4f 863c
000002d0: 5531 973d a376 13be c476 fcbd e5d6 cdbc
000002e0: f697 eb3d d9cf c7bd e703 fabd 2ef2 813b
000002f0: 5abf ae3d 7c77 99bd 7f54 3d3c 597e 3abe
00000300: dc7b 223e 33bb 273e f17b c2bd fe3a 033d
00000310: e211 17be 7526 2c3e 540f 063e b2d2 0b3d
00000320: 96b5 17be 8b19 0e3e 1417 b23d b4d1 0abe
00000330: e335 cb3d 8a6c ddbd 3489 00bc 42d4 8b3c
00000340: 2e21 7c3d ba6e e43d 7677 423d 9e10 19bd
00000350: dbe3 f3bd 4f57 843d 9f36 d4bd 4c9f 60bd
00000360: fe4d e3bd e897 f53d 59c9 a3bd 716e f23d
00000370: d5fe cebd e9ef 1cbc 15fe a33d 3049 36bd
00000380: c05f 55bd 445d d7bd 59a2 bdbd 2e45 193e
00000390: 52fa 97bd 20a9 a43c 9230 363e 9374 27bd
000003a0: 1745 64bd 2192 0c3e 6978 b43d 4924 47bb
000003b0: d1b5 be3d 9484 003e 8f19 11be c7b1 d2bd
000003c0: ba74 debb 11a5 a6bd 0cee 0dbd 3256 203e
000003d0: 2d70 a6bd 0803 d43d dd55 223e 91d5 153e
000003e0: 15b7 16be e7f2 c0bd 9968 82bd e26e 17be
000003f0: 4fe6 0fbe 4939 a33d edb9 783d 111d 7ebd
0.11635533 -0.047056194 -0.02775928 0.11108762 -0.064073786 -0.02519503 0.0020620676 -0.14085907
-0.07166685 0.040375184 -0.11608119 0.116017036 0.18055454 0.116202965 0.07939555 -0.07161338
0.12150003 0.05725656 -0.10665962 -0.08931702 -0.11433231 -0.08350364 -0.06431423 -0.14834876
-0.048520207 -0.09017571 -0.035204917 0.03715981 -0.0353762 0.085186444 -0.04707772 0.03218004
0.028966444 0.0377547 0.011536181 -0.08899591 0.057163958 0.13847484 -0.12355629 -0.11166159
-0.0177839 0.0029507193 -0.02891653 0.14755285 -0.029799724 -0.10893655 0.07967123 -0.12014558
0.15251301 -0.13076577 0.116769314 -0.11235597 -0.16573565 0.16551834 -0.12270455 0.07505603
0.14577691 0.029292807 -0.10686352 0.05990742 -0.11281462 0.118054725 -0.00502611 -0.14656496
0.040326905 0.09442617 -0.0007173652 0.118987046 0.14309272 -0.07084511 -0.09779365 -0.0010928574
-0.12316122 -0.104735725 -0.13456878 -0.06594687 -0.030170197 -0.070728995 -0.15529746 -0.10111752
0.09493641 0.13371855 -0.16284895 0.09598328 -0.013211891 0.0690234 0.07856217 0.0182753
0.0058368603 -0.008186094 0.12442908 -0.021900851 0.10190521 0.10616492 0.039926603 -0.037416518
-0.01141942 0.07222951 -0.14919052 -0.051132858 0.08488406 0.12921108 0.11877568 -0.008450668
-0.15714982 0.13009548 0.012836972 0.0915133 -0.11325288 -0.020217352 -0.17052408 -0.08841752
0.003567232 0.11949256 -0.1229003 0.15391272 -0.14745794 -0.15024641 0.025617346 -0.13649309
0.10160277 0.08597721 0.0366219 0.13415638 0.082005106 0.04355137 -0.07355072 -0.042878903
0.088301286 -0.12158445 0.09909543 0.07677327 -0.0484115 -0.16996983 -0.13966793 0.036690023
0.16322184 -0.1694065 -0.10517889 0.11023242 0.057521276 -0.13989945 -0.07707386 -0.021388642
-0.17703654 0.1061868 0.0983227 0.07806373 0.10825145 -0.054645382 -0.12341884 0.07310654
-0.1019535 -0.099677995 0.095752895 0.10059653 0.07343111 0.06513761 0.0010099522 0.003692461
-0.11048005 0.12134278 0.10579274 0.08472061 0.09996168 0.15366176 0.12807201 0.034166604
-0.10177107 0.026191205 -0.09314806 0.17128035 0.05550072 0.09397703 0.08206178 0.05998583
-0.080814615 0.05719812 -0.043834254 0.01639544 0.07382456 -0.14400725 -0.1232734 -0.025126884
0.115035936 -0.09756441 -0.122077756 0.0039656376 0.08532591 -0.07493493 0.01155579 -0.1821226
0.15867561 0.16380005 -0.09496296 0.03203868 -0.14752916 0.16811545 0.13091785 0.03413648
-0.14815363 0.13876931 0.08695808 -0.13556558 0.099223875 -0.10811718 -0.007845212 0.017068986
0.06155508 0.11153932 0.047477208 -0.037369363 -0.11908694 0.06461965 -0.10361981 -0.054839417
-0.1109886 0.119918644 -0.079973884 0.11837471 -0.10107199 -0.009578683 0.08007447 -0.04450339
-0.052093267 -0.10515836 -0.09259481 0.14967796 -0.07420792 0.020100176 0.17791966 -0.04088266
-0.05572995 0.13727619 0.08812029 -0.0030386618 0.093120225 0.12550575 -0.14169906 -0.102878146
-0.0067888172 -0.08136953 -0.034650847 0.15657881 -0.081268646 0.10352141 0.15853067 0.1463225
-0.14718278 -0.0942133 -0.06367607 -0.14788392 -0.140527 0.07969911 0.060724188 -0.06203944

convs.0.mp_levels.3.combine_nn.0.bias f4 [16]
00000000: 33ee ef3d 9781 d6bd 5248 1e3b 54a3 e13c
00000010: b955 59bd 7c4a 86bd 1be9 9cbd 80c1 2a3e
00000020: 3887 bdbc 09f5 3abe bcda cd3d 6fec 65bd
00000030: fcfc 2cbd 586a 603c 746b a1bd ff33 253c
0.11715355 -0.10473936 0.0024151993 0.027543701 -0.053060267 -0.065571755 -0.07661649 0.16675377
-0.023135766 -0.18257536 0.10051486 -0.056133684 -0.042233452 0.013697229 -0.07881823 0.010083198

convs.1.mp_levels.0.msg_up_nn.1.weight f4 [16, 32]
00000000: 5d9b 4e3b a053 0e3e 63e2 c43c ce02 25bd
00000010: 2675 e53c 4e72 bcbd f437 283e d972 ccbc
00000020: d2b0 973d 2d7f b3bd 644a b93c f0af afbd
00000030: f323 0ebe 1202 313e c56b d93d 9736 22be
00000040: 9500 623d 99e3 dc3d 5d04 a13d d7db 033e
00000050: c392 e13d 936e 0dbd 7d14 bcbc 5358 163e
00000060: b855 123e 773b 2b3e 2b38 33be 8944 7abd
00000070: 87b5 a33c 1e91 f03d 515c febd d03f a13d
00000080: 8623 d2bc 2ec0 b8bd ae7b 0d3e 10e1 ce3d
00000090: a2c0 343e 3bd9 aabd 3b85 cf3d 43b7 8b3b
000000a0: 353e 98bd 25ae df3d 28ac b53d b31d b4bb
000000b0: 488b 98bd 0423 97bd 6757 073e fde5 04be
000000c0: 1857 8f3c 2f75 45bd 514a 2cbc b270 f1bd
000000d0: 89a2 48bd 4a31 f43d 55d2 383e d98d 2cbe
000000e0: caae 043c a668 143d b803 163e 5997 cdbc
000000f0: d311 eebd 7a26 d5bb b00e fe3d d4a1 54bd
00000100: f09b 2e3d 680c 9fb9 b18d 5e3d c0ab ce3d
00000110: 70eb 98bc 0da2 c23c 6fbe 4c3c c626 30bd
00000120: 7c11 263e 42f7 17be 4ebf e63d 1306 87bc
00000130: 5eec 533d 6693 66bd 9894 243e e942 a43d
00000140: 36ae d6bd 6ff8 ffbd daac 03bd 4967 a23d
00000150: 7ff3 303e 2d30 e4bc 57d3 d73d 70b9 bbbd
00000160: 6e1f ca3d 8513 a33a 9ddf d6bd 12ec a0bb
00000170: 312a 8fbd 19ce 8e3c 0b3b dabc d6cd d53d
00000180: ca3a a8bd 4d6a 37be 7aa5 7b3d 06d1 28bc
00000190: 248a 25be 9ada 1f3e 1d5b 70bd 92b2 213e
000001a0: c43f 023e e679 133e a53c b0bd 32e4 ec3d
000001b0: f83d 973d 4c9a 293e d154 99bd 31b9 063d
000001c0: 5752 27bd 5052 233e 64e5 8cbc de3c 103e
000001d0: bfaf f73b e591 16be 1c93 11be c5c3 313e
000001e0: 5f9b 243e ad38 6d3c c920 8c3d dae0 a9bd
000001f0: 4e54 4b3c d26f 893d 305d 143e 87e1 25be
00000200: 7055 af3c ea59 0ebe 41a5 d9bc b2b2 4fbd
00000210: 3645 ffbc 5c72 e23d 93bc e3bd bcef 0c3e
00000220: a41a 9bbc 9202 a23d eee4 34be cb9c ebbb
00000230: aea8 81bd 12c9 98bd 5c53 74bd 5f90 233e
00000240: ae30 23be 9a4f c5bd db37 f93d 273a 593d
00000250: 843e c7bd 62c4 233e c345 1c3e f546 293d
00000260: ebe0 133e 2e80 91bd 469c a63a f60f 553a
00000270: 805d aa3d 0945 88bc d4bd 263d 88ac 40bd
00000280: 1289 063e 0fd0 0bbd 858f c63d 474b c53d
00000290: 3fee 16be a2b9 aa3d de31 e9bc 56f8 d23c
000002a0: 5395 88bc ebe4 1a3e f68a b3bd bd05 23be
000002b0: 1daa f03d cf0b 803d 0d74 173e 6df2 5e3c
000002c0: 4712 f6bd 5c65 833d 702b a6bd bdc3 11be
000002d0: c23b 03be 5eb3 083d 7c89 023e 669a c63d
000002e0: 6042 9fbc 6208 17be d472 8a3d 5436 a73d
000002f0: 485c 2f3e d3db 963d ca09 04be 36ad ca3d
00000300: 0104 463d 2647 52bc 6cfb 00be a096 a9bd
00000310: 2993 3dbe 2553 273e f03b 24be 692f a33c
00000320: 743e 453c 047a 5fbd 673f 38bc 5ac9 d53d
00000330: 1503 d7bd 90b3 1bbe a115 2a3e 77ac f7bd
00000340: f87b 24be 4d48 f9bd f833 763d dfb9 903d
00000350: 90d6 37bd ec34 c7bd bb3b 063e f671 a83d
00000360: c0f5 613d 3968 fdbd 0fdb 20be 2aee c83d
00000370: 828d 233e 7f8e 1abe b465 da3b fc03 ab3d
00000380: 4134 38bd b47f ebbd 2ff5 8f3d d9a6 033e
00000390: cae7 e3bc 84e0 013d 820d a0bd 86ed b43d
000003a0: 18f5 223e b612 b23d 2ce9 1dbe db4e b33d
000003b0: 91d0 0fbd 428f 293e 0ecb 6b3d 876c 933d
000003c0: 8b25 c03d 7417 e0bc 8e11 09be 9670 d83c
000003d0: d250 b6bd 7252 22be d247 953d 4b4f bd3c
000003e0: 8ab7 183e b4fc 8b3d f702 053e ff74 ebbc
000003f0: 2cf3 da3c 6198 283d a666 0e3e bda5 953d
0.003152571 0.13899088 0.02403373 -0.040285878 0.028009962 -0.092014894 0.16427594 -0.024957107
0.07406773 -0.08764491 0.02261848 -0.08578479 -0.13880901 0.17285946 0.106162585 -0.15841137
0.055176336 0.10785598 0.0786216 0.12876831 0.11014321 -0.03452928 -0.022958988 0.1468213
0.14290512 0.16721903 -0.17501895 -0.061100516 0.01998402 0.11746429 -0.12419952 0.078734994
-0.025651705 -0.0902103 0.13816711 0.10101521 0.17651609 -0.08342215 0.101328336 0.00426379
-0.0743374 0.10921887 0.08870727 -0.0054967045 -0.07448441 -0.073797256 0.13216935 -0.12978359
0.017497584 -0.048207458 -0.010515765 -0.11789073 -0.04898313 0.11923464 0.18048985 -0.16850986
0.008098314 0.036232613 0.14649856 -0.025096582 -0.116244934 -0.006504831 0.12405145 -0.051912144
0.042629182 -0.00030336087 0.054334346 0.100913525 -0.018666953 0.023758912 0.012496575 -0.043005727
0.16217607 -0.14840415 0.11266957 -0.016482389 0.05173909 -0.056292914 0.16072309 0.080205746
-0.10482447 -0.12498557 -0.032147266 0.07929856 0.17280386 -0.027855003 0.10538357 -0.09166229
0.09869276 0.001244173 -0.104918696 -0.0049109543 -0.06990469 0.01743226 -0.026639482 0.10439651
-0.08214338 -0.17911644 0.061437108 -0.010303741 -0.16165978 0.15610734 -0.058680642 0.15790775
0.12719637 0.1440197 -0.08605317 0.11566962 0.073848665 0.16562766 -0.074868806 0.032891456
-0.04085001 0.15949368 -0.017199226 0.14085719 0.0075587924 -0.14704092 -0.14216274 0.17359836
0.16074894 0.014478845 0.06842191 -0.0829484 0.0124102365 0.06710781 0.14488673 -0.16199313
0.021403044 -0.13901487 -0.026568057 -0.050707527 -0.031160932 0.110569686 -0.11119952 0.13763326
-0.018933602 0.079106465 -0.17665455 -0.007190322 -0.06331001 -0.07460226 -0.05964981 0.15973042
-0.15936539 -0.096343234 0.12168857 0.053033974 -0.09728721 0.15992883 0.15260987 0.041327436
0.14441268 -0.071045265 0.0012711368 0.00081276835 0.08318615 -0.016634481 0.040708378 -0.04703954
0.13138226 -0.034133967 0.09695343 0.09633499 -0.14739321 0.08336188 -0.028466161 0.025753181
-0.016672766 0.15126388 -0.08766739 -0.15920158 0.117511965 0.06252252 0.14790364 0.0136076035
-0.12015205 0.06415817 -0.08113754 -0.14234824 -0.12815765 0.033374183 0.12747759 0.09697418
-0.01944083 -0.14749292 0.06760183 0.08164659 0.17125046 0.07366147 -0.12894359 0.098963186
0.048343662 -0.012834346 -0.1259591 -0.082806826 -0.18513168 0.16340311 -0.1603849 0.019920068
0.012038816 -0.054559723 -0.011245585 0.104387954 -0.10498635 -0.15205216 0.16609813 -0.12093442
-0.16062915 -0.121719934 0.060108155 0.07066702 -0.044882357 -0.09726891 0.13108723 0.08224861
0.055166006 -0.123733945 -0.15708564 0.09811051 0.1597195 -0.1509342 0.006664956 0.08350369
-0.04497171 -0.11498967 0.07029187 0.12856616 -0.027820487 0.031708255 -0.078150764 0.088343665
0.15913808 0.08694975 -0.1542098 0.08755275 -0.035111014 0.16558555 0.057566695 0.07198434
0.09382161 -0.027354933 -0.13385603 0.026420873 -0.08902134 -0.15851763 0.07289089 0.023109099
0.14913765 0.06835309 0.12989412 -0.028742312 0.026727282 0.041160945 0.13906345 0.07307003

convs.1.mp_levels.0.msg_up_nn.1.bias f4 [16]
00000000: 7167 94bc ba3f edbd 28ef 993d 0370 f1bc
00000010: 8f34 d8bd 7b35 823d 808d acbd 5fad e23d
00000020: 9023 be3c 92b5 fa3d 9287 303e 008a 1d3e
00000030: 453e 4abc 6795 02be 7bf2 03be 611e 493c
-0.018115731 -0.115844205 0.075163186 -0.029472357 -0.105569 0.06357857 -0.084254265 0.11068224
0.023210317 0.12241663 0.17239216 0.15384674 -0.012343948 -0.12752305 -0.12885468 0.012275309

convs.1.mp_levels.0.update_up_nn.0.weight f4 [16, 16]
00000000: 2bcf 6f3e cea3 643e 6367 013e 72c0 0c3e
00000010: 67c9 31be 5a4b 20be 78a6 76be 27d4 09bd
00000020: 7f55 eabd 5975 b6bc 181c 2f3e 4c29 19bd
00000030: 0e55 463e 3ffb 5cbe ac0e 45be c9f9 2fbc
00000040: a761 403d 32c9 43be 55e2 cdbd d953 933d
00000050: 395a 43be 0b17 8d3d dfb6 153e fabf ddbd
00000060: 5923 99bd 4423 5d3e d34f 9bbd 41ac 0aba
00000070: b416 b3bd 0134 5bbd f834 efbd 25ea dfbc
00000080: a0d4 803e 28cc 17be c401 5bbe 3fd8 83bd
00000090: c167 e93b c1d8 543e 7f43 10be 8536 37be
000000a0: b53e 4ebe 5d25 de3d d821 253e 9a1d 5ebe
000000b0: f277 853d 85d3 80be 81df 9fbb ef3c 9dbd
000000c0: 98ec 2cbe 09c8 103e 857b 90bd 0766 b83d
000000d0: 1d07 343e b249 78be e589 14be b025 eb3d
000000e0: 1df4 313e 4fba 2cbe 7f25 19be 4cb1 28be
000000f0: 4f81 07be 01b9 69be 8087 59be fffc 903d
00000100: fea0 aabd 61e9 c33d 6547 2bbc f0f4 a43d
00000110: f2c7 593e d65e 31bc b6af 803e 22d7 1bbe
00000120: c73a c2bd 2dcb b0bd 1c98 29be 8fa5 a33d
00000130: 4a94 62be f5c5 163c cb39 50be e011 ccbd
00000140: 7594 3bbe 6b7b 0d3e d277 e0bc c1c9 5cbe
00000150: 7618 0abe f4ff 50be cfb0 023e cc4c 323c
00000160: 1ede 803b cdca 573e 50dd 133d 1d2e 0f3c
00000170: 2725 033d 71b1 dbbd 89d1 503d 9885 e33c
00000180: 6041 37be a69b 30bd 3463 3ebe e4e5 7ebe
00000190: 38fc 40be a24c a93c 6ac7 543e a998 e13d
000001a0: 4b0e 453e 1aa8 40be ac7b 5fbe 9e6a f5bc
000001b0: 91f6 30be e4f8 96bd b765 793e 1e0c 1cbe
000001c0: 7bae 023e c536 3ebe 77fe 79be ab54 ca3d
000001d0: 3012 a83d 3b8c 613d 76ee 363e cb4b 6a3e
000001e0: 52bc 3bbc 494d c43d a262 bd3c c25f 51be
000001f0: 2f90 023e 71c9 ba3d 8340 20bb 16d9 f4bd
00000200: 42ba 10be 0255 6d3e e144 87bc 8ee1 4ebe
00000210: df77 1a3e 9785 06be 59b1 053e 5c78 003e
00000220: 588d bb3d cccb 3bbe bae6 4bbd 8f6d 493e
00000230: e126 48be 41c8 983c e78c b33d 1716 333e
00000240: dd8d a53c 2fef 83bd d700 bebd 2cb9 c43c
00000250: 05c2 15bd 621c 3bbe 0124 803d a3c6 5cbe
00000260: b8b3 e53d 4b9e 81bd 4f4a 0dbe 5236 1b3d
00000270: 2e2c 6ebe a2e4 80bd 76bb 39bd a4b5 bf3d
00000280: 4546 e0bc 5f22 87bd b257 013e 044c 7cbe
00000290: 14e2 333e 38a0 053d 6060 1a3e 582a 813e
000002a0: 460f f4bd 5051 203e 1045 123e 3841 63bd
000002b0: c3d4 12be 09a2 cebd 2de2 21bd 5b80 9e3d
000002c0: 7373 e6bd 0545 953d 5652 8a3d 45d5 8e3d
000002d0: a86e 7cbe ee30 d53d a5aa 523e 1aa7 1cbe
000002e0: adbb 003e 0074 6b3e 075e 0a3a 0aa1 41be
000002f0: 7448 59bd 2970 13be 60f1 dd3c a172 e33b
00000300: e22b fc3d 9286 e4bd ea23 61bc 6e7a 35be
00000310: 70b6 0d3e 5f37 0fbd 59b9 ebbc f47d 603e
00000320: 93b5 483e fb97 29be 51d1 9a3d 585c 7c3c
00000330: 8bfa 45be 87d0 9ebd 25e3 2abe 7add 2abe
00000340: 742c b43d 5b7c c6bc b95c 233e aafb 8d3d
00000350: d7db cfbd ee70 0a3e aad1 4a3e af17 7fbe
00000360: 2df7 2bbe 9305 7e3e a00a c5bd 77e6 10be
00000370: e9f7 3a3e 9517 62be ccd3 743e 1efe bb3d
00000380: 562d 77be db49 9bbd 74ac 20be c629 5b3e
00000390: 5689 1fbe e937 413e 8551 32be cd61 6dbe
000003a0: 7291 e1bd 0378 49be 34d9 01be 3154 98bd
000003b0: 1307 f23d 6a69 1ebe 1c5b 553d 6a2d 30be
000003c0: 146f 293e 85b7 63be c149 3b3e 641f 9abd
000003d0: c88b 073e 9ba1 c73d 78a6 17bd ad5e 70be
000003e0: 3e21 9c3d 86b4 023e c573 81bd 5a46 60bd
000003f0: 21f8 b83d 6e77 e9bd f445 d8bc 12d3 543e
0.23418872 0.22328112 0.12637095 0.13745287 -0.17361985 -0.15653744 -0.2408694 -0.03364959
-0.11442088 -0.022272753 0.1710056 -0.0373929 0.19368383 -0.21580218 -0.19243878 -0.010740706
0.04696813 -0.19119719 -0.10052935 0.07193727 -0.19077386 0.06889161 0.14620541 -0.10827632
-0.07477445 0.21595484 -0.07583585 -0.000528995 -0.08744565 -0.05351639 -0.11680025 -0.027333329
0.2516222 -0.14823973 -0.21387392 -0.0643773 0.007122964 0.2078581 -0.14088248 -0.17891891
-0.20141108 0.1084697 0.16126192 -0.2169098 0.065170184 -0.25161377 -0.0048789387 -0.07677638
-0.16887128 0.14138807 -0.070548095 0.09003835 0.17580839 -0.24246863 -0.14505728 0.11481798
0.17378278 -0.16867946 -0.1495571 -0.16473883 -0.13232921 -0.2282448 -0.21243095 0.07079505
-0.08331488 0.09565998 -0.0104540335 0.080545306 0.2126768 -0.010825833 0.25134057 -0.15218785
-0.09483867 -0.08632503 -0.16561931 0.07990562 -0.2212688 0.00920247 -0.20334546 -0.09964347
-0.1831835 0.13816611 -0.027400885 -0.21561338 -0.13485894 -0.20410138 0.1276276 0.010882568
0.0039327284 0.21073456 0.036099732 0.008739022 0.032017853 -0.10727204 0.05098108 0.027773663
-0.17896032 -0.043117188 -0.1859253 -0.24892384 -0.18846214 0.020666424 0.20779195 0.11015446
0.19243734 -0.18814126 -0.21824521 -0.029958066 -0.17281558 -0.07371691 0.24355207 -0.15238997
0.12761872 -0.1857558 -0.24413477 0.098794304 0.08206594 0.055065375 0.17864403 0.22880475
-0.011458473 0.095850535 0.02311832 -0.20446685 0.12750314 0.09120453 -0.0024452514 -0.11955468
-0.14133552 0.23176959 -0.016512336 -0.2020323 0.1508479 -0.13136898 0.13055934 0.12545913
0.091578186 -0.18339461 -0.049780585 0.196707 -0.19546081 0.018650176 0.08767109 0.17488895
0.020209247 -0.06442105 -0.09277504 0.024014078 -0.036561985 -0.18272546 0.06256867 -0.21560149
0.11215919 -0.0632902 -0.13797878 0.0378936 -0.2325904 -0.06293608 -0.045344792 0.09360817
-0.027377257 -0.06598353 0.1263111 -0.24638373 0.1756671 0.0326235 0.15075827 0.25227618
-0.11916976 0.15656018 0.14284158 -0.05548212 -0.14338975 -0.100894995 -0.03952234 0.077393256
-0.11252489 0.07288555 0.067539856 0.06974272 -0.24651587 0.10409723 0.20572908 -0.15298119
0.12571593 0.22993469 0.00052782934 -0.18909088 -0.053047612 -0.14398254 0.027092636 0.006941155
0.123130575 -0.1115848 -0.013741473 -0.17722484 0.13839126 -0.034964915 -0.028774904 0.21923047
0.19600515 -0.16561882 0.07559455 0.015402876 -0.19333856 -0.07754617 -0.16688211 -0.16686049
0.08797541 -0.02422922 0.1595334 0.06932767 -0.10149353 0.13519642 0.19806543 -0.24911378
-0.16793509 0.24806814 -0.09621167 -0.14150415 0.18258633 -0.22079308 0.23908919 0.091793284
-0.24138388 -0.07582446 -0.15690786 0.21402654 -0.15579733 0.18868984 -0.1741391 -0.2318184
-0.110140696 -0.19674687 -0.12680513 -0.07437933 0.118177556 -0.154699 0.05208884 -0.17204824
0.16546279 -0.22237976 0.18289854 -0.075255185 0.13236916 0.09747621 -0.03702399 -0.23473616
0.07623528 0.12764177 -0.063209094 -0.054754592 0.09031702 -0.113997325 -0.026400544 0.20783642

convs.1.mp_levels.0.update_up_nn.0.bias f4 [16]
00000000: be9b 693e 7e07 6abe af37 763e 5b46 6a3e
00000010: b07e 35be 7c0b 5e3e aaa5 4bbd 53ae 20be
00000020: f9be 87bd 6558 5cbe e337 8b3d cb60 7dbe
00000030: 8d3b 133e 7603 72bc 9670 33bd 1ee7 29be
0.22813317 -0.2285442 0.24044679 0.22878401 -0.17724109 0.21684068 -0.049718536 -0.156915
-0.06628222 -0.21518095 0.06797769 -0.24743955 0.14378186 -0.014771333 -0.043808542 -0.1659207
