experiments/results/SHRIROOK/runs/2026-02-05T17:13:45-gin-shrirook/seed_8/best_weights.pt (torch, 119371 bytes, 180 tensors)

conv1.nn.0.weight f4 [16, 1]
000000 7a bd ad 3e 44 b3 4f bf 0b 1c c2 bd 24 26 3b 3e
       0.33933622 -0.8113291 -0.09478005 0.18276268
000010 8b 88 97 3e fd be a4 be cc a1 17 3e fb bb 4f 3f
       0.29596362 -0.32176962 0.14807814 0.8114621
000020 ee b0 46 3f 6d 26 e9 be a2 e7 5b 3f 65 a1 72 be
       0.77613723 -0.4553713 0.8590032 -0.2369438
000030 07 7d 10 3f d6 d3 df bc 49 65 23 bc 70 69 0d 3f
       0.56440777 -0.027322691 -0.009972879 0.5523901

conv1.nn.0.bias f4 [16]
000000 5a df 9b be f9 9e b4 3e 42 d3 0c 3e d6 3d 03 bf
       -0.3044384 0.35277537 0.13752463 -0.5126623
000010 fb 5c 2e 3f 9c 8f 20 3f 94 6c 29 3f 5e b1 56 bf
       0.68110627 0.6271913 0.661813 -0.8386439
000020 b8 b3 66 3e 49 3c 31 3f 36 ce 0c 3e d4 01 80 3f
       0.22529495 0.6923261 0.13750538 1.0000558
000030 b6 a1 bd be 4a bf af bd 95 a3 15 3f f7 8d 18 3f
       -0.37037438 -0.08581407 0.5845273 0.5959162

conv1.nn.1.weight f4 [16]
000000 44 ab 80 3f 0b 9c 7e 3f e3 a8 7e 3f a2 aa 7e 3f
       1.0052266 0.9945685 0.9947645 0.99479115
000010 78 aa 80 3f 43 a2 7e 3f e9 c5 80 3f dd aa 7e 3f
       1.0052023 0.9946634 1.0060397 0.99479467
000020 82 a6 80 3f 6d b2 7e 3f 4b ab 80 3f 29 c8 80 3f
       1.0050814 0.99491006 1.0052274 1.0061084
000030 07 a9 80 3f 17 a3 80 3f 38 cb 7e 3f 98 ab 7e 3f
       1.0051583 1.0049771 0.9952884 0.9948058

conv1.nn.1.bias f4 [16]
000000 3f a7 ac 3b df 83 af bb 77 b3 aa bb 66 b2 ab bb
       0.0052689607 -0.0053562964 -0.005209382 -0.0052397726
000010 f8 7d aa 3b b9 54 ad bb 6b e3 d2 3b 4f a8 aa bb
       0.005203005 -0.0052896407 0.0064358017 -0.005208052
000020 fe d0 a4 3b f6 94 a7 bb d5 9c ab 3b eb 6f be 3b
       0.0050297966 -0.005114193 0.0052372017 0.0058116815
000030 62 39 a9 3b 71 b8 a4 3b 85 8f 9e bb 6b 31 aa bb
       0.0051643113 0.00502687 -0.004838886 -0.0051938794

conv1.nn.1.running_mean f4 [16]
000000 a1 d0 19 40 4f e2 c3 c0 0a 69 1e bf 1d 1b 72 3f
       2.4033587 -6.1213756 -0.61879027 0.9457262
000010 40 bd 42 40 fb 5f f8 bf 7d f5 eb 3f b4 5e b4 40
       3.042801 -1.9404291 1.8434292 5.6365604
000020 64 65 cd 40 c2 3f 3c c0 0c bf df 40 a6 03 64 bf
       6.418627 -2.9413915 6.992071 -0.8906807
000030 f4 44 84 40 f7 90 9b be 2f 44 01 3f 38 1f a0 40
       4.133417 -0.30384037 0.50494665 5.003811

conv1.nn.1.running_var f4 [16]
000000 83 94 e2 3d 37 e8 21 3f 66 69 0d 3c ae 73 03 3d
       0.110634826 0.63244957 0.008631086 0.032092743
000010 58 5c ac 3d 80 ba cb 3d d7 95 ac 3c cc f5 21 3f
       0.08416051 0.099476814 0.021067543 0.6326568
000020 84 2a 14 3f eb 03 4c 3e 5d 7e 35 3f ae f1 5c 3d
       0.57877374 0.1992337 0.7089594 0.05394142
000030 e2 b4 9c 3e bc 06 3c 3a 0b 67 c8 38 b7 1a 96 3e
       0.30606753 0.00071726344 9.5559364e-05 0.29317257

conv1.nn.3.weight f4 [16, 16]
000000 07 97 58 3e e0 9b 39 3e d7 81 25 3e 27 97 94 bd
       0.21151362 0.18125868 0.16162811 -0.072553925
000010 65 45 fb bd 53 ed 80 be 0e 6e 78 be 0a d3 47 be
       -0.12269095 -0.25181064 -0.24260733 -0.19514099
000020 39 36 03 3d 26 e8 8f bd 9d 4d 30 be ec 7e 93 bd
       0.032034133 -0.07026701 -0.17217107 -0.07201943
000030 c7 f8 9d bc 86 de 1c 3e 08 ac 32 3e 3f d1 3a bc
       -0.019283665 0.15319261 0.17448437 -0.011402427
000040 7a 89 b8 bd 2f 68 3c be 80 8e b6 bd 6e c4 ab bd
       -0.090105966 -0.18399118 -0.089138985 -0.08387075
000050 cb 1c 7c bd 20 0a 98 3d fd 83 07 be 3a d8 ac 3d
       -0.061550897 0.07423806 -0.13233943 0.084396794
000060 2a 7b b3 bd f0 e5 fe 3d 6a b1 dc 3d 31 ef 26 3e
       -0.08763726 0.12446201 0.107760265 0.16302182
000070 22 c1 79 bd a0 68 1f 3e 25 e6 ea bd ef 98 03 3e
       -0.0609752 0.15567255 -0.11469678 0.12851308
000080 63 d2 66 3e 19 6c 31 be 49 56 ae bd e7 c3 2f 3c
       0.22541194 -0.17326392 -0.08512551 0.010727859
000090 22 71 98 3d 11 b7 0c 3e 90 21 b4 bc 06 1c f4 bd
       0.07443453 0.1374171 -0.02198866 -0.119194075
0000a0 2a 3b cb 3d ce cb 20 bd 05 16 72 be a9 b2 ae bd
       0.09923394 -0.039256863 -0.23641212 -0.085301705
0000b0 6f 30 30 3e 33 53 e8 bd 04 eb 15 3e dd 70 06 bd
       0.17205976 -0.11343994 0.14640433 -0.03282248
0000c0 30 55 09 bc fa bb 5e be e5 78 20 be 26 04 60 be
       -0.008382127 -0.21751395 -0.15671118 -0.21876583
0000d0 6c 0e 97 bd a4 c5 2c bb db da f0 bb fc b5 29 3e
       -0.07375798 -0.002636292 -0.0073503084 0.16573328
0000e0 8c 52 8d 3c 51 2c 80 3e 9e 23 5c be 5a a2 6a 3e
       0.017251275 0.2503381 -0.21497962 0.22913495
0000f0 10 eb 63 3e 95 4e d0 bd f1 f7 7e 3e 24 b1 a9 bc
       0.22257638 -0.10171238 0.2489927 -0.02071435
000100 95 a5 2e be 7a 12 56 be 4e 8a fa 3d 57 d4 07 be
       -0.17055352 -0.20905486 0.12233411 -0.13264595
000110 e8 ee d5 3c d8 9c 44 be 1b a5 a5 3d d8 be 21 bc
       0.026114896 -0.19200456 0.08088132 -0.009872161
000120 c9 3f f4 bd 26 83 f7 bd 19 55 1f 3e 06 ad 7c be
       -0.119262286 -0.120855615 0.15559806 -0.24675378
000130 63 5a 56 be 01 c0 3c be 6e c0 f8 3d 27 70 36 3e
       -0.20932917 -0.18432619 0.12146078 0.1781622
000140 b3 23 93 3d 16 72 ea bd f3 e3 21 bd 35 f0 b3 bd
       0.071845435 -0.114475414 -0.03952403 -0.0878605
000150 ad 82 84 3d ee a5 90 ba 0d cf dc bd bd 85 b0 bd
       0.06470237 -0.0011035779 -0.10781679 -0.086192586
000160 87 27 3a be 72 26 8f 3d 91 d7 55 bd 6c 4d 13 3e
       -0.18179141 0.06989755 -0.052207533 0.14385003
000170 75 e6 6a 3e a7 04 71 be ac fc 5e bd bf 9c 54 3e
       0.22939475 -0.23536931 -0.054440185 0.20762919
000180 9e 10 8f 3d a4 7a 60 be 2e 86 9d bb 1d ff 82 bd
       0.06985591 -0.21921784 -0.004807255 -0.06396315
000190 f4 38 43 be 98 ec 11 be 52 c9 fa bd 89 73 28 3e
       -0.19064695 -0.1425041 -0.1224543 0.16450323
0001a0 35 a4 0f be 92 55 12 bd ab ab 53 be d5 d8 04 3e
       -0.14027484 -0.035726137 -0.20670955 0.1297334
0001b0 c8 c1 48 3d 46 ac ff bd 77 9c 96 3c 15 78 0b 3e
       0.04901293 -0.124840304 0.018385155 0.13620026
0001c0 a5 1c 06 be 44 6e 07 be 38 72 68 3e 97 e2 5d be
       -0.13096865 -0.13225657 0.22699821 -0.21668468
0001d0 13 e7 52 3e 8a 28 12 3e f7 ef 18 bd 9b d1 40 3e
       0.2059596 0.14273277 -0.037338223 0.18829958
0001e0 f2 5d e1 3d 0e c2 6d be 74 88 56 bd 12 68 3c 3e
       0.11004247 -0.23218557 -0.052376226 0.18399075
0001f0 de 08 03 be 57 76 e0 3d ed f4 20 bc 63 ad 4b be
       -0.12796351 0.109600715 -0.00982402 -0.1989036
000200 6d 62 37 3d 77 46 17 be bb 5e 2f be f1 f8 70 be
       0.0447716 -0.14772974 -0.1712598 -0.23532464
000210 88 bd 2e be 38 99 f8 3c d5 83 b2 bc 23 0d 59 be
       -0.17064488 0.030346498 -0.021791378 -0.21196418
000220 b4 c4 2d bd 1d b5 c4 3d 82 f7 5b 3e 74 71 4d be
       -0.04242392 0.09604857 0.21481135 -0.2006281
000230 56 48 c8 bc 6d 57 15 3e 85 fa 7a bd 83 cd c6 bd
       -0.024448555 0.14584132 -0.06127407 -0.09707167
000240 93 b4 d5 3d ae 77 2a be 71 a4 cd bd f4 1f 31 be
       0.104348324 -0.16647217 -0.1004113 -0.17297345
000250 b7 8a aa 3d 2c 09 58 3e d6 f4 b9 3c 76 54 00 be
       0.08327239 0.21097249 0.022699755 -0.1253222
000260 46 ee de 3c 02 cd 20 3e c9 0a 71 3e 90 d0 a5 3d
       0.027213227 0.15703204 0.2353927 0.08096421
000270 c5 45 20 3e 9e 43 80 be 59 4f 3a 3e 0a aa 76 be
       0.15651615 -0.25051588 0.18194331 -0.24088302
000280 0f 86 1c 3e ae 78 70 3e df e9 31 3e 35 5f c1 3c
       0.15285514 0.23483536 0.17374371 0.023604969
000290 53 00 6a 3e bf a0 2d bd 29 da 1f be 98 50 53 3e
       0.22851686 -0.042389628 -0.15610565 0.20636213
0002a0 c1 5e 3a be 11 58 bc 3d 71 19 6f be 5f 6f a2 bd
       -0.18200208 0.09196485 -0.23349549 -0.079313986
0002b0 53 ef 54 3e 80 32 8c bd 70 32 37 be 8e b4 37 3d
       0.2079442 -0.068455696 -0.17890334 0.044849925
0002c0 3d 90 51 3e 80 c2 36 3e 46 21 7f 3d bd 45 ec bd
       0.20465179 0.17847633 0.06228759 -0.11536739
0002d0 c0 a4 a3 3d 62 9f 31 3e 31 bd b6 3d 90 bc 2b bd
       0.07990408 0.17345956 0.08922804 -0.041927874
0002e0 78 52 ed bd 35 2d 07 be b7 6a fb 3d 07 6a 4e be
       -0.11587995 -0.13200839 0.122762136 -0.20157634
0002f0 44 5c be 3c f0 b6 60 3e 46 95 58 be d7 20 cc bc
       0.023237355 0.21944785 -0.21150693 -0.024918003
000300 55 ca 7a 3e 22 79 23 3e a3 7a 00 3e c9 21 5c 3e
       0.24491246 0.15964177 0.12546782 0.21497263
000310 55 4f 4a be 3a 0f 79 be ed 2b 19 bd 45 f6 5c 3a
       -0.19756825 -0.24322215 -0.037395407 0.0008429031
000320 5e b9 c5 bd 13 2a 67 bd 57 90 5c 3e ce ef 14 be
       -0.096544966 -0.05643661 0.21539436 -0.14544603
000330 23 0b 0d bd fb f1 02 3e ee 50 d3 bd af 48 e0 3d
       -0.03443445 0.1278762 -0.103181705 0.10951363
000340 ca ed 8e bd c4 b8 a0 bd 35 5f 9c bd f4 79 42 bb
       -0.069789484 -0.07847741 -0.07635347 -0.002967474
000350 6c 0e 1e 3e 55 d2 32 3e 1d 4d 14 3e bb fe 84 3d
       0.15435189 0.17463048 0.14482541 0.064938985
000360 f3 ca 14 3e dd 1d 7c be 9f ba 4f bb 3d 1b f0 ba
       0.14530544 -0.24620767 -0.0031696928 -0.0018318665
000370 0e e7 ea bd f8 50 08 3e 0c dc dc bd 3f 04 73 3e
       -0.114698514 0.13312137 -0.10784158 0.23732089
000380 4a d5 4d 3e 36 80 a2 3d f8 a8 a1 3b 09 60 9a 3d
       0.20100895 0.079346105 0.0049334727 0.075378485
000390 89 95 75 b8 da 84 c9 3d 4e 58 6c 3b 76 91 7a 3e
       -5.8551817e-05 0.098397925 0.0036063376 0.24469551
0003a0 64 26 2e bd cd 39 4d 3e ae 86 12 be da 30 41 be
       -0.04251708 0.2004158 -0.14309189 -0.18866292
0003b0 e8 ce 05 3e 10 1d e1 3d 04 73 14 be 0e 95 1c 3e
       0.1306721 0.10991871 -0.14497 0.15291235
0003c0 04 2b 79 3e 99 1b f9 3b 72 c1 5c 3e be d1 01 be
       0.24332815 0.007602167 0.21558169 -0.12677667
0003d0 7c 24 72 3e ad e3 fb bd 68 d6 a4 bd 1c 36 f1 bd
       0.2364673 -0.12299285 -0.08048707 -0.11777899
0003e0 a9 a8 1b 3b 7a dc 68 3e ca 24 0f 3e db 1c c7 3c
       0.0023751652 0.22740355 0.13978878 0.024305752
0003f0 e4 66 e1 bd 1d 03 27 be 2f 93 a9 bd 90 c5 83 3d
       -0.11005953 -0.16309781 -0.08280026 0.064341664

conv1.nn.3.bias f4 [16]
000000 6b 24 22 3e 29 50 0d bd 72 b1 2e bd da a1 a4 3d
       0.15834205 -0.034500275 -0.042649694 0.08038683
000010 e8 de 9d 3d 44 75 c5 bd 89 f0 70 3e 35 d9 f1 bd
       0.077085316 -0.09641507 0.23529257 -0.11809007
000020 60 76 63 3e 5d 2a cf bd 72 a5 7d bc 05 2c f2 bd
       0.22213125 -0.10115502 -0.01548134 -0.11824802
000030 c6 fb e3 3d 3b f1 0d bd 4e 6b 57 3d 26 c2 97 bd
       0.11132006 -0.034653883 0.052592568 -0.07410078

conv1.nn.4.weight f4 [16]
000000 c0 ad 7e 3f ca aa 80 3f 58 ac 80 3f 5d aa 80 3f
       0.9948387 1.0052121 1.0052595 1.0051991
000010 e8 ac 80 3f d0 a9 80 3f 11 a6 7e 3f c0 a9 80 3f
       1.0052767 1.0051823 0.9947215 1.0051804
000020 91 aa 7e 3f bd aa 7e 3f f5 a9 80 3f 75 a7 7e 3f
       0.99479014 0.99479276 1.0051867 0.9947427
000030 50 ac 7e 3f 6d aa 80 3f 58 a6 7e 3f 0f aa 80 3f
       0.9948168 1.005201 0.9947257 1.0051898

conv1.nn.4.bias f4 [16]
000000 23 27 a9 bb 57 28 ab 3b 1c d1 ab 3b df a6 aa 3b
       -0.005162136 0.0052233147 0.0052434336 0.005207881
000010 10 4e ac 3b 62 ac a9 3b 90 67 ac bb 0e ec a9 3b
       0.005258329 0.0051780203 -0.005261369 0.0051856106
000020 cb 0f ab bb ec f7 aa bb 75 cb a9 3b a7 be ab bb
       -0.0052203885 -0.005217543 0.0051817247 -0.0052412334
000030 b2 af a9 bb 2e 31 aa 3b 2d 3a ac bb 37 e1 a9 3b
       -0.005178415 0.005193851 -0.0052559585 0.0051843184

conv1.nn.4.running_mean f4 [16]
000000 2f 21 00 bb c0 e3 83 bd a0 15 84 bd b0 fe 04 3e
       -0.001955103 -0.06439924 -0.06449437 0.1298778
000010 f0 dd be be 9e 3a 37 be f9 0d cf bd 19 c2 cf bd
       -0.372787 -0.17893454 -0.10110087 -0.10144443
000020 78 2b 43 be a0 af 83 ba a5 4b 45 3e ab 48 25 3d
       -0.19059551 -0.0010046847 0.19267137 0.040352505
000030 b1 d7 80 3e 02 f8 11 3e ac aa de 3e 68 a3 d5 3d
       0.2516456 0.14254764 0.43489587 0.10431558

conv1.nn.4.running_var f4 [16]
000000 e3 2f 41 3e c6 76 ef 3c 3a c8 20 3d b2 2e 11 3d
       0.18865924 0.02923144 0.03925345 0.035444923
000010 64 71 8e 3d d6 59 a3 3c 17 bb af 3b 5f c6 9a 3d
       0.06955221 0.019940298 0.005362879 0.075573675
000020 1b e1 bc 3c db b9 d8 39 83 30 0b 3c 58 e9 bf 3b
       0.023056557 0.00041337204 0.008495453 0.005856674
000030 7a 00 9f 3d 32 6d 14 3e df 87 7f 3d da 0a f8 3b
       0.07763763 0.1449478 0.062385436 0.007569653

convs.0.nn.0.weight f4 [16, 16]
000000 66 49 7d bc a7 3b b7 3d f8 dc 03 3d cd 91 12 3e
       -0.015459394 0.08946925 0.032193154 0.14313431
000010 77 a0 fd bd 65 62 f6 bd d2 b2 17 3d 0e f7 31 bc
       -0.12384122 -0.12030486 0.03703577 -0.010862125
000020 e0 af 30 3d 9b 3b d3 bd 1e 0b 7a 3c d5 62 38 3e
       0.043136477 -0.10314103 0.01526144 0.18006451
000030 d4 15 62 be c0 e2 3e be 3d ac aa 3c 25 6a c9 bd
       -0.2207864 -0.18641186 0.020834083 -0.098346986
000040 cf 8a 7f 3c 3e 89 ec bd 86 34 30 3d 40 f5 37 be
       0.015597059 -0.11549614 0.04301884 -0.17964649
000050 9b 7f 2d 3e b1 99 75 be 9c 91 48 3e 8f a0 80 bd
       0.16943209 -0.2398441 0.19586796 -0.06280624
000060 8f 7d 74 3e 51 2f ee bd 75 47 f3 bd 04 01 75 be
       0.23876022 -0.11630119 -0.11878864 -0.23926169
000070 15 a0 f8 bd 1b 9e 93 bd bc a5 8e 3b 8d 5d 4a 3c
       -0.12139908 -0.072078906 0.004353253 0.012351406
000080 35 54 4d be e9 31 3d 3e 04 35 50 3d fd e0 a4 3d
       -0.20051654 0.1847607 0.05083181 0.080507256
000090 94 ef 8f bd 5c 53 40 be 43 5d 47 3d 91 4b 0d be
       -0.07028118 -0.18781799 0.048672926 -0.13798358
0000a0 c1 bf dd 3d 7e 74 f0 3d 7e 11 48 3e c9 85 1e 3e
       0.1082759 0.11740969 0.19537923 0.15480722
0000b0 6c 56 53 3e 2b 5f 11 3e 82 fc 2b 3e a7 82 0a be
       0.20638436 0.1419646 0.16795543 -0.13526402
0000c0 7c fd 2b 3e 04 9b 6f bd 87 ab 8f 3d b9 72 7d 3e
       0.16795915 -0.058497444 0.07015138 0.24750794
0000d0 f0 49 06 be b1 22 36 be 3b 36 5d 3e 39 df 69 3e
       -0.13114142 -0.17786671 0.21602719 0.22839059
0000e0 24 53 03 3e 47 7e 12 3c 62 f5 a0 3c fb a0 5c be
       0.12824684 0.00894124 0.019648258 -0.21545784
0000f0 96 1c 34 3e 03 48 62 bd a8 20 7b be 1d 99 28 3d
       0.1758903 -0.055244457 -0.24524176 0.041161645
000100 9a 94 a2 3d 2b 32 23 be 47 f0 a0 bd f7 b5 c9 bd
       0.079385 -0.15937106 -0.07858329 -0.0984916
000110 2a 5f 5a 3c 92 01 37 3e 57 d3 25 3e f5 58 47 3e
       0.013328353 0.17871693 0.16193901 0.19467528
000120 cf d4 e3 3c 87 60 05 bc 46 6e 52 be e3 48 9c 3d
       0.027811436 -0.00814069 -0.20549878 0.076310895
000130 18 75 c3 3c 6f 91 e3 bd b1 3a 2e 3d 4b 9c 6d 3e
       0.023859546 -0.11111724 0.04253644 0.23204152
000140 28 21 04 be 72 d9 7d 3e 56 94 10 3e 24 6b db bd
       -0.12903273 0.2478998 0.14119086 -0.10713795
000150 4a ed ec bd d9 2f ba bb 71 b6 7d 3d 23 3e 4a 3c
       -0.11568697 -0.0056819734 0.061941568 0.012343916
000160 94 97 57 3e b1 e4 8b bc d2 2e 07 be c5 91 36 3e
       0.21053916 -0.017076822 -0.13201454 0.17829044
000170 8e 64 3b bb f6 4e 0b be 8c 2e 62 be fc 9a c0 bc
       -0.002859387 -0.1360434 -0.22088069 -0.023511402
000180 91 c6 2d bc a7 78 49 3e 47 92 50 be 22 47 1a 3e
       -0.010606424 0.19674931 -0.203683 0.15066198
000190 a5 8e 77 be 0c 73 58 bd 11 64 74 3e 45 4f b1 3d
       -0.24175508 -0.052844092 0.23866297 0.086576976
0001a0 70 4e 35 be 09 ba 2c be 32 1b 7a bd d9 ec 3f 3e
       -0.17705703 -0.16867842 -0.06106109 0.18742694
0001b0 9d a1 2f 3d a1 e4 b1 bd bb d8 65 3e 96 22 88 bd
       0.042878736 -0.08686186 0.22445957 -0.06647222
0001c0 d5 f3 d1 3d cf 2f 6a be cc e0 1b 3d 4f 79 21 3e
       0.102515854 -0.228698 0.03805618 0.15768932
0001d0 7c 99 6b be 4d 7f 30 be a0 24 56 3e a0 7b c9 3c
       -0.23007768 -0.17236061 0.20912409 0.024595082
0001e0 99 52 ef bd d9 fc a9 bc 87 7c 09 be de 85 82 3e
       -0.11685676 -0.02075045 -0.1342641 0.25492758
0001f0 ad 1f 74 3e 50 51 6f 3e 79 3d a1 bd 60 c9 dc 3c
       0.23840208 0.23370862 -0.07873053 0.026951492
000200 02 37 07 3e 1a f7 44 bd 4e a4 61 3e 8d 3f 52 be
       0.13204578 -0.048087217 0.22035334 -0.20532055
000210 f0 ba f9 3c f2 f7 77 3d 1c 74 ce bd b0 05 e7 3c
       0.030484647 0.060539193 -0.1008074 0.028200954
000220 d6 66 43 3e 4d 54 0c 3e 8b c7 c4 3d 55 78 2e 3d
       0.19082198 0.13704033 0.09608372 0.042595226
000230 8a 3e 0d bc e3 0f 28 3e 84 f7 2c be bf 48 d0 3c
       -0.0086208675 0.1641231 -0.16891295 0.025425313
000240 83 0c d8 3d 39 a9 41 be de 4a 1d 3e 2f 1c 80 be
       0.105492614 -0.1891221 0.15360591 -0.25021502
000250 d9 81 f1 3d ee 0a 82 bd 40 34 4c 3e 92 07 1f 3e
       0.117923446 -0.06349741 0.19941807 0.15530232
000260 16 81 29 3b 9a 80 2c 3d a9 2e 60 bd 44 47 13 be
       0.0025864295 0.04211483 -0.054732 -0.14382654
000270 38 74 93 3c 7d 73 12 3e f7 23 5d be 27 e8 da 3b
       0.017999753 0.14301868 -0.21595751 0.0066805067
000280 5a 79 48 bc 97 94 b6 3d a0 44 31 3e d9 13 2e be
       -0.012235964 0.0891506 0.17311335 -0.16999759
000290 d2 59 07 3d e9 51 a3 bc a5 54 36 3e 97 6e a5 bd
       0.033044644 -0.019936519 0.17805727 -0.08077734
0002a0 05 cb 00 3c a8 4a df bd fb ed 2d be c0 55 c4 bd
       0.007860904 -0.109029114 -0.16985314 -0.09586668
0002b0 d9 cb ce 3b e9 22 20 be 41 08 9b 3d 25 13 70 be
       0.0063109216 -0.15638317 0.07569934 -0.23444803
0002c0 bd 3c 97 bd 27 ae 64 be 44 fa 5d 3c b8 c1 17 3e
       -0.07384632 -0.22332059 0.0135484375 0.14819992
0002d0 33 40 c2 3a 67 66 43 3e c0 ae 85 bb 41 89 65 3e
       0.0014820158 0.19082032 -0.0040796697 0.2241564
0002e0 db 91 36 be 16 2a 18 3e 99 17 4a bc 8b 09 1f 3d
       -0.17829077 0.14859805 -0.012334728 0.03882746
0002f0 f7 63 50 3e e8 55 8f bd 96 68 d5 bd b0 c4 fa 3d
       0.20350634 -0.06998807 -0.10420339 0.122445464
000300 b5 24 9e 3c 4d 4c 37 3e ba f9 00 3e ee e6 eb bd
       0.019304613 0.179002 0.12595263 -0.11518656
000310 7f 16 03 3e 82 c2 d5 bc b3 9b ee 3c 8b e8 57 bd
       0.1280155 -0.026093725 0.029126978 -0.052712005
000320 cc 33 1a 3e 96 d2 b3 bd d0 10 0c 3e 74 cd 45 3e
       0.15058821 -0.087804005 0.13678288 0.19316655
000330 58 94 23 3d b7 8c 56 be 44 2b 0c be 82 6e b4 3d
       0.039936393 -0.20952116 -0.1368838 0.0881014
000340 db 1a 49 3e 95 e8 65 3e 75 a6 db bd 8b f3 a8 bd
       0.19639151 0.22452004 -0.107251085 -0.08249577
000350 86 67 1d 3e 31 0c 22 3d 1d 9b cb bc 1c 4d 09 be
       0.15371522 0.039562408 -0.024854237 -0.13408321
000360 6a b8 21 be 09 c2 45 be 4f ab fb 3c 50 35 15 3e
       -0.15793005 -0.193123 0.030721335 0.14571118
000370 23 3b 7a 3e 4c 11 b3 3c 65 15 25 3e d2 6c 61 3e
       0.24436621 0.021858834 0.16121443 0.22014168
000380 2f fa 4b 3e e9 d1 e9 bd a3 b2 83 3c 4a b7 fb bd
       0.19919656 -0.1141699 0.016076392 -0.12290819
000390 5d 6f 8e bd 03 af 51 3e 09 fd 1c 3e 11 d5 8f bd
       -0.069548346 0.20476918 0.153309 -0.07023061
0003a0 2c 03 ef 3c 02 10 7c be bb fa 53 bc b7 ae 13 3e
       0.029176317 -0.24615481 -0.012938197 0.14422117
0003b0 24 84 6a be d8 0d 0e be 26 17 c9 3b 09 ed 64 3d
       -0.2290197 -0.13872468 0.0061367927 0.055890117
0003c0 4a f0 4c bd d9 b2 4d be 6b 0e 85 bd 4b 78 7c bd
       -0.050033845 -0.20087756 -0.06496891 -0.061638158
0003d0 4a 75 47 be c4 4a 6a 3e df c7 6d 3e 43 9f 78 3e
       -0.19478336 0.22880083 0.23220776 0.24279504
0003e0 02 a7 75 be 1f d2 66 bd 35 e5 8f bd 8a c7 b7 bc
       -0.2398949 -0.05635273 -0.0702614 -0.022434015
0003f0 de 9e 01 3e f4 5a b1 bc 86 bf 64 3e e3 6a 7d 3c
       0.1265826 -0.021649815 0.22338685 0.015467378

convs.0.nn.0.bias f4 [16]
000000 90 99 46 be 6c 72 f2 3d 1c dd 7a 3e 7a 28 2c be
       -0.19394517 0.118382305 0.24498409 -0.16812316
000010 8f 0e 75 3d 80 13 af bd bc 58 a7 3d 17 0d ef 3c
       0.059828337 -0.08548641 0.081712216 0.029181046
000020 73 5c 0e 3e da 21 09 be ef 66 21 bd 1a 72 5c 3e
       0.13902454 -0.1339182 -0.039404806 0.21527901
000030 21 a6 90 bc 83 ae 8c 3d a6 ac 7e 3d 5f ad 15 3e
       -0.017657341 0.06869223 0.06217637 0.14616917

convs.0.nn.1.weight f4 [16]
000000 e7 ff 7c 3f b7 93 81 3f 12 7a 81 3f 23 ed 7c 3f
       0.98827976 1.0123204 1.0115378 0.9879934
000010 f0 72 81 3f 4f 11 7d 3f c8 7f 81 3f 1a 87 81 3f
       1.0113201 0.98854536 1.0117121 1.0119355
000020 12 81 81 3f e3 7d 81 3f 87 f6 7c 3f 62 f1 7c 3f
       1.0117514 1.0116543 0.9881367 0.9880582
000030 06 1f 7d 3f 8f c2 7c 3f 6f 7e 81 3f 62 05 7d 3f
       0.98875463 0.9873437 1.011671 0.9883634

convs.0.nn.1.bias f4 [16]
000000 1d 48 3c bc 07 c7 48 3c ce 06 41 3c db 77 41 bc
       -0.0114918025 0.012254483 0.0117814075 -0.011808361
000010 42 89 3c 3c 32 41 39 bc e2 df 37 3c 72 30 47 3c
       0.011507334 -0.011307048 0.011222811 0.012157546
000020 ef 92 45 3c 64 37 42 3c 9d d5 3e bc 42 d1 45 bc
       0.0120589575 0.0118540265 -0.011647609 -0.012073817
000030 e7 c1 38 bc de 8a 5a bc 64 d3 41 3c f8 2d 43 bc
       -0.011276699 -0.013338773 0.011830185 -0.011912815

convs.0.nn.1.running_mean f4 [16]
000000 6b 9f e5 bf 9d 15 15 c0 23 3c 50 40 6f d1 67 3f
       -1.7939276 -2.3294442 3.2536705 0.90553945
000010 3e 5e ca 3f f5 f4 f5 be 02 65 a0 3d e5 1d a8 3f
       1.581001 -0.4803845 0.07831766 1.3134123
000020 35 9c 27 40 4d d3 82 3d dc 6f ff bf ac ee 04 40
       2.6189091 0.06387959 -1.9956012 2.0770674
000030 3e 25 f0 3f 37 72 59 40 5c 5d 1d bf 40 27 40 3f
       1.8761365 3.3975961 -0.6147058 0.7505989

convs.0.nn.1.running_var f4 [16]
000000 32 cc 30 41 3a 9b e5 40 51 8d d8 40 3c 7e 9f 41
       11.049852 7.1751986 6.7672505 19.936638
000010 42 48 a5 3f 66 80 96 40 d2 c9 bd 40 45 05 02 40
       1.2912676 4.7031736 5.9308863 2.0315716
000020 ea ca a4 40 c0 64 93 3f 42 6d 56 40 d0 f3 bb 40
       5.14977 1.1515121 3.3504186 5.8735123
000030 6a 09 69 3f 99 83 5c 41 7f 4e 1f 40 9d 5c b9 40
       0.9102999 13.782128 2.489166 5.7925553

convs.0.nn.3.weight f4 [16, 16]
000000 11 37 63 3e 22 38 72 be 23 3d 3d be 3a fd 14 3e
       0.22188975 -0.23654225 -0.18480353 0.14549723
000010 66 a3 20 be 2f 2f ee 3c b8 1c 3d be 01 25 a9 3d
       -0.15687332 0.029075233 -0.18467987 0.08259011
000020 39 e0 4d bd a5 66 3e 3e e3 42 e9 bd 3a d7 a9 bd
       -0.050262664 0.18593843 -0.11389711 -0.08293004
000030 fe d5 43 3e fe a7 1c 3e 9b 37 7e bd 1b 69 be bd
       0.191246 0.15298459 -0.06206475 -0.09297391
000040 27 c3 31 be c6 21 83 be 8f a4 6e 3e 39 02 39 3e
       -0.17359601 -0.25611705 0.23304962 0.18067254
000050 f7 60 47 be 25 00 7d be 41 94 0b 3e 21 43 ed bd
       -0.19470583 -0.24707086 0.13630773 -0.115850694
000060 d1 36 97 3c a9 3f 99 3d 3b 16 67 3e 71 b9 cf bd
       0.018458756 0.07482845 0.22567074 -0.10142792
000070 c7 6b b4 3d b4 1e 68 3e 8a cd 2b bc 2a ee c0 bd
       0.088096194 0.22667962 -0.010486016 -0.09420426
000080 42 b8 6e bc db 83 4d 3e b5 30 ec 3c 70 3b 75 3e
       -0.014570298 0.2006983 0.02883182 0.23948455
000090 e1 55 12 3e 67 ad 0c 3e 2b ad 60 be 92 6a 41 be
       0.14290573 0.13738023 -0.21941058 -0.1888831
0000a0 90 8d df 3c 67 ef 3a be 46 e8 3e be 1e 21 04 bd
       0.027289182 -0.18255387 -0.18643293 -0.032258146
0000b0 db e2 3a be 35 db dc 3d 96 ed cd 3d 97 55 58 3e
       -0.18250601 0.10783998 0.100550815 0.211264
0000c0 e9 93 fb 3d e5 77 2e 3e 39 69 63 3e 04 59 1d be
       0.12284071 0.17037924 0.22208108 -0.15365988
0000d0 ed d7 56 3d 04 b1 2b 3d 52 74 14 3d a6 ea 52 3e
       0.052452017 0.041916862 0.036243744 0.20597324
0000e0 51 a4 c1 bc 93 7f 2f bd 9e 6d 81 3e 36 b0 fa bd
       -0.023637922 -0.042846274 0.25278944 -0.12240641
0000f0 b3 59 2b 3e 14 22 69 be 9e 2c ad 3d 8b 19 80 bd
       0.16733436 -0.22766906 0.08455776 -0.06254872
000100 f3 34 1c 3e d5 f2 13 3e b7 0d 1a be 3e ec 12 3e
       0.15254574 0.14448102 -0.15044294 0.14347932
000110 1d 4c 7b bd 7d d3 93 bd ea a8 37 be 73 0b 6c 3e
       -0.061351884 -0.072180726 -0.1793553 0.23051243
000120 84 07 5a 3d 18 c3 21 be 20 bd 9c 3d 03 f5 67 3d
       0.053229824 -0.15797079 0.0765326 0.056630146
000130 64 04 28 3e 9c b0 6e be 07 97 dd 3d 7e 84 95 3d
       0.16407925 -0.23309559 0.10819822 0.073006615
000140 dd 47 60 be c9 6c 45 bc 84 89 c9 bd e8 18 3e bd
       -0.21902414 -0.012049862 -0.09840682 -0.04641047
000150 31 95 20 be 65 aa f2 bd 7c 4c d7 bd 36 ae 71 3e
       -0.15681912 -0.118489064 -0.10512635 0.23601612
000160 39 51 bd bd 08 93 e1 bb ba 4e de bc 78 2c 14 be
       -0.092440076 -0.0068839826 -0.02713715 -0.14470088
000170 40 57 17 be 39 1f 13 3e a9 fe 49 3c 01 24 bd 3d
       -0.14779377 0.14367379 0.012328782 0.09235383
000180 ef 0b 87 bd cf dc 71 3e 1f 44 6f 3e 6f a4 32 be
       -0.06594073 0.23619388 0.2336583 -0.17445539
000190 41 29 2f be 2c e9 46 be ae d8 70 3e 93 2c a7 3d
       -0.17105581 -0.19424886 0.23520157 0.08162799
0001a0 7e 4c 8c 3b 8a 4c 7e 3e b3 1b 02 be c6 86 e9 3d
       0.0042815795 0.24833885 -0.12705879 0.11402659
0001b0 13 00 ed 3d ad 42 1b be 4d 92 64 3e c0 be 1d 3e
       0.1157228 -0.15162154 0.22321434 0.15404797
0001c0 07 b1 c5 bb 3a 19 89 bd 48 3d 97 bd cc 2d 17 3b
       -0.006033066 -0.06694265 -0.07384735 0.0023068069
0001d0 03 fb d6 3d 29 5a 25 be 2c 5d 7e be 98 22 c0 3d
       0.104970954 -0.16147675 -0.2484023 0.09381598
0001e0 4a a0 5a 3e e9 1f 76 3e f5 05 60 3e 92 55 a9 3d
       0.21350208 0.2403561 0.21877272 0.08268274
0001f0 7d 25 5d 3e dc 3e ad bd 3b f5 e7 bd b6 12 fc 3d
       0.21596332 -0.08459255 -0.11326071 0.12308256
000200 0b 21 28 3d a6 1f 13 3e cd d2 33 be 5e da 63 3e
       0.041047137 0.14367542 -0.17560883 0.22251269
000210 08 22 80 3c 47 10 b5 bc 51 fc 51 be 48 00 00 be
       0.015641227 -0.022102488 -0.20506407 -0.12500107
000220 74 86 83 3d 16 64 c9 3d 37 e3 0d be f8 d9 fc 3b
       0.06422129 0.09833543 -0.13856207 0.0077164136
000230 45 56 14 be a7 5f a2 bd 3d c6 2e be 91 97 1b be
       -0.14486034 -0.079284005 -0.1706781 -0.15194537
000240 2b a9 64 3e 42 89 47 3e e1 34 ed bd 45 dd cf 3d
       0.22330157 0.19485953 -0.115823515 0.10149626
000250 8d 44 4f 3d 88 36 4b 3e b7 af c4 bd ea fe 3b 3d
       0.050602484 0.19845021 -0.096038274 0.045897402
000260 26 e3 3e 3e 81 8a 44 3e f6 6a f8 bd 11 ea 39 3e
       0.18641338 0.1919346 -0.12129776 0.18155695
000270 3b c3 41 3e 2a d3 49 be 5e d4 6c 3e 70 3b 6f 3e
       0.18922131 -0.19709459 0.23127887 0.23362517
000280 32 0b b9 3d 5c ef 10 3d a5 e5 c1 3c 3e 5b 42 be
       0.090353385 0.03538452 0.023669073 -0.18980119
000290 64 8b 57 be b5 46 fa 3d 0f bc 2e 3e c4 af 06 be
       -0.21049267 0.122205175 0.17063926 -0.13152987
0002a0 0d 52 2a 3e c9 31 73 3e 8b 71 2e be b4 9a 49 bc
       0.16632862 0.2374946 -0.170355 -0.0123049505
0002b0 ef 8a 38 be d6 b9 ea 3d ff fd 02 3d 9b d4 5e be
       -0.18021749 0.11461227 0.03198051 -0.2176079
0002c0 a0 ea eb 3d 6b 15 d9 3d bf 8f 66 3e 67 dc fe 3d
       0.115193605 0.10599788 0.22515772 0.12444382
0002d0 20 fd 08 bb d4 1f 35 be 9d 53 35 3d e0 d7 77 3e
       -0.0020902827 -0.17687923 0.044269193 0.24203444
0002e0 5c 23 70 3e 7b 87 da 3d 64 5e 48 3e c9 77 df 3c
       0.23450989 0.10670372 0.19567257 0.027278798
0002f0 59 15 16 3e fb 13 0d be b1 7f 1d 3d 58 a7 32 bd
       0.14656581 -0.13777153 0.038451854 -0.043616623
000300 9f 43 2f 3e af 7d ab bd ef b7 38 3e e6 d3 d7 3d
       0.17115639 -0.083735816 0.18038915 0.10538463
000310 92 59 3b 3e 07 f3 5f 3e 85 5a 98 bd be 2c 38 3e
       0.18295887 0.21870051 -0.0743914 0.17985818
000320 f6 c0 ab 3d f0 3b fe 3d d4 19 02 3e d1 59 ef bd
       0.08386414 0.12413776 0.12705165 -0.11687053
000330 4d 9f 36 bd 77 e5 dc bb 08 71 9b 3d 42 df 11 bd
       -0.044585515 -0.0067412215 0.075899184 -0.035613306
000340 b9 a1 73 be c8 1a 1a be ae 7c 59 3e 39 ce 3d be
       -0.23792161 -0.15049279 0.21238968 -0.18535699
000350 fa 32 66 3d a8 32 54 3e 8b 38 d3 3b 41 a9 00 be
       0.05620096 0.20722449 0.0064459494 -0.12564565
000360 d8 76 e5 3d d5 48 e2 bd 85 0e 09 ba 19 71 e4 3d
       0.11204308 -0.11049048 -0.0005228299 0.11154384
000370 64 9a 69 be c3 2a 2f bb ce 28 d1 bd f6 18 5a 3e
       -0.22812802 -0.0026728369 -0.10212861 0.21298584
000380 3a ed c3 bc 64 46 a9 bd f7 a5 64 bd d9 de ee bd
       -0.02391683 -0.08265379 -0.05582234 -0.116635986
000390 3c ba 21 be e9 d6 12 3e be 2d 5c be e6 bb bc 3d
       -0.15793699 0.14339794 -0.21501824 0.09215526
0003a0 89 de 47 be 8e 5e 43 be a9 1f 1a 3e 96 3f 6f 3d
       -0.19518484 -0.19079039 0.1505114 0.05841025
0003b0 c0 78 f4 3c 5b 4e 82 3d a6 2b 80 3c 98 7c 16 3d
       0.029842734 0.06362601 0.015645813 0.036739916
0003c0 09 24 39 be 91 dc 84 3d 6a c4 22 be b5 6b ca bc
       -0.18080153 0.06487382 -0.15895239 -0.024709562
0003d0 0d eb e8 3c c5 65 82 bd e9 e5 68 3e ba 99 50 be
       0.028432393 -0.06367067 0.22743954 -0.20371142
0003e0 0b ff 7c be 2e e3 fc 3d a0 c3 03 be f4 66 4a 3e
       -0.24706666 0.123480186 -0.12867594 0.19765836
0003f0 6d 5e 7d bc 37 25 9a 3d c8 ef 87 bc d2 1c 3e 3d
       -0.015464407 0.075266294 -0.016593829 0.046414204

convs.0.nn.3.bias f4 [16]
000000 af 83 21 bd 8e 80 2f be 17 9c 10 3e 2f cb d1 3d
       -0.039432224 -0.17138883 0.14122044 0.10243832
000010 d7 7a 9f 3d 2b 0b ec 3d 17 29 5d bc 8f 75 67 be
       0.07787102 0.115255676 -0.013498566 -0.22603439
000020 5e ab 22 3c 58 b7 db bc 5b 79 fc bc b9 cb 78 3e
       0.009928552 -0.026820824 -0.030819586 0.24296464
000030 23 2c 56 be e8 37 aa 3d 25 55 3d 3e eb 5f e6 3c
       -0.20915274 0.083114445 0.18489511 0.02812191

convs.0.nn.4.weight f4 [16]
000000 08 8f 7f 3f ab 93 81 3f 8d bc 7f 3f 82 be 7f 3f
       0.99827623 1.012319 0.9989708 0.99900067
000010 ce ce 80 3f 2e d3 7f 3f 20 10 81 3f ed 37 80 3f
       1.0063112 0.9993161 1.0083046 1.0017067
000020 19 8e 7c 3f 7c 03 80 3f 4d 0a 7d 3f 7e 10 80 3f
       0.98654324 1.0001063 0.9884384 1.0005033
000030 24 6c 80 3f 22 24 80 3f b6 b5 80 3f f9 84 7c 3f
       1.0033002 1.0011027 1.0055454 0.986404

convs.0.nn.4.bias f4 [16]
000000 e5 db f7 ba e0 af 4d 3c 85 60 a3 ba c9 09 b1 ba
       -0.0018910138 0.012554139 -0.0012464678 -0.0013506945
000010 27 1a de 3b d2 5b 0f ba a4 62 0d 3c f4 3b e1 3a
       0.00677802 -0.00054686994 0.008629475 0.0017184005
000020 13 2b 5a bc b6 c2 e2 38 96 23 41 bc 16 c0 1e 3a
       -0.013315934 0.000108127875 -0.0117882695 0.0006055845
000030 f6 0d 90 3b b0 12 71 3a ac d6 c4 3b 7d 40 62 bc
       0.0043961955 0.0009196205 0.006007036 -0.0138093205

convs.0.nn.4.running_mean f4 [16]
000000 7f d5 09 be 7e 72 3a be e0 e4 71 3e 7d d9 ee 3e
       -0.13460349 -0.18207738 0.23622465 0.46650305
000010 c8 13 80 3e 68 38 61 be 75 92 bc 3e a2 fc e0 3c
       0.25015092 -0.21994174 0.36830488 0.027464215
000020 fb 82 98 be 89 13 33 3f c4 82 b5 bd 1f a1 5b 3f
       -0.2978743 0.69951683 -0.08862832 0.85792726
000030 85 92 a4 3e 76 4a bd bc 20 5c 27 bd 89 d7 e5 bd
       0.32143036 -0.023106795 -0.04085934 -0.11222751

convs.0.nn.4.running_var f4 [16]
000000 00 57 07 3c 38 81 59 3d 19 87 08 3d bd 4d b9 3c
       0.0082604885 0.05310175 0.033331964 0.022620076
000010 49 c9 66 3c 83 15 f3 3c 4c 5c ae 3d 99 99 e6 3e
       0.014086076 0.029673344 0.08513698 0.4503906
000020 0e aa df 3d d9 96 8c 3c 31 c0 3c 3d 5f 84 ba 3d
       0.10921107 0.017161774 0.046081726 0.09107279
000030 bd 0d b9 3c aa 2f ba 3d 8b f6 60 3c a7 84 a1 3c
       0.022589559 0.090911224 0.013730655 0.019716574

convs.1.nn.0.weight f4 [16, 16]
000000 a2 56 5e 3e f6 2d a1 bd 14 7e 11 3e c9 b6 30 3e
       0.21712735 -0.078700945 0.14208251 0.17257227
000010 88 27 24 3d a3 97 11 be cd 80 d4 bc e3 05 36 bd
       0.040076762 -0.14218001 -0.025940323 -0.044439208
000020 61 da dd bd f4 a4 4e 3e d0 d2 cf bd 2a 43 51 be
       -0.10832668 0.20180112 -0.10147631 -0.20435777
000030 d9 a0 10 be a5 5f e7 3d 3c ef 64 3c 91 8b c2 3d
       -0.14123859 0.112975396 0.013973054 0.094992764
000040 5d 84 2f 3e f9 e8 ec 3d 1b 44 47 3e 3e a4 36 be
       0.17140336 0.115678735 0.19459574 -0.17836091
000050 12 8a 25 bd a9 37 f4 3d fa 31 19 be 7b 3d a9 bd
       -0.040414877 0.11924679 -0.14960471 -0.082636796
000060 97 c2 bb bd 83 c6 63 be 65 6c e7 bd ab e3 3f bc
       -0.091679744 -0.22243695 -0.112999715 -0.011711995
000070 48 4d 52 bd ee b6 0b be 65 f3 5b 3e f0 02 b0 3d
       -0.051343232 -0.13644001 0.21479566 0.0859431
000080 e8 0f 58 bd 67 79 56 3e fb a2 14 be 0d a3 49 be
       -0.052749544 0.20944749 -0.14515297 -0.19691105
000090 f6 4b d2 3d a7 dc 1b 3e 76 00 5f be e8 09 33 3d
       0.10268395 0.15220891 -0.2177752 0.04371062
0000a0 c3 a9 d3 bc a2 0d d5 bd ba a3 25 3e 54 0c bb 3d
       -0.025837785 -0.10402991 0.16175738 0.09133211
0000b0 3e 55 f3 bd 5a a5 0a be 58 7c 59 3d 54 09 59 bd
       -0.11881493 -0.13539639 0.0530971 -0.05298741
0000c0 38 b5 3a 3e 0a e9 04 3e c4 57 de bd 2f a3 56 3e
       0.18233192 0.12979522 -0.10856584 0.20960687
0000d0 12 fb 55 bb d7 ec 05 be 0f fb 2c 3e e7 5f c7 bd
       -0.003265087 -0.13078628 0.16892646 -0.09735089
0000e0 3c f7 d5 3d 04 4c 1f 3d 6a 36 0d 3e 65 41 0b be
       0.10447547 0.038890854 0.13790289 -0.13599165
0000f0 42 d2 06 3e 65 88 7b 3e 52 b4 6a be 5c 1a 26 3d
       0.13166144 0.24563749 -0.22920349 0.040552482
000100 84 55 52 3d e3 cf 98 bd ad 03 63 be c8 cd 75 be
       0.051351085 -0.07461526 -0.22169371 -0.2400428
000110 e5 cd 11 3e 95 a7 55 3e fa 30 8f bc f4 1e 64 be
       0.14238699 0.20864709 -0.017479409 -0.22277433
000120 c5 04 16 bd a7 cd 0c be bd b4 1e bd d9 2a 34 3d
       -0.036625642 -0.13750325 -0.038746584 0.043986175
000130 3e 3e 47 be 7b 1a 4e bd 8b ba 3f 3e a1 0c e5 3d
       -0.19457337 -0.050318222 0.18723504 0.111840494
000140 92 e1 19 3d 05 1d 28 3c 40 4d e6 bd de 3a 91 bb
       0.037568636 0.010260825 -0.11245203 -0.0044320663
000150 d7 ea 0a be 02 5b 19 3e 41 fe 01 3d b1 93 90 3d
       -0.13566147 0.14976123 0.031736616 0.0705942
000160 13 ab 3b 3e 66 7e 29 be 16 30 a5 bd 64 6b 9e bd
       0.18326978 -0.16552123 -0.08065812 -0.07735327
000170 8e df c2 3c 05 63 57 be 4f 57 4d 3e a9 4a bf bd
       0.02378824 -0.21033867 0.20052837 -0.09340412
000180 fb f6 6a be 32 74 09 3e da 9c 07 bd 36 cc 47 be
       -0.22945778 0.13423231 -0.03310857 -0.19511494
000190 c0 59 f4 3d c3 19 b5 3d aa ec 43 3e a3 f9 c7 ba
       0.11931181 0.08842804 0.19133249 -0.0015256893
0001a0 8e 99 ed 3d b3 db 29 bc 41 33 6a be 40 9c b0 3d
       0.11601554 -0.010367322 -0.22871114 0.08623552
0001b0 34 b2 a8 bd 63 bc be 3c b3 da 4b 3e 4a db f5 bd
       -0.082371145 0.02328319 0.19907646 -0.12004717
0001c0 30 84 d2 3d ad ec 72 be 24 9f e6 bd f6 b3 0f bc
       0.10279119 -0.23723097 -0.112608224 -0.008770933
0001d0 e6 af f6 3d c5 c9 44 3e fe 3d 13 bb 68 46 b2 bd
       0.12045269 0.19217594 -0.002246737 -0.08704835
0001e0 c0 24 38 3e 57 10 0c be d8 c4 34 be 99 fd 7e 3e
       0.17982769 -0.13678108 -0.17653215 0.24901427
0001f0 a5 c6 f2 bd 7e a7 55 be 37 c2 6c 3e 61 b9 40 be
       -0.11854295 -0.20864674 0.23120962 -0.18820716
000200 b1 ec 8d 3d b9 ef 02 3e d4 58 17 3e 6e 91 c8 3d
       0.06929911 0.1278676 0.14779979 0.097933635
000210 5c 11 ea bd d7 f8 dc 3a 14 f3 a4 3d 51 8d 41 3e
       -0.11429092 0.0016858828 0.08054176 0.18901564
000220 97 db 68 3e 28 67 20 be 7e 9d b6 bd 85 6c 60 3d
       0.22740017 -0.15664351 -0.08916758 0.054790992
000230 8f 00 48 bb 22 6d 32 be fe cb 57 3d 14 91 a2 bd
       -0.003051791 -0.17424443 0.052684776 -0.07937828
000240 ec 2b d9 3d 7f b4 28 be 00 bc 2c be be 50 1d 3e
       0.106040806 -0.16475104 -0.16868591 0.15362832
000250 bb 54 42 be b4 cc 33 bd e3 32 15 be 81 e0 c4 3d
       -0.18977635 -0.043896392 -0.14570193 0.09613133
000260 21 5d 41 3e 74 51 9e bd d8 16 59 bd e2 3a 14 be
       0.18883182 -0.0773038 -0.0530003 -0.14475587
000270 67 0a 65 be a6 97 13 3c 03 bb 50 be e2 80 26 3e
       -0.2236725 0.009008324 -0.2038384 0.16260102
000280 f9 3a 58 bd 40 28 e3 3d 77 97 3d be b4 01 2a be
       -0.052790616 0.110916615 -0.1851481 -0.16602212
000290 37 9c ee 3d 5a 9c 8e bd 99 d1 7a be d2 7f 3b bc
       0.11650889 -0.069634154 -0.24494018 -0.011444049
0002a0 c6 cd 9d bd 60 4f 9d bc d8 da 8a bd df 6d 99 bd
       -0.07705264 -0.019202888 -0.067800224 -0.074916594
0002b0 7b 2d 09 3e b9 c8 22 be 8e 0d 18 3e bd 19 8d 3d
       0.13396256 -0.15896882 0.1484892 0.06889675
0002c0 5d 1a 94 bd dd 4c 3e 3d 0a 52 d2 bd 40 1b e4 bd
       -0.07231591 0.04646002 -0.10269554 -0.1113801
0002d0 96 c7 a4 3d 05 c6 66 3e 52 9a c6 3c 57 50 08 be
       0.080458805 0.22536476 0.024243508 -0.13311897
0002e0 f2 ec 4d 3c 4e 9e 89 bd a1 83 e7 bc c5 e1 d3 bc
       0.012568699 -0.06719647 -0.028261008 -0.025864491
0002f0 ba bc dc bb f0 cb 2b bd 71 54 82 bd 21 bc 53 3d
       -0.006736365 -0.041942537 -0.06363762 0.051693086
000300 95 2c 18 be 47 57 da 3d e9 79 42 3d 9a 7a 2d be
       -0.14860757 0.10661178 0.047479544 -0.169413
000310 c8 aa b1 bd d9 39 47 3e 8c 29 9e 3d 26 78 b1 bc
       -0.08675152 0.19455661 0.07722768 -0.021663737
000320 c9 a2 32 bc d3 fb 17 bc 7a 7a e6 3d 60 5c 8c 3d
       -0.010903069 -0.009276348 0.11253829 0.06853557
000330 46 db b8 bd 78 79 7c be 16 e0 61 be 84 70 93 3d
       -0.09026198 -0.24655712 -0.22058138 0.07199195
000340 c5 d1 ec bd 7e f9 db bd a3 94 4e bd 90 6d f7 bc
       -0.11563448 -0.10740946 -0.05043472 -0.03020361
000350 71 66 fa 3d eb 02 48 3e 5d ee 4f be 9b 97 08 bd
       0.122265704 0.19532363 -0.20305772 -0.033347707
000360 eb 5a 8d 3d 67 c6 12 3e 64 c1 d5 bd c5 2f af bd
       0.06902107 0.14333497 -0.10437277 -0.08554033
000370 2f c3 a2 3b 97 6b 8d 3d b1 a8 e6 3d 6b 49 b6 3b
       0.0049671154 0.06905287 0.11262644 0.0055629513
000380 dd 61 4f 3d d5 33 5a 3d c2 2f 77 be 66 45 2b bd
       0.05063044 0.053272087 -0.24139312 -0.04181423
000390 8e 1c 9f 3d 6e 91 56 3e 8c 95 43 3e 74 a5 2d be
       0.07769118 0.20953915 0.19100016 -0.16957647
0003a0 ec c5 bc bd 61 64 b1 3d 99 ad 3d be 2b 52 c1 3d
       -0.09217438 0.08661724 -0.18523254 0.094395004
0003b0 af d8 2c 3e 0d 39 23 3e 9b 3a 65 3e 33 dc 6a be
       0.16879533 0.15939732 0.22385637 -0.22935562
0003c0 90 66 6c bd f1 06 f4 bd 67 fa 3e be 02 d0 72 3d
       -0.057715 -0.119153865 -0.18650208 0.059280403
0003d0 6b 08 56 be 16 57 0b 3e 4c 38 67 be 7e c6 5c be
       -0.20901649 0.1360744 -0.2258007 -0.21560094
0003e0 c2 ad 15 3d 49 94 1a be 72 a2 16 3e ef 56 57 3e
       0.03654266 -0.15095629 0.14710405 0.21029256
0003f0 24 92 14 3e 53 7d 7a 3c 6d 41 01 3e e7 28 2e be
       0.14508873 0.015288669 0.12622614 -0.1700779

convs.1.nn.0.bias f4 [16]
000000 ed 8b 45 3e eb ba a8 3d 47 b6 87 3d a2 76 06 3e
       0.19291659 0.08238777 0.066265635 0.13131192
000010 bd f7 19 be d4 6e 37 3e b4 d4 18 3e 54 b2 43 3e
       -0.15035911 0.17913371 0.1492489 0.19110996
000020 fc ac dd 3d 38 56 82 bd 37 22 76 3e 6b c5 15 3e
       0.1082401 -0.06364101 0.2403649 0.1462609
000030 54 4c b0 3c 2a 47 68 be ff ca 10 be 78 6f 28 be
       0.021520771 -0.22683397 -0.14139937 -0.16448772

convs.1.nn.1.weight f4 [16]
000000 8b 4c 7e 3f df 0a 80 3f 2a 7b 7e 3f 5b 4d 80 3f
       0.99335545 1.0003318 0.99406683 1.0023607
000010 d6 d6 7d 3f 9e 0f 81 3f 5b 1a 7e 3f 16 77 80 3f
       0.9915594 1.0082891 0.99258965 1.0036342
000020 69 0e 81 3f a3 f7 80 3f 05 c6 7f 3f e6 2d 80 3f
       1.0082523 1.0075573 0.9991153 1.0014007
000030 4a f3 7d 3f 2a 0a 80 3f ad 0d 81 3f aa c5 80 3f
       0.99199355 1.0003102 1.0082299 1.0060322

convs.1.nn.1.bias f4 [16]
000000 ed 55 da bb 47 0d 12 3a 71 fa be bb 2c b4 09 3b
       -0.006663075 0.00055714365 -0.005828195 0.0021011932
000010 36 8d 0b bc fa c0 08 3c 39 0c f6 bb d1 6e 77 3b
       -0.008517554 0.00834679 -0.0075087813 0.003775526
000020 9e 78 07 3c 1f 69 f4 3b db 5d 88 ba 28 a7 8f 3a
       0.0082685035 0.0074588205 -0.0010403948 0.0010959851
000030 f7 e6 03 bc c0 64 a4 38 fc 6b 06 3c 87 6f c4 3b
       -0.008050672 7.8388955e-05 0.008204456 0.0059947404

convs.1.nn.1.running_mean f4 [16]
000000 81 31 10 3f 4a 3b 47 bf 9e 38 69 bf 29 c0 38 40
       0.56325537 -0.7782484 -0.91102016 2.8867285
000010 82 42 10 c0 22 02 ea be c2 80 31 3f 8e 4d 2a bf
       -2.2540593 -0.45704752 0.69337094 -0.6652459
000020 47 58 eb 3f e0 fb 4a c0 0a 60 00 c0 9c a9 2b bf
       1.8386315 -3.1716232 -2.0058618 -0.6705568
000030 af 39 a3 bf 62 e9 a8 be 8a 71 00 40 df 01 f4 bf
       -1.2751979 -0.32990557 2.0069299 -1.9063071

convs.1.nn.1.running_var f4 [16]
000000 44 75 31 40 17 94 40 40 71 c5 8b 3f b7 08 7b 40
       2.7727823 3.0090387 1.0919629 3.922407
000010 3a 9f 63 40 34 6d 54 3f a1 9a a3 40 40 bf b6 3f
       3.5565934 0.8297913 5.1126256 1.4277115
000020 9a c2 b0 3e 71 df ff 40 41 6b fe 3f 53 fd 68 3e
       0.3452347 7.9960256 1.9876481 0.22752886
000030 a0 35 2c 3f 8a 04 5a 3f 73 41 05 42 ba 61 00 40
       0.67269325 0.85163176 33.313915 2.0059648

convs.1.nn.3.weight f4 [16, 16]
000000 8c e4 02 be bd b1 75 be 3a 36 fa bd c8 39 32 be
       -0.12782496 -0.23993583 -0.12217374 -0.17404854
000010 43 37 ca 3d 17 27 2c 3d 16 e3 a4 3d 8e 49 39 3d
       0.098738216 0.042029466 0.08051126 0.045236163
000020 96 7f 09 3e aa 09 a8 3d 14 74 56 be cd 12 8c 3d
       0.13427576 0.08204968 -0.20942718 0.068395235
000030 b3 78 5b bd 78 f3 06 3e 68 33 37 3e 46 d9 ce bd
       -0.053581905 0.13178813 0.17890704 -0.10100035
000040 1e 72 27 be 13 28 59 3e 28 6e 57 bd 66 c1 74 3e
       -0.16352126 0.21206693 -0.052595288 0.239019
000050 1e ee 00 bb 01 56 15 be 41 f1 e0 bd ce e6 13 bd
       -0.001967318 -0.14583589 -0.109835155 -0.036108784
000060 a9 c9 72 3e d5 f3 55 3e c4 f7 ad bd 8c 42 70 3e
       0.2370974 0.20893796 -0.08494523 0.23462886
000070 44 02 1f 3e 3e 62 6c be 46 ea 56 be b5 1f 9d bd
       0.15528208 -0.23084351 -0.20987806 -0.07672063
000080 44 21 b3 3a 86 68 33 3e 14 7f 1d bd 59 66 99 bd
       0.001366653 0.17520341 -0.03845127 -0.074902244
000090 e0 f1 59 3e c0 ab 4c be 46 11 9c bd bf 50 11 be
       0.21283674 -0.19987392 -0.07620482 -0.14190958
0000a0 2c de a5 bd 31 b7 f1 3d c2 a7 2a 3d 3f 44 74 3e
       -0.080990165 0.11802519 0.041663893 0.23854159
0000b0 c1 77 fd ba c4 1c 0f 3e c3 3f 26 3e 90 96 27 3e
       -0.0019338058 0.13975817 0.1623526 0.16366029
0000c0 66 1a 34 bd a6 25 b1 bc bf 2c d6 bd fb df 07 3e
       -0.043970488 -0.021624397 -0.104577534 0.13269036
0000d0 41 74 08 3d 91 83 0a be 93 1b cc 3d ce 53 d4 3d
       0.033313993 -0.13526751 0.09966197 0.10367547
0000e0 ca 23 b5 bd f1 e0 35 bd 53 53 76 3e 72 77 b0 3d
       -0.08844717 -0.044403974 0.24055223 0.086165324
0000f0 f9 88 38 be 1a 5f f1 3d 19 49 d6 bd 34 7d 38 3c
       -0.18021001 0.11785717 -0.10463161 0.0112603195
000100 4a 7e 97 3d fa 9b f7 bd cf fd 0a 3e 1d 5f ce 3d
       0.073971346 -0.12090297 0.13573383 0.10076735
000110 da 69 08 bd 47 00 9b bd b5 12 64 be d1 f6 01 be
       -0.033304073 -0.07568412 -0.22272761 -0.12691809
000120 d0 12 1d bd aa 97 48 be 7c d8 47 3e f5 db 38 3d
       -0.03834802 -0.19589105 0.19516176 0.045131642
000130 78 58 4d be c1 89 7b 3d d9 22 1c 3e 40 3a 4a be
       -0.2005328 0.06141067 0.15247668 -0.19748783
000140 28 21 b2 3d 39 3c b5 3d 07 04 19 be 9f bc 56 be
       0.0869773 0.08849377 -0.14942943 -0.2097039
000150 23 82 0b bd 7c 5b fe 3d c1 a0 14 3e 27 9b 85 bd
       -0.034059655 0.12419793 0.14514448 -0.065237336
000160 78 aa 07 be 70 0b 5d 3e a0 a8 fd 3d 90 be 39 3b
       -0.13248622 0.21586394 0.12385678 0.0028342344
000170 da 4c 54 3e 28 bb 7d 3e 01 ac 0d be b5 3b 95 3d
       0.20732442 0.24778426 -0.13835146 0.07286779
000180 ce 4b 08 3d cb fc 28 be 15 15 1f 3e f8 e3 c5 3d
       0.033275418 -0.16502683 0.15535386 0.09662622
000190 1b bc f5 3d 06 ba f5 bc 22 e4 21 3e ec 5b 40 be
       0.11998769 -0.02999593 0.15809682 -0.18785065
0001a0 e1 bb fe bd 75 4e 0d 3e c3 70 a2 3c 60 d5 b0 3d
       -0.12438179 0.1379946 0.01982916 0.08634448
0001b0 c4 71 d6 bc 2d 2e 9d 3d 77 02 a0 3d 53 6e 72 be
       -0.026177295 0.07674823 0.0781297 -0.23674898
0001c0 1b e3 5f be 10 c0 58 be d8 a5 75 bd a4 70 89 3d
       -0.21863978 -0.21167016 -0.059972614 0.067109376
0001d0 d8 5e 62 3e 83 48 42 be 64 fc 3c 3e 86 d1 35 be
       0.22106493 -0.18972974 0.18455654 -0.17755708
0001e0 02 ba a0 bd 01 ad 87 3d 6f 65 1e 3c c9 ac a9 3c
       -0.07847978 0.06624795 0.009667738 0.020712273
0001f0 af 4f 35 be 13 7b 7e bd 1b 89 38 be 38 ae 20 3d
       -0.17706178 -0.06212909 -0.18021052 0.039228648
000200 dd 2f 55 3e ee 88 09 be 78 89 d4 bc 27 e7 b3 3d
       0.2081904 -0.13431141 -0.025944456 0.08784323
000210 2f 17 2a 3e df c7 ac bb 48 f2 b7 3d a9 12 cb 3c
       0.16610406 -0.00527285 0.08981758 0.024789171
000220 99 2d fb bd 8f 6e 2f 3e df 07 6e 3d 6b 47 3f be
       -0.122645564 0.17132019 0.058112975 -0.18679588
000230 6c 90 cf bd 08 ba 45 bd 49 ba 82 3d 14 da 36 3e
       -0.10134968 -0.048273116 0.06383187 0.17856628
000240 0e f9 02 3e 8b 4c 28 3e 47 ad 28 be 82 e8 25 bd
       0.1279032 0.16435449 -0.1647235 -0.04050494
000250 1c 10 d8 bd f4 59 cb 3d 2a 0e d5 bc 6f 6a 4f be
       -0.105499476 0.099292666 -0.02600773 -0.20255445
000260 93 33 2e be b5 61 8f 3d 6c 17 50 3d 7c b9 33 3e
       -0.17011862 0.07001058 0.050803587 0.17551225
000270 10 35 7e 3d f9 6e f2 3d 36 52 4e be f0 ff 7f 3e
       0.062062323 0.118375726 -0.20148548 0.24999976
000280 56 51 2e be 25 14 11 be 2b a3 bf 3d ac ec 10 3e
       -0.17023215 -0.14167841 0.09357294 0.14152783
000290 d0 dd 03 bd 21 19 a5 3c e8 4d 21 3e 24 35 44 3d
       -0.03219396 0.020153584 0.15752375 0.04790224
0002a0 e0 c6 10 3e 2a 28 6c 3e 6c 1b 0f 3e 10 04 fe bd
       0.14138365 0.23062196 0.13975304 -0.124031186
0002b0 6d 81 17 bc f2 24 86 bd 8f a7 2f be d9 23 48 be
       -0.009247166 -0.065500155 -0.17153762 -0.19544925
0002c0 87 c6 b9 3d d3 53 34 3e 3b 91 3d be 23 ef 07 3d
       0.09071069 0.17610101 -0.18512432 0.033187043
0002d0 2d ea 69 be d0 42 5b bd 07 ea 27 3d 25 2c e8 bd
       -0.22843237 -0.053530514 0.04099467 -0.11336545
0002e0 55 bf 6a 3e 38 aa 5b be e4 35 38 bd 77 e9 c2 3c
       0.2292455 -0.21451652 -0.04497327 0.023792965
0002f0 af 6b 60 be 27 51 00 be 2e 99 ab 3d 67 1d 6a 3e
       -0.21916078 -0.12530957 0.08378826 0.22862779
000300 81 8c 0b be 0a 83 81 3d bc 10 16 be 42 d8 d8 3d
       -0.13627817 0.06323822 -0.14654821 0.10588123
000310 f3 c4 0b 3e 05 9d 5d bd 09 6a 7f 3e bf 83 1c be
       0.13649349 -0.054104824 0.24942793 -0.15284632
000320 38 9f 22 be 6c 64 f4 bd 2c 9e 9f bd de ee 3b 3d
       -0.1588105 -0.119332165 -0.07793841 0.0458821
000330 37 bd 40 be c1 f0 d0 3d 11 fb 7b 3d 0b 70 07 3e
       -0.1882218 0.1020217 0.061518732 0.13226335
000340 00 15 6d 3c 67 a2 1e 3d 11 7e 14 3d 5f c0 42 be
       0.014470339 0.038729098 0.03625304 -0.19018696
000350 36 77 5f be 90 9c 59 3e e4 a7 44 be 12 73 59 be
       -0.21822819 0.2125113 -0.1920467 -0.21235302
000360 b0 5c 67 be 55 ea 40 be 84 69 b7 3b bd 0a 55 be
       -0.22593951 -0.1883939 0.0055972952 -0.20804878
000370 05 f6 86 3d 1e 51 17 bc f7 f8 0f be 54 45 52 3e
       0.06589893 -0.009235648 -0.14059816 0.20534259
000380 be 85 6f 3d 5d eb 41 3e 1d 8a 73 bd 18 07 97 3d
       0.058477156 0.1893744 -0.059457887 0.073744
000390 c3 bd 53 be 34 4f 84 3c 4c fe 6d 3e 3e 1d c3 bd
       -0.20677857 0.016151048 0.23241538 -0.09527062
0003a0 d2 88 23 3d 75 66 61 be a5 0f 92 3c 9b 47 21 3e
       0.039925404 -0.2201174 0.017829726 0.15749972
0003b0 f7 62 31 3e dd eb ee bd 04 c8 0f bd dc f6 56 be
       0.17322908 -0.11666081 -0.03510286 -0.20992607
0003c0 2f 02 30 be bf 19 c4 bd 87 ba d8 3d 93 76 63 3e
       -0.17188333 -0.09575223 0.10582452 0.22213201
0003d0 fa b1 8d bd ad 77 39 3e 44 8c ef 3d e7 1f 22 3e
       -0.06918712 0.18112059 0.116966754 0.15832482
0003e0 3a 64 81 be a3 e9 16 be 85 f0 70 be d7 0d 08 3d
       -0.2527178 -0.14737563 -0.23529251 0.033216324
0003f0 5a be 28 3e e3 d8 1b ba f2 94 1e 3d ba 21 04 3d
       0.16478863 -0.00059450994 0.038716264 0.032258727

convs.1.nn.3.bias f4 [16]
000000 ee 28 e8 3d be 86 a4 3c a6 61 b0 bd 9f 54 e9 3d
       0.11335932 0.020083781 -0.08612375 0.11393093
000010 c9 05 bd 3c 16 d8 c0 3c 28 0b 53 3e 44 75 27 be
       0.023074048 0.023540538 0.20609725 -0.16353327
000020 0c a3 9b 3d 17 9e d7 3d 97 db 01 3e 2e 86 19 be
       0.07599458 0.105282 0.12681423 -0.14992592
000030 d8 f7 a4 bd 51 90 76 be 48 a6 78 3e 10 fb ec 3d
       -0.08055085 -0.2407849 0.24282181 0.11571324

convs.1.nn.4.weight f4 [16]
000000 e1 dc 80 3f 3e da 7e 3f 33 aa 80 3f 0b 0b 7f 3f
       1.0067407 0.9955176 1.0051941 0.99626225
000010 61 96 80 3f 7d ed 7e 3f c4 a3 7e 3f 32 e3 7d 3f
       1.0045892 0.9958113 0.99468637 0.991748
000020 bd 91 7e 3f 00 d5 80 3f 14 ca 80 3f 62 ac 80 3f
       0.9944113 1.0065002 1.0061669 1.0052607
000030 17 88 80 3f da af 7e 3f 13 6f 80 3f f2 3f 7f 3f
       1.0041531 0.9948708 1.0033897 0.9970695

convs.1.nn.4.bias f4 [16]
000000 96 9b da 3b 37 2b 94 bb e5 68 af 3b 90 38 80 bb
       0.0066713793 -0.004521753 0.0053530806 -0.003912993
000010 af a1 94 3b 62 44 8d bb 8b 47 af bb b9 70 06 bc
       0.0045358757 -0.0043111304 -0.0053491048 -0.008205586
000020 42 64 ba bb 09 8e d4 3b a7 e2 cd 3b 56 47 ab 3b
       -0.005688221 0.0064866585 0.0062831226 0.0052270098
000030 e6 14 85 3b fd 35 ac bb 5b d8 58 3b a4 da 36 bb
       0.004061329 -0.0052554593 0.0033087942 -0.0027901316

convs.1.nn.4.running_mean f4 [16]
000000 df a5 11 3d 2b f1 db 3d 6c 9a 67 3e 1b 8d 26 3e
       0.035558578 0.107393585 0.22617501 0.16264765
000010 24 7b 49 be c1 20 9e 3e c3 35 97 3e 4e 6a 08 bf
       -0.1967588 0.30884364 0.29533204 -0.5328721
000020 4e d1 90 3e 30 01 54 3e a0 76 21 3e 53 a4 8f be
       0.28284687 0.20703578 0.15767908 -0.28055057
000030 82 a6 18 be 00 bf 3b bf ad 26 7c 3e c4 1b 1e 3e
       -0.14907268 -0.7333832 0.24624129 0.15440279

convs.1.nn.4.running_var f4 [16]
000000 9a a4 26 3e ea 5d 74 3e 75 de 5a 3d 2f 13 35 3c
       0.16273728 0.2386395 0.053434808 0.011051937
000010 61 47 ae 3b 71 62 e3 3d 25 7d 44 3d 17 a8 9f 3c
       0.0053185676 0.111027606 0.04797091 0.019489331
000020 c7 c4 9a 3d 28 0f 87 3d bc 6d 47 3c 8f 72 3c 3e
       0.075570635 0.06594688 0.012172159 0.18403076
000030 b8 de a0 3d 1b dd 2a 3e 12 64 6e 3e d7 e9 98 3d
       0.0785498 0.16685908 0.23280361 0.074664764
