experiments/results/SHRIROOK/runs/2026-02-05T17:13:45-gin-shrirook/seed_4/best_weights.pt (torch, 119371 bytes, 180 tensors)

conv1.nn.0.weight f4 [16, 1]
000000 03 20 cd 3d 46 42 80 bd 45 6a 94 3e fd bf 33 3d
       0.100158714 -0.06262641 0.28987327 0.043884266
000010 5c c3 37 be 1d 22 26 bf ea 0f 33 bf c4 e3 a6 be
       -0.17945617 -0.648958 -0.6994616 -0.32595646
000020 f9 0c da be 22 b8 64 3f 3b 1e ac bc e9 6e 17 be
       -0.42588022 0.89343464 -0.021010509 -0.14788403
000030 f6 7f 30 3f 36 ca 17 3f e8 67 5a 3f fa 5b 0f bf
       0.6894525 0.59292924 0.853148 -0.5599972

conv1.nn.0.bias f4 [16]
000000 7c bf 29 3f 06 4d a5 3e b4 01 ff 3e e6 0a 17 bf
       0.66307807 0.32285327 0.49805987 -0.59001005
000010 f8 b1 d9 3e a0 e7 c4 bd 62 73 df bb c0 2d eb bd
       0.42518592 -0.096144915 -0.0068191746 -0.114833355
000020 62 14 58 3f 98 01 ef 3e 7d 43 92 be 86 48 7f be
       0.844061 0.46680903 -0.28567114 -0.24930009
000030 1a 25 3f bf 68 12 8b be d4 66 f0 be 68 a8 5d bf
       -0.7466599 -0.2716248 -0.46953452 -0.8658509

conv1.nn.1.weight f4 [16]
000000 a0 92 7f 3f d8 a1 80 3f c9 58 7f 3f ef b6 7f 3f
       0.99833107 1.0049391 0.9974485 0.9988851
000010 0e 01 7f 3f da 73 80 3f 3b d0 7e 3f ec 70 7f 3f
       0.99610984 1.0035355 0.99536484 0.9978168
000020 d3 60 7f 3f b9 8a 7f 3f 36 fa 7e 3f c1 92 7f 3f
       0.9975712 0.9982105 0.9960054 0.99833304
000030 3b 97 80 3f 56 f9 7e 3f 82 b0 80 3f 45 92 80 3f
       1.0046152 0.99599206 1.0053866 1.0044638

conv1.nn.1.bias f4 [16]
000000 03 df c4 ba b3 a3 aa 3b 85 f1 18 bb 92 5f 82 ba
       -0.0015020076 0.0052075027 -0.0023337316 -0.0009946695
000010 04 69 88 bb 1a 6a 79 3b 8c c2 a0 bb 66 e9 1c bb
       -0.0041629095 0.0038057626 -0.0049060043 -0.0023942827
000020 f0 f8 2d bb 15 4e d3 ba b4 85 8c bb 90 48 f1 ba
       -0.0026546083 -0.0016121293 -0.0042883996 -0.0018408466
000030 17 68 8e 3b e5 0e 75 bb 64 0d a8 3b 54 3f 9b 3b
       0.0043459046 -0.003739291 0.0051285494 0.004737774

conv1.nn.1.running_mean f4 [16]
000000 ae 71 bb 3f c6 78 36 be 4c 4d 34 40 b9 a4 74 be
       1.4644067 -0.17819509 2.8172178 -0.23890962
000010 58 5a 81 bf df 38 a9 c0 20 4b b3 c0 5f 40 2e c0
       -1.0105696 -5.2881923 -5.6029205 -2.722679
000020 ff 0b 24 c0 82 ac f3 40 36 54 e8 be ca 5a b7 bf
       -2.5632322 7.614808 -0.45376748 -1.4324582
000030 a4 9e 98 40 e7 1b 8f 40 9f 65 cb 40 b7 13 ab c0
       4.7693653 4.472156 6.356155 -5.3461566

conv1.nn.1.running_var f4 [16]
000000 1a 63 20 3c 95 d2 7a 3b 0f ed a7 3d e5 51 f6 3a
       0.009789253 0.003827249 0.08199512 0.0018792717
000010 86 b8 00 3d 05 6a d2 3e 35 70 f4 3e 9f 55 d4 3d
       0.031425975 0.4109651 0.47741857 0.103678934
000020 ab 3c 35 3e d4 67 47 3f db d8 e1 39 41 d3 ae 3c
       0.17698924 0.77892804 0.00043076914 0.021340968
000030 29 7e ed 3e 4e a6 af 3e ed d3 35 3f 0b ae 9c 3e
       0.46385315 0.34306568 0.710265 0.30601534

conv1.nn.3.weight f4 [16, 16]
000000 ed 54 76 be bf 99 c3 3b 6a 99 59 3d ad 0f 29 be
       -0.24055834 0.0059692557 0.053124823 -0.16509886
000010 0c 93 33 3e 3c 65 72 be f3 4b a7 3d e0 17 24 3e
       0.17536563 -0.2367143 0.08168783 0.16024733
000020 9e af 1a 3c 1f d6 20 be d8 47 ad 3d 8d cb 07 3d
       0.009441284 -0.1570668 0.08460969 0.033153106
000030 b6 b0 3c bc ce 6d 20 bd 42 c2 6c 3d 40 e9 59 3e
       -0.011516741 -0.039167218 0.057802446 0.21280384
000040 00 b4 1e be 82 83 55 3e ea b8 78 3c 91 ef a3 3d
       -0.15498352 0.20850947 0.015180806 0.08004678
000050 a1 45 88 3d 34 ef 30 3e 72 dd 1a 3e 32 9b 53 3e
       0.06653906 0.17278749 0.15123537 0.20664671
000060 64 b7 2f 3e 98 32 4a 3d 27 75 f5 3d 1b a3 8d bd
       0.17159802 0.049364656 0.11985236 -0.069158755
000070 91 36 44 be 98 54 0c be 6d 17 54 be 70 47 35 be
       -0.1916144 -0.13704145 -0.20712061 -0.17703032
000080 cb 24 07 3e 96 4e 5a bc c8 5e b7 3d 2f f8 53 3e
       0.13197629 -0.0133244 0.08953625 0.20700143
000090 61 76 7e bd fc c7 fe bd 20 3f 1f be de 8c fa bd
       -0.062124614 -0.12440488 -0.15551424 -0.122338995
0000a0 44 15 72 3d 1b fd 41 be 42 85 22 be ba 6e fe 3d
       0.05910231 -0.18944208 -0.15871146 0.12423463
0000b0 7f 7c 31 be 4c 2f d5 bd 53 9e b4 3d 9a 19 b9 3c
       -0.17332648 -0.10409412 0.088192604 0.022595216
0000c0 9d c4 3f 3e d3 1a cc 3d 37 d1 da bd fc 18 39 3e
       0.18727346 0.09966054 -0.10684436 0.18075937
0000d0 50 24 d9 ba e8 08 54 3e b1 6c a4 bd 71 d6 b1 3d
       -0.0016566608 0.20706522 -0.08028544 0.086834796
0000e0 a7 a1 8d 3d bf 7f 60 3e cb 93 74 be a1 60 2e 3e
       0.06915598 0.21923731 -0.23884504 0.17029049
0000f0 18 33 4a 3e a7 24 0e be cd 20 53 3e fc f1 12 3e
       0.19746053 -0.1388117 0.20617981 0.14350122
000100 d1 a7 17 be f7 c3 1a be d0 9b 42 3e 94 34 b5 3d
       -0.1481011 -0.15113817 0.1900475 0.08847919
000110 68 9a f6 3c bf d2 56 3e e9 27 e5 3d 8b f2 5d be
       0.030102924 0.20978831 0.11189253 -0.21674554
000120 2d a7 77 be d0 59 bf bd 35 b0 1f 3e b9 16 78 3e
       -0.24184866 -0.09343302 0.15594561 0.24227418
000130 22 95 68 be 82 62 15 be 50 38 2f be 35 f3 49 be
       -0.2271314 -0.14588359 -0.17111325 -0.19721682
000140 3c eb 0b 3d 48 c7 73 be cc 93 2d 3e 8c 41 0c be
       0.034159884 -0.23806489 0.16950911 -0.13696879
000150 8c 44 d6 3d 76 8b 6f be dd 20 da 3c 4b b0 31 3e
       0.10462293 -0.23393044 0.026626999 0.17352407
000160 74 8b 29 3e ae 9f 64 bd d9 ca 0c bd 4a 7a 25 3d
       0.16557103 -0.055816345 -0.034373138 0.040399827
000170 f4 ad 3f 3e 6e 67 75 be 28 ed 2f 3e 9e 31 bc bd
       0.18718702 -0.23965237 0.17180312 -0.09189151
000180 e1 61 02 bd 11 97 28 be 44 2d 79 be 9b a5 72 3d
       -0.031831626 -0.16463877 -0.24333674 0.059239965
000190 12 17 5d be 79 ff 1e bd d2 45 c6 3d 1d 6f 1d 3d
       -0.21590832 -0.038817856 0.09681286 0.038436044
0001a0 d4 41 8d bc ab 32 10 3d 6e 45 1c be 2b 9c 33 bd
       -0.017243303 0.03520457 -0.1526086 -0.043850105
0001b0 7f 48 c9 3c 4c 27 15 be da 56 79 3e db f9 38 bd
       0.024570702 -0.14565772 0.24349537 -0.045160156
0001c0 a5 89 3e 3d 70 1f d6 bc 0a 4c 0e 3d 3a 3b 62 3e
       0.046517987 -0.026138037 0.034740485 0.22092906
0001d0 11 d9 75 3e ad 8b a4 3d 74 ac 31 be f9 11 85 bb
       0.24008586 0.080344535 -0.17350942 -0.0040609804
0001e0 34 9f 07 bd 69 7e 21 3e 6c 9e 8e 3d 86 08 25 3e
       -0.033110812 0.15770878 0.0696381 0.16116533
0001f0 33 0b 3e bd d8 2d f1 bd 78 84 6e 3e d1 a2 6e be
       -0.0463974 -0.11776322 0.2329272 -0.23304297
000200 0c 66 26 bd 50 6a 67 3d f7 13 68 be 44 03 2c 3e
       -0.040624663 0.056497872 -0.22663866 0.1679812
000210 dc a3 85 3d 9e de 53 3e 5b 27 90 bc d5 71 42 be
       0.06525394 0.2069039 -0.017596891 -0.18988736
000220 fb e4 7b 3e 6f e5 0f be c9 78 06 be 23 44 48 be
       0.24599068 -0.14052366 -0.13132013 -0.19557242
000230 38 f7 a4 bd dc a0 dc 3b 47 95 55 be 14 f7 66 be
       -0.08054966 0.006733043 -0.20857726 -0.2255519
000240 03 db 39 3e fb 96 5e be c2 16 30 be 7d ae 2e bc
       0.18149953 -0.21737282 -0.17196181 -0.010661718
000250 85 92 4e 3e 27 90 a6 3c ff 32 fe 3c 04 a7 b3 bd
       0.2017308 0.02033241 0.031030176 -0.0877209
000260 64 a8 64 bd 7e 46 22 3e 18 41 aa 3c 45 70 cf 3b
       -0.055824652 0.15847203 0.020782992 0.0063305222
000270 e5 7a b7 3b 76 45 f8 bd e4 75 16 be fa 51 0b 3e
       0.005599367 -0.121226236 -0.14693409 0.1360549
000280 49 47 11 be 97 ec c3 bd 9d 25 f7 3d cd a4 0d be
       -0.1418735 -0.0956661 0.12067721 -0.13832398
000290 68 7f 91 bc 21 02 e8 bb e4 57 96 bd b1 9d 1b be
       -0.017760947 -0.007080332 -0.073409826 -0.15196873
0002a0 2d be 4a be 41 4c be 3d f7 3e e2 3d 85 49 63 be
       -0.19799109 0.09291888 0.11047166 -0.22196014
0002b0 02 78 ff 3c 24 49 14 3e 61 83 53 3d cd 67 3b 3e
       0.031185154 0.14481026 0.051638965 0.18301316
0002c0 07 94 2d be 87 82 4e be 50 38 fd 3d cf 9b 4d be
       -0.16950999 -0.2016698 0.123642564 -0.20078968
0002d0 e3 54 03 3e 02 fd 2c 3e 1c f6 42 be 90 40 20 be
       0.1282535 0.1689339 -0.19039196 -0.15649629
0002e0 f4 b3 0a be 87 c3 35 be dc ca 54 bd 35 e2 9e 39
       -0.13545209 -0.17750369 -0.051951274 0.00030304646
0002f0 8e 48 0d be 25 5f a6 bd d9 71 0b 3e 90 1a 16 3a
       -0.13797209 -0.08123616 0.13617648 0.0005726004
000300 7f 20 10 3e 4e d5 d9 bc bf 95 73 3e fb b5 1e be
       0.14074896 -0.02659097 0.23787592 -0.15499108
000310 d7 54 bf 3d 59 3b 11 3e ac ed 15 3c 2f 4f 6f be
       0.09342354 0.14182796 0.009150904 -0.2337005
000320 b5 a3 ca bd 22 c5 7a 3e 99 6a e1 bc 8b 86 42 be
       -0.09894506 0.24489263 -0.02751665 -0.18996637
000330 56 78 c3 bd 43 ee 26 be 02 15 6e 3e cf 2c 69 3e
       -0.09544437 -0.16301827 0.23250201 0.22771
000340 25 27 04 be 09 de 41 be 2b 05 a7 3d 7b 00 ff bd
       -0.12905557 -0.18932356 0.081552826 -0.124512635
000350 0c 2b 19 bc 0d 97 21 be 5f 2e 50 be 36 28 d5 bd
       -0.009348642 -0.15780278 -0.20330189 -0.1040806
000360 2c 41 f6 3b ed 98 c0 bd 14 2e 70 3d 4f c5 31 bd
       0.0075150933 -0.09404168 0.058637694 -0.04340106
000370 f8 46 6d 3e 4f eb 59 3e 6c 2a 79 3e c1 6c 3a 3e
       0.23171604 0.2128117 0.24332589 0.18205549
000380 94 b3 14 3e 7a 9b 66 3e 77 d3 5e 3d 78 d0 dc 3d
       0.14521629 0.22520247 0.054400887 0.1078195
000390 28 3d 6a be 72 ae 7c 3e 62 14 e9 bd 9f 2f 03 be
       -0.22874892 0.2467592 -0.11380841 -0.12811135
0003a0 92 ed 4b be 7e 14 93 bd b1 6b 20 3d b3 ba 43 3e
       -0.19914845 -0.07181643 0.039165203 0.19114189
0003b0 1f 8e 47 3e a9 1a 45 be ba 9c a3 3d 38 1c c9 3c
       0.19487809 -0.19248451 0.079888776 0.024549589
0003c0 e9 ce d8 3c 95 0a 81 3e 80 bc 4e 3d 61 e8 62 3c
       0.02646585 0.25203386 0.050472736 0.013849349
0003d0 55 4b 11 be 19 bd 05 3e e4 42 4d be 2b 57 52 bd
       -0.14188893 0.13060416 -0.20045048 -0.05135266
0003e0 8f cf 78 bd d6 1e f4 3c 52 28 1a be d3 33 13 bd
       -0.06074482 0.02979986 -0.15054443 -0.035938095
0003f0 e5 06 2b be cc 20 e9 3d ed 55 76 be bb de 4d 3e
       -0.16701849 0.11383209 -0.24056216 0.20104496

conv1.nn.3.bias f4 [16]
000000 0c 4d 7f be bc b5 d7 bd 5c 26 9c bd 06 f9 db 3c
       -0.24931735 -0.1053271 -0.07624504 0.026852142
000010 a8 ed 85 3d 0e cc 27 3e 4d 37 61 3e 3e 47 93 3d
       0.0653947 0.16386434 0.21993752 0.07191323
000020 4c 4d ea 3d 40 bd 39 3e bc 2d 56 3e e3 1d 7e 3e
       0.114405245 0.181386 0.20915884 0.24816088
000030 0f 54 07 3e 3c 01 16 be 45 c1 83 bd e8 0c 39 3e
       0.1321566 -0.14648908 -0.064333476 0.1807133

conv1.nn.4.weight f4 [16]
000000 d9 d4 7e 3f 12 f0 80 3f 1e 0a 80 3f c9 5f 7e 3f
       0.9954353 1.0073264 1.0003088 0.99364907
000010 7a 0e 7e 3f 49 b7 80 3f 86 1c 81 3f dc ad 7d 3f
       0.9924084 1.0055934 1.008683 0.99093413
000020 9c 1e 7e 3f 87 c1 80 3f 32 eb 7d 3f f8 f4 80 3f
       0.99265456 1.005906 0.99187005 1.0074759
000030 6f 12 81 3f 84 e2 80 3f 86 07 7e 3f 22 f1 80 3f
       1.008375 1.0069127 0.9923023 1.0073588

conv1.nn.4.bias f4 [16]
000000 dd 18 9f bb aa ea f4 3b f0 ec 33 3a 5d 2d c7 bb
       -0.004855259 0.007474263 0.00068636145 -0.006078406
000010 fd 5b fc bb 4a 3e ac 3b 39 4c 0e 3c b8 38 15 bc
       -0.0077013955 0.005256449 0.008685165 -0.009107761
000020 bc 74 f5 bb bf 4a c8 3b 57 1b 04 bc 27 66 f9 3b
       -0.0074907225 0.006112426 -0.008063159 0.0076110545
000030 20 8e 08 3c 41 bc db 3b 34 2a f8 bb c6 54 f6 3b
       0.0083346665 0.006705791 -0.0075733904 0.00751743

conv1.nn.4.running_mean f4 [16]
000000 ec 08 74 be 37 b1 29 3d ce 6d 86 be 05 f7 1f 3f
       -0.23831528 0.04142877 -0.2625565 0.62486297
000010 e7 02 5e be 00 84 3c 3e 1c 6f 96 bd 25 31 be 3e
       -0.21680795 0.18409729 -0.07345411 0.3714687
000020 cc 07 70 be ef fa 1e 3e 29 99 67 3d 9a c9 5c be
       -0.23440474 0.15525411 0.05654255 -0.2156128
000030 ad 8b 9a 3e 5a a6 26 be ab ad 00 3e 9f bb 8f 3d
       0.3018469 -0.16274396 0.12566249 0.07018208

conv1.nn.4.running_var f4 [16]
000000 ba e8 85 3e 1d 28 fa 3e a6 b5 6b 3d 9a d5 f3 3c
       0.2615412 0.4885873 0.05754628 0.02976494
000010 83 f1 56 3d 53 d1 58 3c 06 eb 7d 3d 09 4f 5b 3d
       0.052476417 0.0132335005 0.061991714 0.05354217
000020 1d ae 04 3d b1 89 d0 3b 9c e8 cd 3d 6e f3 e4 3b
       0.03239261 0.0063640703 0.10054132 0.006987027
000030 bb ea 98 3d 2c ae 48 3e 0d d0 8e 3c 1d e0 9b 3b
       0.07466646 0.19597691 0.01743319 0.004756941

convs.0.nn.0.weight f4 [16, 16]
000000 6b 2f d0 bd 07 c1 d2 3d e6 b9 3e 3e 81 86 27 be
       -0.10165294 0.10290723 0.18625602 -0.16359903
000010 f8 48 86 bd bb fc 3d bc 33 d7 4c be 5d 6a 66 3e
       -0.065568864 -0.0115959 -0.20003967 0.22501512
000020 fe 44 44 be f1 5e 76 be 67 65 d0 bd 5b 50 78 be
       -0.19166943 -0.24059655 -0.10175591 -0.24249403
000030 68 13 38 3e 5c fc 42 be b1 6a 25 be 62 75 4c 3d
       0.17976153 -0.1904158 -0.16153981 0.049916632
000040 f6 4c 0b be 39 b9 0c 3e 71 c7 47 3e 3b a5 1c be
       -0.13603577 0.13742532 0.19509675 -0.15297405
000050 c4 5c fe bc 57 d2 8f bd be 4e a4 3d 17 b8 ce bb
       -0.031050093 -0.07022541 0.080228314 -0.0063085663
000060 75 35 b8 bd 7c f7 3b be 8a 89 17 3e 91 c7 0e be
       -0.08994571 -0.18356127 0.1479856 -0.13943316
000070 5c 9b 2d 3d ed 0a 0f 3c da ad 1f be 9a 23 96 3d
       0.04238449 0.008730632 -0.15593663 0.07331009
000080 aa df f5 bc 92 97 1e bd ba 32 a5 bd 5d e1 57 be
       -0.030013878 -0.038718767 -0.08066316 -0.21082063
000090 48 2a e7 3d 82 3c d0 bd 32 59 ad 3c ee 91 59 3e
       0.112873614 -0.10167791 0.021160696 0.21247074
0000a0 6d f3 55 be ed 8b 79 3e 55 f7 a2 bd 01 20 85 bd
       -0.20893641 0.24369784 -0.07957331 -0.06500245
0000b0 38 e7 88 bb 25 45 6c be 31 2f d5 bd 0a 93 3b 3e
       -0.004177954 -0.23073252 -0.10409392 0.1831781
0000c0 78 ee 7d 3e 22 83 1c 3e c9 e2 79 be 89 02 8d 3d
       0.24798 0.15284398 -0.24402918 0.06885249
0000d0 c8 33 14 3e 22 8a 4a 3e 10 b8 26 bc 27 95 14 be
       0.14472878 0.19779256 -0.01017572 -0.14510022
0000e0 9a e1 b4 bd 3d f1 e4 bd 05 1a 71 3e e7 b7 4d 3c
       -0.088320926 -0.11178825 0.23545082 0.012556053
0000f0 84 5f db 3d dd 8d e6 bb 55 c5 6e be f0 7d 72 bb
       0.107115775 -0.0070359544 -0.23317464 -0.0037001334
000100 a7 50 cc bc 9f 76 04 bc e9 c2 47 be d0 55 9e 3c
       -0.024940802 -0.008084922 -0.19507946 0.019328028
000110 81 1f 7d 3e 26 22 08 3d b6 c5 3f 3e f5 8d 95 3c
       0.24719049 0.03323569 0.18727764 0.018256167
000120 0d 05 15 be 46 e8 84 3d 7b ed 1d be c1 72 51 3e
       -0.14552708 0.06489615 -0.15422623 0.20453931
000130 c8 ee 0d 3d be fd 62 3e 0b 63 b4 3d bd b2 95 3d
       0.034651548 0.22167107 0.088079534 0.07309482
000140 45 b8 22 be 3c 84 dc 3c e6 8e c0 3d 8e a4 c2 bd
       -0.15890606 0.026918523 0.09402256 -0.095040426
000150 db f3 7c 3e da 56 49 3d 41 ce df bd 44 6b 10 be
       0.24702398 0.049155094 -0.10928012 -0.14103419
000160 45 0a 6b be d9 f0 4d 3e 86 0b 23 be d0 2a 0b be
       -0.22953136 0.20111407 -0.15922365 -0.1359055
000170 73 3d f5 3d 37 63 12 bd 04 e2 98 3d 60 b6 0a bd
       0.11974611 -0.03573915 0.07464984 -0.033865333
000180 11 a7 3e 3e 0e cd 36 be b9 c0 17 be 63 7e 68 3e
       0.18618418 -0.1785166 -0.14819612 0.22704463
000190 e1 6e 16 be 1f c1 41 be 3d 2a 17 3e 28 c3 30 3e
       -0.14690734 -0.18921326 0.14762206 0.17261946
0001a0 1b 61 b1 3d 20 3c ad 3d f7 0c af 3d 25 ef aa bd
       0.086610995 0.084587336 0.08547395 -0.083463944
0001b0 b9 8c 76 be ed 03 4f 3e b5 7d 42 be 59 25 00 bd
       -0.24077119 0.20216341 -0.18993266 -0.031285618
0001c0 51 e3 28 3d 4d 5e 10 be d9 28 f0 bd 13 93 7b be
       0.04123241 -0.14098473 -0.11726541 -0.24567823
0001d0 46 e0 96 bd bf 17 57 3e ed 66 5d be 37 94 5f 3e
       -0.073669955 0.21005152 -0.21621294 0.21833883
0001e0 f0 2b f8 3d d1 e8 2d 3d 0a 36 59 3d 1b d8 5a bd
       0.121177554 0.04245836 0.05303005 -0.05342875
0001f0 1f eb b0 bd f6 d0 e5 3d 56 e3 0c be ea 35 f2 3c
       -0.08638596 0.11221497 -0.13758597 0.029566724
000200 21 08 c8 bd 6a 60 76 3e 73 88 aa 3d cf 10 1e be
       -0.097671755 0.24060217 0.08326807 -0.154361
000210 61 ed 2c 3d 56 56 3b be fb 3e 04 3e 98 83 80 bd
       0.04221857 -0.18294653 0.1291465 -0.062750995
000220 68 48 76 3e 62 9d 45 3e c8 75 86 bd e6 8b 56 3e
       0.24051058 0.19298318 -0.06565434 0.20951805
000230 35 14 74 be 39 75 a5 bd 16 52 40 3e 3d b7 19 3b
       -0.23835833 -0.08078999 0.18781313 0.0023455166
000240 53 e7 46 be 42 54 1d be 51 d5 29 3e 7a e5 75 3d
       -0.1942418 -0.15364173 0.1658528 0.0600333
000250 d4 2b 68 be 81 d0 c8 bc 94 d3 0f be 5b 02 22 bd
       -0.22672969 -0.024513485 -0.14045554 -0.039553028
000260 ba 3a 68 3e 41 3c 73 3c f1 32 58 3e db 5e d9 bc
       0.22678652 0.014845909 0.21113183 -0.026534488
000270 a7 0e e5 3d ae 67 92 bb 02 51 d7 bc 04 47 46 be
       0.11184435 -0.004467926 -0.026283745 -0.19363028
000280 30 f2 99 bd 99 34 97 bd b4 2f 3f 3d 51 2b 16 be
       -0.07516897 -0.07383079 0.046676353 -0.14664961
000290 1d ef 5d bd 87 d1 55 be 33 35 72 3e 12 d9 25 be
       -0.054183114 -0.2088071 0.23653106 -0.16196087
0002a0 fb 5e 90 3d 1b 6f 4a 3e 57 a1 da 3d 58 1d 09 3e
       0.07049366 0.19768946 0.106753044 0.133901
0002b0 a1 37 06 bd de 65 2f be 74 2e 6a bd 09 2b 69 be
       -0.032767896 -0.17128703 -0.057173207 -0.22770323
0002c0 59 8f 5f 3e ec 7e d4 bd af 88 60 3d 13 be 5a be
       0.21832027 -0.10375771 0.05481785 -0.2136157
0002d0 35 4f 83 bc 88 04 cf bd 26 18 56 3e ff ee 6d be
       -0.01602898 -0.10108286 0.2090765 -0.23235701
0002e0 52 b1 b2 bd ae 96 24 be 11 f8 32 3d 6b 08 7a 3e
       -0.087252274 -0.16073105 0.043693606 0.24417274
0002f0 3a 25 56 3e 84 21 32 3e c4 e5 5b 3d ed 3b cf bc
       0.20912638 0.17395598 0.05368592 -0.02529713
000300 9f 40 ea 3d 4b 20 e8 3d d6 c7 16 3d 6b 7d 51 be
       0.11438107 0.113342844 0.036811672 -0.20458
000310 f7 1a 4d be 19 5e 8a bd 20 51 1b 3e ab 63 1c 3d
       -0.20029818 -0.06756229 0.15167665 0.03818099
000320 dd 90 4a be f6 5f 46 3d f4 53 f7 3d c1 75 0b be
       -0.19781823 0.04843136 0.1207656 -0.13619138
000330 4a be 52 be a8 e6 fb 3d 16 a7 48 be f7 c7 41 be
       -0.20580402 0.122998536 -0.19594988 -0.18923937
000340 56 6e 8a bc 98 b2 3f bd f9 ab 01 3e 3a c3 d2 bd
       -0.016898315 -0.04680118 0.12663259 -0.10291143
000350 3f 5c f7 bd f7 d3 bb bd be df f6 bd 10 8b f9 3c
       -0.120781414 -0.091712885 -0.12054394 0.030461818
000360 8d 6a 35 be ce 1f 2c 3e 03 46 21 bd 15 3c 12 be
       -0.17716427 0.16809008 -0.03937341 -0.14280732
000370 f6 36 41 bd f4 07 66 be 2f be 11 be 08 c2 44 3e
       -0.047171555 -0.22463971 -0.14232706 0.19214642
000380 69 c6 d5 3d e0 86 11 3d 09 8d 24 3e 52 fd 43 3e
       0.10438234 0.035529017 0.16069426 0.19139603
000390 0a 52 f7 bd 89 4a 2d 3d 68 59 d5 bd 3e 58 bd 3b
       -0.120761946 0.04230741 -0.104174435 0.0057783416
0003a0 91 f3 fd 3c a0 89 b7 bd e5 c6 55 be af 17 bf bd
       0.03099993 -0.08961797 -0.20876653 -0.09330689
0003b0 59 0d 44 be 1b 3f 4f bd 88 7d f3 bb 8f 4c 34 3e
       -0.19145717 -0.05059729 -0.007430736 0.1760733
0003c0 67 14 49 3c 4a 47 5a be 30 37 51 3a 36 b4 d6 bd
       0.012272931 -0.21316257 0.0007980941 -0.10483591
0003d0 a9 36 21 3e 27 94 bc 3d 70 d3 29 3e 80 0f 2c be
       0.15743507 0.09207945 0.16584563 -0.16802788
0003e0 58 3d e5 3d fc bf 00 bd 42 67 34 be b1 f6 c9 bd
       0.11193341 -0.03143309 -0.17617515 -0.09861506
0003f0 40 db 4d 3e 2c 90 14 3e 30 a5 08 be 3a 07 9d bd
       0.20103168 0.14508122 -0.13344264 -0.07667394

convs.0.nn.0.bias f4 [16]
000000 67 02 f2 3d 53 34 58 3e 13 df 97 bd c0 99 aa 3a
       0.118168645 0.2111371 -0.07415595 0.0013015792
000010 80 29 9b bd 5d dc 92 3c ca f0 cb 3c 18 f4 3f 3e
       -0.07576275 0.017927343 0.02489509 0.18745458
000020 f8 20 13 be e6 33 28 be e1 27 67 3e 02 4e c6 3d
       -0.14368045 -0.16426048 0.22573806 0.096828476
000030 14 20 60 3e 90 1f d9 3d 0d 6d 87 3c d4 f3 f6 bd
       0.21887237 0.10601723 0.016531492 -0.12058225

convs.0.nn.1.weight f4 [16]
000000 2f 67 80 3f 21 c3 7e 3f 8c b3 7f 3f cc 6d 80 3f
       1.0031489 0.99516493 0.9988334 1.0033507
000010 44 ff 7f 3f 0e 12 82 3f c3 2d 82 3f a3 54 80 3f
       0.9999888 1.016176 1.0170215 1.0025829
000020 ff 11 82 3f 3b 0f 7f 3f 98 ae 7f 3f 89 d1 7e 3f
       1.0161742 0.99632615 0.99875784 0.99538475
000030 12 d7 7a 3f 2e 6d 7f 3f 56 bd 80 3f 1b 8e 80 3f
       0.9798442 0.9977597 1.0057781 1.0043367

convs.0.nn.1.bias f4 [16]
000000 0e 7b 5d 3b e0 a7 a9 bb 0a 63 ab ba 93 df 4b 3b
       0.003379527 -0.005177483 -0.0013075781 0.0031108602
000010 80 e3 97 39 74 8c 87 3c 17 38 8e 3c 86 ad 2e 3b
       0.00028970465 0.016546465 0.01736073 0.002665372
000020 44 82 87 3c 46 c9 82 bb 94 fa b5 ba 45 81 a2 bb
       0.016541608 -0.003991279 -0.0013883882 -0.004959258
000030 df 11 a9 bc c2 99 17 bb cb aa b2 3b 32 e0 7f 3b
       -0.020638404 -0.0023132418 0.005452489 0.0039043543

convs.0.nn.1.running_mean f4 [16]
000000 7c fe 55 c0 0c c4 26 bf dd d7 f7 bf 18 9a 8c 3f
       -3.3436575 -0.65142894 -1.9362751 1.0984526
000010 aa 2d 23 40 35 aa 93 bf a2 63 46 bd 2f 29 5a bf
       2.549662 -1.1536318 -0.04843486 -0.8521909
000020 aa 51 8a 3f dd 25 39 bf c6 07 c5 bf a9 75 ac 3f
       1.0806172 -0.723234 -1.5392997 1.3473407
000030 85 1a 0d c0 0c 3c 47 c0 a7 dc 1c bf 87 9f e9 be
       -2.2047436 -3.11304 -0.6127419 -0.45629522

convs.0.nn.1.running_var f4 [16]
000000 a3 bd 93 3f 7e d2 18 40 f3 ba 33 41 e6 05 fc 3f
       1.1542248 2.3878474 11.233142 1.96893
000010 50 95 8f 3e ed 0e 56 3f be c8 14 3f f7 34 64 3f
       0.28043604 0.83616525 0.5811881 0.8914332
000020 51 42 88 41 4c 46 27 41 aa 29 16 40 dc d8 57 40
       17.032381 10.454662 2.346293 3.372611
000030 9c fa 0b 3f 71 9f d5 40 e1 fe 03 40 06 e6 c3 3e
       0.54679275 6.675713 2.0624316 0.3826143

convs.0.nn.3.weight f4 [16, 16]
000000 c2 4c 6f be d2 bc 35 3e 4b bb 53 bc d2 06 27 3d
       -0.23369125 0.1774781 -0.012923072 0.04077799
000010 e7 d2 12 3e 9b f2 89 bd 99 a6 49 3e 16 fa 66 3e
       0.14338265 -0.067357264 0.19692458 0.22556338
000020 d2 8a 76 bd 21 85 db 3d cd 61 40 be c6 e0 a8 3d
       -0.060190983 0.10718752 -0.18787308 0.08245997
000030 55 0d 14 be a3 96 94 3c 4e 3f 1c bb 40 a8 79 3e
       -0.14458211 0.018138235 -0.0023841443 0.24380589
000040 ed cc 95 bd 77 48 88 bd d5 58 d8 3c a2 af 26 bd
       -0.07314477 -0.066544466 0.026409546 -0.04069484
000050 88 3b 80 bc b4 e2 b1 bd 20 60 0f be 87 f8 65 bd
       -0.015653387 -0.08685818 -0.14001513 -0.056145217
000060 97 3e 2d bd cc ad 7c 3e 5e 97 50 be 55 6a 38 bd
       -0.04229602 0.24675673 -0.20370242 -0.04502328
000070 ff 8a a0 bd 76 f0 58 3e c4 e2 6f be 3d 84 7d 3e
       -0.078390114 0.21185479 -0.23426348 0.24757476
000080 d3 a8 2d be 6a b4 d8 bd 27 5d 90 bd 99 bd 17 3e
       -0.16958933 -0.10581286 -0.070490174 0.1481842
000090 5c 06 68 3e d5 34 9d 3d 93 cb a9 bd a0 e1 02 be
       0.22658676 0.076760925 -0.08290782 -0.12781382
0000a0 16 12 71 bd 5d 8c 94 bc df 18 17 be 31 80 e4 bc
       -0.05885514 -0.018133337 -0.14755581 -0.027893158
0000b0 a0 cc 41 3e 98 80 88 bc 39 40 a3 3d 4a 12 45 be
       0.18925714 -0.01666288 0.07971234 -0.19245258
0000c0 4a 30 7c be e1 df 1d 3e 03 3d 09 be 6a e0 c3 bc
       -0.24627796 0.15417434 -0.1340218 -0.02391072
0000d0 1d 41 53 be 61 83 4c be 24 86 76 bd 10 12 f5 3d
       -0.20630307 -0.19971992 -0.06018652 0.11966336
0000e0 7c 2c 50 3e 31 12 66 3e 2b 79 bb 3d d7 b7 69 bc
       0.2032947 0.22467877 0.0915397 -0.014265022
0000f0 10 c5 60 be 41 fb 57 be 32 94 62 3e d1 13 f5 3d
       -0.21950173 -0.2109194 0.22126845 0.1196667
000100 29 47 7c 3e 84 5e 6f be 86 fb 1e 3e c0 08 38 be
       0.2463652 -0.23375899 0.15525636 -0.17972088
000110 8c a1 07 be 01 f3 46 3e 46 cf 13 3e 84 08 c5 3d
       -0.13245219 0.19428636 0.14434537 0.09620765
000120 83 a3 49 3e cc 93 09 3d 32 ef 1f 3e 2f 89 02 bd
       0.19691281 0.033588216 0.1561859 -0.03186911
000130 1a 24 42 3e 88 ca 35 be d1 50 4e 3e 97 e4 e9 bd
       0.18959084 -0.17753041 0.20148017 -0.11420553
000140 e4 c2 54 3e 9d 39 ab 3c f8 3f 1c 3e 7a 9e f8 3d
       0.2077747 0.020901496 0.15258777 0.12139602
000150 72 28 9e 3d 42 30 01 3e 80 0e 37 3e f7 31 bb 3b
       0.07722558 0.12616065 0.17876625 0.0057127434
000160 0b ea 20 be 1c 65 84 3e c9 c7 36 3d 25 66 00 be
       -0.1571428 0.2585839 0.044624124 -0.12538965
000170 82 96 6e be fc c4 09 3e e9 6e 7f 3d 97 2c 80 3d
       -0.23299602 0.1345405 0.06236163 0.06258505
000180 5a fc 1c 3e a4 1b 73 be 3b 27 fe 3d 45 82 84 be
       0.1533064 -0.23741013 0.12409826 -0.25880638
000190 79 8f 31 be 3a fe c0 bd b0 bd d1 3d bf 92 74 3e
       -0.17339887 -0.0942349 0.10241258 0.23884104
0001a0 00 35 96 3c 5e d1 f5 bc 30 a4 9b bd 02 55 78 bd
       0.01833582 -0.03000706 -0.07599676 -0.060627945
0001b0 69 53 e8 bc 17 e1 20 3d 0b 7f 42 3e f0 da 6a 3e
       -0.028360086 0.039277162 0.18993776 0.2293508
0001c0 4d f4 0a bb 35 e5 a3 bd 1d 45 c3 bd be 80 33 3e
       -0.0021202744 -0.08002702 -0.09534667 0.1752958
0001d0 73 0d 41 be 48 5d b9 bd 71 83 ec 3d fd 7e 4e 3e
       -0.18852787 -0.09050995 0.11548508 0.2016563
0001e0 69 45 67 be 4f 5c d7 bd 7e 32 0b be 65 c5 c5 3a
       -0.22585072 -0.10515653 -0.1359348 0.0015088735
0001f0 06 61 aa 3d 33 26 da bd e2 2c 00 be e6 83 42 bd
       0.08319287 -0.10651817 -0.12517121 -0.04748907
000200 b0 5b 21 3e e7 6b c5 3d 68 1b 21 3d 19 26 1d 3e
       0.15757632 0.09639721 0.039332777 0.15346564
000210 ff b0 17 3e 41 2a 3e 3e ec 2d 65 3c 3e 71 4b bd
       0.14813612 0.18570806 0.013987999 -0.049668543
000220 59 0a 84 3e ae 18 82 be 16 bb a9 bd 01 8f 21 3e
       0.25789145 -0.25409454 -0.08287637 0.15777208
000230 43 1d a3 bc bb b9 00 be 23 b8 42 3e 9a 88 80 be
       -0.019911414 -0.1257085 0.19015555 -0.2510422
000240 ec d9 17 bd d3 3f 4d 3e 8d 16 22 3e 4f 01 03 3d
       -0.03707306 0.20043878 0.15828915 0.03198367
000250 c6 5a 4c 3e 23 50 80 3e b4 34 3c 3e 46 7c 3c 3e
       0.19956502 0.2506114 0.1837948 0.18406782
000260 9e bb 43 3d 97 0d b5 3b 0e e0 e2 bb e3 e7 52 3e
       0.047786348 0.0055253017 -0.006923682 0.2059627
000270 6a 46 74 3d 63 c1 fc 3d 36 10 e5 bb 12 99 b0 bc
       0.059637465 0.12341573 -0.006990458 -0.021557365
000280 2d 15 16 be 84 d2 55 bd d2 41 09 be 75 d4 b1 bd
       -0.14656515 -0.052202716 -0.13404015 -0.08683101
000290 d1 a7 41 be bf 02 94 3d c4 77 3d be 5d ec 80 3e
       -0.18911673 0.07227086 -0.18502718 0.2518033
0002a0 d9 6f c8 3d 79 05 07 3e bc 9b 69 be db 51 4e 3e
       0.09786958 0.13185681 -0.22813314 0.20148413
0002b0 95 0e 4f be 7c 7e 9e bc 40 70 8e 3d 81 91 ca 3d
       -0.20220406 -0.019347422 0.06955004 0.09891034
0002c0 e4 8f 85 bb 4d fb dc bd 17 be 84 3e 48 e1 d8 bd
       -0.004075991 -0.10790119 0.25926277 -0.10589844
0002d0 4d 61 f6 bd 61 38 37 be ec fa 7c bd 3a 04 6f be
       -0.120302774 -0.178926 -0.061762735 -0.23341456
0002e0 9f cb 66 be 0c ff 38 be e5 41 24 be 03 fe 1b be
       -0.22538613 -0.18066043 -0.16040762 -0.15233617
0002f0 03 f8 65 be 9a ad 54 3e ed ce 50 3e 1b fb c1 bb
       -0.2245789 0.20769349 0.20391436 -0.0059198267
000300 6e 81 69 3e 90 75 4a 3e 9d a3 12 3e b1 d6 25 3e
       0.2280328 0.19771409 0.14320226 0.1619518
000310 83 c6 49 3e 6b 60 09 be 24 d8 60 3d db 9b 36 be
       0.19704632 -0.13415687 0.054893628 -0.17832892
000320 61 6b 06 3d 43 a0 1e bb 89 07 e3 3d d3 b5 89 3d
       0.03281725 -0.002420441 0.110854216 0.06724133
000330 2a 21 3d bd 8b 21 1f 3e 24 d6 81 3e 2e 5c 5b 3c
       -0.046174206 0.1554014 0.2535869 0.013388677
000340 b7 45 c5 bc 90 26 59 be e2 c2 54 be 37 38 38 bd
       -0.024081094 -0.21206117 -0.20777467 -0.044975486
000350 1a e3 c6 3d be 12 e4 3d f0 b5 34 3d 51 3e 97 3d
       0.09711285 0.11136387 0.04411882 0.07384933
000360 f4 81 7e 3e 41 ba de bc d5 dc 47 3b 59 dd 5b be
       0.2485426 -0.027188422 0.0030496616 -0.21471156
000370 c0 40 4f be 35 30 c6 bd ed cb 52 be c6 98 f5 bd
       -0.20239544 -0.096771635 -0.20585604 -0.1199203
000380 a9 78 0f be 24 af 2b 3e 31 c2 c6 bd 5f e4 0c be
       -0.14010872 0.1676603 -0.09705008 -0.13758992
000390 ba 70 9f 3d dc f8 23 3d b3 33 d2 bd f4 1d 37 be
       0.07785173 0.040032253 -0.10263767 -0.1788252
0003a0 0b ce ad 3c 02 5a 90 bd bd e5 aa bd d3 96 8f 3d
       0.021216413 -0.07048418 -0.083446 0.07011189
0003b0 df 6c 10 3e a7 55 26 be 0c 7c 41 3e 2d 9a 8f bd
       0.14104031 -0.16243611 0.18894976 -0.070118286
0003c0 2d ff 4c 3e 28 ec 16 3e a9 e8 a8 bd 87 f6 76 be
       0.20019217 0.14738524 -0.082475014 -0.2411748
0003d0 a6 3c 0b 3e 01 ac 84 be 5b 75 02 3d f1 23 82 be
       0.13597354 -0.2591248 0.0318502 -0.25418046
0003e0 ed e6 62 be 33 b4 cf 3d 17 af 73 3e 4f a9 64 be
       -0.22158404 0.10141792 0.2379726 -0.22330211
0003f0 8f 51 6a be ea d0 1f 3e 3f dc 13 3d 30 68 82 3d
       -0.22882675 0.15607038 0.036098715 0.063675284

convs.0.nn.3.bias f4 [16]
000000 9e d0 c2 3d 99 35 b8 3d 43 bf e9 bc ff 55 04 3e
       0.09512447 0.08994598 -0.028533584 0.1292343
000010 39 d3 3d be 3a 03 c3 bb c0 a8 25 3e 8b 28 20 3e
       -0.18537606 -0.0059513124 0.16177654 0.15640466
000020 46 8e 31 bd f2 a4 e3 3d ec 64 42 be 4f 71 54 3e
       -0.043348573 0.11115445 -0.18983811 0.20746349
000030 db ff 54 3e d7 e0 1a 3e b2 88 18 3e 68 0f b6 bd
       0.20800726 0.15124832 0.14895895 -0.08889657

convs.0.nn.4.weight f4 [16]
000000 07 6e 82 3f 7f b3 80 3f 3a c6 7e 3f 32 dd 80 3f
       1.0189828 1.0054778 0.9952122 1.0067503
000010 3e fb 7f 3f 24 b7 7e 3f 97 ab 7e 3f 20 c1 7a 3f
       0.9999274 0.994982 0.99480575 0.97950935
000020 35 81 80 3f 3f e7 7a 3f 7e 92 80 3f 37 53 82 3f
       1.0039431 0.98009104 1.0044706 1.0181645
000030 5b e7 7a 3f dd 33 80 3f d4 9a 7f 3f 9a 74 82 3f
       0.9800927 1.0015827 0.99845624 1.0191834

convs.0.nn.4.bias f4 [16]
000000 26 72 9d 3c 0f 98 b7 3b 58 73 a5 bb 17 f4 cb 3b
       0.01921947 0.0056028436 -0.0050491504 0.006224166
000010 b7 58 74 b9 84 2e a3 bb 5f 9c a4 bb 90 ea a7 bc
       -0.00023302702 -0.0049799103 -0.0050235237 -0.02049759
000020 8d 4f 77 3b 7c 32 a0 bc db 8a 89 3b 4d 54 97 3c
       0.0037736625 -0.019555323 0.004197461 0.018472815
000030 f8 8e a2 bc f5 f9 d6 3a 23 5e b6 ba 93 0c 9e 3c
       -0.019843563 0.0016401397 -0.0013913553 0.019293105

convs.0.nn.4.running_mean f4 [16]
000000 f7 77 b7 3e ee a9 b2 bd 5b 1d 38 be b0 b4 32 3d
       0.35833713 -0.08723818 -0.17979948 0.04362935
000010 49 c7 41 3e 55 c4 ed 3e d2 53 6f 3e c1 59 1f be
       0.18923678 0.46438852 0.23371819 -0.15561582
000020 f0 57 8a 3e d1 fb 64 3f 42 fc af be 0c 0a aa be
       0.27020216 0.8944674 -0.34372145 -0.3321079
000030 09 e1 53 3f 9f eb 61 be 10 da ac bc 8e 70 94 be
       0.8276525 -0.22062539 -0.021100074 -0.28992122

convs.0.nn.4.running_var f4 [16]
000000 f7 ae 8c 3d 89 b9 8b 3d b0 18 52 3d e3 14 a8 3c
       0.068693094 0.068224974 0.051293075 0.020517772
000010 9e fc 09 3e 18 07 23 3d 0e 5d 7a 3d 4e 41 20 3d
       0.13475272 0.039801687 0.0611239 0.03912478
000020 b6 3e fd 3d eb 75 43 3d 31 52 ad 3c aa 88 a2 3d
       0.12365477 0.047719877 0.021157356 0.07936223
000030 69 b9 16 3d aa 88 b0 3d e3 77 62 3d 5d 8c 19 3e
       0.036797915 0.086198166 0.055290114 0.1499495

convs.1.nn.0.weight f4 [16, 16]
000000 9e f0 83 bc 7e 03 13 3e 33 c8 5f 3d fd 2b ea 3d
       -0.016105946 0.14356801 0.054634284 0.11434171
000010 b7 e9 be 3d a6 38 4c 3c 83 2f 70 be cc 95 e8 ba
       0.09321921 0.012464678 -0.23455624 -0.0017744838
000020 4b 03 83 bd f2 fc 67 3e 87 a0 b4 3d 3a d1 c2 bd
       -0.063971125 0.22655085 0.08819681 -0.09512563
000030 b9 b1 a7 bd 72 0f 4a be 47 2b ca bd a4 23 2e 3e
       -0.08188195 -0.19732454 -0.09871536 0.17005783
000040 6c 26 64 be e6 41 af 3d cd 37 1f be 73 b2 c5 bc
       -0.22280282 0.08557491 -0.1554863 -0.024132943
000050 c0 43 60 3e 04 67 31 3d 51 70 54 3e fd 5b 59 3e
       0.21900845 0.043311134 0.2074597 0.21226497
000060 77 44 66 3e 77 2b 2e 3e 76 9b d6 bd f1 93 4a 3e
       0.22487055 0.17008768 -0.104788706 0.19782998
000070 04 e3 11 3e 2b 41 14 be a8 f4 4e be f6 a7 2c be
       0.14246756 -0.14477985 -0.20210516 -0.16860947
000080 6f f3 ca bd 89 d9 2f be 6d 91 c0 bc c7 96 11 be
       -0.099097125 -0.17172827 -0.023506844 -0.14217673
000090 20 35 ed 3d 2b 2d 21 3e e5 72 33 3e e4 21 1f 3e
       0.115823984 0.15739886 0.17524298 0.15540272
0000a0 99 57 23 be de 18 ab bc a6 43 e5 3c 7b d8 27 be
       -0.15951385 -0.020885881 0.027986359 -0.16391174
0000b0 60 e4 54 be 9d 73 57 bb c1 6a 5f be 2d 5a 3e 3e
       -0.20790243 -0.0032875307 -0.21818067 0.18589087
0000c0 0c 29 70 3e 4b 55 80 be e8 bd 0f 3b ec 3b 90 3d
       0.23453158 -0.25065073 0.0021933261 0.07042679
0000d0 07 8f 51 3e e1 c1 15 3e 2b 3f 2e 3e 44 96 82 3c
       0.20464717 0.1462474 0.17016284 0.015940793
0000e0 50 f6 7c 3e ac 7f 3c be a6 a8 33 be 06 f2 fb bc
       0.24703336 -0.18408078 -0.17544803 -0.030755054
0000f0 29 4c 80 3a ca 1b 69 be 90 ec 78 be 9e be f6 3d
       0.0009788322 -0.22764507 -0.24308991 0.12048076
000100 66 bf 20 3e 1b 5e ca 3d db 4b de 3d df 41 b0 3d
       0.15698013 0.098812304 0.10854312 0.08606314
000110 69 a2 01 be 8c 82 62 be c6 ab 16 be a4 3e 0e 3e
       -0.12659611 -0.22120112 -0.14713964 0.13891083
000120 4f 08 26 3e 75 69 40 be e8 1d d1 3d 8d 86 32 3e
       0.16214107 -0.18790229 0.10210782 0.1743414
000130 0e c3 29 bc 02 48 1b be 1b 50 a3 bd 39 0a ca 3d
       -0.010361446 -0.15164188 -0.07974263 0.09865231
000140 fc ce 49 3e f3 f3 70 be cb 26 e6 3d c1 42 2b 3e
       0.19707865 -0.23530559 0.11237868 0.16724683
000150 65 10 99 3d 91 d7 cf bd 54 42 71 be 57 67 59 3e
       0.0747383 -0.10148538 -0.23560458 0.21230827
000160 c2 cf a0 3d 4b 69 bc 3c c2 a3 33 3e ac 89 75 3e
       0.07852127 0.022999426 0.17542937 0.23978299
000170 09 0b 94 3d ee ee c9 3d e2 57 e1 bb 78 ce 5e bb
       0.07228667 0.09860025 -0.0068769315 -0.0033997577
000180 e4 10 6e 3e 9c 95 4b 3e 5b cf 10 3e 78 fc 04 3e
       0.23248631 0.1988129 0.141416 0.12986934
000190 00 09 ee 3d ff 62 3a bd 79 a4 68 bd 22 ca 4c 3e
       0.1162281 -0.045504566 -0.05679748 0.19998983
0001a0 99 61 23 3e 93 c8 17 3e d0 7d 73 3e d7 65 b8 3d
       0.159552 0.14822607 0.23778462 0.090037994
0001b0 75 29 61 bc 99 39 1f be 5e 43 3f be 95 ce 27 3e
       -0.013742794 -0.15549316 -0.18678042 0.16387399
0001c0 2c 3a 9d 3d ec f0 bd 3d e0 df 31 be 27 a6 9d bd
       0.07677111 0.09274468 -0.17370558 -0.07697707
0001d0 be fe 61 3e 2d 5e 6e be 87 c1 21 be 18 fb 85 bc
       0.22069833 -0.23278113 -0.15796481 -0.016355082
0001e0 39 aa 3c 3e 23 ea 46 3e 4c 5a 5e 3d 36 29 db bd
       0.1842431 0.19425254 0.054285333 -0.1070122
0001f0 4c b5 30 be 37 41 74 be 64 22 c8 3d 00 89 3a 3e
       -0.1725666 -0.23853002 0.097721845 0.18216324
000200 5f dd 0c bc ba 8c 3e be 98 ab f8 3d 15 b1 05 be
       -0.008597701 -0.1860837 0.12142104 -0.13055833
000210 bf b2 45 3e 7b 30 e5 bd cb 5a 23 3d c6 64 38 3e
       0.19306467 -0.111908875 0.03988151 0.18007192
000220 bb 5a 83 be 61 c5 6e bc f1 02 9b 3d e7 14 4a 3e
       -0.2565516 -0.014573426 0.075689204 0.19734536
000230 86 4b fe 3c 3e 83 6d 3e fc f2 b2 3d d5 1b 25 bd
       0.031041872 0.23194596 0.08737752 -0.040309746
000240 2f 14 6e be a2 77 0a 3d 44 38 95 39 63 53 0f be
       -0.23249887 0.033805497 0.00028461416 -0.13996653
000250 94 8e 32 be ae 10 64 be ab f4 5a 3e a3 19 b3 bd
       -0.17437202 -0.22271988 0.21382396 -0.08745124
000260 f0 8d 08 3e b5 32 7a 3e 4d 9c 21 be 5d 75 4c be
       0.13335395 0.24433406 -0.1578228 -0.19966646
000270 c4 5f 67 3e 29 eb 4d 3e 37 46 1b be a5 d1 8f bd
       0.22595125 0.20109238 -0.15163504 -0.070224084
000280 3f 26 3f 3e 96 f9 92 3d 8d 78 44 be ef 96 d5 bd
       0.18666933 0.07176511 -0.19186611 -0.10429179
000290 c7 07 d4 bd 04 56 01 3d 34 c3 be 3c 1b 72 1a 3e
       -0.10353046 0.03157617 0.02328644 0.1508259
0002a0 5e 47 55 bd 3f 9a 8f 3d 64 20 e8 3d bd 03 89 bb
       -0.052070014 0.07011842 0.11334303 -0.004181354
0002b0 ab 93 08 be 1c 14 76 3e 2f 5a 27 3e 11 c7 fc bd
       -0.13337581 0.24031109 0.16342996 -0.123426564
0002c0 fd bb 6f 3e 62 bc 2b be 5c 64 c0 bd 0a d8 59 be
       0.23411556 -0.16771081 -0.09394142 -0.21273819
0002d0 c3 62 34 be 7d 6f 10 3e 45 07 d9 bd 85 d6 e0 bd
       -0.176158 0.1410503 -0.1059709 -0.10978416
0002e0 e7 e7 29 be 9f 15 83 be 82 59 47 bc 62 44 c3 bd
       -0.1659237 -0.25602433 -0.012167336 -0.09534527
0002f0 70 f7 6d 3e d6 cb f2 3d 21 30 ff bd c8 82 51 be
       0.23238921 0.11855285 -0.12460352 -0.20460045
000300 ca 02 81 3e 77 0a 37 3d ae d6 15 bd 46 dc b8 bd
       0.2519744 0.044687714 -0.036581688 -0.09026389
000310 fb 7d 3d 3e 05 16 fe 3d 5e 8c fc 3d bf 32 18 bd
       0.18505089 0.12406544 0.123314604 -0.03715777
000320 9a a9 38 be 97 48 4a be c5 bd 22 be de 0a 12 be
       -0.18033448 -0.19754253 -0.15892704 -0.14261958
000330 b7 5a 2a bd a9 3b e4 bd d1 0e 29 be a6 2f 11 3e
       -0.04159042 -0.11144192 -0.16509558 0.14178333
000340 62 3e b2 bd b0 02 4d 3e f0 c2 11 3e ff 21 3e 3e
       -0.08703305 0.20020556 0.14234519 0.18567656
000350 f3 06 00 3e 01 d4 90 bd 0c ec b9 3d 06 5a f7 bc
       0.12502651 -0.070716865 0.090782255 -0.030194294
000360 0b 2d 0d 3e a7 d0 8b 3d b4 0a 42 bd 2f 1e 97 3d
       0.13786714 0.06826907 -0.04737349 0.07378804
000370 8d 28 65 3e 55 24 17 bd 2b 74 4b 3e 83 7a 94 3c
       0.2237875 -0.036899883 0.19868533 0.018124824
000380 42 42 8f 3d 05 c9 dc 3d 11 c3 d8 bd 93 dc c7 bd
       0.069950595 0.10780529 -0.10584081 -0.09758868
000390 59 ea 81 be bf 38 19 be ed d4 da 3c 6d ef bc bc
       -0.25374106 -0.14963053 0.026712859 -0.023063386
0003a0 7d 63 32 be 72 4c 31 3e 1a 73 67 bd ac 8e 20 3e
       -0.17420764 0.17314318 -0.056506254 0.15679425
0003b0 8b 62 50 bc e7 ad 6b 3e 48 b9 4b 3e e1 d3 ec 3d
       -0.012718807 0.23015557 0.19894898 0.1156385
0003c0 f5 59 0c 3c 61 9b ce 3d b1 58 a0 bd c6 89 03 be
       0.008566369 0.1008823 -0.078294165 -0.12845525
0003d0 19 3f f2 bd 28 cb eb bb 58 4e 24 3e 5e 28 8c bd
       -0.11828441 -0.007195849 0.16045511 -0.06843637
0003e0 91 2d 44 3e 3b e4 0d 3d 2f f2 47 bd 88 9a 32 3d
       0.19158007 0.034641486 -0.04881495 0.043604404
0003f0 e6 c0 67 be 61 45 c0 3d c5 93 b8 3b 03 06 32 be
       -0.22632179 0.09388233 0.00563285 -0.17385106

convs.1.nn.0.bias f4 [16]
000000 ce 5f 18 3e 5e b2 ac bd 43 29 4b be 11 74 b7 bb
       0.14880297 -0.08432458 -0.19839959 -0.005598553
000010 c8 9f be bd b6 75 fa bd 71 7e 92 bd a2 43 51 3e
       -0.093078196 -0.12229483 -0.07153023 0.20435956
000020 28 41 7b 3d b0 74 a7 3d 31 d6 6b be a5 a2 00 3e
       0.061341435 0.08176553 -0.23030926 0.12562044
000030 a7 be e3 3d 7b b8 40 be 93 0d 7c 3e eb 89 63 3e
       0.111203484 -0.18820374 0.24614553 0.2222058

convs.1.nn.1.weight f4 [16]
000000 55 cb 80 3f 80 39 7e 3f e9 41 80 3f 20 79 81 3f
       1.0062052 0.9930649 1.0020114 1.011509
000010 6f 42 80 3f 2e 2b 7c 3f 57 7c 82 3f 12 bd 7c 3f
       1.0020274 0.98503387 1.0194196 0.98726
000020 dc 91 7d 3f 87 3f 7e 3f bd 6d 80 3f 6e b5 78 3f
       0.9905069 0.99315685 1.003349 0.9715184
000030 2b ad 81 3f 08 b1 80 3f 4a a3 7e 3f 75 47 81 3f
       1.0130972 1.0054026 0.9946791 1.0099932

convs.1.nn.1.bias f4 [16]
000000 4b 55 e9 3b 51 f8 d4 bb 30 a1 b4 b9 17 cf 3c 3c
       0.0071207634 -0.006499328 -0.0003445237 0.011523983
000010 73 77 3f 3b 4e de 81 bc 66 a9 96 3c 86 14 59 bc
       0.0029215484 -0.015853073 0.018391322 -0.013249522
000020 ee cc 1f bc e2 90 f9 bb 86 e6 fd 3a 83 d9 e2 bc
       -0.009753449 -0.0076161483 0.001937107 -0.027691608
000030 db 3f 75 3c 0f 1e 9e 3b 68 b5 b5 bb 19 35 1a 3c
       0.014968838 0.0048253606 -0.005545307 0.0094120735

convs.1.nn.1.running_mean f4 [16]
000000 da fb 42 3f 7b 4d 9f 3f e9 4c eb bf 26 95 a0 3e
       0.76165545 1.244552 -1.8382846 0.3136379
000010 f1 ef 80 3f 26 48 49 40 a4 6c ac 40 e6 f1 39 3e
       1.0073224 3.1450286 5.388262 0.18158683
000020 d0 16 b6 3f 8b 46 ea bf 4f dd a4 3f 0b 93 77 c0
       1.4225712 -1.8302778 1.2880038 -3.8683498
000030 f5 98 36 bf ee 01 8f 40 12 e3 b6 3f 79 b7 2e bf
       -0.71327144 4.4689856 1.4288046 -0.6824871

convs.1.nn.1.running_var f4 [16]
000000 4b 9c 67 40 9b 36 92 41 b8 60 28 40 4a 61 8c 40
       3.6189144 18.276663 2.6309032 4.386876
000010 19 f6 e8 40 e2 98 21 40 9b dc 66 40 ed 9d 97 40
       7.280041 2.5249562 3.6072147 4.738028
000020 6a eb 62 40 f5 3e 16 41 7c ae 8f 40 fa c8 00 40
       3.5456185 9.39037 4.4900494 2.0122666
000030 8c ca 6d 40 9f 97 a8 3f 3e b0 fa 40 9b 76 e1 3f
       3.7154875 1.3171271 7.834014 1.761432

convs.1.nn.3.weight f4 [16, 16]
000000 eb c6 20 be 8f 44 0d bd 25 e6 f2 3d 69 12 af 3c
       -0.15700881 -0.03448921 0.11860303 0.021371083
000010 87 ed 92 3d a7 75 d0 3d 47 bc b1 3d f5 cb 13 3e
       0.07174211 0.101786904 0.08678489 0.14433272
000020 bf b1 13 3e f8 e9 45 be 94 7f 5c 3d 7d 1e 2a 3d
       0.14423274 -0.19327533 0.053832605 0.041532982
000030 f7 c0 80 3d 4d 7d 4f bc bb 99 2b bd 06 da 0c 3e
       0.06286805 -0.012664151 -0.041894656 0.13755044
000040 03 a7 e8 bd ff 8c b8 3d 0b ac 73 3e 7a b9 94 bd
       -0.1135998 0.09011268 0.23796098 -0.07261939
000050 dc 6b 64 3e 91 fe ec 3d d6 dc 79 be d9 bc 46 bd
       0.2230677 0.11571992 -0.24400648 -0.048519943
000060 db 30 f8 3d 5f 72 04 bd 64 d1 0a be 21 d4 b5 bd
       0.121186934 -0.032335635 -0.13556439 -0.08878351
000070 72 31 00 be 5e a7 8d 3d 0c ee 03 3d 7f c9 21 3e
       -0.12518862 0.069166884 0.03220944 0.15799521
000080 eb ca ee 3d 58 c8 08 be 3c 01 6e 3c 2d cc 86 bd
       0.11659797 -0.13357675 0.0145266615 -0.06581912
000090 3b af 0c 3d 76 34 4d be ae 26 ce 3c 66 91 de bd
       0.0343468 -0.20039544 0.025164928 -0.10867576
0000a0 47 8a 36 3e 1f 90 11 bd 13 70 45 be b5 01 e9 bc
       0.17826186 -0.035537835 -0.19281034 -0.028443197
0000b0 bf ff 07 bd f7 78 44 be 32 4c 89 3e d8 ea 20 3e
       -0.033202883 -0.1918677 0.26815945 0.15714586
0000c0 67 da 61 bd c0 32 e6 bd 09 fa ba bd e7 a5 9a 3d
       -0.055139925 -0.112401485 -0.09129722 0.075511746
0000d0 a4 5a 58 be 49 e7 f0 3d 80 e0 88 be 0a eb 5a 3e
       -0.21128327 0.11762864 -0.2673378 0.21378723
0000e0 9f f2 b5 3c 3c fc 23 be 5f aa 55 be 30 ff 8e bc
       0.022210417 -0.16014189 -0.20865773 -0.017455667
0000f0 43 dc 08 3e a3 f3 95 3d ba 87 b3 3d c3 af 09 be
       0.13365273 0.07321861 0.08766122 -0.13445954
000100 c2 ec 3f 3d 76 87 c9 bc 00 09 5a 3e d3 9d 71 3e
       0.04685665 -0.024600726 0.21292496 0.23595361
000110 fd 1c bb bd 01 d0 67 be 25 d0 06 bd 69 46 10 be
       -0.091363885 -0.22637941 -0.032913346 -0.1408936
000120 93 0b 04 be 38 60 65 be 6b e9 21 be be d4 62 3c
       -0.1289504 -0.22399986 -0.15811698 0.013844667
000130 69 7b 4c be 67 17 6c 3e 8e 9d 5a 3e dc db 52 3e
       -0.19968952 0.23055802 0.21349165 0.20591682
000140 c8 85 83 b9 b9 39 31 be e2 11 7a bc f3 3b 81 3d
       -0.00025085942 -0.17307176 -0.015263053 0.063102625
000150 05 a6 61 3e b1 73 20 3e c1 3d 0c be 82 b0 6d be
       0.22035988 0.15669133 -0.13695432 -0.23211864
000160 22 4a 5b 3e a1 c2 66 be 9a eb 9b 3c 05 b8 26 3e
       0.21414998 -0.22535183 0.019033242 0.16281135
000170 70 fc f1 3c 10 5e 4b be 3d 89 2b be 76 45 11 be
       0.029539317 -0.19860101 -0.16751571 -0.14186653
000180 81 6b 72 be 0b b9 0d 3e 75 15 4e 3e 91 ed 4d be
       -0.23673822 0.1384012 0.20125373 -0.20110156
000190 e6 f9 3b be 1e 7b 29 3c 79 0f fd bb 47 3f 59 3e
       -0.18357047 0.010344295 -0.0077227917 0.21215545
0001a0 e1 2b c1 bd 17 a5 0d 3e 5c b6 52 3d 7e 68 ef bc
       -0.09432197 0.13832508 0.051443443 -0.02922463
0001b0 99 a4 21 be 0f 2f 0b 3d 47 7d 02 be 09 75 1b 3e
       -0.15785445 0.033980425 -0.12743102 0.15181364
0001c0 74 94 b1 bd 66 7a 9c 3d 25 6f 06 be 39 1f 36 be
       -0.08670893 0.07640533 -0.13128336 -0.17785348
0001d0 71 7a b4 3b 5e 2e 2b be 44 c7 14 3e 3b d7 7c 3e
       0.00550776 -0.16716906 0.14529139 0.24691479
0001e0 30 b2 2f be 89 66 b0 3d a9 29 46 3e 30 c7 22 be
       -0.17157817 0.08613307 0.1935183 -0.15896297
0001f0 da 5c 21 bd 19 45 9d 3d db 8d c4 3c cc 47 0b be
       -0.03939519 0.07679195 0.023993423 -0.13601607
000200 4f 00 2d be 35 ff bc 3d de 10 3a 3e db 9b a2 3d
       -0.16894649 0.092283644 0.18170497 0.07939883
000210 59 dc d2 3d 32 6f 58 be 84 ad 23 3e 98 11 72 3e
       0.10295934 -0.21136168 0.1598416 0.23639524
000220 ba ac 29 bd d1 6b ed bd ff a8 91 3c 61 70 26 3e
       -0.04142449 -0.1159283 0.017780779 0.16253807
000230 80 ba fb 3d ab a2 3c 3d 13 d4 76 bd 79 ce 28 be
       0.122914314 0.04605357 -0.060260843 -0.16485013
000240 ab f5 d3 bc 15 e7 d0 3c b0 f5 58 be 0c 97 28 be
       -0.02587398 0.025500813 -0.21187472 -0.1646387
000250 ba bc cc 3d d4 9a 02 3e ae 2e 5c bd f0 68 17 be
       0.09996934 0.12754375 -0.053755455 -0.14786124
000260 93 ee 2f 3e 1d e8 c7 bc c0 6c 58 bd a0 7b b7 3d
       0.17180853 -0.024402672 -0.052838087 0.089591265
000270 88 02 78 be fa 2a 78 3e 80 02 8c bc 28 1f 11 3d
       -0.24219716 0.24235144 -0.017091036 0.035430104
000280 b9 54 b7 3d 04 ef 6c 3e 11 26 2c 3e 50 91 2a 3e
       0.089517064 0.23138052 0.16811396 0.16656995
000290 34 e1 5a 3e a4 56 b4 3d ef 81 58 bd 0b ee c7 bd
       0.2137497 0.08805588 -0.05285829 -0.097622
0002a0 69 f0 fd bd ec 48 b8 bd 21 cf 9b bd d1 90 e6 3d
       -0.1239937 -0.08998284 -0.07607866 0.1125809
0002b0 bf ca 00 be 22 90 6e 3e e7 29 58 bd bb ed d0 3d
       -0.12577341 0.2329717 -0.052774336 0.102015935
0002c0 61 a5 80 3e 81 7f e1 bd 30 4f ab 3d 2a 1e 80 be
       0.25126174 -0.110106476 0.08364713 -0.25023013
0002d0 8a 7b e3 3c 6a 8f 75 bd 3b 4e 22 3e c8 9e ed bd
       0.027768869 -0.059951223 0.15850155 -0.11602551
0002e0 49 2b ba 3c 89 f9 24 3e 99 3d 90 bd 4b a1 d8 bb
       0.022725718 0.16110815 -0.07042999 -0.0066110245
0002f0 7d 4e 5a 3e 26 5e 3b bd d4 52 86 3e e1 ad 26 3e
       0.21319003 -0.045744084 0.26235068 0.16277267
000300 97 4b 57 3e 0c c9 0a be b0 dc 1e be 38 bb 7c 3e
       0.21024929 -0.13553256 -0.15513873 0.24680793
000310 bf ba b1 3d df b8 e3 3d 61 f3 1e 3e e9 7a ab bc
       0.08678197 0.11119246 0.15522529 -0.020932632
000320 3b 43 08 be 3f ce ae 3d 90 5c ac 3d ef 88 5f bc
       -0.13306896 0.08535432 0.084160924 -0.013643487
000330 8f ea a6 3d 09 13 f7 bd 17 11 b5 bd e6 25 21 3e
       0.08150207 -0.120641775 -0.0884115 0.15737113
000340 0a 85 ad 3d 80 68 13 be 73 e1 77 be e9 16 04 be
       0.08472641 -0.14395332 -0.24207096 -0.12899365
000350 da 78 9d 3d 06 57 10 be d8 8e c8 bd cd ea 83 bc
       0.07689066 -0.14095697 -0.0979287 -0.016103173
000360 30 3a 4a be 23 d8 19 be 8b 12 69 be 76 f9 7a 3e
       -0.1974876 -0.15023856 -0.2276098 0.24509224
000370 5b 80 4a 3e bb 7c cb bb a2 e6 fb 3c 57 2e f2 3d
       0.19775526 -0.0062099374 0.030749623 0.11825245
000380 4a a1 83 bd 6d 79 08 be 82 28 b2 3d 78 76 f2 3d
       -0.06427248 -0.1332757 0.086991325 0.11839002
000390 75 4e 67 bd cd c2 98 3d ff f6 3e be 78 b4 99 bd
       -0.056471307 0.0745903 -0.18648909 -0.07505125
0003a0 40 82 2c 3d e4 b5 da bd 2d 07 34 3c 09 f8 5d 3e
       0.042116404 -0.10679224 0.010988039 0.21676649
0003b0 64 2c 6e be 7f f2 7d be 2d 9e 5c 3e 7c 8b 2f 3e
       -0.23259121 -0.24799536 0.21544714 0.17143053
0003c0 0c 22 2e bd 39 b9 26 3e 4f 83 44 be 89 18 fd 3d
       -0.04251294 0.16281594 -0.19190715 0.12358195
0003d0 d0 91 ac bd aa 03 65 3e 64 f7 13 be 0e 3c b0 3d
       -0.08426249 0.22364679 -0.14449841 0.086052045
0003e0 d2 a2 65 be e7 92 6c be 6f 7c 76 be 53 4b 92 3d
       -0.22425392 -0.23102914 -0.24070905 0.07143273
0003f0 a7 f8 38 3e 38 ba 17 be d9 40 98 3d e4 51 81 3e
       0.18063603 -0.1481713 0.07434244 0.2525779

convs.1.nn.3.bias f4 [16]
000000 7a bf 11 be 6d 2b 55 3e ee 28 58 3d 8b bf 64 be
       -0.14233199 0.20817347 0.05277341 -0.22338693
000010 9c 98 4a bc 16 64 2e 3e ec 91 e6 3d 76 61 e2 3d
       -0.0123654865 0.17030367 0.11258301 0.110537454
000020 ed 7c 12 be 81 4e 4c 3c d3 86 2f be 75 cf 72 bd
       -0.14305468 0.012469889 -0.17141275 -0.059279878
000030 ec a9 8e 3c a0 69 a7 3d 20 f6 f8 3d 5c fb b5 bd
       0.01741501 0.08174443 0.121563196 -0.088858336

convs.1.nn.4.weight f4 [16]
000000 79 b3 83 3f ac 51 82 3f ae d6 7f 3f ff a7 80 3f
       1.0289146 1.0181174 0.9993695 1.0051268
000010 fe c2 82 3f da b5 7f 3f 76 85 7b 3f 82 3b 83 3f
       1.0215757 0.9988686 0.9825052 1.0252535
000020 4a f6 7b 3f 7f 13 80 3f 57 36 7a 3f 75 1b 7f 3f
       0.9842268 1.000595 0.97739166 0.9965127
000030 78 a3 79 3f a4 a4 7e 3f 47 ab 82 3f 91 77 7d 3f
       0.9751506 0.9946997 1.020852 0.9901057

convs.1.nn.4.bias f4 [16]
000000 dc 3c e8 3c 15 2b 91 3c 61 f0 a5 b9 ac 7b 8c 3b
       0.028349333 0.017720738 -0.0003165035 0.004287204
000010 54 12 b3 3c fd d4 46 ba 32 d4 92 bc a6 50 d1 3c
       0.021859325 -0.00075848383 -0.017923448 0.025551151
000020 aa e8 85 bc bb 6c e9 3a d1 da b8 bc 2b 4d 67 bb
       -0.016346294 0.0017808893 -0.022565277 -0.0035293798
000030 4f 78 ca bc ca d7 8f bb e3 22 aa 3c c3 ee 2c bc
       -0.02471557 -0.0043897377 0.020768588 -0.010554972

convs.1.nn.4.running_mean f4 [16]
000000 99 f6 00 3e be 9e 96 3e 1f aa 25 bd fa 56 fd be
       0.1259407 0.29417986 -0.040445443 -0.4948042
000010 f6 24 15 bd a6 7a 38 bd e3 79 65 3d 72 e8 03 3c
       -0.0364122 -0.04503884 0.056024443 0.008051025
000020 80 ce 97 3d e7 e5 8e bd 10 48 5d 3e a7 d7 91 3e
       0.074124336 -0.06977444 0.21609521 0.28484842
000030 c6 7c 99 3e ad 47 5a be e1 2f e7 3c d6 83 20 be
       0.29978007 -0.21316405 0.028221073 -0.15675291

convs.1.nn.4.running_var f4 [16]
000000 7d 4f 60 3b 1d 08 3e 3e e2 c2 9e 3c db bd ab 3c
       0.0034227066 0.18557782 0.019380037 0.020964554
000010 28 de 52 3d b5 76 a3 3d f5 ac bb 3d ac 53 4f 3e
       0.051481396 0.07981626 0.09163848 0.20246762
000020 d3 ac fe 3d cb a1 2f 3e 3b 61 b1 3d 4d ca 03 3e
       0.12435307 0.17151563 0.08661123 0.1287014
000030 e2 50 8a 3c 61 69 87 3d 07 63 ce 3d 4e e8 da 3d
       0.016884271 0.06611896 0.10077482 0.1068884
