experiments/results/SHRIROOK/runs/2026-02-05T18:04:30-pcn3-shrirook/seed_2/best_weights.pt (torch, 679545 bytes, 572 tensors)

convs.0.mp_levels.0.msg_up_nn.1.weight f4 [1, 2]
0.4748646 -0.4698747
00000000: 7421 f33e 6b93 f0be

convs.0.mp_levels.0.update_up_nn.0.weight f4 [16, 1]
-0.41990584 -0.927367 0.86610585 -0.61024123 -0.33782718 -0.49159208 -0.8595954 0.2439414
0.5596959 0.17762648 -0.121308826 -0.28212368 -0.04039334 0.7033312 0.27537882 0.23164964
00000000: e6fd d6be ec67 6dbf 1db9 5d3f c538 1cbf
00000010: aff7 acbe f5b1 fbbe 720e 5cbf c6cb 793e
00000020: 3b48 0f3f b7e3 353e c370 f8bd 8472 90be
00000030: 7d73 25bd 830d 343f 74fe 8c3e 9035 6d3e

convs.0.mp_levels.0.update_up_nn.0.bias f4 [16]
-0.0834893 -0.39115763 -0.33285293 0.35409707 0.47807452 0.9203391 0.088198476 0.7092921
0.7282179 -0.19510005 0.69037014 -0.50007075 0.68913126 -0.18262443 0.058800604 0.555715
00000000: 70fc aabd d045 c8be b36b aabe 364c b53e
00000010: 2fc6 f43e 589b 6b3f 67a1 b43d 2b94 353f
00000020: 7d6c 3a3f 4fc8 47be 19bc 303f a304 00bf
00000030: e86a 303f e601 3bbe e7d8 703d 5743 0e3f

convs.0.mp_levels.0.update_boundaries_nn.0.weight f4 [16, 1]
-0.90875924 0.99889463 -0.07065896 0.5421219 -0.49657786 -0.42191052 -0.59841007 0.97722495
-0.044615686 -0.8880683 -0.95369965 -0.2870112 0.793489 0.9464458 0.61571586 0.4732802
00000000: 72a4 68bf 8fb7 7f3f a5b5 90bd 80c8 0a3f
00000010: 743f febe a804 d8be 6731 19bf 6a2b 7a3f
00000020: f0be 36bd 7258 63bf a925 74bf 22f3 92be
00000030: 1822 4b3f 464a 723f 8e9f 1d3f c851 f23e

convs.0.mp_levels.0.update_boundaries_nn.0.bias f4 [16]
-0.21009767 0.9970128 -0.9749576 0.86713266 0.33959126 -0.32705867 0.17112602 -0.5976356
0.7082609 0.5624995 0.926693 0.6735807 -0.029335404 0.86497974 -0.056696855 -0.024343524
00000000: d823 57be 3b3c 7f3f d296 79bf 68fc 5d3f
00000010: e8de ad3e 3c74 a7be a93b 2f3e a6fe 18bf
00000020: 9650 353f f8ff 0f3f c13b 6d3f c96f 2c3f
00000030: cd50 f0bc 506f 5d3f f63a 68bd 126c c7bc

convs.0.mp_levels.0.combine_nn.0.weight f4 [16, 32]
-0.07524387 0.06943789 -0.04334212 -0.08967516 0.17400861 0.095532514 -0.035480663 0.15658258
0.1673526 -0.034062248 0.03249199 -0.14661585 -0.12642205 0.08955265 0.047604907 -0.011921845
-0.13067482 0.08786378 0.1721672 0.037244756 -0.032734912 0.15122622 0.10569249 -0.11454304
0.07076041 -0.11991832 0.12999617 -0.118707635 -0.16888317 -0.122624 0.07570489 -0.13104185
-0.16889514 -0.12839247 -0.1116013 -0.07748356 0.16930911 0.10189234 -0.071631856 -0.024395308
0.15798569 -0.15360361 0.13556531 0.13853528 -0.050031736 0.13878405 -0.10289587 0.064399704
0.075091355 -0.09734888 -0.12551507 0.057317812 -0.0008756755 0.08976836 -0.14180826 0.13389494
-0.06469478 0.063341156 0.07629118 0.08472989 -0.09869866 0.14768994 0.12296496 0.12779355
0.1365648 -0.12992449 -0.15692843 -0.15988114 0.16286023 -0.13181221 0.116341665 0.13355757
-0.11167709 0.049538292 -0.054904297 0.16464677 0.14792417 0.14937675 0.13918194 0.17442511
-0.15810339 0.10314101 -0.09543227 0.05501299 0.10913702 0.12781344 0.073690645 0.068932
0.16333805 -0.1762825 -0.032821786 0.13872276 0.035057005 -0.08496875 -0.05167512 0.013834694
0.12776601 -0.06123429 0.072581224 0.082933135 0.048891924 -0.05029935 -0.09418395 0.0284659
0.0065087928 0.100053266 -0.16608818 -0.0026813953 0.12963676 -0.122499734 0.17055319 -0.14641592
0.04477797 0.08006408 -0.0107887145 0.12024804 -0.13215764 -0.116622865 0.10817308 -0.15028258
0.07204305 0.1522836 -0.036980797 0.008335263 -0.16286834 0.11664987 0.0822458 0.0381637
-0.018226368 -0.04020537 -0.09133993 0.09953443 -0.06273432 0.13027449 -0.16510576 -0.04395203
0.0008836344 0.119554654 -0.118484475 0.0688168 -0.020099442 0.120118074 -0.011353153 -0.113034725
-0.1002659 0.048597287 -0.13932942 0.012189378 -0.08412657 -0.14505029 -0.16669519 0.1505582
-0.056229327 0.13948682 0.069790035 0.0007988971 -0.1799652 0.13772544 -0.0662439 0.03364371
-0.17634152 -0.05484459 0.18045561 0.12374192 0.14555201 0.013581722 -0.05686743 -0.10415528
0.07752376 0.047002453 0.013311809 -0.09309225 -0.07227615 -0.07663036 0.063470304 0.06390285
0.16745931 -0.05323776 -0.120337114 -0.16227432 -0.08239697 -0.11344318 0.028374258 0.12306978
-0.14351484 0.059038907 -0.10559207 -0.054506622 -0.042818163 -0.13978152 0.1628467 -0.12389851
0.1687298 -0.09508178 -0.089655735 -0.13636959 -0.06641025 -0.07188522 -0.043909505 -0.110589296
-0.044699166 0.017897898 -0.12241896 0.05591576 -0.04584468 -0.052483752 0.07028983 -0.040777683
0.16101594 -0.17900957 -0.11903244 0.029203324 -0.019464448 0.18105167 -0.102889836 0.062424745
-0.03701153 -0.03697675 -0.105491936 0.10946761 -0.120452076 -0.0029269296 0.14283903 0.15184674
0.114321545 0.13011095 0.0848051 5.0720164e-06 0.024434095 -0.011034549 -0.0025464522 0.05791821
0.037617274 0.01116331 0.0153290285 0.14481851 -0.12040245 -0.08937048 -0.05742154 -0.10889461
-0.1690521 0.069130056 0.14650834 0.09978082 0.12555529 0.003787898 0.1177695 -0.104144715
-0.018808667 0.11941764 -0.11435657 0.16875409 -0.12254045 0.055655997 0.084704936 0.030535225
00000000: 7519 9abd 7435 8e3d 8287 31bd 9ca7 b7bd
00000010: 502f 323e 8da6 c33d 2c54 11bd 2f57 203e
00000020: 7b5e 2b3e db84 0bbd 5216 053d 7722 16be
00000030: c874 01be 6167 b73d 5dfd 423d d853 43bc
00000040: 9fcf 05be edf1 b33d 994c 303e f58d 183d
00000050: 0b15 06bd 0cdb 1a3e 4e75 d83d 8b95 eabd
00000060: d5ea 903d bc97 f5bd b71d 053e fd1c f3bd
00000070: b6ef 2cbe 4b22 fbbd 2a0b 9b3d d62f 06be
00000080: d9f2 2cbe 5179 03be 398f e4bd b3af 9ebd
00000090: 5e5f 2d3e eeac d03d b9b3 92bd abd8 c7bc
000000a0: 00c7 213e 444a 1dbe a2d1 0a3e 31dc 0d3e
000000b0: 14ee 4cbd 681d 0e3e 12bb d2bd fee3 833d
000000c0: 7fc9 993d d95e c7bd 0687 00be 15c6 6a3d
000000d0: 978d 65ba 79d8 b73d 2f36 11be c11b 093e
000000e0: b27e 84bd 02b9 813d 8d3e 9c3d dd86 ad3d
000000f0: 8622 cabd 083c 173e 0ed5 fb3d 50dc 023e
00000100: a5d7 0b3e ed0a 05be d9b1 20be e2b7 23be
00000110: d5c4 263e c8f9 06be 8a44 ee3d 51c3 083e
00000120: f5b6 e4bd aae8 4a3d 54e3 60bd 2a99 283e
00000130: 6f79 173e 38f6 183e b685 0e3e 7f9c 323e
00000140: dbe5 21be 983b d33d fe71 c3bd 4d55 613d
00000150: 3b83 df3d 87e1 023e 1feb 963d 382c 8d3d
00000160: 1742 273e 6683 34be 2370 06bd 570d 0e3e
00000170: ef97 0f3d 1904 aebd 4aa9 53bd eaaa 623c
00000180: 18d5 023e cfd0 7abd 77a5 943d d9d8 a93d
00000190: e642 483d b106 4ebd 84e3 c0bd 5231 e93c
000001a0: b647 d53b bae8 cc3d 0513 2abe 59ba 2fbb
000001b0: 80bf 043e 24e1 fabd 7fa5 2e3e 0eee 15be
000001c0: 1b69 373d a3f8 a33d 26c3 30bc 9b44 f63d
000001d0: 5554 07be f8d7 eebd d989 dd3d ade3 19be
000001e0: 4e8b 933d 3bf0 1b3e 2d79 17bd a090 083c
000001f0: f5c6 26be 21e6 ee3d 7c70 a83d 8a51 1c3d
00000200: 774f 95bc 63ae 24bd 6e10 bbbd b5d8 cb3d
00000210: da7a 80bd ad66 053e 7c11 29be 0b07 34bd
00000220: b3a3 673a 12d9 f43d fda7 f2bd d3ef 8c3d
00000230: 96a7 a4bc 7700 f63d 9302 3abc c07e e7bd
00000240: 3558 cdbd f30d 473d 5fac 0ebe f5b5 473c
00000250: 8d4a acbd 1088 14be 25b2 2abe ee2b 1a3e
00000260: b950 66bd a2d5 0e3e 14ee 8e3d 146d 513a
00000270: cc48 38be e607 0d3e e2aa 87bd fdcd 093d
00000280: df92 34be b9a4 60bd 5bc9 383e 676c fd3d
00000290: 960b 153e df85 5e3c d3ed 68bd 5d4f d5bd
000002a0: c7c4 9e3d a585 403d c619 5a3c 26a7 bebd
000002b0: 8505 94bd 61f0 9cbd b8fc 813d 7fdf 823d
000002c0: 747a 2b3e d60f 5abd 4e73 f6bd 3d2b 26be
000002d0: bebf a8bd e654 e8bd 2271 e83c 020c fc3d
000002e0: 8ef5 12be c8d2 713d a840 d8bd 5642 5fbd
000002f0: 1962 2fbd e322 0fbe 49c1 263e 81be fdbd
00000300: 81c7 2c3e 3cba c2bd 6d9d b7bd 78a4 0bbe
00000310: 1902 88bd 8f38 93bd 74da 33bd a47c e2bd
00000320: 7916 37bd 9d9e 923c cbb6 fabd ed07 653d
00000330: a2c7 3bbd 34f9 56bd 1df4 8f3d 8006 27bd
00000340: 5de1 243e 494e 37be 48c7 f3bd cf3b ef3c
00000350: e873 9fbc 9c65 393e e8b7 d2bd 17b1 7f3d
00000360: 6799 17bd ef74 17bd 280c d8bd 8e30 e03d
00000370: 94af f6bd bbd1 3fbb 6544 123e b67d 1b3e
00000380: 6a21 ea3d ce3b 053e 4cae ad3d 4a30 aa36
00000390: 032a c83c 41ca 34bc 61e2 26bb a53b 6d3d
000003a0: 9214 1a3d 51e6 363c 9b26 7b3c 4e4b 143e
000003b0: 8f95 f6bd df07 b7bd d932 6bbd 2304 dfbd
000003c0: fe1b 2dbe 0f94 8d3d 4806 163e e359 cc3d
000003d0: 9191 003e 623e 783b 2331 f13d d349 d5bd
000003e0: a214 9abc 3c91 f43d c733 eabd dfcd 2c3e
000003f0: 7df6 fabd 8bf7 633d c879 ad3d 0225 fa3c

convs.0.mp_levels.0.combine_nn.0.bias f4 [16]
0.11860501 -0.12803526 -0.12284333 -0.13602869 0.000114248985 -0.009644819 -0.039946575 0.1330446
0.04437774 0.0906183 -0.13275193 0.15984732 -0.03761717 0.04976338 0.14540146 -0.1738527
00000000: 2fe7 f23d ad1b 03be 4995 fbbd 1b4b 0bbe
00000010: f598 ef38 4e05 1ebc 059f 23bd d83c 083e
00000020: 6fc5 353d 1696 b93d 1ff0 07be 04af 233e
00000030: 7614 1abd b0d4 4b3d 1fe4 143e 7106 32be

convs.0.mp_levels.1.msg_up_nn.1.weight f4 [1, 2]
-0.03287377 0.114876285
00000000: a5a6 06bd 4244 eb3d

convs.0.mp_levels.1.update_up_nn.0.weight f4 [16, 1]
0.67103225 -0.1961558 -0.8836693 0.18066587 0.89852303 0.0024121823 0.33655435 -0.5560912
-0.42301455 -0.102895305 0.36507228 -0.0006681614 -0.14895564 0.66135746 0.23400992 0.39530537
00000000: c5c8 2b3f 11dd 48be 2738 62bf 7900 393e
00000010: 9b05 663f b415 1e3b da50 ac3e fe5b 0ebf
00000020: 5d95 d8be c6ba d2bd c1ea ba3e 8d27 2fba
00000030: d487 18be b94e 293f 4ca0 6f3e 7765 ca3e

convs.0.mp_levels.1.update_up_nn.0.bias f4 [16]
-0.6544776 -0.15665404 -0.83766145 -0.8699605 0.37744734 -0.50875014 0.26268467 -0.56060404
-0.13253376 -0.68136346 0.13123019 0.26628828 0.30770928 0.50669086 -0.57550347 0.38003978
00000000: d88b 27bf eb69 20be fb70 56bf bbb5 5ebf
00000010: c740 c13e 733d 02bf 9b7e 863e bf83 0fbf
00000020: eeb6 07be d66d 2ebf 3561 063e f056 883e
00000030: 128c 9d3e 7eb6 013f 3254 13bf 9394 c23e

convs.0.mp_levels.1.update_boundaries_nn.0.weight f4 [16, 1]
0.9433923 -0.48267382 0.09068155 -0.32525253 -0.5470793 0.63554066 0.37415567 -0.98867583
-0.06859197 -0.87242043 -0.6872454 0.5216061 0.4605351 0.30305582 0.744875 0.29021883
00000000: 2882 713f 0621 f7be 40b7 b93d 8087 a6be
00000010: 640d 0cbf cbb2 223f 5591 bf3e dc19 7dbf
00000020: f279 8cbd f256 5fbf 51ef 2fbf fa87 053f
00000030: 42cb eb3e 222a 9b3e 21b0 3e3f 9097 943e

convs.0.mp_levels.1.update_boundaries_nn.0.bias f4 [16]
-0.6711767 -0.8049626 -0.32060465 -0.7444832 0.92727184 0.59929985 0.0558641 0.47762254
-0.46796143 0.043162383 -0.26274446 -0.4241676 -0.26925594 0.47884756 0.7094064 -0.61865985
00000000: 3cd2 2bbf 0712 4ebf 4b26 a4be 7396 3ebf
00000010: b061 6d3f b76b 193f c1d1 643d f18a f43e
00000020: a498 efbe 0acb 303d 7186 86be 7f2c d9be
00000030: eadb 89be 822b f53e a89b 353f 7e60 1ebf

convs.0.mp_levels.1.combine_nn.0.weight f4 [16, 32]
-0.11567541 0.020634959 -0.038447056 -0.0058803167 -0.15271476 0.07952966 0.020345941 0.03016359
-0.110853046 -0.1759931 0.06431604 0.1821359 0.1685631 0.02628318 -0.16444314 0.027395796
0.05980206 0.015830386 0.03325278 0.030480012 0.13892351 -0.15460065 -5.5184188e-05 0.1182557
-0.16156237 0.08060044 -0.15360582 -0.053771585 -0.15638895 0.075851105 -0.043649048 -0.118056685
0.062431768 -0.027126445 -0.0937547 -0.027420348 0.1666955 0.05368416 0.10116777 0.13466088
-0.013972814 0.12744801 -0.12549509 0.17090063 -0.030789386 -0.13468109 -0.019141922 0.12602048
0.059843745 0.03135991 -0.15598132 0.15209475 -0.0213399 -0.004444618 -0.14624459 0.081884235
-0.10990794 0.14948 -0.039442092 0.17172323 -0.051101353 -0.03859307 0.08283556 -0.007796441
-0.06672602 -0.028912177 -0.0107826535 -0.11863529 0.15760548 -0.09573921 -0.06714089 0.046374653
-0.10804346 -0.03072545 0.118329845 -0.042409148 -0.021924732 0.086257935 0.16434671 0.14516035
-0.13247816 -0.028659627 -0.144521 -0.0128539335 -0.10428082 0.10613905 0.039889675 0.13827041
0.18080863 -0.06627212 0.030868819 0.11020875 -0.11446836 0.07155703 -0.16089417 -0.037686497
-0.1030528 0.15588982 0.14943686 -0.06478214 0.040455766 -0.06379993 0.15180023 0.020466708
-0.12408438 0.03302093 -0.18306947 -0.12875634 -0.04456003 -0.08360426 -0.11420336 -0.021175727
0.16010943 -0.11931483 -0.10841661 -0.016358534 -0.041207474 -0.11057202 0.15758479 -0.05340401
-0.09865506 0.041373678 0.15903327 -0.017737152 -0.13808143 -0.029316716 0.16185018 0.027077613
0.15115069 -0.17918962 0.046212886 0.12707563 -0.09572572 -0.05107606 -0.15715577 -0.108163506
0.10618512 0.050962027 0.1796419 -0.11654015 -0.1444523 0.05706902 -0.16819261 -0.10535245
-0.0035588993 -0.0019262508 -0.16524248 -0.15341672 0.05852708 0.12011369 0.036154773 -0.16762455
0.03574705 -0.159577 -0.046502247 0.01005859 0.098612316 -0.056643106 0.07488812 -0.06951376
0.09264217 -0.17582488 -0.09947036 -0.07723055 -0.059995797 0.15171702 -0.048046615 -0.12199227
-0.059824094 -0.15922634 0.09654615 -0.052034277 0.09491325 0.17681758 -0.13148208 -0.101120576
-0.11183716 -0.017511915 -0.07468886 -0.13591942 -0.08297938 -0.10380935 -0.0033064357 -0.15677316
-0.09051141 0.02987806 -0.094012305 0.06505937 -0.08952957 0.14499755 -0.029280398 0.09302557
0.07567881 0.1588695 -0.07134597 -0.111500934 0.054510538 -0.099270605 -0.14390416 0.106400885
0.06587749 0.028412107 -0.02290728 0.14583153 -0.100294136 0.16199212 -0.12464875 0.05465858
0.14404833 0.16449645 -0.09153374 0.12012362 -0.041314673 -0.061683092 0.013883541 -0.044042088
0.14595182 -0.09698204 0.014674043 0.15124017 0.056633234 -0.008638038 -0.10907367 -0.17491274
-0.06579283 0.13408619 -0.018952979 -0.1491126 -0.14529169 -0.122066215 0.091444395 -0.0028269014
0.0684549 -0.093409464 -0.017485313 0.16186947 0.06484331 0.041153897 0.07610879 0.17487775
-0.11784304 0.06963284 -0.16146716 -0.021429043 -0.17118469 -0.16293171 0.020581312 -0.097452566
0.15662237 -0.16327196 0.12126324 0.04075831 0.12680589 -0.020077292 0.09272305 0.01458874
00000000: 3be7 ecbd a50a a93c a97a 1dbd acaf c0bb
00000010: 4261 1cbe 72e0 a23d 88ac a63c a219 f73c
00000020: ec06 e3bd 8937 34be 21b8 833d d581 3a3e
00000030: ce9b 2c3e d34f d73c c863 28be 266d e03c
00000040: 01f3 743d baae 813c 1134 083d 38b1 f93c
00000050: f741 0e3e a24f 1ebe 9275 67b8 0b30 f23d
00000060: 9b70 25be d811 a53d d84a 1dbe 983f 5cbd
00000070: 6d24 20be d357 9b3d 58c9 32bd b4c7 f1bd
00000080: 74b8 7f3d 4738 debc 7702 c0bd a3a0 e0bc
00000090: 3ab2 2a3e ece3 5b3d 0c31 cf3d 8be4 093e
000000a0: 3bee 64bc bb81 023e c981 00be 9300 2f3e
000000b0: 063a fcbc d7e9 09be 85cf 9cbc 830b 013e
000000c0: b71e 753d 4073 003d 91b9 1fbe babe 1b3e
000000d0: 04d1 aebc 28a4 91bb 24c1 15be ecb2 a73d
000000e0: 6a17 e1bd 4911 193e 088e 21bd 37d8 2f3e
000000f0: a74f 51bd c413 1ebd b1a5 a93d 4a79 ffbb
00000100: a7a7 88bd 3bd9 ecbc baa9 30bc 0ff7 f2bd
00000110: 5563 213e eb12 c4bd 2a81 89bd 59f3 3d3d
00000120: e445 ddbd f0b3 fbbc eb56 f23d 37b5 2dbd
00000130: 7f9b b3bc 00a8 b03d 814a 283e eaa4 143e
00000140: 5ba8 07be 98c7 eabc 50fd 13be 4e99 52bc
00000150: 2f91 d5bd 6e5f d93d 5b63 233d c296 0d3e
00000160: e625 393e adb9 87bd 9be0 fc3c 20b5 e13d
00000170: 636e eabd 7e8c 923d 71c1 24be 285d 1abd
00000180: 590d d3bd 95a1 1f3e fa05 193e 80ac 84bd
00000190: f2b4 253d 8aa9 82bd 8571 1b3e cca9 a73c
000001a0: f41f febd f440 073d 9076 3bbe b4d8 03be
000001b0: 9484 36bd b638 abbd 74e3 e9bd b878 adbc
000001c0: baf3 233e 555b f4bd 8709 debd 5502 86bc
000001d0: 2bc9 28bd 9573 e2bd e85d 213e 2abe 5abd
000001e0: aa0b cabd 7277 293d 9ed9 223e 814d 91bc
000001f0: 3865 0dbe 9c29 f0bc 0ebc 253e dfd1 dd3c
00000200: 3fc7 1a3e 7c7d 37be b949 3d3d 1d20 023e
00000210: d90b c4bd 2135 51bd 71ed 20be d484 ddbd
00000220: 9677 d93d 8fbd 503d 0cf4 373e 9aac eebd
00000230: 4eeb 13be 34c1 693d af3a 2cbe 06c3 d7bd
00000240: 6c3c 69bb 407a fcba 5335 29be 4619 1dbe
00000250: 17ba 6f3d 2bfe f53d 0717 143d c5a5 2bbe
00000260: 806b 123d 2768 23be 2479 3ebd c9cc 243c
00000270: 41f5 c93d 9a02 68bd f15e 993d 3b5d 8ebd
00000280: 2ebb bd3d 700b 34be 1eb7 cbbd 0d2b 9ebd
00000290: 27be 75bd b55b 1b3e 87cc 44bd 15d7 f9bd
000002a0: 1c0a 75bd 3b0c 23be fdb9 c53d e521 55bd
000002b0: e161 c23d ab0f 353e 3da3 06be 4e18 cfbd
000002c0: e20a e5bd 2675 8fbc 79f6 98bd 762e 0bbe
000002d0: 18f1 a9bd ff99 d4bd c9b0 58bb 2589 20be
000002e0: 0c5e b9bd d5c2 f43c 8689 c0bd d93d 853d
000002f0: 475b b7bd 3d7a 143e 72dd efbc 3184 be3d
00000300: 7efd 9a3d b0ae 223e d61d 92bd 9a5a e4bd
00000310: 7146 5f3d 634e cbbd 9d5b 13be b5e8 d93d
00000320: c7ea 863d 82c0 e83c 0ca8 bbbc dc54 153e
00000330: 0367 cdbd 43e1 253e d847 ffbd ade1 5f3d
00000340: 6881 133e c271 283e 0b76 bbbd 5f03 f63d
00000350: 9339 29bd 69a7 7cbd cb77 633c 7a65 34bd
00000360: 6574 153e 859e c6bd 666b 703c b4de 1a3e
00000370: 40f8 673d 8f86 0dbc 0462 dfbd 531c 33be
00000380: 64be 86bd e44d 093e 4743 9bbc f9b0 18be
00000390: 58c7 14be dafd f9bd 3347 bb3d 8943 39bb
000003a0: 1532 8c3d 764d bfbd 5c3d 8fbc 1cc1 253e
000003b0: 92cc 843d fd90 283d edde 9b3d 2713 333e
000003c0: b157 f1bd aa9b 8e3d a657 25be f68b afbc
000003d0: 0a4b 2fbe 92d7 26be 249a a83c 3695 c7bd
000003e0: 9d61 203e c430 27be dd58 f83d 30f2 263d
000003f0: 67d9 013e 2279 a4bc 95e5 bd3d 9c05 6f3c

convs.0.mp_levels.1.combine_nn.0.bias f4 [16]
0.07221226 0.15291935 -0.044074498 0.04119411 -0.07617414 0.16813132 -0.15494017 0.13177088
-0.046089932 0.04413268 -0.10317321 0.027257618 0.10393078 -0.010573785 -0.022128055 -0.032982636
00000000: 05e4 933d e496 1c3e 7687 34bd 28bb 283d
00000010: 3001 9cbd 9e2a 2c3e a3a8 1ebe f2ee 063e
00000020: ccc8 3cbd 78c4 343d 7a4c d3bd 5e4b df3c
00000030: a9d9 d43d ab3d 2dbc e545 b5bc cd18 07bd

convs.0.mp_levels.2.msg_up_nn.1.weight f4 [1, 2]
-0.505908 -0.68238044
00000000: 3083 01bf 7cb0 2ebf

convs.0.mp_levels.2.update_up_nn.0.weight f4 [16, 1]
-0.005891888 0.22778238 -0.67386824 0.6165708 0.8957303 -0.4648308 -0.16509514 -0.46574783
0.7238406 0.011925798 -0.6730654 0.75573015 0.15423891 -0.33852562 -0.16958454 -0.3191029
00000000: bd10 c1bb c93f 693e a182 2cbf 95d7 1d3f
00000010: 954e 653f 4dfe edbe b30e 29be 8076 eebe
00000020: 9e4d 393f 6c64 433c 044e 2cbf 8877 413f
00000030: cef0 1d3e 3b53 adbe 92a7 2dbe 7561 a3be

convs.0.mp_levels.2.update_up_nn.0.bias f4 [16]
-0.5714141 -0.7028449 0.118940026 0.7312812 -0.68287194 -0.37517062 0.459636 0.9020538
0.88472915 -0.2999483 0.39855355 -0.89975 -0.7390903 -0.48710534 -0.4631012 0.028442347
00000000: 3248 12bf a5ed 33bf d496 f33d 3f35 3b3f
00000010: b2d0 2ebf 5d16 c0be 6955 eb3e ffec 663f
00000020: 9c7d 623f d392 99be 360f cc3e 0456 66bf
00000030: 0635 3dbf df65 f9be 9a1b edbe edff e83c

convs.0.mp_levels.2.update_boundaries_nn.0.weight f4 [16, 1]
-0.41910726 -0.17260253 -0.62819356 0.32362098 0.7016263 -0.15869513 -0.07163295 -0.9801253
-0.22590907 -0.15824595 0.46871352 -0.62681216 0.6718866 0.11335952 0.61790246 0.88545805
00000000: 3a95 d6be b8be 30be 4bd1 20bf a6b1 a53e
00000010: c89d 333f fa80 22be 4cb4 92bd 7ee9 7abf
00000020: b554 67be 3a0b 22be 38fb ef3e c376 20bf
00000030: c300 2c3f 0929 e83d db2e 1e3f 61ad 623f

convs.0.mp_levels.2.update_boundaries_nn.0.bias f4 [16]
0.36599806 0.122065105 -0.08653255 0.6001797 -0.28154603 -0.4316683 0.74647367 0.66577387
0.92951035 -0.64327675 -0.5375387 0.9415018 -0.2652559 -0.3654998 -0.8460343 -0.5456638
00000000: 1964 bb3e 45fd f93d fa37 b1bd 60a5 193f
00000010: cd26 90be a103 ddbe e618 3f3f 2870 2a3f
00000020: 64f4 6d3f c9ad 24bf 239c 09bf 4306 713f
00000030: 9fcf 87be ca22 bbbe b495 58bf 9fb0 0bbf

convs.0.mp_levels.2.combine_nn.0.weight f4 [16, 32]
-0.13283142 -0.15381815 0.13331246 -0.114610314 -0.005092095 -0.1703924 0.14217068 0.0014297459
-0.15598355 -0.15523586 -0.0073749605 0.06550342 0.082874835 0.12702474 -0.10275792 0.15466328
-0.001844295 0.11474269 -0.06664982 0.15201434 -0.09285388 -0.052332647 -0.15437534 0.0652681
0.0018144215 -0.13640715 -0.13118911 0.13223624 -0.043849695 0.17082515 0.14661087 -0.109765835
0.15566096 -0.021819402 0.02610189 -0.07586336 0.09630728 0.16712013 -0.032751404 0.09358734
0.033556197 -0.014767953 -0.06914957 -0.016502436 -0.093286395 0.16344772 0.00090487057 0.09913252
-0.053374488 0.049501676 -0.15240048 -0.15529591 -0.12894177 -0.16330923 -0.14154261 0.01803627
0.081969775 0.14331782 0.10392872 0.09492172 -0.06960057 0.15668574 0.17221956 -0.05789629
0.10314795 0.17072871 -0.029714849 -0.17374939 0.06394066 -0.12659517 -0.17065077 -0.08907211
0.039314896 -0.060248557 -0.087138124 0.08136891 -0.07740044 0.00041766194 0.1406123 0.14641452
0.12458727 -0.031995572 -0.11490297 0.03495789 -0.06795243 -0.1110821 0.04041658 -0.13021955
-0.057463635 -0.17383346 0.06575911 0.043292902 0.061828252 -0.03277043 0.017980834 -0.14840083
-0.05528033 0.020252567 0.11523965 -0.00046854452 0.151322 0.052100275 -0.056597453 0.16344957
0.17103496 0.068004884 -0.14182416 0.021756062 -0.07757334 -0.101246424 -0.015431071 -0.10983538
0.10698462 -0.01727141 0.016934788 0.0020622953 -0.12032717 0.008444267 0.019584777 -0.13696234
0.15264596 -0.06844282 0.16900009 0.14056976 0.1560217 -0.13849826 -0.057520133 -0.038197443
-0.03961706 0.05648753 -0.011837167 0.16622765 0.052385863 0.11327847 -0.032073043 0.1450778
-0.1531837 0.10499797 0.032167252 -0.038843896 -0.11762955 -0.03427521 0.0357076 0.099605136
-0.11733657 -0.0389677 0.060627688 0.08066888 -0.17314841 0.07319905 0.1391401 0.15860906
0.10557061 -0.06310553 -0.119955026 -0.026776168 0.16571325 -0.07919045 -0.03913696 -0.099663325
-0.13540018 -0.013980552 -0.14235239 0.118594006 -0.16463433 0.124370836 -0.07271463 -0.139217
0.026791258 -0.14230436 0.08843455 0.13254751 -0.06937754 -0.0952137 0.05409383 0.047163688
-0.18438779 -0.15111804 -0.14995697 -0.09050957 0.12556864 -0.034235142 0.1715377 0.083101965
0.1531858 -0.0043178983 0.10075716 -0.12543331 0.08142746 -0.07188221 0.04153588 0.1398903
0.06456075 -0.0011245925 -0.117825784 0.1575582 -0.050590076 0.14591174 0.01906175 0.052339975
0.07540011 -0.02265323 -0.12240862 -0.14651725 -0.0194115 -0.14193544 0.14304718 0.027436728
0.028625173 -0.0063569914 -0.14730227 0.07777203 0.13173155 0.0068121054 0.17738011 0.16178891
-0.15519616 0.15458767 -0.08494167 0.08064039 0.15012226 0.18503933 -0.07964075 -0.08240395
-0.16705686 -0.08033566 0.14657657 -0.12410488 0.00094861444 -0.05115065 -0.0007529541 0.11039394
0.14317407 0.12308067 0.13515137 0.0557701 0.048199758 -0.08622101 -0.0107289 0.08605433
-0.03932929 0.07516663 -0.119695924 0.05573703 0.1457098 -0.12108801 -0.039397385 0.031816132
-0.044199083 -0.15533924 0.11008474 -0.016834507 0.07867834 0.09250739 0.10708 0.15728667
00000000: f604 08be 8182 1dbe 1083 083e d0b8 eabd
00000010: 97db a6bb 587b 2ebe 3195 113e 5066 bb3a
00000020: 27ba 1fbe 26f6 1ebe a7a9 f1bb a826 863d
00000030: 48ba a93d c612 023e bf72 d2bd 0d60 1e3e
00000040: 45bc f1ba 37fe ea3d b37f 88bd a6a9 1b3e
00000050: 2d2a bebd c25a 56bd 9214 1ebe 48ab 853d
00000060: e2d1 ed3a 51ae 0bbe 7056 06be f068 073e
00000070: bd9b 33bd caec 2e3e 2921 163e e9cc e0bd
00000080: 9665 1f3e 9abe b2bc a1d3 d53c 405e 9bbd
00000090: c03c c53d 8a21 2b3e 5626 06bd b8aa bf3d
000000a0: 3972 093d 49f5 71bc 4a9e 8dbd 1e30 87bc
000000b0: f00c bfbd d75e 273e d634 6d3a fe05 cb3d
000000c0: 359f 5abd 45c2 4a3d df0e 1cbe e405 1fbe
000000d0: 5009 04be 893a 27be 8cf0 10be cdc0 933c
000000e0: c5df a73d e8c1 123e 95d8 d43d 5266 c23d
000000f0: be8a 8ebd 3a72 203e 535a 303e a924 6dbd
00000100: 3b3f d33d 82d3 2e3e 8e6c f3bc 5ceb 31be
00000110: 52f3 823d 2aa2 01be 13bf 2ebe 706b b6bd
00000120: a808 213d 31c7 76bd 7975 b2bd bea4 a63d
00000130: 1f84 9ebd a3f9 da39 acfc 0f3e b0ed 153e
00000140: 9c27 ff3d ca0d 03bd 4052 ebbd 0130 0f3d
00000150: a52a 8bbd 037f e3bd db8b 253d 4658 05be
00000160: fd5e 6bbd 6601 32be b6ac 863d e653 313d
00000170: 9f3f 7d3d 493a 06bd 8b4c 933c 63f6 17be
00000180: a16d 62bd b6e8 a53c c402 ec3d fba6 f5b9
00000190: 28f4 1a3e 1967 553d bbd2 67bd 535f 273e
000001a0: ca23 2f3e 2546 8b3d 5a3a 11be c539 b23c
000001b0: c5de 9ebd 495a cfbd 9ad2 7cbc 5ff1 e0bd
000001c0: c11a db3d c67c 8dbc d3ba 8a3c 9327 073b
000001d0: 176e f6bd d359 0a3c 4170 a03c db3f 0cbe
000001e0: 394f 1c3e c02b 8cbd 5c0e 2d3e 85f1 0f3e
000001f0: 27c4 1f3e 7dd2 0dbe 3b9a 6bbd ec74 1cbd
00000200: 8045 22bd 785f 673d adf0 41bc 9537 2a3e
00000210: 8f92 563d 8bfe e73d 065f 03bd 468f 143e
00000220: 30dc 1cbe 2d09 d73d cfc1 033d c71a 1fbd
00000230: c3e7 f0bd 2a64 0cbd 2242 123d c7fd cb3d
00000240: 284e f0bd 989c 1fbd bd54 783d ba35 a53d
00000250: d14d 31be 62e9 953d be7a 0e3e 6a6a 223e
00000260: 6735 d83d 793d 81bd fbaa f5bd b259 dbbc
00000270: bcb0 293e 9a2e a2bd 144e 20bd 491c ccbd
00000280: 58a6 0abe af0e 65bc d3c4 11be 6ae1 f23d
00000290: e795 28be 23b6 fe3d 68eb 94bd e78e 0ebe
000002a0: 5779 db3c 3cb8 11be 2c1d b53d 89ba 073e
000002b0: d015 8ebd 66ff c2bd 7e91 5d3d b62e 413d
000002c0: 27d0 3cbe b0be 1abe 528e 19be 155d b9bd
000002d0: 1195 003e 263a 0cbd 94a7 2f3e 5d31 aa3d
000002e0: bddc 1c3e 287d 8dbb c559 ce3d 9771 00be
000002f0: 71c3 a63d fb36 93bd 8721 2a3d 673f 0f3e
00000300: 6d38 843d 1067 93ba a54e f1bd f056 213e
00000310: 8a37 4fbd e369 153e 6327 9c3c 7162 563d
00000320: 5f6b 9a3d 4493 b9bc 5fb1 fabd 9e08 16be
00000330: de04 9fbc 8657 11be f67a 123e fdc2 e03c
00000340: 577f ea3c 4f4e d0bb 68d6 16be f146 9f3d
00000350: a3e4 063e 1538 df3b 22a3 353e feab 253e
00000360: beeb 1ebe 3b4c 1e3e e6f5 adbd ca26 a53d
00000370: a6b9 193e f37a 3d3e b11a a3bd 67c3 a8bd
00000380: f410 2bbe 0687 a4bd 2b18 163e b32a febd
00000390: 70ac 783a 5883 51bd e561 45ba 3816 e23d
000003a0: 399c 123e b811 fc3d 1f65 0a3e 306f 643d
000003b0: 1c6d 453d a494 b0bd 45c8 2fbc 413d b03d
000003c0: c017 21bd f6f0 993d 2323 f5bd 834c 643d
000003d0: f334 153e fefc f7bd 275f 21bd a251 023d
000003e0: 190a 35bd 4011 1fbe 1c74 e13d 85e8 89bc
000003f0: 1c22 a13d 8474 bd3d c24c db3d c20f 213e

convs.0.mp_levels.2.combine_nn.0.bias f4 [16]
-0.14529756 0.06497229 0.17509878 0.055623982 -0.0053544817 0.1732712 -0.14433518 -0.009805289
0.10316348 -0.13504705 -0.017492369 -0.08234878 -0.13231747 -0.11803887 -0.0028496278 -0.015229593
00000000: e2c8 14be 3110 853d 184d 333e f9d5 633d
00000010: a674 afbb 016e 313e 9acc 13be 5da6 20bc
00000020: 6047 d33d c649 0abe 284c 8fbc 7aa6 a8bd
00000030: 3b7e 07be 5dbe f1bd d2c0 3abb 8b85 79bc

convs.0.mp_levels.3.msg_up_nn.1.weight f4 [1, 2]
-0.16064034 0.38193363
00000000: e77e 24be ce8c c33e

convs.0.mp_levels.3.update_up_nn.0.weight f4 [16, 1]
0.5319571 0.13446407 -0.10720609 -0.48717886 -0.7541488 0.22007771 -0.979121 -0.83359945
0.31258935 0.21752651 0.23892796 -0.6215906 -0.004946216 -0.2909378 0.97809666 0.4648304
00000000: 572e 083f f3b0 093e de8e dbbd 826f f9be
00000010: e50f 41bf 0d5c 613e ada7 7abf c666 55bf
00000020: b60b a03e 45bf 5e3e 88a9 743e 9020 1fbf
00000030: de13 a2bb cdf5 94be 8b64 7a3f 40fe ed3e

convs.0.mp_levels.3.update_up_nn.0.bias f4 [16]
-0.17719844 -0.20706065 -0.22547828 0.6103315 0.9320745 -0.9681843 -0.22869231 0.7415116
0.25562426 -0.018601982 -0.21484423 0.24472216 0.5382852 -0.6910974 0.42287144 -0.029704511
00000000: 8273 35be b507 54be c7e3 66be af3e 1c3f
00000010: 6f9c 6e3f edda 77bf 512e 6abe b4d3 3d3f
00000020: 2fe1 823e 2f63 98bc 2000 5cbe 7298 7a3e
00000030: 0fcd 093f c2eb 30bf 9b82 d83e e056 f3bc

convs.0.mp_levels.3.update_boundaries_nn.0.weight f4 [16, 1]
0.98061186 0.38197744 0.3109234 0.5312322 -0.6736524 0.32301578 0.37550563 -0.45405647
0.28473493 -0.038747568 -0.4772466 -0.7005871 -0.98747224 -0.4585375 -0.6240721 0.6909989
00000000: 6109 7b3f 8c92 c33e 5a31 9f3e d5fe 073f
00000010: 7c74 2cbf 5362 a53e 4642 c03e 177a e8be
00000020: c7c8 913e c5b5 1ebd ab59 f4be ad59 33bf
00000030: fbca 7cbf 6dc5 eabe 30c3 1fbf 4ee5 303f

convs.0.mp_levels.3.update_boundaries_nn.0.bias f4 [16]
-0.88132596 0.51674443 -0.7136083 -0.03764127 -0.20512424 -0.09467019 -0.6040854 -0.122363165
-0.40564147 -0.118504435 -0.74355584 0.4184794 -0.70399886 -0.09860188 0.3428829 -0.643338
00000000: 949e 61bf 5d49 043f 09af 36bf bb2d 1abd
00000010: 170c 52be 72e2 c1bd 57a5 1abf 8a99 fabd
00000020: 3db0 cfbe 74b2 f2bd ad59 3ebf ef42 d63e
00000030: 4539 34bf c8ef c9bd 598e af3e cdb1 24bf

convs.0.mp_levels.3.combine_nn.0.weight f4 [16, 32]
0.11616201 -0.04724812 -0.027566627 0.111280575 -0.063880734 -0.024999281 0.0022552058 -0.14066602
-0.071860224 0.04018192 -0.11627495 0.116210096 0.18036047 0.11639597 0.07920239 -0.07180656
0.12130699 0.057063624 -0.10685262 -0.08950995 -0.11413924 -0.083696514 -0.06450733 -0.1481557
-0.04871304 -0.089982934 -0.0350118 0.03735293 -0.03518308 0.085379526 -0.0468846 0.03198692
0.029004963 0.037793603 0.01149749 -0.089034535 0.05712534 0.13843976 -0.123594865 -0.11170019
-0.0177454 0.0029898724 -0.028878093 0.14751439 -0.029761372 -0.10897515 0.079709776 -0.120107174
0.15255134 -0.13072741 0.11680788 -0.1123176 -0.16577417 0.1655567 -0.12266649 0.07501747
0.14581528 0.029255642 -0.106902085 0.059868846 -0.112853184 0.11801616 -0.0050646965 -0.1465268
0.040473413 0.09457236 -0.000863737 0.118840605 0.14294623 -0.07099151 -0.09794011 -0.001239346
-0.12301467 -0.104589075 -0.13442218 -0.06609331 -0.030023508 -0.07087544 -0.15515094 -0.100971065
0.09508208 0.13386428 -0.16270334 0.09612896 -0.013358367 0.06916906 0.078707725 0.018128846
0.005982476 -0.008331732 0.12428262 -0.022047319 0.101758756 0.10601847 0.03978014 -0.037270866
-0.011284506 0.07236513 -0.14932574 -0.05126795 0.08474905 0.12907776 0.118640676 -0.0085857045
-0.157015 0.13023055 0.012971662 0.091378294 -0.11311835 -0.020352414 -0.17038907 -0.088282585
0.0037032866 0.11962852 -0.12276412 0.15404873 -0.14759299 -0.1501104 0.025753379 -0.13662815
0.10173897 0.08584163 0.036486868 0.13402131 0.0818701 0.043416325 -0.07368573 -0.042742893
0.088415414 -0.12147095 0.09898164 0.07665929 -0.048525512 -0.17008533 -0.13978192 0.036575995
0.16333593 -0.16929252 -0.10506458 0.110118404 0.057635725 -0.14001341 -0.07695978 -0.021274539
-0.1769221 0.106301166 0.09843723 0.078178145 0.10813744 -0.054530997 -0.123304226 0.07299251
-0.10183908 -0.099792324 0.09563887 0.100482516 0.0733171 0.065023586 0.0008959106 0.0038070178
-0.110334665 0.12148687 0.105648 0.084575556 0.09981657 0.1535136 0.12792689 0.03402145
-0.10162565 0.026336381 -0.09300228 0.17113523 0.055646744 0.09383195 0.08220703 0.06013113
-0.08066783 0.057344522 -0.043687303 0.016542023 0.073679395 -0.14386071 -0.12312638 -0.025272107
0.11518258 -0.0977105 -0.12222295 0.003820446 0.08518075 -0.07508015 0.011410597 -0.18197572
0.15867458 0.16379932 -0.094962016 0.032039635 -0.14752823 0.16812016 0.13091882 0.034137458
-0.14815469 0.13876905 0.08695698 -0.13556452 0.09922271 -0.10811621 -0.00784627 0.0170678
0.06155241 0.111536935 0.047474578 -0.037371952 -0.11908593 0.0646171 -0.103622906 -0.054838367
-0.110991254 0.11992217 -0.079972856 0.11837574 -0.10107098 -0.009577625 0.080075495 -0.044506285
-0.051942483 -0.10500801 -0.09274536 0.1495273 -0.074358635 0.019949479 0.17776899 -0.041033387
-0.05557914 0.13742712 0.088271186 -0.0031893665 0.09327125 0.12535508 -0.14154835 -0.102727436
-0.0066381586 -0.081218906 -0.03450017 0.15672942 -0.081419356 0.103672005 0.15868123 0.14617184
-0.1470322 -0.094363436 -0.06382678 -0.14803459 -0.14067766 0.079548396 0.06057346 -0.06188883
00000000: 59e6 ed3d 3f87 41bd 68d3 e1bc 12e7 e33d
00000010: e7d3 82bd 4bcb ccbc 13cc 133b c10a 10be
00000020: 742b 93bd cc95 243d 9021 eebd 8fff ed3d
00000030: 6ab0 383e 0361 ee3d dd34 a23d 510f 93bd
00000040: cd6f f83d 8cbb 693d 8cd5 dabd fe50 b7bd
00000050: d5c1 e9bd 1469 abbd 6b1c 84bd 21b6 17be
00000060: 5387 47bd f948 b8bd 8868 0fbd 63ff 183d
00000070: 221c 10bd 76db ae3d 110a 40bd b704 033d
00000080: d19b ed3c 77cd 1a3d f85f 3c3c bd57 b6bd
00000090: 43fc 693d 27c3 0d3e 4e1f fdbd 12c3 e4bd
000000a0: cd5e 91bc bcf1 433b c091 ecbc 030e 173e
000000b0: 1fce f3bc 5d2e dfbd e13e a33d c0fa f5bd
000000c0: 6b36 1c3e 68dd 05be f838 ef3d c506 e6bd
000000d0: b4c0 29be b287 293e 9238 fbbd c2a2 993d
000000e0: 9a50 153e 87a9 ef3c 7bef dabd 0939 753d
000000f0: 921f e7bd 75b2 f13d c1f5 a5bb 1f0b 16be
00000100: 73c7 253d 27af c13d 696c 62ba b462 f33d
00000110: 7f60 123e ff63 91bd d394 c8bd 8d71 a2ba
00000120: 1eef fbbd cc32 d6bd f8a5 09be ee5b 87bd
00000130: dcf3 f5bc 2527 91bd e3df 1ebe ebc9 cebd
00000140: 65ba c23d b813 093e b49b 26be 43df c43d
00000150: 0ddd 5abc 82a8 8d3d 8431 a13d f282 943c
00000160: a508 c43b d181 08bc e387 fe3d 949c b4bc
00000170: e566 d03d 3620 d93d 80f0 223d 56a9 18bd
00000180: a6e2 38bc 2b34 943d d9e8 18be 58fe 51bd
00000190: e990 ad3d f62c 043e e2f9 f23d 0eab 0cbc
000001a0: 8ac8 20be 285b 053e 1887 543c 8b24 bb3d
000001b0: 98aa e7bd 1bba a6bc 797a 2ebe 80cd b4bd
000001c0: d7b2 723b ccff f43d c16b fbbd f3be 1d3e
000001d0: 9e22 17be 8ab6 19be c0f8 d23c 40e8 0bbe
000001e0: 855c d03d bdcd af3d 4173 153d e23c 093e
000001f0: 83ab a73d 51d5 313d 8be8 96bd 2c13 2fbd
00000200: 2413 b53d c3c5 f8bd e3b6 ca3d 8cff 9c3d
00000210: b0c2 46bd d92a 2ebe fe22 0fbe b6d0 153d
00000220: 8941 273e 055b 2dbe 192c d7bd c285 e13d
00000230: 7013 6c3d ad5f 0fbe 179d 9dbd f147 aebc
00000240: 112b 35be 6db4 d93d 7599 c93d dd1b a03d
00000250: 2a77 dd3d e55b 5fbd ed86 fcbd 197d 953d
00000260: 0291 d0bd eb5f ccbd 50de c33d c7c9 cd3d
00000270: 4727 963d 162b 853d 8bdb 6a3a 297f 793b
00000280: 24f7 e1bd 1cce f83d fb5d d83d f335 ad3d
00000290: a16c cc3d ab32 1d3e 44ff 023e 135a 0b3d
000002a0: 1c21 d0bd 65bf d73c fb77 bebd 133e 2f3e
000002b0: d7ed 633d f72a c03d 295c a83d 0f4c 763d
000002c0: 2d35 a5bd 17e2 6a3d 75f1 32bd 2383 873c
000002d0: 39e5 963d 3950 13be af29 fcbd 7307 cfbc
000002e0: d8e4 eb3d 711c c8bd 0750 fabd 7360 7a3b
000002f0: 3f73 ae3d 9fc3 99bd 83f3 3a3c d857 3abe
00000300: 977b 223e 02bb 273e 727b c2bd fe3b 033d
00000310: a411 17be b127 2c3e 950f 063e b8d3 0b3d
00000320: ddb5 17be 7919 0e3e 8016 b23d 6dd1 0abe
00000330: 4735 cb3d 086c ddbd a48d 00bc c5d1 8b3c
00000340: 611e 7c3d 7a6d e43d b474 423d 5513 19bd
00000350: 53e3 f3bd f855 843d 3f38 d4bd 329e 60bd
00000360: 624f e3bd c199 f53d cfc8 a3bd fb6e f23d
00000370: 4dfe cebd 79eb 1cbc 9ffe a33d 394c 36bd
00000380: a4c1 54bd 710e d7bd 48f1 bdbd af1d 193e
00000390: 5749 98bd 176d a33c 1309 363e a012 28bd
000003a0: f4a6 63bd b2b9 0c3e 86c7 b43d b104 51bb
000003b0: ff04 bf3d 155d 003e 0df2 10be c362 d2bd
000003c0: e984 d9bb 1956 a6bd 0d50 0dbd ad7d 203e
000003d0: 31bf a6bd fd51 d43d 557d 223e 12ae 153e
000003e0: 9c8f 16be 9e41 c1bd 9db7 82bd 6196 17be
000003f0: ce0d 10be 45ea a23d e01b 783d 247f 7dbd

convs.0.mp_levels.3.combine_nn.0.bias f4 [16]
0.11696047 -0.1047008 0.0025616812 0.027678737 -0.052946236 -0.065426596 -0.0766175 0.16690443
-0.022975374 -0.1823912 0.10033854 -0.0563072 -0.04212929 0.013742921 -0.07898696 0.009855025
00000000: f988 ef3d 5f6d d6bd e1e1 273b 85be e23c
00000010: 27de 58bd 61fe 85bd a3e9 9cbd ffe8 2a3e
00000020: da36 bcbc c2c4 3abe 4b7e cd3d 61a2 66bd
00000030: c38f 2cbd fd29 613c eac3 a1bd f976 213c

convs.1.mp_levels.0.msg_up_nn.1.weight f4 [16, 32]
0.0032678663 0.13911738 0.024148174 -0.04020566 0.028138509 -0.09214274 0.16415517 -0.024957703
0.07419825 -0.087761156 0.022472143 -0.085660286 -0.13893047 0.1727298 0.10604052 -0.1585279
0.055051588 0.10798186 0.07875371 0.12865937 0.110262476 -0.034420297 -0.022826865 0.14669403
0.14303187 0.16708162 -0.1748811 -0.061224606 0.02011106 0.11759204 -0.1240851 0.078594014
-0.026001627 -0.090536304 0.13781461 0.10062286 0.17619628 -0.083100416 0.101670496 0.003855032
-0.07465074 0.10956833 0.088952236 -0.0058249906 -0.07414607 -0.0734811 0.13250537 -0.12943505
0.017827215 -0.048526715 -0.010813945 -0.1175743 -0.049331453 0.118873164 0.18019018 -0.16820043
0.0077804523 0.036357347 0.1462133 -0.024766713 -0.11656158 -0.006817733 0.123700105 -0.05168472
0.04271001 -0.0002610067 0.054412242 0.1010795 -0.018630397 0.023720043 0.01244272 -0.042936582
0.16221032 -0.14847594 0.1126768 -0.016426742 0.051682018 -0.05632888 0.16066469 0.080133446
-0.10487175 -0.12494171 -0.032123845 0.079231955 0.17285678 -0.027767316 0.105404444 -0.09170574
0.09873208 0.001225299 -0.104909204 -0.0049597383 -0.0698668 0.017468872 -0.026567776 0.10439034
-0.08207677 -0.17903247 0.061502606 -0.010285973 -0.16157235 0.15602109 -0.058754865 0.15773438
0.1272867 0.14395171 -0.08617026 0.1157512 0.07377245 0.16553871 -0.07494616 0.032823045
-0.040932026 0.15958226 -0.01710066 0.14076842 0.0076289033 -0.14698103 -0.14206454 0.17350556
0.16083837 0.0143407425 0.06852554 -0.08303058 0.012500399 0.067199685 0.14495537 -0.16211334
0.021332627 -0.13910703 -0.026637679 -0.05071823 -0.031257235 0.11066463 -0.11111842 0.1377349
-0.019033154 0.079179265 -0.17652427 -0.007278794 -0.06322729 -0.07450433 -0.05956599 0.15980354
-0.15927577 -0.096439876 0.121579796 0.05312739 -0.09736416 0.15986612 0.15250133 0.041428555
0.14431481 -0.07089527 0.0011560085 0.0009024228 0.08308733 -0.016735217 0.040634893 -0.046906643
0.13147937 -0.034079716 0.097047456 0.09652062 -0.1473457 0.08331168 -0.028533893 0.025848264
-0.016627813 0.15117645 -0.08766374 -0.15913293 0.1174411 0.062475625 0.14783144 0.013519657
-0.12021167 0.06421206 -0.08110699 -0.14241794 -0.12809023 0.033478346 0.12750553 0.09692177
-0.019391702 -0.14749439 0.067617945 0.081585705 0.17129779 0.073707044 -0.12885731 0.09895731
0.04865068 -0.012566084 -0.12565094 -0.08243864 -0.18487148 0.16314006 -0.16067149 0.020284537
0.012292614 -0.05486243 -0.0114276465 0.10466603 -0.10527252 -0.15230884 0.16581301 -0.12123657
-0.1609036 -0.12145184 0.06034878 0.07035337 -0.044593006 -0.096947566 0.13132717 0.0819861
0.055430036 -0.12381065 -0.15686618 0.09783421 0.15998203 -0.1506747 0.00697165 0.08331914
-0.04496797 -0.11495719 0.07029766 0.12849489 -0.027783748 0.031673137 -0.078173935 0.088334195
0.15917666 0.0869394 -0.15427752 0.08757657 -0.03513271 0.16554831 0.057545613 0.07197426
0.09379243 -0.027320972 -0.13380775 0.026393967 -0.0889988 -0.15851907 0.072940305 0.023073168
0.14917427 0.06825971 0.12994985 -0.028770886 0.026765093 0.04120017 0.13907485 0.0730026
00000000: b329 563b c974 0e3e 64d2 c53c b1ae 24bd
00000010: bb82 e63c 55b5 bcbd 4b18 283e 1974 ccbc
00000020: 41f5 973d 1fbc b3bd 8017 b83c a96e afbd
00000030: ca43 0ebe 15e0 303e c62b d93d 2355 22be
00000040: c67d 613d 9825 dd3d a049 a13d 48bf 033e
00000050: 4bd1 e13d 4cfc 0cbd 68ff babc f636 163e
00000060: f276 123e 7217 2b3e 0814 33be a7c6 7abd
00000070: f3bf a43c 18d4 f03d 5420 febd e6f5 a03d
00000080: 5d01 d5bc 196b b9bd 461f 0d3e 5c13 ce3d
00000090: cc6c 343e 8d30 aabd 9f38 d03d b4a4 7c3b
000000a0: 7de2 98bd 5c65 e03d 972c b63d 90df bebb
000000b0: e5d9 97bd 427d 96bd 7daf 073e 9f8a 04be
000000c0: 610a 923c f3c3 46bd f92c 31bc cbca f0bd
000000d0: c70f 4abd c673 f33d c683 383e bc3c 2cbe
000000e0: 2af3 fe3b 71eb 143d f0b8 153e 90e3 cabc
000000f0: d6b7 eebd 4a67 dfbb 7b56 fd3d 5bb3 53bd
00000100: b1f0 2e3d bad7 88b9 5fdf 5e3d c502 cf3d
00000110: c69e 98bc 8950 c23c 8ddc 4b3c 45de 2fbd
00000120: 761a 263e 140a 18be 18c3 e63d 6091 86bc
00000130: 86b0 533d 1db9 66bd 4985 243e 011d a43d
00000140: 00c7 d6bd 70e1 ffbd 4b94 03bd 5d44 a23d
00000150: 5e01 313e 4878 e3bc 49de d73d 38d0 bbbd
00000160: 0b34 ca3d 369a a03a a3da d6bd 4d85 a2bb
00000170: 5316 8fbd e11a 8f3c aaa4 d9bc 9aca d53d
00000180: de17 a8bd 4a54 37be 28ea 7b3d 7f86 28bc
00000190: 3973 25be fec3 1f3e f1a8 70bd 1f85 213e
000001a0: 7257 023e 1468 133e 097a b0bd f70e ed3d
000001b0: 0316 973d fb82 293e 5f7d 99bd 7571 063d
000001c0: 57a8 27bd 8869 233e af16 8cbc 9925 103e
000001d0: e1fb f93b 3282 16be 5e79 11be 71ab 313e
000001e0: d0b2 243e 6ff5 6a3c 1e57 8c3d f00b aabd
000001f0: 79ce 4c3c fd9f 893d 2e6f 143e 0a01 26be
00000200: c3c1 ae3c 1372 0ebe 4337 dabc ebbd 4fbd
00000210: 9607 00bd 23a4 e23d 0e92 e3bd 610a 0d3e
00000220: 6beb 9bbc bd28 a23d c7c2 34be f382 eebb
00000230: 4f7d 81bd ba95 98bd 78fb 73bd 8aa3 233e
00000240: 3019 23be 4582 c5bd d4fe f83d 1b9c 593d
00000250: dc66 c7bd f2b3 233e 4f29 1c3e fdb0 293d
00000260: 43c7 133e 8a31 91bd 3585 973a 9290 6c3a
00000270: b129 aa3d 4b18 89bc c670 263d 2e21 40bd
00000280: 87a2 063e 2c97 0bbd d1c0 c63d 9aac c53d
00000290: cbe1 16be 509f aa3d e9bf e9bc bdbf d33c
000002a0: 0d37 88bc 00ce 1a3e 0c89 b3bd bef3 22be
000002b0: f684 f03d 71e6 7f3d 2061 173e 8d81 5d3c
000002c0: 8931 f6bd 9d81 833d 6c1b a6bd 02d6 11be
000002d0: 162a 03be 9720 093d cf90 023e ec7e c63d
000002e0: 59db 9ebc c508 17be 477b 8a3d 6816 a73d
000002f0: b068 2f3e b8f3 963d 2cf3 03be 21aa ca3d
00000300: ef45 473d fae1 4dbc a4aa 00be 97d5 a8bd
00000310: f34e 3dbe 300e 273e 1187 24be c22b a63c
00000320: f666 493c 6db7 60bd 063b 3bbc 255b d63d
00000330: 1e99 d7bd d9f6 1bbe e3ca 293e e14a f8bd
00000340: eac3 24be bebb f8bd 4830 773d 6d15 903d
00000350: 28a7 36bd 728c c6bd a17a 063e 54e8 a73d
00000360: 9b0a 633d 7090 fdbd 87a1 20be 4d5d c83d
00000370: 54d2 233e 784a 1abe 7072 e43b 3aa3 aa3d
00000380: 5630 38bd ad6e ebbd 38f8 8f3d 2a94 033e
00000390: be9a e3bc b1bb 013d a819 a0bd 8fe8 b43d
000003a0: 35ff 223e 490d b23d edfa 1dbe 585b b33d
000003b0: 51e7 0fbd 7f85 293e f3b4 6b3d 3e67 933d
000003c0: 3f16 c03d 3bd0 dfbc e604 09be 2938 d83c
000003d0: 0145 b6bd d352 22be ba61 953d f103 bd3c
000003e0: 24c1 183e bfcb 8b3d 9311 053e ecb0 ebbc
000003f0: 7842 db3c 82c1 283d a369 0e3e 6382 953d

convs.1.mp_levels.0.msg_up_nn.1.bias f4 [16]
-0.017992398 -0.116178304 0.075214654 -0.029393356 -0.10565515 0.063643195 -0.08397451 0.11070803
0.023250135 0.122516066 0.17237605 0.15374182 -0.012286029 -0.12753557 -0.1287168 0.012235307
00000000: cb64 93bc e4ee edbd 240a 9a3d 56ca f0bc
00000010: ba61 d8bd 5d57 823d d4fa abbd e4ba e23d
00000020: 1177 be3c b4e9 fa3d 5983 303e 7f6e 1d3e
00000030: 574b 49bc af98 02be 56ce 03be 9976 483c

convs.1.mp_levels.0.update_up_nn.0.weight f4 [16, 16]
0.23417401 0.22327475 0.12623091 0.13744605 -0.17364506 -0.15654545 -0.24085708 -0.033660274
-0.114441924 -0.022344766 0.17098641 -0.037757985 0.19372413 -0.21563932 -0.1924194 -0.010843133
0.04690501 -0.191123 -0.10055053 0.071870685 -0.19083498 0.06882296 0.14613478 -0.10833888
-0.07470001 0.21604422 -0.07589763 -0.00042222804 -0.08738875 -0.053482514 -0.11687123 -0.027378611
0.25151166 -0.14812112 -0.21392843 -0.06449132 0.007015164 0.20774265 -0.14100283 -0.17903073
-0.2012871 0.10861124 0.16115232 -0.2167647 0.06527165 -0.2515574 -0.0050014863 -0.07686264
-0.1687752 0.14132683 -0.0703612 0.090123944 0.17591237 -0.24238648 -0.14498746 0.11491454
0.17372495 -0.1686741 -0.14945602 -0.16445638 -0.13244519 -0.22841796 -0.21236424 0.07095096
-0.08341942 0.09577414 -0.010499171 0.080436885 0.21257527 -0.010935995 0.25122592 -0.15229349
-0.094719894 -0.08618708 -0.16572274 0.08010525 -0.22117385 0.009244477 -0.203462 -0.099719286
-0.18321402 0.13820961 -0.027456108 -0.21564172 -0.13488707 -0.20412211 0.12760161 0.0108589735
0.00395599 0.21073797 0.036074206 0.008687622 0.032053925 -0.107213244 0.050962225 0.02776445
-0.17899975 -0.043102138 -0.1860829 -0.24895377 -0.18851116 0.020638296 0.20778194 0.11011904
0.19243664 -0.18820323 -0.21828859 -0.030267691 -0.17275037 -0.07355472 0.24354978 -0.15250279
0.12770338 -0.18585175 -0.24412423 0.098883644 0.08214694 0.05515721 0.17874154 0.22889096
-0.01156124 0.095723875 0.023201745 -0.20473084 0.12743068 0.09120028 -0.0023451457 -0.11950528
-0.14142883 0.23187427 -0.0165379 -0.20212986 0.15075874 -0.1314673 0.13045363 0.12536469
0.09168823 -0.18326248 -0.04987203 0.19689137 -0.19537897 0.01867956 0.08756271 0.17482983
0.020207463 -0.064397015 -0.0926604 0.024003493 -0.03655587 -0.18273896 0.06254123 -0.21560648
0.11219636 -0.06320225 -0.13797747 0.03818616 -0.23261152 -0.0630496 -0.04537843 0.09366879
-0.027450014 -0.065903366 0.12625937 -0.24645895 0.17559418 0.03254487 0.15068218 0.25220445
-0.11909068 0.15664747 0.14276898 -0.055475555 -0.14331926 -0.10082925 -0.03959754 0.07732213
-0.11248777 0.072859354 0.06767998 0.06977276 -0.24647206 0.10412331 0.20574182 -0.15295008
0.12571223 0.22998041 0.00056594657 -0.18882231 -0.053107284 -0.14413846 0.027097074 0.00703059
0.12322422 -0.11167823 -0.013659716 -0.17713073 0.13848463 -0.034870103 -0.028679503 0.21932486
0.19590919 -0.16571784 0.075688474 0.015271344 -0.19343024 -0.07762266 -0.16678597 -0.16676916
0.08814363 -0.02439314 0.15971777 0.069494225 -0.10132552 0.1353602 0.19823109 -0.24894537
-0.16809863 0.24791051 -0.096043624 -0.14128827 0.18241636 -0.22096798 0.23925498 0.09196104
-0.241293 -0.075917885 -0.15679817 0.2141172 -0.15570514 0.18878108 -0.17405237 -0.23172966
-0.11022706 -0.19682825 -0.12671444 -0.07423192 0.118082434 -0.15481602 0.05217295 -0.17194916
0.1653845 -0.2222933 0.18288004 -0.07533701 0.13229394 0.09739276 -0.037112385 -0.23481596
0.07632761 0.12775268 -0.063286416 -0.05445183 0.090385504 -0.1139929 -0.02649115 0.2077894
00000000: 50cb 6f3e 23a2 643e ad42 013e a8be 0c3e
00000010: 03d0 31be 734d 20be 3da3 76be 5bdf 09bd
00000020: 8760 eabd 5f0c b7bc 1017 2f3e 1ea8 1abd
00000030: 9e5f 463e 8ed0 5cbe 9709 45be 65a7 31bc
00000040: 781f 403d bfb5 43be 70ed cdbd f030 933d
00000050: 3f6a 43be 0df3 8c3d 5ba4 153e c6e0 ddbd
00000060: 52fc 98bd b23a 5d3e 3770 9bbd 7d5e ddb9
00000070: dff8 b2bd 7b10 5bbd 2f5a efbd 1c49 e0bc
00000080: 23c6 803e 10ad 17be 0e10 5bbe 0614 84bd
00000090: 76df e53b 7dba 543e 0c63 10be d553 37be
000000a0: 351e 4ebe 926f de3d 1d05 253e 91f7 5dbe
000000b0: 25ad 853d 22cc 80be 82e3 a3bb 296a 9dbd
000000c0: 68d3 2cbe fbb7 103e 8819 90bd e792 b83d
000000d0: 5f22 343e 2934 78be 9877 14be 5058 eb3d
000000e0: f4e4 313e e7b8 2cbe 000b 19be 4167 28be
000000f0: b69f 07be 66e6 69be 0376 59be bd4e 913d
00000100: cdd7 aabd 3b25 c43d b704 2cbc 18bc a43d
00000110: 55ad 593e e32c 33bc afa0 803e d3f2 1bbe
00000120: 81fc c1bd da82 b0bd 39b3 29be 390e a43d
00000130: 667b 62be 2676 173c 5858 50be a039 ccbd
00000140: 759c 3bbe d286 0d3e a2eb e0bc 2fd1 5cbe
00000150: d61f 0abe 6305 51be ffa9 023e d6e9 313c
00000160: 40a1 813b b2cb 573e 8cc2 133d 8756 0e3c
00000170: fa4a 033d 9e92 dbbd c4bd 503d 4672 e33c
00000180: b64b 37be de8b 30bd 848c 3ebe bded 7ebe
00000190: 1209 41be a511 a93c cac4 543e 1786 e13d
000001a0: 1c0e 453e 59b8 40be 0b87 5fbe f3f3 f7bc
000001b0: 79e5 30be dba3 96bd 1d65 793e b129 1cbe
000001c0: adc4 023e ec4f 3ebe b4fb 79be 8283 ca3d
000001d0: a83c a83d 87ec 613d 0608 373e 6462 6a3e
000001e0: 5b6b 3dbc e10a c43d 9611 be3c f6a4 51be
000001f0: 307d 023e 36c7 ba3d 04b1 19bb 2fbf f4bd
00000200: b8d2 10be 7370 6d3e 7d7a 87bc 21fb 4ebe
00000210: 8060 1a3e 5d9f 06be a395 053e 9a5f 003e
00000220: 0ac7 bb3d 29a9 3bbe 9d46 4cbd e49d 493e
00000230: 6d11 48be e005 993c 1454 b33d 9706 333e
00000240: 1f8a a53c 95e2 83bd bcc4 bdbd f9a2 c43c
00000250: 9cbb 15bd ec1f 3bbe 9e15 803d f2c7 5cbe
00000260: 35c7 e53d 2e70 81bd f749 0dbe 1769 1c3d
00000270: b731 6ebe 2620 81bd bcde 39bd 6cd5 bf3d
00000280: dade e0bc 58f8 86bd 234a 013e bc5f 7cbe
00000290: f6ce 333e c54d 053d 6e4c 1a3e f120 813e
000002a0: d0e5 f3bd 3268 203e 0832 123e 563a 63bd
000002b0: 49c2 12be 917f cebd 0831 22bd 115b 9e3d
000002c0: fd5f e6bd 4937 953d cd9b 8a3d 05e5 8e3d
000002d0: 2c63 7cbe 9a3e d53d fcad 523e f29e 1cbe
000002e0: b5ba 003e fc7f 6b3e 085c 143a a35a 41be
000002f0: 0687 59bd 0899 13be affa dd3c dd60 e63b
00000300: fb5c fc3d 8eb7 e4bd 00cd 5fbc c261 35be
00000310: eace 0d3e f4d3 0ebd 47f1 eabc b296 603e
00000320: 6b9c 483e f0b1 29be 8f02 9b3d a934 7a3c
00000330: 9412 46be a1f8 9ebd f1c9 2abe 89c5 2abe
00000340: a684 b43d 1fd4 c7bc 0e8d 233e fd52 8e3d
00000350: c183 cfbd dd9b 0a3e 17fd 4a3e 89eb 7ebe
00000360: 0c22 2cbe 41dc 7d3e 85b2 c4bd dfad 10be
00000370: 5bcb 3a3e 6e45 62be 42ff 743e 1256 bc3d
00000380: 8315 77be d67a 9bbd b38f 20be 8a41 5b3e
00000390: 2b71 1fbe d44f 413e c93a 32be 8a4a 6dbe
000003a0: babe e1bd 588d 49be 6ec1 01be e806 98bd
000003b0: 34d5 f13d 1788 1ebe 4eb3 553d 7113 30be
000003c0: 8e5a 293e dba0 63be e844 3b3e 4a4a 9abd
000003d0: 1078 073e db75 c73d 2803 18bd 9873 70be
000003e0: a651 9c3d 99d1 023e 4f9c 81bd e208 5fbd
000003f0: 091c b93d 1c75 e9bd f803 d9bc bfc6 543e

convs.1.mp_levels.0.update_up_nn.0.bias f4 [16]
0.2280322 -0.22857901 0.24037363 0.22894777 -0.17730656 0.21678911 -0.04984385 -0.15687943
-0.06633035 -0.21510006 0.067919694 -0.24732731 0.14386766 -0.01459167 -0.04370445 -0.1659602
00000000: 4681 693e 9e10 6abe 8124 763e 4971 6a3e
00000010: da8f 35be f7fd 5d3e 1129 4cbd 00a5 20be
00000020: 35d8 87bd 3143 5cbe 7b19 8b3d 5f43 7dbe
00000030: 0b52 133e e611 6fbc 7003 33bd 78f1 29be
