experiments/results/SHRIROOK/runs/2026-02-05T18:00:59-pcn3-shrirook/seed_1/best_weights.pt (torch, 679545 bytes, 572 tensors)

convs.0.mp_levels.0.msg_up_nn.1.weight f4 [1, 2]
00000000: 9db8 4d3d 5d4b 773d
0.05022489 0.060374606

convs.0.mp_levels.0.update_up_nn.0.weight f4 [16, 1]
00000000: 8442 6c3f f23c aabd 8eae 0bbe 2037 f6bd
00000010: aa2a 0a3f 8c71 003f e20a a13e ce0a 58bf
00000020: 4f81 06be a618 df3e 7c42 253d 5ba2 8a3e
00000030: 3b6c 4a3f ac3c 563e e75f 56bf 72c5 1fbf
0.92288995 -0.08312406 -0.13640806 -0.12022233 0.5397135 0.5017326 0.31453615 -0.84391487
-0.13135265 0.43573493 0.040346608 0.27076992 0.79071397 0.20921582 -0.83740085 -0.6241065

convs.0.mp_levels.0.update_up_nn.0.bias f4 [16]
00000000: 6d09 87be f053 cb3e 082e 27bf a90e dbbe
00000010: e5e2 4dbd a84f 443e 8241 f23e eef0 67bf
00000020: f3aa 3ebf 41fa 18bf 8118 90bd 9ec1 d4be
00000030: 0c51 713e e7d4 303f 8357 733f c8a2 92be
-0.2637438 0.39712477 -0.65304613 -0.42784622 -0.05026521 0.19171011 0.47315603 -0.90602005
-0.744796 -0.5975686 -0.07035924 -0.41553968 0.23566073 0.69074863 0.9505541 -0.28639817

convs.0.mp_levels.0.update_boundaries_nn.0.weight f4 [16, 1]
00000000: 959d 7abe a018 acbe 5aed 193f 8e79 713f
00000010: 21a6 c13e 04c0 71bf 26d4 3abf 276a 7e3f
00000020: cdec 62bf b306 cfbe 87ea 35be 6559 58bf
00000030: 3a4a 263f 97bb 53bf 352d 0ebf 6b00 123e
-0.24474175 -0.33612537 0.60127795 0.943261 0.3782206 -0.9443362 -0.7297996 0.99380726
-0.8864258 -0.404348 -0.17765246 -0.84511405 0.6495701 -0.82708114 -0.5553773 0.14257972

convs.0.mp_levels.0.update_boundaries_nn.0.bias f4 [16]
00000000: 4b66 1bbf 44a5 923e 9ea9 1d3e ab14 c93e
00000010: 21c3 a73d 57e9 c7be f2b3 05bf 3965 81be
00000020: 61c2 0c3f 040e 08bf 80ce cbbe a952 103f
00000030: 267d a43e b5fc 2fbf 9961 7c3f ec71 7c3e
-0.6070296 0.28641713 0.15396735 0.3927358 0.08191515 -0.39045212 -0.522277 -0.2527254
0.549841 -0.53146386 -0.39805984 0.5637613 0.3212673 -0.68744975 0.9858642 0.24652833

convs.0.mp_levels.0.combine_nn.0.weight f4 [16, 32]
00000000: 73c8 1e3e 7e81 8a3d cdc5 2cbe 50e2 933d
00000010: 05c8 6fbd 4298 c5bd dfd2 db3d c503 6a3d
00000020: 237e 623d 07fa c83d c43e 163d a3d6 2c3e
00000030: c7e7 2bbe b7a7 82bd 3df3 ebbc 3c64 1c3e
00000040: 8470 b8bd f56a 2bbe 334d 31be d126 da3d
00000050: 30ba 0c3e 8867 19bd c66d a33c 830c 25be
00000060: 20f1 2abe f5c7 81bd 5f99 e63d 1003 0e3c
00000070: 5dad 413d 7aed 0d3d 1a2a e6bc b4a7 8e3a
00000080: 3b15 c83c d8a6 04be b67a 10be 1d64 c63d
00000090: 9cf5 0d3e d92f 30be 3168 fcbd cf39 9a3c
000000a0: 1078 15be afb2 5f3d b960 ee3c 6b7b 043e
000000b0: a9a0 11be 4083 1a3e 62df aebd e423 f1bd
000000c0: e89d 95bd febc 043d af3d 083e 558c c93d
000000d0: 0686 10be ea8c 0fbd 27f0 17be 4730 01be
000000e0: f32b 1fbe 00a3 edbd a5c8 f53d 7eb9 d0bd
000000f0: 92a5 c63d 0ac9 493d 8bf7 8dbd 6df5 87bd
00000100: a308 29be 76b7 2c3e 0529 2d3e e2b6 07be
00000110: 0070 77bd 6b49 893d c313 7ebc 75fb c2bd
00000120: 1efc ea3d 632d 9e3d e43c af3d 65a3 0a3e
00000130: 379b 143e 387e d2bc 3bb2 f5bd ccb2 d4bc
00000140: ce23 e23d 7ae8 233e dbff 40bd 0bfe c3bc
00000150: 8bab 1abe a261 86bd 0a5d 2ebe abf7 043d
00000160: ed6b 563b 848d f43d 073a 1e3e 5504 e8bd
00000170: 1bf4 b7bd 39fe 133e fe26 323d 28f1 8dbd
00000180: 3a60 133e 2ce4 743d c68f 793d c63c febd
00000190: c0c2 dfbc d678 cebc 09ba 133d 4978 c9bd
000001a0: 019a 03be 4fb5 203e cd96 ec3c 2032 363c
000001b0: a3ec a13c 325e df3d 6bef b43d 38a1 6f3d
000001c0: 0111 c3bc 991c 563d 1324 b93d 4455 5fbc
000001d0: 4d46 fcbd 28cd 673d a45a 073e 1953 8fbd
000001e0: 4a53 193e 1cdd 643d b48b 8abc 873d 4f3c
000001f0: a69b 9ebd aa5a 56bd c7f7 2e3e b1e0 1dbd
00000200: 0e63 cfbd 96f6 eb3b 28be f6bd 11e8 f33d
00000210: cd2f 92bd 876b bfbd 5b92 49bd 7dc9 dd3d
00000220: f5fb a4bd 8349 0ebd ded2 8d3d 467b 19be
00000230: f7dc 11be db33 113e adf7 cabd ebd0 923d
00000240: ab3f 033e 24a3 33be 8378 4c3d b8c3 c8bd
00000250: 59eb b63c 3a95 d4bd 383a 153e 188a 353e
00000260: 7a13 973d d458 de3d aadc 8c3d 7cb6 09be
00000270: d2d1 c23d fadb d23d 87ce 79bd 75fe 8ebd
00000280: 846b 013e f687 0c3e 00e9 b83d 0af4 b7bd
00000290: a9c8 e13b 9cb3 15bd 9720 6ebd f575 553c
000002a0: 252c 143e 6f84 36be bed4 c8bd b7fa cbbc
000002b0: 2d2a 2c3e 1644 603d ee7a 07be 08db 2bbe
000002c0: e653 ad3b 3b07 d2ba d303 b1bd f632 fb3d
000002d0: 3374 99bd 6018 5e3d 35c0 d1bb a90a 1fbe
000002e0: 9d1c b8bd d890 febd d0c7 113e 6057 313d
000002f0: d216 833d 3863 fcbd dbe1 b3bd f6f6 c2bc
00000300: 6c70 dd3d c4b3 04be 071b e33d 9f48 ec3b
00000310: c921 c5bd 4a58 73bd 280a 2c3e 916b 1d3d
00000320: 8865 da3d 4dcb 8abd f623 673d 49f9 b83d
00000330: fb87 4dbd 1514 353e c142 b73d ecee 303e
00000340: a669 f4ba a5a6 243d e4d1 cdbc 84ed 04be
00000350: d548 9ebd bdbd 20be 0268 6dbd ce87 e1bd
00000360: 8876 1c3e ee7a 703d 29c5 ac3d 7c65 1b3e
00000370: d6cd 023e 981e a0bd 2bcc 9ebd b690 2dbd
00000380: c0b0 813d 366b eebd 2722 b9bc 77f4 803b
00000390: 4df0 ce3d dddd aa3c 56c0 3bbd e9af eebd
000003a0: 4507 fc3d fbde 17be 3653 e4bd e8f0 8a3d
000003b0: c333 5cbc 1752 eebd 95ed 9cbd a829 3d3c
000003c0: 2320 0dbe ab5f 1f3c a5fb 1d3e 273a 6ebd
000003d0: b78d 253e 8108 3c3e b294 cfbd 1988 34be
000003e0: f3c0 a2bb 34af 52bd a657 033e 9926 533c
000003f0: fde2 42bd 3693 dd3c f26b a03c 78d9 503c
0.15506153 0.0676298 -0.1687233 0.072209 -0.058540363 -0.096481815 0.1073358 0.0571325
0.055296075 0.09813314 0.03668095 0.16878752 -0.16787635 -0.06379645 -0.028802508 0.15272611
-0.09005836 -0.1674002 -0.17314605 0.10651935 0.137429 -0.03745225 0.019949805 -0.16118054
-0.16693544 -0.06336967 0.11259722 0.008667722 0.047284473 0.034650303 -0.028096247 0.001088372
0.024424186 -0.12954271 -0.1410931 0.09687064 0.13863224 -0.17205752 -0.123245604 0.018826393
-0.14596581 0.054613765 0.029098855 0.12937705 -0.14221443 0.1508913 -0.08538701 -0.11774424
-0.07305509 0.0324068 0.1330478 0.09841219 -0.14113626 -0.035046495 -0.14837705 -0.12616073
-0.15544109 -0.116033554 0.120011605 -0.1019163 0.09699549 0.04926399 -0.06931981 -0.06638608
-0.16507201 0.1686686 0.16910179 -0.13253358 -0.060409546 0.067034565 -0.015507641 -0.09520618
0.11473869 0.077235006 0.08556536 0.13538893 0.14512335 -0.025694951 -0.119968854 -0.025964163
0.110419855 0.16006652 -0.047119003 -0.023924848 -0.15104501 -0.06561591 -0.17027679 0.032462757
0.0032718137 0.119410545 0.15451823 -0.11328951 -0.08982106 0.14452447 0.043494217 -0.069307625
0.14392176 0.059787914 0.06092813 -0.12413935 -0.027314544 -0.025204103 0.03606609 -0.09837396
-0.12851717 0.15694164 0.028880501 0.011120349 0.019766157 0.10906638 0.08834728 0.05850336
-0.023811819 0.052273367 0.09040084 -0.013631169 -0.12318096 0.056592137 0.1321817 -0.069982715
0.14973179 0.05587493 -0.016912319 0.012648947 -0.07744531 -0.052332558 0.17086707 -0.03854436
-0.10126315 0.007201026 -0.12047988 0.119094975 -0.071380235 -0.09346681 -0.04921184 0.108294465
-0.080558695 -0.034738075 0.06924985 -0.14988431 -0.14244448 0.14179938 -0.09910522 0.07168754
0.12817256 -0.17542702 0.049919616 -0.098029554 0.02232902 -0.10380025 0.1457299 0.1772846
0.07376762 0.10856786 0.06878026 -0.13448519 0.09512676 0.102958634 -0.060987975 -0.069821276
0.1263867 0.1372374 0.09028816 -0.08982094 0.0068903756 -0.036548242 -0.05813655 0.013028611
0.14469965 -0.17823957 -0.09806202 -0.024899824 0.16812964 0.05475243 -0.13230488 -0.16782773
0.0052895425 -0.0016023883 -0.086433075 0.122655794 -0.07492866 0.054222465 -0.0064010867 -0.1553141
-0.089898326 -0.124299705 0.14236379 0.043296218 0.06400837 -0.12323612 -0.08783313 -0.0237994
0.108124584 -0.129592 0.110891394 0.0072108055 -0.09625585 -0.05941037 0.1680075 0.03843266
0.10663897 -0.06777058 0.05643078 0.09031922 -0.05017851 0.17683442 0.08948279 0.17278641
-0.0018647208 0.040197987 -0.025124498 -0.1298123 -0.07728735 -0.1569738 -0.057960518 -0.11012231
0.15279591 0.058710985 0.08436043 0.15175432 0.12773833 -0.07818335 -0.07753786 -0.042374335
0.063325405 -0.116415426 -0.022599293 0.0039353925 0.101044275 0.020857746 -0.045837723 -0.11654646
0.12306074 -0.14831154 -0.11148684 0.067842305 -0.013440075 -0.11636751 -0.07662503 0.011545576
-0.1378179 0.009727399 0.15428026 -0.058160927 0.16167341 0.18362619 -0.10135783 -0.17630042
-0.004966849 -0.051436618 0.12826404 0.01288762 -0.047579754 0.027047735 0.019582722 0.012747161

convs.0.mp_levels.0.combine_nn.0.bias f4 [16]
00000000: ea31 903d 2907 ef3d 00e4 d8bd 9a08 1dbe
00000010: 76d6 b5bd 2766 dc3d c569 7c3d b13f e83d
00000020: 0182 c5bd 306e c23c 53f9 963d c04c adbd
00000030: 41fc 21be a845 b03d 38de bf3c b381 debc
0.0704077 0.116712876 -0.105903625 -0.15335312 -0.08878796 0.107616715 0.061624307 0.11340273
-0.09643937 0.023734182 0.073717736 -0.084619045 -0.15818883 0.08607036 0.023421392 -0.027161455

convs.0.mp_levels.1.msg_up_nn.1.weight f4 [1, 2]
00000000: b245 1ebf 15cb 2f3b
-0.61825097 0.0026823927

convs.0.mp_levels.1.update_up_nn.0.weight f4 [16, 1]
00000000: e6d6 1ebf 4476 6a3f 6171 be3e c58d 79bf
00000010: 1afb 4a3f 9f6e 9f3e 2699 4d3f 1b54 6e3f
00000020: 8683 043e a5dd f43e 72e4 013f 5095 4ebf
00000030: f369 9bbe 4e84 543f 388c ee3e c94d 593f
-0.6204666 0.9158671 0.37195876 -0.9748195 0.792894 0.31139085 0.8031181 0.93097085
0.12940797 0.4782535 0.50739205 -0.8069658 -0.3035427 0.8301438 0.46591353 0.84884316

convs.0.mp_levels.1.update_up_nn.0.bias f4 [16]
00000000: 9b71 32be fe59 473f 9a38 18be 598f 7dbe
00000010: eca6 a13e 095e b1bd d0f0 e93e 5519 643d
00000020: f895 ebbd 0c7b 223d 8625 efbe ec14 52bf
00000030: 455e 7a3f 79f0 233f 372c b83e ba6e 3ebf
-0.1742615 0.7787169 -0.14865342 -0.24761714 0.31572664 -0.08660514 0.45691538 0.05568822
-0.11503214 0.039668128 -0.46708316 -0.82063174 0.97800094 0.6403881 0.35971233 -0.74387705

convs.0.mp_levels.1.update_boundaries_nn.0.weight f4 [16, 1]
00000000: 2f00 583e 0d3c dcbd e169 803b e90d 903e
00000010: 4e25 9e3e 979c 063e c905 723f 4d75 423f
00000020: dd44 17bf d1c9 333f 915c 71bf 9573 ddbe
00000030: a116 44bd 10b5 143f 9ce6 de3e cdb3 39bf
0.2109382 -0.10753641 0.0039188717 0.28135613 0.30887836 0.13145672 0.9454008 0.75960237
-0.5908945 0.7022982 -0.9428187 -0.43252245 -0.047873143 0.5808878 0.43535316 -0.7253998

convs.0.mp_levels.1.update_boundaries_nn.0.bias f4 [16]
00000000: f273 423f 2603 2ebf b6e1 65bf 191d 6d3f
00000010: 8245 33bf e8dd 923e 12b9 673d a106 3c3f
00000020: bab0 38be 1c95 5a3e f765 75bf ab3b 8b3e
00000030: 0807 53bf b202 983e 66be 033f 91c9 223e
0.7595817 -0.67973554 -0.8979753 0.92622524 -0.70027936 0.28684926 0.05657298 0.73447615
-0.18036166 0.21345943 -0.9585871 0.2719396 -0.82432604 0.29689556 0.514624 0.15897204

convs.0.mp_levels.1.combine_nn.0.weight f4 [16, 32]
00000000: f966 2bbe e321 cd3d 25fd 153e 8347 12be
00000010: 8641 103e f615 91bd a314 2b3e 2678 a3bd
00000020: a959 d13d c167 93bd ab28 89bc 8f6a 9abd
00000030: 5ba3 ca3d 3a41 0f3e b8b5 74bd 2732 1e3d
00000040: 56ad 093d 4e6a 153e 0034 053d ea7e 18be
00000050: 7390 253d 8856 e3bb f498 203e 92c0 113d
00000060: 5a56 6dbd 4c36 cd3b 36c3 1ebe d882 703d
00000070: 7d4f bdbd adbf bf3d e9dc 933d 3cb0 78bd
00000080: d489 2f3d 58cb babd 0361 1b3c 95a6 72bd
00000090: 6984 7abc b2e4 06bd a93a 0b3e eaf0 2bbe
000000a0: 7149 25be a452 c33c 6854 debd 48c9 213d
000000b0: 9fbe 433d bca8 59bc 33e2 003e 074d f03d
000000c0: 951b 043e bfc3 433c 9971 2fbe 94b6 483d
000000d0: aad0 04be 2235 c33d bf76 243e ca85 fb3c
000000e0: c30a 083e 83a8 1ebc 8423 343e 2f58 313d
000000f0: 6fa8 a93d c005 993d 50fa 4cbd 3090 b93d
00000100: f1f9 2f3e d6ff b4bd f146 fbbd afa8 dbbd
00000110: 0a7c fdbd c2e0 9a3c 6db2 6c3d aefe 84bb
00000120: b7b8 4fbd cefb 923d d115 0abe 631d eebd
00000130: 3d7b bd3d 106c 003e 0801 a139 c1df 43bd
00000140: 6d0f d53c 55e7 92bc 938b 0c3e 4695 113e
00000150: 2c61 043c 68ca 2cbe b99b d9bd c948 d73d
00000160: 8aaf 823c b712 bf3d 87d9 1a3e 76e5 55bd
00000170: fa15 1fbd 1912 fabd f655 3cbd 89c1 38bc
00000180: 5778 7a3d be0d adba 5f84 8c3d 5295 27be
00000190: 7eb7 bb3d 07ac 0fbe 5402 d43d 9d74 0a3c
000001a0: 39f5 05be 7271 81bd 3a3b b73d 6299 ccbd
000001b0: ec07 3ebd e611 133d 5b05 963c 3790 073e
000001c0: afab 47bd abb5 f5bd 3a2a c7bd 3d72 9d3c
000001d0: c185 2a3e f893 20be c718 1fbd a881 3a3d
000001e0: ade1 dd3d 1521 a3bd a2b4 1cbc 52ac ea3d
000001f0: 682c f03b 74bc 213e 6823 dfbd 4845 b43d
00000200: 5127 f0bd ce03 b93c 30df 1c3d f117 fd3d
00000210: 83c6 b4bc ed05 2b3e 7e34 053d 420f 20bd
00000220: f5ef 27bd f2b2 dfbd 051b 353a ec18 b53c
00000230: 5d81 943c 2e1d dcbd 6d1e 313e 02cc 83bc
00000240: 748c dfbd e116 323e 38f9 113e c5e6 143e
00000250: c26e c4bd 241e 0b3d f077 36bd ebd3 ec3d
00000260: 405a 9dbd a5ec 5d3c 28aa 05bb c55c 263c
00000270: a158 c8bd 914e 053e f323 5bbd fdd4 1ebe
00000280: d195 303e 9adb cf3c 7165 333b cc95 353e
00000290: c72a f33d 4c7d ebbc 7f24 f3bd 2381 ddbd
000002a0: 6b5d cabd ca6c 273e fbed d93d bc7e e4bb
000002b0: 6cc7 efbb ffcc 133e afc6 063e c44b 04bd
000002c0: 2c26 923d 4a3c e0bd 09be ef3c cae6 033e
000002d0: 084a 1fbd 262f d23d 2248 d7bd 7c96 3abd
000002e0: d488 14be a6d3 bbbd 05fe 2ebe 9ea5 233e
000002f0: ae0f 673d 9a5a 2b3d 2390 1bbe db41 583d
00000300: 7651 ad3c 325f 153e 155f 22bd ff93 21bd
00000310: 1d93 b03d 717c 0b3e 4f38 6c3c 4fbb 32bd
00000320: b60f 3c3d fb8c a83d 0fec 063e 2d51 bcbd
00000330: 0694 603c ccc9 da3c 3afd ec3d 20a0 adbd
00000340: 8475 c2bd 69fd 383e 902e 0ebe afb8 2dbe
00000350: 276a bcbd a897 d3bd fd2a 9dbd cd1b e6bb
00000360: 10f1 e1bd ba88 e8bd 0dee 11be a801 53bd
00000370: dcb8 af3d f8f5 4bbd 6207 263e 1455 26be
00000380: 0f32 043e 15fc e1bd bd94 d1bd acbd 1abe
00000390: f3c9 0cbe 9d50 4abd b5a1 c6bd bdab 20be
000003a0: 7b7b 00bd 7b73 adbc fbea 543d f65c c2bc
000003b0: 94f2 a9bd 6329 f53d bb5f 30be e855 2c3d
000003c0: 1bad 3dbd 49db 9dbd ddc9 d03b 0389 353e
000003d0: 71b8 103d f05c f7bc 5e64 273e a386 4abc
000003e0: 6db6 d23d e72a 783b ffba 663d 9721 47bc
000003f0: c025 1e3e 42d2 413e e162 d83c da71 afbd
-0.167385 0.10016229 0.14647348 -0.14285092 0.14087495 -0.07084267 0.16707091 -0.07981901
0.102221794 -0.07197524 -0.016743025 -0.07539856 0.09894439 0.13989726 -0.059743613 0.038622048
0.03361257 0.14591333 0.032520294 -0.14892164 0.04042096 -0.0069378056 0.15683347 0.03558404
-0.05794368 0.006262576 -0.15504155 0.058718532 -0.09243677 0.09362731 0.0721987 -0.060714945
0.042856053 -0.09120816 0.009483579 -0.059240896 -0.015290358 -0.032932945 0.13596596 -0.1679112
-0.16141297 0.023843117 -0.10855943 0.039498597 0.047789212 -0.013284858 0.12586288 0.11733442
0.12901147 0.011948525 -0.17133178 0.049002245 -0.12970224 0.09531619 0.16060923 0.030703444
0.13285355 -0.009683731 0.17591673 0.04329699 0.08284079 0.074718 -0.050043404 0.09060705
0.17185189 -0.08837859 -0.122693904 -0.10725533 -0.12377174 0.018906001 0.057787348 -0.0040586805
-0.050713267 0.07176934 -0.13484885 -0.11626699 0.092520215 0.12541223 0.0003070908 -0.04782081
0.026008332 -0.017932573 0.13725118 0.142171 0.008079808 -0.16874087 -0.10625405 0.105119295
0.015952844 0.093297414 0.15122043 -0.052220784 -0.038839318 -0.12210483 -0.045980416 -0.011276611
0.06114992 -0.0013202948 0.06861185 -0.16365555 0.09165858 -0.14030467 0.103520066 0.008450654
-0.13081826 -0.06320466 0.089468434 -0.09990193 -0.046394274 0.03590574 0.0183131 0.13238607
-0.048747715 -0.11997541 -0.09724851 0.019219512 0.16652586 -0.15681446 -0.03884199 0.045533806
0.1083406 -0.07965294 -0.009564551 0.11458649 0.0073295124 0.15794545 -0.10895425 0.08802277
-0.11726249 0.022584822 0.038298786 0.12358082 -0.022067314 0.1670148 0.032520764 -0.03907705
-0.041000325 -0.10922803 0.0006908628 0.02210661 0.018128091 -0.10747753 0.17296763 -0.01608849
-0.10915461 0.1739154 0.14255226 0.14541157 -0.09591438 0.03396429 -0.044547975 0.11563858
-0.076832294 0.01354519 -0.002039561 0.010153954 -0.097825296 0.13018252 -0.05350108 -0.15510936
0.1724465 0.025373269 0.0027373696 0.17732924 0.118733935 -0.02874627 -0.118721955 -0.108156465
-0.09881099 0.16350093 0.10641094 -0.0069731157 -0.007317474 0.14433669 0.1316173 -0.03229882
0.07136187 -0.10948999 0.02926542 0.12881008 -0.03888896 0.10262899 -0.10511805 -0.04555367
-0.14505321 -0.09171228 -0.17089088 0.15981147 0.056411438 0.04183445 -0.15191703 0.05279718
0.021157008 0.14587095 -0.03964146 -0.03944778 0.0862181 0.1362169 0.014417722 -0.043635663
0.04591342 0.08230015 0.13175987 -0.091951706 0.013707167 0.026707552 0.11571737 -0.08477807
-0.094950706 0.18065418 -0.1388495 -0.16964982 -0.091999345 -0.103316605 -0.07674215 -0.007022357
-0.11032307 -0.113542035 -0.14250965 -0.05151525 0.08580181 -0.04979512 0.16213754 -0.16243392
0.12909721 -0.11034409 -0.10233448 -0.15111417 -0.13748913 -0.049393285 -0.09698812 -0.15690513
-0.03136776 -0.02117323 0.051981907 -0.023725968 -0.08298221 0.119707845 -0.17224018 0.042074114
-0.046307664 -0.07707841 0.00637172 0.17728047 0.035332147 -0.030195683 0.16346881 -0.012361201
0.10288701 0.0037867369 0.056330677 -0.012154005 0.15444088 0.18927863 0.026414337 -0.08566637

convs.0.mp_levels.1.combine_nn.0.bias f4 [16]
00000000: 324d 7abd 7de1 80bd 58c2 09bd 1f88 fc38
00000010: 718e bb3d d63e 253e 9523 3dbc 37a3 1bbe
00000020: 1b90 0c3d 133f 0c3e 6c08 47bd 5044 3c3d
00000030: c23e febd 4b05 27be 3d9a fa3d 8c9d 183e
-0.061108775 -0.062930085 -0.033632606 0.00012041651 0.09158028 0.16137251 -0.011544128 -0.1519898
0.034317117 0.13695936 -0.048592016 0.045963585 -0.12414314 -0.16310613 0.1223645 0.1490385

convs.0.mp_levels.2.msg_up_nn.1.weight f4 [1, 2]
00000000: f775 293f 1ad8 5e3e
0.66195625 0.21762124

convs.0.mp_levels.2.update_up_nn.0.weight f4 [16, 1]
00000000: 0c04 4cbe 9334 9c3e e5cc 303f f140 02bf
00000010: 1427 d1be 83cd 333f 9603 33be 1448 333c
00000020: d3df 423f b22d 41bf 2d94 a3be 105a e3be
00000030: fca3 0b3f 1a6a 963e 0472 013d 8051 4cbf
-0.19923419 0.3050886 0.69062644 -0.5088034 -0.40850127 0.7023546 -0.17481837 0.010942478
0.7612278 -0.7546035 -0.31948987 -0.4440465 0.54547095 0.29377824 0.031602874 -0.7981186

convs.0.mp_levels.2.update_up_nn.0.bias f4 [16]
00000000: 2dee 153f 9548 7fbf f4be c6be 9030 34be
00000010: e033 29bf cb38 743f ef92 513f 8883 fb3d
00000020: 13b6 64be dc9c 193f 9e88 453f b8ca 3e3f
00000030: 584c ce3d 0035 94be e5af 3f3f 20b2 1d3d
0.5856655 -0.99720126 -0.3881756 -0.1759665 -0.6609478 0.9539916 0.8186483 0.12280947
-0.22335081 0.60004973 0.77161586 0.74528074 0.10073155 -0.28946686 0.7487777 0.03849995

convs.0.mp_levels.2.update_boundaries_nn.0.weight f4 [16, 1]
00000000: 992b 7c3f 765f 493f 15f4 1d3f 239f 7bbf
00000010: 1010 68bf ebd2 533f aad4 58bf 7478 48be
00000020: 2b5f fd3e a3c3 683f 0c8f 77bd d0ea 963e
00000030: cdf0 473f 49e6 bc3e ddc6 703e eb04 533f
0.98504025 0.78661287 0.61700565 -0.982897 -0.9064951 0.8274371 -0.846995 -0.19577199
0.4948667 0.9092352 -0.060439155 0.29476023 0.7810181 0.36894444 0.2351336 0.8242938

convs.0.mp_levels.2.update_boundaries_nn.0.bias f4 [16]
00000000: 3075 2e3f 86eb 2ebe 867b 10bf a2a8 2d3f
00000010: c214 40bf 8071 5c3f 7781 19bf 6b0a 7d3f
00000020: 0c63 723f cb69 7c3f 0bd4 17be 1566 04bf
00000030: bbe2 a93d e71c 58bf d4ee aa3e 68d0 55bf
0.68147564 -0.17082033 -0.5643848 0.6783544 -0.75031674 0.8611069 -0.5996317 0.9884402
0.94682384 0.9859893 -0.14826982 -0.51718265 0.082951985 -0.844191 0.33385336 -0.8352113

convs.0.mp_levels.2.combine_nn.0.weight f4 [16, 32]
00000000: 25af d23d 09b9 a7bd d208 fabc e936 efbd
00000010: 615c 073e cd77 c73d 660b b73d 4200 fc3d
00000020: 9a35 313d b0af 873d 9e38 f23d 8147 283e
00000030: e222 b63d 4d65 12be 31de b2bd 1a85 0fbd
00000040: 058c 333e ac89 f4bb 7c88 1bbe 936f 0abd
00000050: 9880 e93d d9e4 13be a51d aeba a092 b7bb
00000060: bc9d 9b3d b6a9 363e 9859 583d cf60 0ebd
00000070: a5a3 22bd 1093 c43c 96ca d43d e636 153e
00000080: 9c8d d43d ee7d 183e e817 8c3b 3d5c 013b
00000090: f60d 1c3e 87c6 55bd 3df5 1cbe 3f79 1c3e
000000a0: d9fa 19be 344c b9bc b610 26bb 9a89 bfbc
000000b0: 06ef 0a3e 482a 72bd 0c97 913d fe9f 18be
000000c0: 95fd ba3d 85ed 22b9 7cce 21be dda2 833d
000000d0: 3e23 20be 3b93 d1bd 085f 20be 511b 583c
000000e0: 92d0 2cbe 83ec f83d f226 1bbe bee1 97bc
000000f0: 799c 29be 807b 023e a428 17be d893 243e
00000100: 91e6 0cbe 1268 9dbd b1a8 ba3d 9942 913d
00000110: fa1f 33be fc6d 113e 29cd 993d 515d c0bd
00000120: fddc db3c d0ee 2cbe c5f3 963d 3d0a 5a3d
00000130: 528d c3bd 6b34 413d bcd3 263e 4698 8c3d
00000140: 8775 02bc 5169 cb3b 409a 5dbd 138c ea3d
00000150: e2b6 aebd 2f07 2bbe 6b5a 72bd 28cb 7f3b
00000160: b1ae 25be 946e 343e 7416 133e 71af 0bbe
00000170: 7bea 8c3d 521c 023e e516 1f3e 9a63 04be
00000180: 41e9 253e e2e1 1c3e c9e8 c13c dafa 06bc
00000190: ffba 483c a804 8b3d a48b e6bd d57f e93d
000001a0: 2029 23bd 3930 dbbb 53c8 c33d e6d7 36be
000001b0: 6c61 e0bb d850 be3b f331 23be 7057 1cbe
000001c0: 78b1 1fbe 22bf 65bd b923 e53d e542 1e3e
000001d0: 2c24 fe3d 3951 e53d c15c 913d 7d66 b23c
000001e0: 77fb 94bd 2675 1a3e 9a46 5ebd 1024 20be
000001f0: e281 15bc 89fb 9ebd ba1c 96bd 6ff0 f33d
00000200: 7d88 0fbe ada8 0a3e 233c 993d 853d 0a3e
00000210: f952 21be 08b6 11be df5d 6abd 8102 dd3d
00000220: 3cca 2ebe ef30 2dbe a531 173e d3b1 10bd
00000230: 9720 323e c0a9 bbbd c8a9 113e 1705 263e
00000240: ac77 34be d73a 1abe e936 35be 1971 25bd
00000250: 2c81 2ebe 8788 833d b40d 443d 912f 20be
00000260: 4395 2ebe c98b d23c 9fb3 e73d 9522 20be
00000270: fa47 d23c 0c1d 09bd 25ef 2f3e 3138 8ebd
00000280: 8d24 c5bd 31f3 a8bd c354 9c3c 1f56 3abd
00000290: ee9b 2f3e 3bcb f43d 2088 a23d 31af c63d
000002a0: bf5e f03d 96b2 283e 01b8 44bd 24fe 20be
000002b0: 95a1 9a3d 0443 a6bd 2e65 2b3d 2d87 a73d
000002c0: 357e 0bbe 77cd c13d 54fc d4bd 09c0 1fbe
000002d0: bde6 ab3c f247 d03d a9a1 743d 8142 7d3d
000002e0: b393 273e 5cee db3b 2a5f 0abd 7380 56bb
000002f0: 61af 96bd dbb9 d6bd fd16 373c b1f5 153e
00000300: 5500 7e3d 03d5 3d3c 3bb7 cdbd 86c5 2abe
00000310: d4ea ee3d 3777 bd3d ce33 05be 23a3 cf3c
00000320: 0caa e83d 19ab 7a3d b610 083e 602e 08be
00000330: 7d7d 233e cc07 5f3d fc84 033e 3795 af3a
00000340: 8c45 15be 3a8f 71bd 9ae4 5bbd 83c2 c33d
00000350: e43a 023e 4cbc 27be a868 bdbd c935 763d
00000360: 4956 f13d bff8 86bd a655 e43d 4d49 e63d
00000370: 9cf1 0dbd 03f7 bebd 8190 523d a38f bbbc
00000380: a1a4 233e 2f87 4dbd fd2a 0a3e 5a2c 80bd
00000390: 4f76 93bd efe7 8b3a 4c08 27be bdc7 26be
000003a0: a1cf 25be fb67 09bd 8890 873d 9171 ce3d
000003b0: f30e cebd 1708 fc3d 299d fbbc 421e 28be
000003c0: b6ed 29be 564d 2b3d a8e1 2cbd 5a59 383c
000003d0: bdce 1ab8 5f2f 4ebd 5a86 1ebd 7a4c f4bd
000003e0: 9574 993d 483a 9ebc 27f7 123e 3895 1b3d
000003f0: 3fdb 25be 017d e83c 04e7 02be 27e4 b93d
0.102873124 -0.081895895 -0.030521784 -0.11680395 0.13218834 0.09739647 0.08937721 0.12304737
0.04326401 0.066253066 0.11827205 0.16433527 0.08893372 -0.14296456 -0.08733786 -0.035039045
0.17533882 -0.007462701 -0.15188783 -0.03379781 0.114014804 -0.14442767 -0.0013283981 -0.005602196
0.07598445 0.17838177 0.05281982 -0.034760293 -0.039706845 0.023995906 0.10390203 0.14571723
0.10378572 0.14891788 0.004275311 0.0019738816 0.152397 -0.052191284 -0.15327926 0.15280627
-0.15037097 -0.022619344 -0.002533955 -0.023381043 0.13567743 -0.059122354 0.07108888 -0.14904782
0.09130398 -0.00015538007 -0.15801424 0.06427548 -0.15638444 -0.1023316 -0.15661252 0.0131901065
-0.16876438 0.12154486 -0.15151575 -0.01854026 -0.16563596 0.12742424 -0.14761597 0.16072023
-0.13759829 -0.076858655 0.091142066 0.070927806 -0.17492667 0.14202112 0.07509834 -0.09392799
0.026838774 -0.16887975 0.07370714 0.05323242 -0.09548439 0.04716913 0.16291708 0.06864981
-0.007962591 0.006207623 -0.054102182 0.11452498 -0.08530976 -0.16701959 -0.05916826 0.0039031003
-0.1617992 0.17620307 0.14364034 -0.13641144 0.06880661 0.12706116 0.15536077 -0.1292862
0.1620226 0.15320542 0.02367057 -0.008238519 0.012251615 0.067879975 -0.11257103 0.11401335
-0.03983414 -0.006689098 0.09559693 -0.17855796 -0.006847551 0.005807977 -0.15937023 -0.1526773
-0.15595043 -0.05609048 0.11188454 0.15455206 0.12409243 0.111971326 0.070977695 0.021777386
-0.072745256 0.15083751 -0.05426655 -0.15638757 -0.009125205 -0.0776282 -0.07329698 0.119110934
-0.1401691 0.13540907 0.07482173 0.1350003 -0.15754308 -0.14229596 -0.05721843 0.10791493
-0.17069334 -0.16913198 0.14765032 -0.035325836 0.17395245 -0.091632366 0.14224923 0.16212879
-0.17623776 -0.15061508 -0.17696728 -0.04039106 -0.17041463 0.06422525 0.04786463 -0.15643145
-0.17049126 0.02570142 0.11313557 -0.15638192 0.025669087 -0.033474967 0.1718107 -0.069443114
-0.09626112 -0.0824951 0.019083386 -0.045492288 0.17149326 0.11952826 0.0793612 0.09701384
0.117368214 0.16474375 -0.048027042 -0.15721947 0.075503506 -0.08118251 0.04184454 0.081800796
-0.13622363 0.094630174 -0.1039969 -0.156006 0.020984048 0.101699725 0.059724484 0.061831
0.16364937 0.0067117643 -0.03378216 -0.003273037 -0.073576696 -0.10484668 0.011174914 0.14644505
0.062012035 0.0115864305 -0.10044714 -0.16676912 0.11665884 0.09251254 -0.13008043 0.025346344
0.11360559 0.061198328 0.13287625 -0.1329894 0.15965839 0.054450795 0.12843698 0.001339591
-0.14577311 -0.058974482 -0.05368481 0.095585845 0.12717777 -0.16380423 -0.09248477 0.060109887
0.11784036 -0.06590413 0.11149149 0.1124445 -0.034654245 -0.093244575 0.05140734 -0.02289564
0.1598077 -0.05017775 0.13492961 -0.062584594 -0.072003 0.001067398 -0.16311759 -0.16287132
-0.16192485 -0.03354643 0.06619364 0.10080255 -0.10061445 0.123062305 -0.030714588 -0.16417792
-0.16594586 0.0418218 -0.04220739 0.011251772 -3.6909e-05 -0.050338145 -0.038702346 -0.11928649
0.074929394 -0.0193149 0.14352094 0.037984103 -0.16196917 0.028379919 -0.12783438 0.0907672

convs.0.mp_levels.2.combine_nn.0.bias f4 [16]
00000000: 2742 0b3e ed13 d9bd 7756 dabd de3b c5bd
00000010: b1cb 2cbe eb84 25bd 47f8 cabd b1db d33d
00000020: cfcb 9fbd e26d b0bd 3ffc 0f3e bd0f 32bd
00000030: 242e f23d aad4 c93d c479 a7bd d600 ec3a
0.13599454 -0.10599504 -0.10661023 -0.096305594 -0.16874577 -0.040409964 -0.099106364 0.10344637
-0.07802545 -0.086147085 0.14061068 -0.04347204 0.11825207 0.098550156 -0.08177522 0.001800562

convs.0.mp_levels.3.msg_up_nn.1.weight f4 [1, 2]
00000000: b458 e23e 411f b1be
0.442083 -0.34594157

convs.0.mp_levels.3.update_up_nn.0.weight f4 [16, 1]
00000000: f6fd b33d 5cb1 d8be 8aee 31bf b77e 7e3f
00000010: 1f0c 63bf a6e1 88be b6c4 e03e c975 d4be
00000020: c7a7 a43e 9179 0dbf 8ada 5bbf c871 16bf
00000030: ddf7 2abe 06ac f53e f4f4 2fbf b923 2fbf
0.087886736 -0.42322814 -0.69504607 0.994121 -0.8869037 -0.26734656 0.4390008 -0.41496113
0.32159254 -0.5526362 -0.8588034 -0.58767366 -0.16696115 0.47982806 -0.68733144 -0.68413883

convs.0.mp_levels.3.update_up_nn.0.bias f4 [16]
00000000: 8c4d f5bc ded9 053e 3629 3dbf e166 77be
00000010: 5d9c 483f 2eab 633f 2d6a 60bf bcfa 683f
00000020: 49d5 3ebf 1754 383f 8017 963e 583b 06bf
00000030: ee24 3abf 6637 20be cbb4 2d3f b568 bf3b
-0.029944204 0.13071391 -0.7389101 -0.24160339 0.7836359 0.88933074 -0.8766201 0.9100759
-0.745442 0.7200331 0.29314804 -0.524343 -0.727126 -0.15646133 0.67853993 0.0058413395

convs.0.mp_levels.3.update_boundaries_nn.0.weight f4 [16, 1]
00000000: 5d37 2a3f 54b1 b13e 7c9c 083f 4aff 5bbf
00000010: 8674 6d3e 662b 78bf 237e 1f3d ba2b 4b3f
00000020: e828 1e3f 45d8 34bd 7c8f 6e3f 593a ee3e
00000030: 7d8a 733f 358c f13e 8900 be3d eb87 4a3f
0.6649073 0.34705603 0.53363776 -0.85936415 0.23188981 -0.9694122 0.038938653 0.79363596
0.6178117 -0.044151563 0.9318769 0.4652889 0.9513319 0.47177282 0.09277446 0.79113644

convs.0.mp_levels.3.update_boundaries_nn.0.bias f4 [16]
00000000: 1ea6 503f 656b 63bf 3c96 e8be 66ad 6dbf
00000010: c5cf f7be e593 2e3e b7e8 56be 0d66 32be
00000020: 88e1 0f3f 0694 0cbe 557a fb3e 83ce 803e
00000030: 876f 0ebf 5e73 6a3e c1b2 47bf 0059 533f
0.81503475 -0.88835746 -0.4542712 -0.9284271 -0.48400703 0.17048605 -0.20987211 -0.17421742
0.5620351 -0.13728341 0.4911677 0.25157556 -0.5563893 0.22895572 -0.7800713 0.8255768

convs.0.mp_levels.3.combine_nn.0.weight f4 [16, 32]
00000000: 4fc2 3f3d edad d6bd b346 d1bd 8efb c0bd
00000010: 9154 9cbd 9ef7 abbc c9df acbc c37a 02bd
00000020: 7ea0 1b3e 4134 203c ea2a 0cbe 4f76 3e3d
00000030: 79cf 5ebd b8d3 2bbd 902d 0bbd b8e4 18bc
00000040: bfbb 563d ed35 8e3d 0d54 63bd e8eb 82bc
00000050: ea85 a4bd 5175 253e 1711 ac3d 19e5 0dbe
00000060: c600 3cbd a460 cd3d d6d0 0abe 7ec7 06be
00000070: 509f 2a3d d4c0 01be 7f08 1cbd 6bc5 143c
00000080: 46dd 95bd f7fb c53d 5e0b d6bd 63e3 1a3c
00000090: cf2c fcbd 5515 d8bd d285 f13d fc79 2f3c
000000a0: 0f9d 23be a4bd 3a3d 479e 573c 3070 b13d
000000b0: a8f6 38bd e7e4 20bd 37f7 32be 58d5 f03c
000000c0: 61b7 273e cd7b d1bc 565b 163e d3b3 d0bd
000000d0: 1c7e f73d 417a 143e 78d5 1f3e 8c72 d73d
000000e0: ef48 75bd f9bd 24be 6171 87ba eaa5 3a3e
000000f0: 559a 333e b3d3 263e be3b a1bd ccd2 243e
00000100: fa48 17bd e19d 9b3d e90f 27bd 0866 a43c
00000110: ed11 af3d afcb 61bd 9ed5 00be f3a8 dbbd
00000120: b9ec b13c bbac babd 505d fabd e715 ec3d
00000130: ca0f 78bd 2847 2c3e d534 4abd 4e5e 19bb
00000140: 9489 db3d b497 133e 7fc6 ce3d 0da8 bf3d
00000150: 36bb a93d 6cae 17be b462 4dbd 9f5a 29bc
00000160: ffda 903d 7801 0ebe 2cef 823d b7f2 ae3d
00000170: 85ca 29bd bebe 0bbe 3e1e 313e 7411 0bbe
00000180: 7a06 febd 1ca7 b4bd 2ea9 2ebd 818f e6bc
00000190: 4f34 de3d 5eb1 313e 9f03 b53d 8f19 1d3d
000001a0: d0dd 2fbd 2a0f 22be 6c15 293e cd6d 1abe
000001b0: 76de 0a3e 7904 ea3b 2c8c 1fbe 4825 063e
000001c0: 9236 2b3e 603a 0c3e b128 e23d 7907 d2bd
000001d0: 30f8 8e3d ddc7 ebbd 82b9 40bc a792 0abe
000001e0: 9e5d 07be 85b8 663d 3ded cf3d d58f 02be
000001f0: 6096 f23d a966 d3bc bce5 73bd bd1c e6bb
00000200: e290 36bd d80e a43d 38d2 f33d 4284 833d
00000210: 7a40 efbd 63e1 1abe e869 1f3e a780 313e
00000220: 921c d83c a9fa 14bd d231 aa3c 1a4d 18be
00000230: ecf0 edbd 9069 bbbd b2ff a43c 12df 183e
00000240: 7d80 c63c 2417 3c3d aa52 28b9 cab1 513b
00000250: 23ad 1b3e 1501 df3d f957 b43c 0baa 39bc
00000260: 9085 34bc adc6 ca3d 6137 c9bc 613b 163e
00000270: d3c8 0b3e 5a81 ad3d 502d 0dbe 5120 dabd
00000280: 9b6a 1b3e 45f1 22be 063f 33be a53f 88bd
00000290: ec8c aabd 08e3 923b 2dfc 97bd 3457 26be
000002a0: d07c c1bd 14d2 9cbd 344a d13d d43d 99bd
000002b0: b519 03be f010 c2bc 4998 3ebb 03a6 10bd
000002c0: aa55 ed3c 5bd8 d9bc 1524 89bd e071 b63c
000002d0: bce8 2abe 34fb 0b3e 708e a03d e5ad 2b3d
000002e0: 46b2 15bd 2a55 213e 485d 123c 2f64 eabd
000002f0: 4e7d b0bd 5c3c f4bc 8ecd f3bd de84 0d3e
00000300: 4295 2dbe d886 203e ffbc fabd 8231 743d
00000310: 5130 943d 6719 113e 8813 283d c761 debd
00000320: f5ab 4d3a d5a4 05be a957 ef3d 5dfd 49bd
00000330: 74a5 8abc 21fd 8d3c b2c2 fbbd ff3f 933c
00000340: 493c 163d a2cb a33c c31b a03d 87a3 173e
00000350: f0e6 f7bd f4c6 a6bd d7be 233e 4de8 70bd
00000360: 7b37 2bbe 9463 8dbd a875 cdbd 8974 73bd
00000370: 9d20 fabd 017a 21be b87b 04bd 947b 0b3e
00000380: 69e1 243e 65fb 99bd 8e71 00be ac34 de3d
00000390: f12e 123e ebd1 263d 8105 5dbd b8ea 983d
000003a0: 762f 363e eadf d0bd 5001 0cbd e7db a43d
000003b0: 779e bd3d 42e1 283e cead 143e 1b2a 463d
000003c0: 3ebb 03be 91ff 0d3e b67e 42bc 61f3 b23d
000003d0: 4411 c2bc 5a11 08bd 206a 0abe 4f5c 683d
000003e0: 2aa4 aa3d 87e7 17be f28d 333d da54 c23c
000003f0: 4b93 373e a868 0b3e ebeb 3e3d 8822 27be
0.046816166 -0.104823925 -0.10218563 -0.0942298 -0.07633317 -0.020992097 -0.021102803 -0.031855356
0.15197942 0.009778083 -0.13688245 0.046499547 -0.05439708 -0.041949958 -0.033979 -0.009331875
0.052425142 0.06943879 -0.05550008 -0.01598163 -0.080333546 0.16158034 0.08401697 -0.13856925
-0.045899175 0.10028198 -0.13556227 -0.13162038 0.04165584 -0.12671214 -0.03809404 0.009080271
-0.07317595 0.09667199 -0.10451387 0.009453627 -0.12313234 -0.10550944 0.11793102 0.010710236
-0.15977882 0.04559101 0.013160295 0.08663976 -0.045157105 -0.0392808 -0.17477117 0.029398605
0.16378547 -0.025571728 0.1468328 -0.10190549 0.120846 0.14499761 0.15608776 0.10519895
-0.059884008 -0.16088094 -0.0010333472 0.18227354 0.17539342 0.16291694 -0.07872723 0.16096038
-0.03693483 0.075984724 -0.040786657 0.020068184 0.08548341 -0.05512589 -0.12581488 -0.10725584
0.021719323 -0.09114977 -0.12224829 0.11527615 -0.060561933 0.16824019 -0.04936679 -0.0023402157
0.107196 0.14413339 0.10096454 0.09358225 0.08287661 -0.1481263 -0.05014296 -0.010336547
0.0707302 -0.13867748 0.06393275 0.08542388 -0.041452903 -0.13646981 0.17296693 -0.13580877
-0.12403579 -0.08820936 -0.04264181 -0.0281446 0.10849821 0.17352816 0.08838581 0.038354453
-0.042936146 -0.15826097 0.16512078 -0.15080948 0.13561425 0.0071416465 -0.15580815 0.13100159
0.16720036 0.13694143 0.110429175 -0.102553315 0.06980932 -0.1151273 -0.0117629785 -0.13532506
-0.13219306 0.056328315 0.101526715 -0.1275018 0.11845088 -0.025805788 -0.059545264 -0.007022469
-0.044571765 0.08010644 0.119053304 0.064217106 -0.1168222 -0.1512504 0.15567744 0.17334233
0.02638081 -0.03637186 0.02077571 -0.14873162 -0.11618218 -0.09150994 0.020141456 0.14928845
0.02423119 0.045920506 -0.00016052523 0.003199684 0.15202765 0.10888878 0.022014605 -0.011332045
-0.011018172 0.09901176 -0.02456254 0.14671089 0.13650827 0.084719375 -0.13786817 -0.10650695
0.15177386 -0.1591235 -0.1750451 -0.06652764 -0.0832766 0.0044826306 -0.074211456 -0.16244203
-0.09447634 -0.07657257 0.10219231 -0.07482496 -0.12802775 -0.023689717 -0.0029082468 -0.03531457
0.028971512 -0.026592424 -0.06696335 0.022271097 -0.16690344 0.13670045 0.07839668 0.041913886
-0.036546968 0.15755144 0.008933373 -0.1144489 -0.0861765 -0.029813938 -0.11904441 0.13820216
-0.16951469 0.15676439 -0.122430794 0.059617527 0.07235778 0.14169846 0.04103425 -0.10858493
0.0007845753 -0.1305116 0.11686642 -0.04931389 -0.016924597 0.017332615 -0.122929946 0.017974852
0.036678586 0.01999456 0.07817795 0.14808474 -0.12104595 -0.08143416 0.15990768 -0.05881529
-0.16720383 -0.06903759 -0.10032207 -0.05943731 -0.12213252 -0.15769197 -0.03234455 0.1362136
0.16101612 -0.07518653 -0.12543318 0.1084989 0.14275719 0.040727537 -0.053960327 0.07466644
0.17791542 -0.10198958 -0.03418094 0.080497555 0.092587404 0.16492179 0.14519426 0.04838
-0.12864396 0.13867022 -0.011871031 0.08737827 -0.023689874 -0.033219673 -0.13517046 0.056728657
0.08332093 -0.14834414 0.04383654 0.023722101 0.17927282 0.13614142 0.046611708 -0.16321766

convs.0.mp_levels.3.combine_nn.0.bias f4 [16]
00000000: c90c 2a3e af74 0b3e c539 32bd d717 9fbd
00000010: ea73 bb3d f70c 083d bad4 fabc 44a3 6fbd
00000020: 4cb3 33be 2ced 883d 6959 d53d d408 07bd
00000030: 0c9c 233e c4c1 d13b f760 1b3d 8444 233e
0.1660644 0.1361873 -0.043512125 -0.07768219 0.09152968 0.03321549 -0.030619014 -0.05850531
-0.17548865 0.06685862 0.10417444 -0.032967404 0.15977496 0.0064012725 0.03793427 0.15944105

convs.1.mp_levels.0.msg_up_nn.1.weight f4 [16, 32]
00000000: 3d1e b83d 44c7 ab3d ea7b 753d 36ae 13be
00000010: 00ad f33d 0e30 06be df1e c73d 4753 e83d
00000020: 9872 3dbb 5cf0 2fbd 21ba 033e 2565 193e
00000030: b8c3 273e 3fc5 273e 4226 22be 3804 043e
00000040: 3398 0c3e 31c1 043e 8f26 6cbc 502f a1bd
00000050: 9041 56bd 8f28 0e3e 640a 14be aa1a 0cbe
00000060: 7a9a 03be c680 fd3d 89a7 923d 794c 28be
00000070: 07e3 e13d 35ca 1cbd e24b db3c cf71 cf3d
00000080: 9faa 98bd 2e7f 49bd 410b 0ebd b570 053e
00000090: b441 df3c 0605 4fbd 7eee ac3d 97e4 723d
000000a0: bc5c b73d 151d 1f3e dac2 9d3c 3ac6 13be
000000b0: 257f 35be 57a0 c73d 9f77 dabd 3897 123e
000000c0: c7ea 083e 8c0e 1c3e 7155 b23d 3d08 17be
000000d0: 43bd 923d cb20 47bd f864 353e 4e3a d63d
000000e0: 2078 15be 9379 9d3d a959 86bd c127 0b3e
000000f0: 2f81 32be 7276 f83c c445 2a3d ed17 9f3d
00000100: 0185 b4bd e0d0 b3bc d174 db3d 2900 8abd
00000110: 0563 64bb 4979 2c3e 551f 963c 8212 d13c
00000120: e80b c63d 6fc5 e9bd 4bda 29be fcdf babd
00000130: 91af 053d 7366 13be af1a c8bd f961 2e3e
00000140: cf3f 553d d311 0c3d f5ee 6c3d e0d4 d4bd
00000150: 59d9 ea3d a077 043e 308d 1e3e 9c96 c73d
00000160: 440c 2f3d bb12 abbd 1094 c5bd 9ed1 3b3d
00000170: 8587 063d b3fb 783d 97f1 e83d 23c5 d23c
00000180: cfdb 353e fa2d 9cbd a61c fdbd 7cbf 243c
00000190: 0a41 e1bd f8ea 273e ce8e e0bc c27e 54bd
000001a0: e97d 033e e069 e4bd 6923 0b3d 0224 a53d
000001b0: 4d1f 213e 8207 2ebe 017d f83d e016 783d
000001c0: 1238 3bbc 9820 39bd a8f9 17bd 0976 8dbd
000001d0: c4ce 06bd e9db 26be 3afd 33be f300 f53d
000001e0: dbf7 f23c 89de fe3d d641 40bc 96fa 2ebe
000001f0: c19f 60bd a8d0 1f3d 5a05 2d3e a2e1 28be
00000200: 4938 73bc 43fd 9f3d fdb1 31bd 92e9 b23d
00000210: 2287 33be f79e 0a3e 25b0 1b3e a053 83bd
00000220: dd1d d2bc 3b9e 20be 1190 0b3e 28f2 c53d
00000230: 208d 02be 1a17 a23c 070b e0bd 209e 33bd
00000240: 6b32 5dbd 313f 1fbe 3d51 e5bd 620c fe3c
00000250: 622c 13be 5dc8 3f3e 7365 31be fa58 163e
00000260: 79b9 e7bd d3ca 12be 0a9a 2c3e 7b11 02be
00000270: 4899 a0bd 2eb1 47bd 2467 3c3d 7961 b8bc
00000280: 67b2 94bd 170b b0bd 315b aa3d dfd2 bd3c
00000290: 9254 9a3b 815f 213e e4ce 183e b2ec e13d
000002a0: 2b84 dc3a 00d2 43bd e538 283e c863 c33c
000002b0: 4e1b 45bd 8383 1abb 03ce 333d e6f7 97bd
000002c0: 5e4d 9fbd daa8 d83d 1c6f e7bd 8f71 41bd
000002d0: 3a2d 093e af61 09be dac8 093d 3d35 f5bd
000002e0: e9d2 143e 8b6d 7b3a 97e0 fabd 419c 05bd
000002f0: e8e3 fe3d 025a 1c3d ec25 313e 1766 b9bc
00000300: 43b5 0c3d 67eb 2f3e ae9b eb3d 606f d23d
00000310: 25c8 e5bd ac78 a63a f7e4 e73d ad25 c7bc
00000320: 4063 2f3d 93d3 2c3e 5b9f f1bd 3b99 23bd
00000330: c88a 2b3e 7a53 59bd e114 42bd abbe 03be
00000340: 426d 9e3d 5fd7 0a3e 09b7 8b3c 3f48 33be
00000350: 600e bdbd bd20 e13d 2b25 0b3e 3772 2cbe
00000360: 8be5 bf3d 1857 d8bd 48a7 18be 3a39 ca3d
00000370: 434f 0c3e e276 16bd 077a 153d 0209 edbd
00000380: c2ea 9cbd 1e9d dbbd ae09 b83c 19ed 293d
00000390: b115 fabd abcf 1f3e 29ea 17be a8f9 25bc
000003a0: 599f a7bc 2407 d53d df07 0f3e 576f 953d
000003b0: ac15 333e b519 f0bd abbd 7b3d 3767 dfbd
000003c0: b70c 983d b732 09be 7b34 1c3e 21dc 8e3d
000003d0: c836 733d 8353 a43d f5e0 b8bd e6e8 15be
000003e0: 405a 4fbd 1789 0cbe 2557 363c c525 cfbd
000003f0: d697 173e 08e8 07be 0b1b d13d 8a29 31bc
0.089901425 0.08387616 0.059932627 -0.14421925 0.118982315 -0.13104269 0.09722685 0.11344009
-0.0028907415 -0.042953834 0.12863971 0.1497999 0.16383255 0.16383837 -0.15834907 0.12892234
0.13729934 0.12964322 -0.01441349 -0.07870352 -0.05230862 0.1388266 -0.14457089 -0.13682047
-0.12851897 0.12378077 0.07160861 -0.16435422 0.1102963 -0.038278777 0.026769582 0.10129129
-0.074544184 -0.049193554 -0.0346787 0.13031276 0.02725301 -0.0505419 0.08443926 0.05930003
0.089532346 0.15538438 0.019257952 -0.14431086 -0.17724283 0.09747379 -0.10667347 0.14315498
0.1337081 0.15239924 0.08707703 -0.14749236 0.07165005 -0.04861526 0.17714298 0.104603395
-0.14596605 0.07689204 -0.0656007 0.13589384 -0.17432092 0.030329917 0.04157044 0.07768235
-0.08814431 -0.021950185 0.1071564 -0.06738312 -0.003484906 0.16843142 0.018325487 0.02552152
0.0967024 -0.114146106 -0.16587178 -0.09124753 0.032638136 -0.1439455 -0.097707145 0.17029561
0.052062806 0.034196686 0.057845075 -0.10392165 0.11467237 0.12936258 0.15483546 0.09745523
0.042736307 -0.08353182 -0.09647381 0.045854203 0.032844085 0.060786914 0.113742046 0.025728768
0.17759632 -0.07625957 -0.1235898 0.010055419 -0.10998733 0.16398227 -0.027411845 -0.0518787
0.12841 -0.111530066 0.033969317 0.080635086 0.15734597 -0.16995052 0.121332176 0.06056869
-0.011426942 -0.0451971 -0.037103325 -0.06907279 -0.03291203 -0.16294827 -0.17577067 0.11963072
0.029659202 0.12444789 -0.0117344465 -0.17087778 -0.054839853 0.03901735 0.16896573 -0.16492322
-0.014844962 0.07811978 -0.043382633 0.08735956 -0.17532018 0.13537203 0.15203913 -0.064124346
-0.025649006 -0.1568536 0.13629176 0.09665328 -0.12749147 0.019786406 -0.10939603 -0.04385197
-0.05400316 -0.1555145 -0.111971356 0.031011764 -0.143724 0.18728776 -0.17323856 0.1468238
-0.11314673 -0.14335184 0.16855636 -0.12701981 -0.07841736 -0.048752956 0.0459968 -0.022507416
-0.0726059 -0.08595865 0.08318175 0.02317184 0.0047097886 0.15759088 0.14922673 0.11031474
0.0016824057 -0.047807693 0.16427954 0.02385129 -0.048121743 -0.0023576922 0.04389764 -0.0742033
-0.077784285 0.10579081 -0.11300489 -0.04722744 0.13396159 -0.1341617 0.033638813 -0.11973045
0.14533581 0.00095912133 -0.12249868 -0.03261972 0.124458134 0.038171776 0.17299622 -0.022631688
0.034352552 0.17179643 0.11504303 0.10275149 -0.11219815 0.0012700758 0.113229685 -0.024309957
0.04281926 0.16877584 -0.11797973 -0.039941054 0.1675216 -0.053058125 -0.047383193 -0.12865703
0.07735683 0.1355872 0.017055051 -0.17508028 -0.092312574 0.109925725 0.13588397 -0.16840445
0.09369954 -0.10563487 -0.14907563 0.09874196 0.13702111 -0.03673447 0.036493327 -0.11573984
-0.07661964 -0.10723327 0.022465553 0.04148588 -0.122111686 0.15606563 -0.14835419 -0.0101303235
-0.020461725 0.104017526 0.13967846 0.07296627 0.17488736 -0.11723653 0.06146018 -0.109083585
0.074243 -0.13398252 0.15254395 0.0697558 0.059378415 0.08023741 -0.09027282 -0.14639625
-0.05062318 -0.1372417 0.011129175 -0.10114626 0.14804015 -0.13272107 0.10210236 -0.010813126

convs.1.mp_levels.0.msg_up_nn.1.bias f4 [16]
00000000: 171f e13d 3c9f 943d 0610 7d3d 779c fb38
00000010: 272e 06be 8963 2d3e c7f7 f33d 006d 093e
00000020: 711e 1e3e ae14 60bd 56b9 ec3c 3196 153a
00000030: a17f 493d 4dac 1ebe 3b95 023e f41f fdbd
0.10992258 0.07256934 0.06178286 0.000119977565 -0.13103543 0.16932501 0.11912494 0.13420486
0.154413 -0.05470722 0.028896969 0.0005706279 0.049193982 -0.15495415 0.1275224 -0.1235961

convs.1.mp_levels.0.update_up_nn.0.weight f4 [16, 16]
00000000: 90db 62bd 6a00 a3bd 8b96 5bbd 867c 943d
00000010: 873b 4c3e 254e 40be bfe8 0c3e 5bff 763e
00000020: 734e 663e 24f9 3ebe 9d92 b3bc 82dc 263c
00000030: e5b3 03be c81e 1c3e 8336 bbbd 985c a0bd
00000040: f50b c6bd cb7b 733e b923 3b3d ee70 633d
00000050: 3392 1dbe d87e 0f3d f726 5dbb 3958 9abd
00000060: b551 1fbe 078a 4a3e ee9a 493c d710 24be
00000070: 0051 ae3d 7b2b b43d a653 05be 53fc 81bd
00000080: 2a95 c93d 6c37 303e 7a74 8b3d 0a6d 743e
00000090: 2cf5 69be aedb 623d 31e8 6a3e a1c0 dd3c
000000a0: 24b8 a83d 7c3f adbd 9f84 68bd d0d6 51be
000000b0: 620b c9bd 31b5 2d3e ea5c 1c3e e5c7 61be
000000c0: be0e dd3c 8c50 dabd 60e2 0cbe 1921 51be
000000d0: 576d d93c d3be 19be 8e25 44be 6926 133e
000000e0: bba2 263e 9b09 46be a8e9 6c3e efe6 67bd
000000f0: c0f1 763d 5922 6dbe 2706 f93d 8252 d3bd
00000100: 2f14 523e 2751 3c3d 7747 063e 8835 bb3d
00000110: c486 833d 9649 76be 18c8 f7bd 414d 84bd
00000120: aefd 133c 35db f33d 4690 17be da51 ecbd
00000130: 308a 1bbe 2b34 21be a05c 183d ccdf 223e
00000140: cd1f 633e c554 34be d3cf 2b3e 4a0b 893d
00000150: 4c24 0dbe 1ffb e2bd ae86 433e da02 62be
00000160: c239 3f3e 3452 ccbd d250 713e 396c 89bd
00000170: e3ba 0abe e7ae c53d 763d 04be c61b 193e
00000180: ec82 21be 13cf 90bd 3a3f 363c d6d3 443e
00000190: 3b64 633e 78be 533e bd1e 7c3e c711 253e
000001a0: cfc2 7abe d58e b3bd 72c1 da3d fcdb 013e
000001b0: 300c 70be ae94 b63c 5813 0b3d bbfa 8cbd
000001c0: 466b 39be c6ca 73be 2e5e 2abd 2788 203e
000001d0: f669 ce3d f7e9 293e f69d d13d 80ca febb
000001e0: ceed 3f3e ee6c 05be f315 2ebd b676 d3bb
000001f0: 2c7f d4bd d582 bfbd 1e89 66be 6e28 de3d
00000200: d952 0c3c e4cf 08be 4786 6d3e cab1 9cbd
00000210: f913 b5bd 38b3 95ba 1319 17be 58de b33d
00000220: 5973 cbbc 606f 693c 4646 1d3e 7968 2abe
00000230: ebde bb3d 9b62 cb3d 5158 0cbd 4547 523e
00000240: f4aa 42be e8e0 7a3e 3979 1d3d a907 b8bb
00000250: 9946 6dbe 9c15 583d 0a3a ce3d a3b2 533e
00000260: db6a bcbd 0511 d33d b38b a9bd caea adbd
00000270: b559 783d c93f f8bd a170 80bd a20b 353e
00000280: 13ad 4cbe 2a91 fb3c f65e 803e 864a ac3d
00000290: 180b fa3d 9f4c b63d d5a4 383d 04fc 023e
000002a0: 53e4 f53d d763 263e 7d43 1c3e e1fe 2c3d
000002b0: d9ad 5e3d 92e5 aabd e340 dabd b292 333e
000002c0: 4ae2 1fbe b213 b4bd d12b 43be 8c82 24bc
000002d0: a6de 5e3e 2787 653e 11cf d03b e369 8e3d
000002e0: 5355 4cbe bd5a 853d f089 f9bd c094 0f3e
000002f0: 2a2a d0bd ce44 debd c08d ee3d bf72 a2bd
00000300: bce0 bfbd 2a23 d2bc d410 25be f4a7 3a3e
00000310: 4c5c 72be c245 b13c a7ce cebd 0bd0 be3d
00000320: 9577 60be 909d 153e cb74 733e 1cb1 2cbe
00000330: 31a4 e6ba 7150 3bbe 599d 78bd 5860 10bb
00000340: 8618 29be d812 42be 087e 4fbe 9c2e 7f3c
00000350: e146 5cbe e958 73be bec7 85bc 3c63 2a3e
00000360: 099c 4d3e a862 9c3d e263 643a c435 b4bd
00000370: 466e 54be 1852 373c f40c 703e 7363 0bbe
00000380: 2d5c 5e3e 37b1 4fbe 684e 2c3e c30e babd
00000390: a138 fdbd 7dce 113e d748 58be 38df b93c
000003a0: 8225 9d3c dbda 1abe 1df4 5abe 43fa 793d
000003b0: 6575 16be 87d2 34bd 0cca 37bd 0a53 653e
000003c0: f515 6e3e 463a 753e f1ad b8bd d06f 9a3d
000003d0: 8e0f 77be d0f3 c53b 3061 153e ecd8 27be
000003e0: 0e4b 20be 2d09 4fbe b453 7bbd e26f c23c
000003f0: 9300 28be 4456 d2bd 4e92 853d e7c8 8c3d
-0.055385172 -0.07959063 -0.053610366 0.072503135 0.19944583 -0.1877981 0.1376066 0.24120848
0.22490864 -0.18649727 -0.021920497 0.010184409 -0.12861593 0.15246117 -0.09141257 -0.07830161
-0.096702494 0.23777692 0.045688365 0.05552762 -0.15387802 0.035033077 -0.0033745149 -0.075363584
-0.15558513 0.19779216 0.0123050045 -0.16022049 0.08511543 0.08797356 -0.1302019 -0.06346955
0.09842904 0.17208642 0.068093255 0.2386972 -0.22847432 0.055385284 0.22940136 0.027069392
0.08238247 -0.08459374 -0.056767102 -0.204921 -0.09816624 0.1696365 0.15269819 -0.2204891
0.026984569 -0.10659894 -0.1375823 -0.20422782 0.026541395 -0.150142 -0.19154951 0.14370121
0.16273014 -0.19339602 0.23136008 -0.05661672 0.060289145 -0.23157634 0.121593766 -0.103184715
0.20515512 0.04597583 0.13113199 0.0914107 0.06422189 -0.24051508 -0.12098712 -0.064600475
0.00903265 0.11907045 -0.1480113 -0.115390494 -0.15189433 -0.15742557 0.03719771 0.15905684
0.221801 -0.17610462 0.16778497 0.06691606 -0.13783377 -0.11083054 0.19094345 -0.220714
0.18674377 -0.099766165 0.23565987 -0.06710095 -0.13547854 0.096525006 -0.1291407 0.14952001
-0.15772599 -0.07070746 0.011123473 0.19221434 0.22206204 0.20678127 0.246211 0.16120063
-0.24488376 -0.087674774 0.10681428 0.12681574 -0.23442149 0.022287693 0.033953995 -0.068837605
-0.18107328 -0.2380782 -0.041593723 0.15676938 0.10078804 0.16593157 0.10235207 -0.0077756047
0.18743059 -0.13029835 -0.0425014 -0.0064533604 -0.103758186 -0.09351126 -0.22513244 0.10847555
0.008564674 -0.13360554 0.23195754 -0.07651098 -0.088417 -0.0011421209 -0.14755659 0.08782643
-0.024835275 0.014247745 0.15358838 -0.16641416 0.091733776 0.09930917 -0.034263913 0.20535
-0.19010526 0.24499857 0.038445685 -0.0056161475 -0.23171462 0.052754983 0.10069664 0.20673613
-0.092000686 0.103059806 -0.08278599 -0.08492048 0.060632426 -0.12121541 -0.06271482 0.17680219
-0.19987898 0.030708868 0.2507245 0.08412652 0.12209147 0.08901333 0.04507907 0.12791449
0.1200644 0.16249023 0.1526012 0.04223526 0.054365013 -0.08344568 -0.106569074 0.17536429
-0.15613666 -0.08792819 -0.19059683 -0.01004089 0.21764621 0.22414838 0.0063723405 0.0695379
-0.19954424 0.065114476 -0.121845126 0.14021587 -0.10164292 -0.10852967 0.116481304 -0.07932042
-0.093690366 -0.025651533 -0.161197 0.18228132 -0.23668021 0.021639708 -0.100980096 0.09317025
-0.21920617 0.14610887 0.23775022 -0.16864437 -0.001759654 -0.18292405 -0.060696933 -0.0022030082
-0.16513261 -0.18952501 -0.20262921 0.015575077 -0.21511413 -0.23764385 -0.016330596 0.16639417
0.20079054 0.07636005 0.00087123935 -0.087993175 -0.20745191 0.011189006 0.23442441 -0.13612156
0.2171485 -0.20282446 0.16826785 -0.09084847 -0.12364317 0.14238925 -0.21121536 0.022689447
0.019182924 -0.15122549 -0.21382184 0.061029684 -0.1469322 -0.044146087 -0.04487042 0.22394958
0.23250563 0.23948011 -0.09017552 0.07540858 -0.24127027 0.0060410276 0.14587855 -0.16391343
-0.15653631 -0.20218344 -0.061359122 0.02373499 -0.16406469 -0.1027036 0.06522046 0.068742566

convs.1.mp_levels.0.update_up_nn.0.bias f4 [16]
00000000: be15 193e 4bd2 48bd 19e1 05be 463b d13d
00000010: 051c 90bc 19d2 20be 29d9 4a3e 64b6 6d3e
00000020: 054a 273e 0c44 53be c98c 3dbe 7445 9b3d
00000030: d7f6 5bbe 8539 3dbe 0d88 4d3d 52e6 9a3d
0.149497 -0.049028676 -0.13074149 0.10216384 -0.017591486 -0.15705146 0.19809403 0.23214108
0.1633683 -0.20631427 -0.18510737 0.075816065 -0.2148088 -0.18478973 0.050178576 0.07563461
