experiments/results/SHRIROOK/runs/2026-02-05T17:13:45-gin-shrirook/seed_5/best_weights.pt (torch, 119371 bytes, 180 tensors)

conv1.nn.0.weight f4 [16, 1]
000000 34 c2 bc be 88 4a 7c bf 90 e1 4a 3f ca 39 77 be
       -0.36866915 -0.98551226 0.7925043 -0.24143139
000010 a4 59 ea 3e 14 7e 8a be 80 73 37 3f 04 c1 b0 be
       0.45771515 -0.27049315 0.71660614 -0.3452226
000020 91 91 c3 3d de 49 70 3f e0 89 ca be 86 b6 24 3f
       0.09549249 0.9386271 -0.39558315 0.6434101
000030 fa 40 ef bd 0a 5f 77 bf 87 b4 24 be 74 01 66 3e
       -0.11682315 -0.96629393 -0.1608449 0.22461492

conv1.nn.0.bias f4 [16]
000000 c0 76 21 3d e0 37 d3 3d ee 21 36 bf 4c 68 98 be
       0.03941989 0.10313392 -0.7114552 -0.29767072
000010 e8 22 8c be 10 c6 32 3e 40 ca 0e be 56 13 34 3f
       -0.2737038 0.17458367 -0.1394434 0.70342004
000020 42 97 50 bf 38 c9 43 be e0 1b 23 bf e6 98 23 bf
       -0.814808 -0.19119728 -0.6371441 -0.6390518
000030 2c cd a1 be 60 ad de be 46 54 01 bf d4 0d 9c 3e
       -0.31601846 -0.4349165 -0.50519216 0.304793

conv1.nn.1.weight f4 [16]
000000 17 e1 7f 3f 7f 1c 80 3f 6a f7 7f 3f 24 12 80 3f
       0.99952835 1.0008696 0.999869 1.0005536
000010 f4 f1 7f 3f 33 ff 7f 3f ac 17 80 3f a6 e4 7f 3f
       0.99978566 0.9999878 1.0007224 0.99958265
000020 9f f3 7f 3f 24 1b 80 3f a1 12 80 3f 32 18 80 3f
       0.9998111 1.0008283 1.0005685 1.0007384
000030 c9 c4 7f 3f f1 d3 7f 3f 73 c9 7f 3f 7e e5 7f 3f
       0.99909645 0.9993277 0.9991676 0.9995955

conv1.nn.1.bias f4 [16]
000000 05 c7 e9 b9 54 6e 58 3a 98 12 12 b9 f2 67 09 3a
       -0.00044589504 0.0008256186 -0.00013930572 0.00052416243
000010 85 dc 6e b9 89 a7 45 b7 1b ba 47 3a 55 a2 ce b9
       -0.00022779599 -1.1781122e-05 0.00076189794 -0.0003941233
000020 30 e1 52 b9 e3 eb 64 3a f5 2e 0d 3a 5d 2c 4c 3a
       -0.0002011105 0.00087326596 0.000538572 0.0007788593
000030 4f 1c 61 ba b8 ef 26 ba 57 35 4f ba a8 8f e0 b9
       -0.0008587287 -0.00063681183 -0.00079043716 -0.00042831642

conv1.nn.1.running_mean f4 [16]
000000 9a 12 3a c0 ed c5 f8 c0 77 f0 b3 40 99 8e 0e c0
       -2.9073853 -7.774161 5.6231036 -2.2274535
000010 7d a1 58 40 42 66 fe bf 9f d4 b2 40 18 95 03 c0
       3.3848565 -1.9874957 5.5884547 -2.055975
000020 51 0e 53 bd 7a f6 e9 40 07 24 73 c0 05 1f 90 40
       -0.051527325 7.3113375 -3.799074 4.5037866
000030 59 f9 9f bf 9e 89 02 c1 3a 3a e5 bf 04 69 06 40
       -1.249797 -8.158598 -1.7908394 2.1001596

conv1.nn.1.running_var f4 [16]
000000 c6 cd 07 3e 37 9b 72 3f 89 e2 1c 3f 4a f6 68 3d
       0.1326209 0.9476809 0.61283165 0.056875505
000010 27 54 51 3e 12 36 92 3d 2e 46 00 3f 9d 28 ee 3d
       0.20442258 0.07139219 0.50107086 0.1162884
000020 8b c7 11 3c 62 12 5c 3f 0b 5b 1c 3e db d0 ce 3e
       0.008897672 0.8596555 0.15269105 0.4039372
000030 3e 2e 5a 3c 91 3c 69 3f da cb ce 3c af a3 49 3d
       0.013316689 0.9110804 0.025243688 0.049228366

conv1.nn.3.weight f4 [16, 16]
000000 36 5c b9 3d bb c5 0e 3e 9b c9 e1 3c 92 f2 26 3e
       0.09050791 0.13942616 0.027561953 0.1630347
000010 da c9 07 3e 8c f0 fd 3b 56 b2 e2 bd a2 25 ac bd
       0.13260594 0.0077496227 -0.11069171 -0.084056154
000020 9a ff c0 bd 04 0c 5f 3e 12 e0 6f be aa e7 04 3e
       -0.09423752 0.21781927 -0.2342532 0.12978998
000030 d1 8c 10 bd 1c dc e6 bd d4 ee 4f 3e 6a 93 84 bc
       -0.035290543 -0.11272451 0.2030595 -0.016183574
000040 cb ce d5 bd cb ab 59 3e 39 ad ee bc ff 95 45 be
       -0.10439833 0.2125694 -0.029135333 -0.192955
000050 e8 81 cf bd ad cb 6d be c4 c9 97 3d b1 7b 75 3e
       -0.101321995 -0.23222227 0.074115306 0.23972966
000060 e8 62 d7 3d c8 bb db bd 61 85 61 be d0 6a 0a 3e
       0.10516912 -0.10729176 -0.22023536 0.13517308
000070 a7 ff e8 bd 93 61 91 bd 51 94 74 be 29 d0 90 bc
       -0.11376887 -0.07098689 -0.23884703 -0.017677383
000080 2b db 2f 3e 06 ac 10 3b 78 40 54 be 09 7b 27 3e
       0.1717345 0.002207519 -0.20727718 0.16355528
000090 d5 36 ea bd 6f aa 71 be bd 2b b1 bd 0a 05 aa bd
       -0.1143624 -0.23600172 -0.086509205 -0.083017424
0000a0 2b 5c d1 3d 5e cc 02 be b5 5b 03 3e 98 24 28 be
       0.10222658 -0.12773272 0.12827952 -0.1642021
0000b0 3b ec 54 bd c3 79 75 bc da 7b fa bd a0 ec 51 3e
       -0.0519831 -0.014982644 -0.12230654 0.20500422
0000c0 1e c3 f9 bd 07 d2 79 be dc 23 c5 3d 36 cc fe bd
       -0.12195419 -0.24396525 0.0962598 -0.12441294
0000d0 78 ab 57 3e a9 9f 38 be 3c 85 1c 3d 44 cd a0 3b
       0.21061504 -0.18029656 0.038213 0.004907282
0000e0 94 35 0e be c4 e9 74 be 53 ca 71 3d c2 66 23 be
       -0.13887626 -0.239173 0.059030842 -0.15957168
0000f0 fe 38 b1 3d 3b 1e 1f 3d 15 52 4b bd b2 ef 3a 3e
       0.086534485 0.03884719 -0.049638826 0.18255499
000100 e1 b2 38 be 69 90 47 3e 28 9b 23 3d 01 f7 54 3d
       -0.18036987 0.19488682 0.03994289 0.051993374
000110 c5 e4 4a be 21 9e 7e 3e 3f c5 b7 bd 67 95 05 3b
       -0.19813831 0.24865009 -0.089731686 0.002038324
000120 5f 16 d1 bd 21 48 66 be b7 5a be 3d d7 03 3c 3e
       -0.10209345 -0.22488452 0.09294646 0.1836084
000130 d1 a7 ef 3c bd 32 18 be b9 06 7f 3e 55 61 36 be
       0.029254826 -0.14863105 0.24904908 -0.17810567
000140 62 45 65 be de 21 15 3d 07 58 24 3e 89 41 50 3e
       -0.22389749 0.03640925 0.16049205 0.203375
000150 62 c7 c8 3d 96 79 13 3d 2d bd 28 be be ef 20 bd
       0.09803654 0.036004625 -0.16478415 -0.039291136
000160 1b 57 30 3e bf 6d 50 be 16 38 4e bd cf 9a de 3d
       0.17220728 -0.20354365 -0.050346456 0.10869371
000170 ab 99 78 3d df 97 c6 3d 09 49 91 bb 63 21 09 be
       0.060693424 0.09696936 -0.0044337553 -0.13391642
000180 4d 46 f3 bd 7d ad 6c 3e 9a ab 46 3d b5 7c 1b 3e
       -0.11878643 0.23113056 0.048503496 0.1518429
000190 3d ef 6a 3d 7e cb 21 bb 30 75 5d be d1 fb cf bd
       0.05735706 -0.0024687941 -0.21626735 -0.10155452
0001a0 95 28 80 3d d8 23 79 be 68 9a f8 3d ac 21 41 be
       0.062577404 -0.2433008 0.12138826 -0.18860501
0001b0 2b cc 5d be a2 3b 15 be ac c4 44 be 65 02 a8 3d
       -0.21659915 -0.1457353 -0.1921565 0.08203582
0001c0 c5 82 42 3e 70 e3 45 bd 1b a0 15 be a4 84 b7 3d
       0.18995197 -0.048312604 -0.14611857 0.08960846
0001d0 1e b5 0f bd 70 f0 ff 3d a6 0b e3 3b 50 44 0c bd
       -0.035084836 0.12497032 0.006928879 -0.034244835
0001e0 40 c0 df 3d 5b 26 0f 3e 8c b6 cb bd 1b c3 26 be
       0.10925341 0.13979475 -0.099469274 -0.16285364
0001f0 f5 2e 51 3e 60 98 25 bd c5 4b 3c be 6d 4d c0 3d
       0.20428069 -0.04042852 -0.18388279 0.09389768
000200 75 36 80 3c b2 7d 02 3e 72 60 98 3d e9 8d 20 bd
       0.015650967 0.12743261 0.074402705 -0.039197836
000210 9a 90 e8 bd b5 f9 e4 3c fa cc e0 bd be 74 5e 3e
       -0.113557056 0.0279511 -0.10976596 0.21724221
000220 56 39 ab bd ee ed e1 3d 26 32 76 be a5 04 31 3d
       -0.08360545 0.110317096 -0.24042568 0.04321732
000230 72 95 2d 3e 67 f6 41 3d 32 64 3c be 3a d9 cf bd
       0.1695154 0.04735413 -0.18397596 -0.101488546
000240 fd ab 41 3d 2e 3e d9 bd 8b 31 63 3e 13 f5 19 3e
       0.04728316 -0.10607563 0.22186868 0.15034895
000250 21 a4 b2 ba 66 50 d6 bd cd de 02 bd 81 90 49 be
       -0.0013629236 -0.104645535 -0.03195076 -0.1968403
000260 c3 8a 69 3e d9 35 18 be 2f 65 6a 3e 41 a3 7b be
       0.2280684 -0.14864291 0.22890161 -0.24573995
000270 03 a0 1c 3e 92 73 f2 bd c3 b1 5e 3e 03 d7 74 3d
       0.15295415 -0.118384495 0.21747498 0.059775364
000280 46 fe 7e be 54 c9 22 3e 9f c7 0d be 44 a6 07 be
       -0.24901685 0.15897113 -0.1384568 -0.13247019
000290 23 87 3c be 46 17 d9 3d c0 d5 95 bd d2 2f da 3c
       -0.18410926 0.10600142 -0.0731616 0.02663413
0002a0 a6 10 c9 bc 1c 5d fc bd b0 16 77 3e d9 d7 1f be
       -0.024544071 -0.12322447 0.24129748 -0.15609683
0002b0 a2 f5 e6 3c 02 f7 3d 3e 8e 03 83 bd 0a 84 e1 3c
       0.028193299 0.18551257 -0.063971624 0.027528781
0002c0 c2 09 fb 3d ec b7 4c 3d 23 f4 17 3e af fe cd 3d
       0.122577205 0.04998009 0.14839225 0.10058343
0002d0 0b 93 72 be 14 d7 04 3e 8c 16 fa 3d 1a e2 5c 3e
       -0.23688905 0.12972671 0.12211332 0.21570626
0002e0 e8 70 0b 3c 2c 73 8c 3d 7e 85 f1 3d 4d 98 7c 3e
       0.008510806 0.06857905 0.1179304 0.24667473
0002f0 75 5b 84 bd c8 26 61 be 94 0b 5b 3e f7 d2 19 be
       -0.064627565 -0.2198745 0.21391135 -0.15021883
000300 ac 7c 23 be 50 2c 3c 3e d9 41 0f 3d 0a 99 29 3e
       -0.15965527 0.18376279 0.034974907 0.16562286
000310 4d 89 cc bb 69 9d a6 3a 0c d8 16 3e bb 32 82 3d
       -0.0062419535 0.0012711707 0.14730853 0.06357332
000320 76 70 59 3e c4 f5 6a 3e 67 3c 75 bd 8a 38 87 bd
       0.21234307 0.22945315 -0.059872057 -0.06602581
000330 01 d0 b9 bd 77 50 97 3d 38 41 23 be a2 87 9c 3d
       -0.09072877 0.07388394 -0.15942848 0.076430574
000340 e9 8c 19 be bf 4a 85 bd 46 df 58 be 29 bf 9b 3d
       -0.14995159 -0.06508397 -0.21178922 0.0760482
000350 e6 03 5e be bf 12 3e 3e b7 aa d7 3c 9d f2 72 3e
       -0.21681175 0.18561839 0.02632652 0.23725362
000360 e4 88 62 bd 49 25 ee bc af d2 55 3d 01 e6 a1 bd
       -0.05530633 -0.029070513 0.052202877 -0.07905198
000370 b1 c2 0e bd bf 93 2b 3e 39 50 44 bd 9b 01 c0 3d
       -0.03485364 0.1675558 -0.04792807 0.09375306
000380 95 f0 03 be 12 9d 5f be 5d 68 b0 bd 19 1a 0d 3e
       -0.12884744 -0.21837261 -0.08613656 0.13779487
000390 26 4b 50 3e c5 6a 65 3e 65 9e 30 bd 61 aa e8 3d
       0.20341167 0.2240401 -0.043119807 0.11360622
0003a0 7c c7 26 be 3c a7 07 be 4f bf 56 3d c1 6f a3 bd
       -0.16287035 -0.13247389 0.05242854 -0.079803
0003b0 d4 d7 14 bd fc 45 66 be e9 19 1f be 2e 94 0d 3e
       -0.036338642 -0.22487634 -0.15537228 0.13826057
0003c0 1c da 6f 3e 64 73 28 3e b9 85 0e 3d 81 fb a4 bd
       0.23423046 0.16450268 0.034795497 -0.08055783
0003d0 9b bb 0a be d2 3e 44 be 63 eb 97 3d 10 3a 7b be
       -0.13548128 -0.19164589 0.07417943 -0.24533868
0003e0 71 bd 15 be 49 23 1d 3e c0 e0 1d be a1 88 b7 bd
       -0.14623047 0.15345491 -0.15417767 -0.08961607
0003f0 61 62 a6 bc ba d4 49 be d9 4e f0 bd ab 00 6c be
       -0.020310583 -0.19710055 -0.11733789 -0.2304713

conv1.nn.3.bias f4 [16]
000000 cd 52 64 3e e8 7f 61 3d 48 95 8c 3d 38 69 ff bd
       0.22297211 0.05505362 0.06864411 -0.12471241
000010 60 12 56 bc dd ff 0b be 16 fb d2 3d c6 52 08 3e
       -0.013065904 -0.13671823 0.10301797 0.13312826
000020 88 96 28 be 18 ed 4a 3d 78 85 2c be ce b9 41 be
       -0.16463673 0.049542516 -0.1684779 -0.18918535
000030 5e 2f 0b be 68 a6 2e be bc 42 38 3e 0a 56 63 3e
       -0.13592288 -0.17055666 0.17994207 0.2220079

conv1.nn.4.weight f4 [16]
000000 d3 57 80 3f 35 d4 7f 3f 1a 44 80 3f 62 1f 80 3f
       1.0026802 0.9993318 1.0020783 1.0009577
000010 60 46 7f 3f cf 27 7f 3f 1b 6e 80 3f cb 80 7f 3f
       0.9971676 0.9967012 1.0033602 0.998059
000020 21 48 80 3f 6b 59 7f 3f 4c 45 7f 3f 56 3b 7f 3f
       1.0022012 0.99745816 0.99715114 0.99699914
000030 4b f4 7f 3f f9 64 80 3f 0d 86 7f 3f fb 71 80 3f
       0.99982136 1.0030814 0.9981392 1.0034784

conv1.nn.4.bias f4 [16]
000000 06 db 34 3b 48 ee 38 ba d0 49 03 3b 45 f9 83 3a
       0.0027596368 -0.00070545496 0.002003301 0.0010068795
000010 4b 8d 34 bb 7f 9e 53 bb 8f 4c 58 3b f2 e2 f4 ba
       -0.0027550037 -0.0032290516 0.0033004617 -0.0018683358
000020 33 46 0b 3b 20 77 21 bb 4e a2 35 bb 71 aa 3f bb
       0.0021251559 -0.0024637654 -0.002771515 -0.0029245878
000030 f4 00 47 b9 5e fa 44 3b 94 e2 fd ba e1 7b 68 3b
       -0.00018978474 0.0030056457 -0.0019369894 0.0035474228

conv1.nn.4.running_mean f4 [16]
000000 9a 66 dd 3e 15 df 8a be ec bf 15 be 66 ce c8 be
       0.4324234 -0.27123323 -0.14623994 -0.3921997
000010 19 eb e0 bc 1f 30 7c bd f2 f6 68 be a9 53 71 3e
       -0.027455853 -0.06156933 -0.22750452 0.2356707
000020 f7 4b 3c be b2 76 64 3e e2 f4 b3 be 71 cf 77 3e
       -0.18388353 0.22310904 -0.35147768 0.24200226
000030 b0 16 3c 3e 2d 85 48 be 54 0a 89 bc 6d 89 7a be
       0.1836803 -0.19582053 -0.016728558 -0.24466486

conv1.nn.4.running_var f4 [16]
000000 f1 b3 e5 3b 4a 04 1d 3e c8 27 06 3d 4d 08 8d 3d
       0.007009976 0.15333667 0.032752782 0.06886349
000010 a2 e9 9d 3e 4a ab db 3a ce 3e f0 3b 01 c2 20 3c
       0.3084231 0.0016759422 0.0073317057 0.009811879
000020 c9 5a d4 3c ff 55 1d 3c 3b 91 75 3e 87 f3 65 3d
       0.025922196 0.009603023 0.23981182 0.05614045
000030 69 c4 c6 3d 08 97 4c 3e 8f 73 13 3b e1 c2 bc 3c
       0.09705431 0.19979489 0.0022499298 0.023042144

convs.0.nn.0.weight f4 [16, 16]
000000 cb bf 41 3e 76 0a 85 3d 07 bf 16 3e 16 0c 96 3d
       0.1892082 0.06496136 0.14721309 0.07326524
000010 78 29 39 3e e9 7a 52 be 61 30 e8 3d da 81 3e bd
       0.18082225 -0.20554699 0.113373525 -0.046510555
000020 ba e9 8d 3d b6 a2 46 3d e5 9c 83 bc 06 b0 08 3d
       0.069293454 0.048495017 -0.016066024 0.033370994
000030 ee 03 f0 3d 46 e2 8a bd 9d e1 13 bd 84 72 47 3e
       0.117194995 -0.067814395 -0.036103833 0.19477278
000040 5f 1f 66 3c 84 d2 c6 bd 25 46 53 3e a1 53 97 bc
       0.014045565 -0.097081214 0.20632227 -0.018472495
000050 51 57 61 3e 72 e5 39 bd ab bf 07 3d 8e a2 95 bd
       0.22005965 -0.04538483 0.033141773 -0.073063955
000060 5f 73 6d be bb 0f 11 3e 97 94 3d 3e b3 07 2c 3c
       -0.23188542 0.14166157 0.18513714 0.0104998825
000070 d4 7a 29 be 77 5f 6d 3e 2a f8 ad bd e2 b4 27 be
       -0.16550761 0.23180948 -0.08494599 -0.16377595
000080 d3 2b 28 3e 1c 7c 59 3e 16 47 1b 3d 8f 69 ad bc
       0.16422968 0.2123875 0.03790959 -0.021168498
000090 eb 76 91 bd 82 94 96 bc 1c f6 f7 3d c7 24 53 3e
       -0.0710276 -0.01838136 0.121074885 0.20619498
0000a0 a6 88 b5 3d d5 df ee 3d b2 24 41 bd 43 d9 3f bc
       0.08863954 0.11663786 -0.047154136 -0.011709514
0000b0 af 24 03 3d 7a a9 0d 3e 62 e4 a1 3d b0 fc 5a be
       0.032017406 0.13834181 0.07904889 -0.21385455
0000c0 db 4c ee 3d fa d5 31 3e e1 e0 51 be 92 32 2f 3e
       0.11635753 0.17366782 -0.2049594 0.17109135
0000d0 da b6 f2 3c 0d 66 5b 3e 26 5f f5 bc 86 f3 27 3e
       0.029628206 0.21425648 -0.029952597 0.1640149
0000e0 71 67 3a be 49 89 d6 bd 67 c1 03 be b2 04 1b 3c
       -0.18203522 -0.10475404 -0.12866746 0.009461569
0000f0 af 5e f7 3d 4f 86 3a 3e 99 2a 95 bd d7 2a 62 3d
       0.12078606 0.18215297 -0.072835155 0.055216637
000100 16 7d 06 be 79 3e 4e 3b 4c 14 53 3e 8a 59 65 be
       -0.13133654 0.0031470342 0.20613211 -0.22397438
000110 49 32 50 3c 20 3c 79 bd 5e c9 6f be ba c1 5c 3e
       0.012707301 -0.060848355 -0.23416659 0.21558276
000120 20 ce 01 be 90 8d 2c 3e 96 d4 2e 3e 4f 17 de bd
       -0.12676287 0.16850877 0.17073283 -0.108442895
000130 54 67 67 be 76 9c 55 be 2c f2 1a 3e 23 6e 0e bd
       -0.2259801 -0.20860466 0.15131444 -0.034773003
000140 59 81 8c 3d bb a3 08 be a4 54 74 bd 88 e5 23 3e
       0.068606086 -0.13343708 -0.059651032 0.16005528
000150 1a 04 7c be 33 a4 c4 3d 89 36 fc bd d4 c0 35 be
       -0.2461094 0.09601631 -0.12315089 -0.1774934
000160 3c e1 66 3e ac 97 06 3e d7 95 d2 3d 0c e4 7d 3e
       0.22546858 0.13143796 0.10282486 0.24794024
000170 7a 4d cf 3d d0 95 31 3e ba 7a 1b 3e cf a4 ab 3d
       0.10122199 0.17342305 0.15183535 0.08381044
000180 2f f7 16 3e d0 3f 69 bb c9 26 5f be d0 a9 0b 3d
       0.1474273 -0.0035591014 -0.21792139 0.034097493
000190 3c 97 56 3e 6b 49 62 3d ea 77 e8 3d a8 16 2a 3d
       0.20956129 0.055245798 0.11350997 0.041525513
0001a0 03 8f 09 be b0 42 4e bd 4e 42 03 3e 7c 72 7e 3e
       -0.13433461 -0.050356567 0.12818262 0.2484836
0001b0 b5 73 c8 bd 90 f8 69 3e 55 06 00 3c c8 66 01 3d
       -0.09787694 0.22848725 0.00781401 0.03159216
0001c0 5b 75 12 3d 35 90 5a 3e 49 02 fb bd e1 94 ba bd
       0.03575645 0.21344073 -0.12256295 -0.09110428
0001d0 86 0a 31 be a6 ed 68 3e 22 c5 1b 3e f1 98 c1 bd
       -0.1728917 0.22746906 0.15211919 -0.094529994
0001e0 a0 07 7b be 0a aa 47 3b d8 d9 37 be 49 aa bf 3b
       -0.24514627 0.0030466341 -0.17954195 0.005849157
0001f0 c3 a9 69 3e 6c 89 14 be ac 27 6b 3c d5 3f a9 bd
       0.22818665 -0.14505547 0.01435272 -0.08264128
000200 99 eb 43 be 4a fd b4 3d 69 c9 81 3d 39 2f 55 be
       -0.19132842 0.088373736 0.06337244 -0.20818795
000210 fe 3e e2 3c 5e 49 79 be 79 70 23 3e 0d 64 7d be
       0.027617928 -0.24344394 0.15960874 -0.24745198
000220 09 18 4c 3e c1 eb 85 3d 26 6e 22 be 6f 9a 17 3d
       0.19931044 0.06539107 -0.15862331 0.037012514
000230 65 a0 56 3e bc 38 5d 3d eb 44 c0 3d d7 58 3b 3e
       0.20959623 0.054009184 0.09388145 0.18295608
000240 82 01 02 3e 91 17 0a be f9 e5 28 3e 4b 36 7a 3e
       0.12695888 -0.13485552 0.16493978 0.24434774
000250 04 d9 49 3e 6c 73 e8 3d 81 cb 5f be 96 af ba 3d
       0.19711691 0.1135014 -0.21854974 0.091155216
000260 50 db 90 bd e7 b8 58 3d 03 64 20 3e 4a 73 2a be
       -0.070730805 0.05291071 0.15663151 -0.16645542
000270 05 83 a7 bd b0 13 a9 bd 8b c7 27 3e 38 1b f8 bc
       -0.08179287 -0.08255708 0.16384713 -0.030286416
000280 1c 98 fb bd e8 36 3d 3e 27 a4 4f be ae 09 1b be
       -0.12284872 0.18477976 -0.20277463 -0.15140411
000290 00 b6 30 bc d6 72 36 3e 0f fd 6a be aa 1e ff 3d
       -0.01078558 0.17817244 -0.22948097 0.124570206
0002a0 75 d3 14 3e bb 83 2a be 81 13 09 3e 9f ae 34 3e
       0.1453379 -0.16651814 0.13386346 0.17644738
0002b0 bc 4a 3e 3e a9 e8 2a be 5e 48 49 3e 7e f0 f3 3d
       0.18583196 -0.16690315 0.19656512 0.119111046
0002c0 72 41 34 bc 18 17 21 be 2e 76 bd 3d 60 e9 06 3d
       -0.0110019315 -0.15731466 0.092510566 0.032937407
0002d0 f2 be 7e be ac 06 23 be 33 eb 14 be 91 34 67 be
       -0.24877527 -0.15920514 -0.14542846 -0.22578646
0002e0 3a 78 01 3e 3f e4 24 3e 72 ea 34 3e 28 00 53 be
       0.12643519 0.16102694 0.17667559 -0.20605528
0002f0 cf 54 fb bd 07 ae 00 3c 67 90 57 3e 32 d2 5c 3e
       -0.12272035 0.007853991 0.21051179 0.21564558
000300 c1 7b 2a 3e ab 65 52 3e f8 fe 76 be e3 f8 09 3e
       0.16648771 0.20546596 -0.241207 0.13473849
000310 fa de 16 be f8 00 35 3e 4d 68 77 3d 1c cc 5f bd
       -0.14733496 0.17676151 0.060402203 -0.054638013
000320 64 d8 29 3d bc 18 68 3d 66 88 03 be 87 c0 cd bc
       0.04146613 0.056664214 -0.12845 -0.025116218
000330 bf 8a 13 3e b0 be c6 bd ff 01 a2 3d 0d 3d 2b 3e
       0.14408396 -0.097043395 0.07910537 0.16722508
000340 cb 9f 4d be bb 8e 74 be 45 c1 e6 bd 1a 59 87 bd
       -0.20080487 -0.23882572 -0.11267332 -0.06608792
000350 31 50 6e 3e cb 1b 4d 3e a9 0c e7 bb 37 81 9a 3d
       0.23272778 0.20030133 -0.0070510698 0.07544177
000360 74 0b 0d bd 47 95 87 3d 22 fc 06 bc de 53 13 3c
       -0.03443475 0.06620269 -0.008238824 0.008992163
000370 5b d1 0f be 81 f8 2c 3e 17 c6 9e bd 23 13 00 3e
       -0.14044707 0.16891672 -0.077526264 0.125073
000380 59 86 74 3e dc 4c 4c 3e c3 03 b8 bd 9b 0c 3d be
       0.23879375 0.19951195 -0.089850925 -0.1846184
000390 b7 c5 1c 3e 52 ba 65 3e d7 7a 3f be d1 fe 4b 3e
       0.15309797 0.22434357 -0.18699203 0.19921423
0003a0 4b 1c 34 3e c9 50 52 3e 83 0c e2 bd 97 99 a4 bd
       0.17588918 0.2053863 -0.11037543 -0.080371074
0003b0 45 5b c3 bd 77 75 af bd ad 33 18 be 83 d1 6d be
       -0.09538893 -0.085673265 -0.14863463 -0.23224454
0003c0 7d 2c ef 3d c4 88 07 bc 7f 47 be bd 46 cf ae 3c
       0.11678407 -0.008272354 -0.092909805 0.02133907
0003d0 fa b3 08 3e 5f 1c 58 3e 8d d6 6c be bd c1 75 3d
       0.13349906 0.21104573 -0.2312872 0.059999216
0003e0 83 8e b4 bd 34 b0 e7 3d 62 7f 10 3e 66 62 34 3e
       -0.088162445 0.11312905 0.14111093 0.17615661
0003f0 1d aa c0 3b 5a e0 39 be f3 f3 71 bd 7c e0 71 3e
       0.005879654 -0.1815199 -0.05907054 0.2362079

convs.0.nn.0.bias f4 [16]
000000 a8 b2 20 be b0 59 6a be a5 28 5f 3e 76 c8 fc bd
       -0.15693152 -0.22885776 0.21792848 -0.123429224
000010 f8 7f 38 3e 86 cf 69 be 30 e3 28 bd 69 e2 04 3e
       0.18017566 -0.2283307 -0.041232288 0.12976994
000020 23 95 b4 3d f4 3e a3 3d af 9f 62 be ce 51 3e 3e
       0.08817508 0.07970992 -0.22131227 0.18585894
000030 fc 5d 04 be ec 2d f9 bb 32 a5 04 3e 36 4b b0 bd
       -0.12926477 -0.0076043513 0.12953642 -0.08608095

convs.0.nn.1.weight f4 [16]
000000 68 b1 7e 3f 42 a7 80 3f 67 b1 7e 3f b0 b2 7e 3f
       0.9948945 1.0051043 0.99489444 0.99491405
000010 30 a7 80 3f ee b1 7e 3f 13 a7 80 3f a1 b1 7e 3f
       1.0051022 0.9949025 1.0050987 0.9948979
000020 73 b1 7e 3f 23 a6 80 3f 3a a7 80 3f 7a b1 7e 3f
       0.99489516 1.0050701 1.0051033 0.9948956
000030 3c a6 80 3f 03 a7 80 3f 2c a7 80 3f 2b a7 80 3f
       1.0050731 1.0050968 1.0051017 1.0051016

convs.0.nn.1.bias f4 [16]
000000 e4 52 a7 bb 4a 46 a7 3b b3 4b a7 bb 22 b9 a6 bb
       -0.005106317 0.0051048147 -0.0051054596 -0.0050879875
000010 4a 32 a7 3b ab 12 a7 bb bf 11 a7 3b 6b 36 a7 bb
       0.0051024305 -0.005098661 0.005098551 -0.0051029227
000020 ef 4b a7 bb 3d 3b a6 3b f9 44 a7 3b cd 48 a7 bb
       -0.0051054875 0.0050729797 0.0051046577 -0.005105114
000030 fb 50 a6 3b 51 00 a7 3b f6 2e a7 3b 61 39 a7 3b
       0.0050755716 0.0050964733 0.0051020337 0.0051032756

convs.0.nn.1.running_mean f4 [16]
000000 62 f8 5a 40 f9 0b 18 be 74 ae 4e 40 4f 82 0e 40
       3.42141 -0.14848317 3.2293978 2.2267034
000010 fe d7 e7 bf 32 61 3a 40 44 49 27 40 a4 8e e9 be
       -1.811279 2.9121823 2.6138468 -0.4561664
000020 d8 db 32 3f 95 da 06 40 a2 cc ba 3f 9d 4f 15 bf
       0.69866705 2.1070912 1.4593699 -0.58324605
000030 f4 98 24 40 4e cb 18 bf 10 8f 13 3f 46 15 09 40
       2.5718355 -0.5968522 0.5764017 2.1419234

convs.0.nn.1.running_var f4 [16]
000000 7f b0 83 40 7f 32 a8 41 f3 1f 41 3f 1a 48 fc 40
       4.115295 21.024656 0.75439376 7.8838015
000010 55 4f de 40 58 53 44 3f 02 23 1b 40 f0 9a 52 41
       6.947184 0.7668967 2.4240117 13.162827
000020 3b 25 be 3f 69 24 58 3f 0a d0 3b 40 5a f4 71 40
       1.4855112 0.8443056 2.9345727 3.780539
000030 13 90 e0 41 02 53 ae 41 c9 d3 e8 40 a6 01 98 3f
       28.070349 21.790531 7.2758527 1.1875503

convs.0.nn.3.weight f4 [16, 16]
000000 22 d6 aa 3d 60 b8 14 be 08 1b 71 3e 85 b5 5d 3d
       0.08341624 -0.14523458 0.23545468 0.05412819
000010 b4 1b 18 3e 76 93 5a be 17 55 21 3d c2 53 05 3e
       0.14854318 -0.21345314 0.03938779 0.13020232
000020 fa b5 85 bb ee 40 e3 3d db 2c 21 bd dc d3 50 bc
       -0.004080531 0.11096369 -0.039349418 -0.012745824
000030 2e c1 de bd 0a e8 10 3c 3e 46 56 3e cc d9 58 3e
       -0.1087669 0.008844385 0.20925233 0.21176833
000040 ec 67 6c be a0 c0 57 3e 5d 6e e8 bd 1c 2c 30 3e
       -0.23086518 0.21069574 -0.11349175 0.17204326
000050 12 ed 77 3e 2d 44 c2 bd 92 63 37 3e da 41 52 bd
       0.24211529 -0.0948566 0.17909077 -0.051332332
000060 7c 26 91 3c f9 a9 1f 3e 12 82 4d be 5a 73 50 3e
       0.017718546 0.15592183 -0.20069149 0.20356503
000070 f2 01 1c bd 31 de a0 bd d4 9a 2e be 01 5e 07 be
       -0.038087793 -0.0785488 -0.1705125 -0.13219453
000080 92 6a e7 bd 61 7a d5 3d 32 07 1b be be 1a ac bd
       -0.112996235 0.104237325 -0.15139464 -0.08403538
000090 92 c1 61 3e eb 85 2b be 82 de 48 3e cb ba 32 be
       0.22046497 -0.16750304 0.1961613 -0.17454068
0000a0 c9 e2 4b 3e e5 14 2f 3e e9 f2 06 be 99 5d 5e be
       0.1991073 0.17097814 -0.131786 -0.21715392
0000b0 bb 20 7b 3d 84 83 27 be 27 03 ec bd 74 14 a6 3d
       0.06131051 -0.16358763 -0.11524039 0.0810937
0000c0 40 22 ac bc 71 11 d6 3d 29 ea 8c 3d 62 a4 72 3e
       -0.021012425 0.104525454 0.068806 0.2369552
0000d0 57 1a 05 be 23 a7 79 be 4b 00 7b 3e 67 1a 67 3d
       -0.12998329 -0.24380164 0.2451183 0.056421664
0000e0 e7 e0 cd 3d 49 e8 13 be fc 8a 19 be a7 93 5d bb
       0.10052662 -0.14444079 -0.14994425 -0.0033809931
0000f0 a8 13 63 3e cb 9d 1d 3e a9 33 4e 3e 8c 6c a1 bd
       0.22175467 0.15392224 0.20136894 -0.07882032
000100 38 e7 18 3e 3a 75 2e 3e d6 26 05 be 22 e1 62 3d
       0.14931953 0.17036906 -0.13003096 0.055390485
000110 c2 3c fd bd c2 41 4a 3c 34 0e 6f be 3e dd c5 bc
       -0.12365104 0.012344779 -0.23345262 -0.024153348
000120 06 a5 1d be eb 95 7d bb 75 d7 c2 bd fc 29 69 3e
       -0.15394983 -0.0038694094 -0.095137514 0.22769922
000130 f6 9c 48 3e ce 51 2c 3e 1b 95 00 bc 7c 88 58 be
       0.19591126 0.16828081 -0.0078480495 -0.21145815
000140 2c 6e 73 be 20 b6 51 be c0 fc 57 3e 89 2a 79 bd
       -0.23772496 -0.20479631 0.2109251 -0.06083158
000150 a0 6d 24 be 75 e2 df bd 00 36 f2 bd a2 29 21 be
       -0.16057444 -0.10931865 -0.11826706 -0.15738538
000160 84 79 58 be 04 ee 3d 3d 46 e4 4c 3e 10 c4 4e be
       -0.21140105 0.046369568 0.20008954 -0.2019198
000170 d4 93 4a 3d 1c 9d d6 bd 96 e3 1d be 16 29 32 3e
       0.049457386 -0.10479185 -0.15418848 0.17398486
000180 ea f1 12 be 7a 8f 5e be fc d5 82 3d 37 ed 3b bd
       -0.14350095 -0.2173442 0.063884705 -0.045880523
000190 14 9f fa 3d 9f 3f 6b 3e 30 98 7f 3e 30 75 5e be
       0.12237373 0.22973488 0.24960399 -0.21724391
0001a0 60 f6 c9 3c 72 1c e4 bd 53 1b 54 be 07 bb 43 bd
       0.024653614 -0.11138238 -0.20713548 -0.047785785
0001b0 75 80 4c be e9 ab 8e bc 08 45 5a be e1 4d 63 be
       -0.19970877 -0.017415958 -0.21315396 -0.22197677
0001c0 db af cb bd db 6e 75 3e 4f 0c 1e bc 0c 41 23 bd
       -0.09945651 0.2396807 -0.009646489 -0.039856955
0001d0 b5 a8 4d 3e 86 3b 63 be e6 ce c1 3d 24 9f 59 3d
       0.20083888 -0.22190675 0.09463291 0.053130284
0001e0 bf ce ee bd f5 b7 fc 3d 73 98 ad bd e2 0e 16 3e
       -0.116605274 0.123397745 -0.08476343 0.14654115
0001f0 99 9f c0 3d e6 aa e2 bd d5 07 55 3e b8 f4 7c be
       0.09405441 -0.110677525 0.20803769 -0.24702728
000200 b4 0a 26 3e b9 de e9 3d e6 f7 84 bd fa 2d 56 3e
       0.1621502 0.11419434 -0.064925954 0.20915976
000210 ad 81 58 be 3c 5c f5 3a 4b 98 f6 bd 38 18 12 be
       -0.21143217 0.0018719505 -0.12040766 -0.14267051
000220 39 b0 9e bc d8 08 31 be 40 88 88 3d 8c 89 f1 3d
       -0.019371139 -0.1728853 0.066666126 0.11793813
000230 f0 55 f0 bd 86 03 43 bc c1 41 5e 3e fa ee ed 3c
       -0.11735141 -0.0119026955 0.2170477 0.029044617
000240 a5 f3 86 bd dd d4 38 3e a4 fe 8d bd 0a 7d 7e be
       -0.0658944 0.18049951 -0.069333345 -0.24852386
000250 4f c7 c2 3c 94 e4 2a 3d 74 f0 ff bc 56 ee 7d be
       0.023776678 0.041721895 -0.031242587 -0.24797949
000260 57 78 c4 3c df 3c 0f be f8 cf 52 3e a0 e6 12 3d
       0.023983164 -0.13988064 0.20587146 0.035864472
000270 3f 20 cd 3d 8f f5 86 3c d5 bc 23 3d b7 be 5f 3e
       0.10015916 0.016474513 0.039975006 0.21850096
000280 6e 47 6c 3e 20 af c8 bd bf 44 7e 3d 31 b7 90 bd
       0.23074123 -0.097990274 0.06207728 -0.07066191
000290 b9 f7 32 3e ed 1e 55 be a4 4b aa 3c aa 60 0f be
       0.17477311 -0.20812578 0.020788021 -0.14001718
0002a0 17 eb d8 bd 4c 5e 2c be 80 f3 ef bc e3 60 50 3e
       -0.10591715 -0.16832846 -0.029290915 0.2034946
0002b0 84 76 77 3e 8d 1a 37 be 00 06 1b bd 40 db 57 3e
       0.24166304 -0.17881222 -0.03784752 0.21079731
0002c0 6b 86 d9 bd f4 64 cc 3c 70 27 23 be 40 f1 28 be
       -0.10621341 0.024950482 -0.15933013 -0.1649828
0002d0 8a b1 72 3e fd 05 cc 3d 46 b4 ea 3d 7e 26 76 bd
       0.23700538 0.0996208 0.11460166 -0.060095303
0002e0 dd f9 00 3b 5f 57 a0 3d 06 73 29 bd 7d 9c b9 3d
       0.001968018 0.07829165 -0.04136946 0.09063051
0002f0 76 8c 40 3e 76 ee b4 bd ba 0e 75 3e bb 2b 97 bd
       0.18803582 -0.08834545 0.23931399 -0.07381388
000300 e6 10 53 bd 54 64 5b 3e 05 97 64 3d 4c e5 7f 3e
       -0.051529787 0.21424991 0.055808086 0.24989814
000310 b9 25 c3 3d 19 8d 0b 3e 4b fb e4 bd 58 2e f4 3d
       0.095286794 0.13628043 -0.11180743 0.11922902
000320 de 2f 2c 3c 5c 77 56 bd 2d b0 47 3d 89 77 1c 3e
       0.010509459 -0.052359924 0.048752 0.15279974
000330 e8 1a 4e be 5a d9 6c 3e 30 68 df bb 6e ee 64 be
       -0.20127451 0.23129788 -0.00681784 -0.22356579
000340 6a fd 2b be 0d 4d 26 bd f1 8a a4 bd 90 b1 45 be
       -0.16795889 -0.040600825 -0.080343135 -0.19306016
000350 30 39 39 be e2 ae 6e 3e 78 e7 4d 3e a2 b0 3c be
       -0.18088222 0.233089 0.2010783 -0.18426755
000360 42 6c ee 3d ba 6a 32 3e f5 7d 96 3d 6c e7 76 be
       0.11641742 0.17423525 0.07348243 -0.24111718
000370 c6 67 2f 3d da 60 70 3c e5 e5 e6 bd 7f 74 3f 3e
       0.042823575 0.014671529 -0.11274318 0.18696783
000380 f2 5a f1 3d e4 34 28 3c 94 65 8c bd eb 3b 39 be
       0.117849246 0.010266516 -0.06855312 -0.18089263
000390 41 1a bc bc 0b a8 78 3e c0 95 e9 bd 99 6d 3e be
       -0.022961738 0.24282853 -0.11405516 -0.18596496
0003a0 1e 25 a5 3d 68 70 58 be 2d 8d 2b 3e 61 c5 05 3e
       0.0806372 -0.2113663 0.16753073 0.13063575
0003b0 cf c7 3e 3e e4 53 20 3c 1b 38 0f 3d d1 4e 50 be
       0.18630908 0.009785626 0.034965616 -0.20342566
0003c0 91 89 41 3d 58 81 dd 3d cc c7 81 3d c0 a8 45 3e
       0.047250334 0.10815686 0.06336936 0.19302654
0003d0 ba a0 fb 3c 77 fa 85 bd d4 0e e4 3d 05 b6 5d 3c
       0.030716289 -0.06541913 0.11135641 0.013532166
0003e0 09 25 73 3d 3c 79 ac 3d 2d 9c d9 3a 14 cb 5c 3e
       0.05936149 0.08421561 0.001660233 0.21561843
0003f0 78 90 f2 3d 5e a3 61 be 4c 05 2b bd 0e 1c ae bd
       0.118439615 -0.22034976 -0.0417531 -0.08501445

convs.0.nn.3.bias f4 [16]
000000 3d 56 68 3d eb da 51 3e ad f8 63 3e df 6b 7f 3e
       0.05672287 0.20493667 0.22262831 0.24943493
000010 cb 7a 8e 3d ff 3d f7 bd 12 e8 55 bc 00 a4 54 be
       0.06957015 -0.12072372 -0.013055818 -0.20765686
000020 61 d7 10 bd c8 90 13 3c 05 27 1f 3e 80 de 59 3d
       -0.03536165 0.0090066865 0.15542229 0.05319071
000030 1c 2b ec bd 3f 17 84 bd f6 6c 7e be 1f 17 97 3d
       -0.1153166 -0.06449746 -0.24846253 0.07377457

convs.0.nn.4.weight f4 [16]
000000 d9 a1 80 3f f1 a4 80 3f 49 b9 7e 3f 0c a0 80 3f
       1.0049392 1.0050336 0.9950147 1.0048842
000010 68 a3 80 3f 9a a4 80 3f fa ba 7e 3f ec a4 80 3f
       1.0049868 1.0050232 0.99504054 1.005033
000020 82 a5 80 3f 65 9f 80 3f b4 b5 7e 3f 24 58 7f 3f
       1.0050509 1.0048643 0.99496007 0.99743867
000030 d3 ba 7e 3f 95 b7 7e 3f a3 b5 7e 3f 02 b5 7e 3f
       0.9950382 0.99498874 0.99495906 0.99494946

convs.0.nn.4.bias f4 [16]
000000 7e 87 a1 3b 4d c8 a4 3b 53 19 a3 bb 7f 8b 9f 3b
       0.004929482 0.0050287605 -0.004977384 0.004868924
000010 8a b5 a3 3b 78 6b a5 3b c6 35 a2 bb 4d c3 a4 3b
       0.0049960064 0.0050482117 -0.004950258 0.0050281645
000020 f8 ab a5 3b 0e d3 9e 3b c3 51 a5 bb f3 5d 23 bb
       0.0050559007 0.004846937 -0.005045147 -0.0024927824
000030 f2 4b a2 bb ef 6b a4 bb 35 58 a5 bb d0 9d a5 bb
       -0.004952901 -0.0050177495 -0.0050459155 -0.005054213

convs.0.nn.4.running_mean f4 [16]
000000 e4 52 d0 3e 36 e9 76 3e 35 ad b3 3d 52 36 0e 3f
       0.4068824 0.241124 0.08773271 0.55551636
000010 dc 71 87 3d 81 b1 21 bf 95 e7 f8 be 5d 24 b8 bd
       0.06613514 -0.63161474 -0.48614183 -0.08991311
000020 ee 50 1c bc 2b 21 66 3d a8 23 56 3e 3c ae 7b 3e
       -0.0095407795 0.056183975 0.2091204 0.24578184
000030 40 5e 57 3e a8 78 0d be 18 7f 81 be 63 de c4 3e
       0.21032047 -0.13815558 -0.25292277 0.38450918

convs.0.nn.4.running_var f4 [16]
000000 ea c9 1d 3d 09 fd 6f 3d 07 c6 90 3d 1a 50 a3 3d
       0.03852264 0.058590923 0.07069021 0.079742625
000010 3f 75 54 3d 72 49 cc 3b 5e 8d 48 3e 1a 83 61 3e
       0.051869627 0.0062343413 0.19585177 0.22022668
000020 fc 67 cd 3c ad 3f 1e 3d 52 4b 0b 3d c8 54 39 3d
       0.025073998 0.038634945 0.034007378 0.04524687
000030 5b c3 85 3c 7e b8 76 3d 95 89 2f 3d 16 e6 96 3d
       0.016328504 0.06023454 0.042855818 0.07368104

convs.1.nn.0.weight f4 [16, 16]
000000 57 70 26 be ad 81 15 be a9 b8 2c 3d 1b 92 9c bd
       -0.16253792 -0.14600249 0.042168293 -0.07645055
000010 a9 a7 23 3e 3d fd 7c 3d 4d 0c 41 3e a9 fb 79 bd
       0.15981926 0.061764944 0.18852349 -0.061031017
000020 fa b6 ed 3d 7b dd 3b be e3 63 95 b9 a7 39 42 3e
       0.11607166 -0.18346207 -0.00028493916 0.18967305
000030 8c 56 29 bd a3 63 21 be e3 04 38 3e 41 ad 57 be
       -0.041342303 -0.15760665 0.17970614 -0.21062185
000040 a4 ce 2e 3e 8c d8 d3 3d 89 c2 1c be 3c 7c 22 be
       0.17071015 0.103440374 -0.15308584 -0.15867704
000050 13 dd af 3d da 25 0f 3e e2 01 d3 3d 05 bb 23 be
       0.085870884 0.13979283 0.103030935 -0.15989311
000060 b4 5b bc 3d c7 38 4b be e9 c1 c2 3c 42 51 05 be
       0.091971785 -0.19845878 0.023774104 -0.13019279
000070 92 36 ab bd 3b a4 14 3c 10 8b ca 3d 8f b6 4a be
       -0.08360018 0.009072359 0.09889805 -0.19796203
000080 ea a7 41 be 9c 2f 1a be 0f b6 8d bd 9a cd 3d be
       -0.1891171 -0.15057224 -0.069194905 -0.18535462
000090 e3 16 02 bd 86 c3 43 3e e5 82 47 be c6 2f 2d 3e
       -0.031760108 0.19117555 -0.19483526 0.16912755
0000a0 75 24 9f bd c6 e1 0c be 33 23 50 3e b9 d9 8c bd
       -0.077706255 -0.13758 0.20325927 -0.06877465
0000b0 62 1d b9 bd 43 cf 73 bd d7 8f 49 be 57 d9 1b bc
       -0.090388075 -0.059523832 -0.19683777 -0.009512267
0000c0 df 72 b6 3d 39 fe 6c be 0a 21 66 bd 79 13 03 3e
       0.08908629 -0.23143853 -0.056183852 0.12800397
0000d0 10 a0 81 3b a1 c5 17 bc b1 72 07 3c 33 ae 41 bc
       0.0039558485 -0.009263427 0.008267091 -0.0118213175
0000e0 e8 ac 63 be f2 77 52 3e be 01 b7 3c 39 d3 44 be
       -0.22233927 0.20553568 0.022339698 -0.192212
0000f0 1e 37 04 3e 80 ef e8 3c 44 0c 0a 3e 6c d9 69 be
       0.1291165 0.028434515 0.13481241 -0.22836846
000100 22 6f f1 bd bf d6 2b be b2 48 01 be 38 ab 69 bd
       -0.11788775 -0.16781138 -0.12625387 -0.057048053
000110 62 1d df bc 7e 21 bf 3c 33 69 86 bd 25 64 1b 3e
       -0.02723569 0.0233314 -0.06563034 0.15174921
000120 6d 99 36 3c ca 3b 76 be 85 54 5e be 87 69 a7 3c
       0.011144978 -0.24046245 -0.21711929 0.020436062
000130 4c b6 23 3e 52 d9 fb bd b0 0c fb 3b 8f 24 36 3e
       0.1598751 -0.1229731 0.0076614246 0.17787383
000140 0e 19 2a be 91 79 b0 bd 93 dd 38 bd 32 d7 6a 3e
       -0.1661112 -0.08616937 -0.045133185 0.22933653
000150 4c a0 66 be 02 59 d0 bd eb de 80 3d 8a f9 07 be
       -0.22522086 -0.10173227 0.06292518 -0.13278785
000160 a8 df 90 bd 5f c0 ab bb b0 1c 4d 3e 03 c3 bc 3d
       -0.07073909 -0.0052414383 0.20030475 0.09216883
000170 e4 eb 71 be 5d 5b 87 bb f7 be 6d ba e2 e5 75 3e
       -0.23625141 -0.0041307644 -0.00090692885 0.24013475
000180 62 43 6b 3e fc 24 89 3d 7d 1b 0d 3e 81 ff 2b be
       0.22974923 0.06696507 0.13780017 -0.16796686
000190 f1 63 5f 3e 95 7c a0 bd 3d 5b 43 be 04 c9 e5 3c
       0.21815468 -0.07836262 -0.19077773 0.028049953
0001a0 c6 ac b9 3d 4f af 32 be 7f 07 5e be 8d c1 65 be
       0.09066157 -0.17449687 -0.21682547 -0.22437115
0001b0 b5 62 18 3e d3 43 a8 bd 66 43 31 be 84 51 1d 3e
       0.14881404 -0.082160614 -0.17310867 0.15363127
0001c0 08 0d c0 bc 33 f0 1d bd 05 dd 55 be 19 0d 3f be
       -0.023443714 -0.03855915 -0.20885094 -0.1865734
0001d0 5f 6a f8 bd 6c f6 3a 3d fb 8e 6f 3a 55 26 61 3c
       -0.12129664 0.045645162 0.0009138432 0.013742049
0001e0 43 7b 62 3e 28 14 47 3e e8 c6 25 be 35 7b c6 3d
       0.22117333 0.19441283 -0.16189158 0.096914686
0001f0 7d 95 c2 3d ad c3 48 be 33 2e 60 3e d0 b0 0d 3e
       0.09501169 -0.19605894 0.21892624 0.1383698
000200 8b f0 6e 3d 38 43 5a bd 19 ec 68 3d 6d 2d 1c bd
       0.05833487 -0.05328676 0.056865785 -0.03812926
000210 1b d1 32 bd 1d 3b f6 bd 69 d7 1b be 0d c9 ba 3c
       -0.04365645 -0.12022994 -0.15218891 0.022800947
000220 98 d6 b0 bc f2 d7 3d be 00 bf 15 3e 13 ea 02 3e
       -0.021586701 -0.18539408 0.14623642 0.12784605
000230 ad 39 50 3e 42 24 25 3e fb 64 63 3e f4 19 40 be
       0.20334502 0.16127113 0.2220649 -0.187599
000240 04 74 0b be 78 a6 7a 3e a3 dc ec bd 1a ec 19 be
       -0.13618475 0.24477565 -0.115655206 -0.15031472
000250 6d 45 f7 bc 20 85 b0 bd 58 5b 86 3c e6 cb 1c be
       -0.030184472 -0.086191416 0.016400978 -0.15312156
000260 e9 97 49 3e cb 92 0a 3c 3f 19 4f be f1 22 9f bb
       0.19686855 0.00845785 -0.20224474 -0.0048564603
000270 e5 f8 f4 3d f4 7a 33 be ba 06 c8 bd e5 3c 78 be
       0.11961535 -0.17527372 -0.09766908 -0.2424198
000280 09 18 70 bd 27 41 25 be 15 de 16 be d4 99 14 be
       -0.05861667 -0.16138135 -0.14733155 -0.14511806
000290 58 fe 03 be d6 87 7d be 2f 4c 12 3e 61 d1 3d 3e
       -0.12889993 -0.24758849 0.14286874 0.18536903
0002a0 22 06 2c 3e 80 c9 d6 bd 93 08 d2 3d ea 9c 3a 3e
       0.16799214 -0.10487652 0.10255542 0.1822392
0002b0 05 b1 82 3d e3 70 11 be 69 6f c7 bd 0b 4c 3e bd
       0.0638142 -0.14203219 -0.09738047 -0.04645924
0002c0 85 46 65 3e 21 da c9 3d ff 2a 62 be c1 95 ab 3d
       0.22390182 0.09856058 -0.22086714 0.08378173
0002d0 c1 8b 4f 3e b6 95 a5 bd ef 84 df bd bf 31 07 bd
       0.20268156 -0.08085196 -0.10914027 -0.033006426
0002e0 50 66 33 bc b2 4d a2 bb d5 37 01 3e 27 38 5e bd
       -0.010949686 -0.0049531097 0.12618954 -0.05425277
0002f0 80 8a 5e be d8 96 cf 3d d5 c0 bf 3d 65 8b 31 be
       -0.21732521 0.10136193 0.09362952 -0.17338331
000300 a5 cb 73 be 0d 1f 2c 3e d5 e6 1e be 03 1e 4d 3e
       -0.23808153 0.1680872 -0.15517743 0.2003098
000310 e0 dd 2f 3e fc 3d dd bd 9b 6b 7d 3e 69 8e 0e be
       0.17174482 -0.10802838 0.2474808 -0.13921513
000320 4e 13 72 be fc 5b a2 3d 7a 83 1c 3e 19 3d 64 be
       -0.23640177 0.07927701 0.1528453 -0.22288932
000330 d6 19 74 bd b8 ff 53 be 21 e1 d3 3d a6 42 04 3e
       -0.05959495 -0.20703018 0.10345674 0.1291605
000340 c4 e3 c5 bd 2c 85 54 be ec df f1 3d 19 a5 98 bd
       -0.096625835 -0.20753926 0.11810288 -0.07453365
000350 7e c8 f1 3d 67 04 57 3e 83 09 cd 3d d2 e1 56 be
       0.11805819 0.20997773 0.1001158 -0.20984581
000360 b5 50 76 3e 04 c2 85 bd f1 af 41 be 97 85 02 bb
       0.24054225 -0.06531146 -0.18914773 -0.0019916052
000370 7c 51 ca 3d 63 5f 0a be 2b 86 43 be 1f bd 6a be
       0.09878823 -0.1351295 -0.1909415 -0.22923706
000380 65 ba ca bd 2e 5c 7b be c0 c2 71 be 52 2d 9f bd
       -0.09898833 -0.24546883 -0.23609447 -0.07772316
000390 52 fb 5d be c6 e0 20 be a4 8c 50 3e 0e eb 3c be
       -0.21677902 -0.15710744 0.2036615 -0.18449041
0003a0 22 99 7d bd 1a 15 55 3e 80 db 9f 3c 26 64 09 be
       -0.061913617 0.20808831 0.019513845 -0.1341711
0003b0 e6 f2 4a be de 85 2e 3e 72 b2 53 3e b2 5d 18 3e
       -0.19819221 0.17043254 0.2067354 0.14879492
0003c0 47 b1 7e be a8 e5 1b be 6d 6c 59 bd e5 79 36 3e
       -0.24872313 -0.15224326 -0.05308192 0.17819937
0003d0 f4 82 3a bd f0 29 0e bd 80 1f 18 3e d9 71 0c be
       -0.045535043 -0.034707963 0.14855766 -0.13715304
0003e0 95 36 b3 bc e0 dc 44 3e ed 2e 78 be f1 70 49 be
       -0.021876613 0.19224882 -0.24236651 -0.1967199
0003f0 63 6a 10 3e 04 cd 5b 3e 09 bc a6 3d 65 b8 4d 3d
       0.14103083 0.21464926 0.081413336 0.05022468

convs.1.nn.0.bias f4 [16]
000000 4c 60 e5 3d ed 2c 67 3e e2 fb 10 be 80 60 5e 3e
       0.11200008 0.22575732 -0.14158586 0.217165
000010 7c 91 1a be ce 19 33 3e eb c3 42 be d6 5f 5e be
       -0.1509456 0.17490312 -0.1902005 -0.21716246
000020 a6 03 69 be c8 4a 5a be df 1b 1f 3d a4 cb e6 3d
       -0.22755298 -0.2131759 0.03884494 0.1126931
000030 24 86 0a be 31 5c c2 bd 40 79 05 3e 98 bd 81 3d
       -0.13527733 -0.0949024 0.13034534 0.0633499

convs.1.nn.1.weight f4 [16]
000000 5d b9 7e 3f fc 9d 7f 3f fc 60 7f 3f 02 61 7f 3f
       0.9950159 0.9985044 0.9975736 0.997574
000010 3b 78 7f 3f 9d 52 81 3f 54 e5 7f 3f 4f b5 80 3f
       0.9979283 1.0103337 0.999593 1.0055331
000020 d0 ea 7e 3f 7e e7 7f 3f d7 21 81 3f 39 84 80 3f
       0.99577045 0.99962604 1.0088452 1.0040351
000030 9c 6b 7e 3f 2d 07 7f 3f 65 3a 80 3f ed 0f 80 3f
       0.9938295 0.99620324 1.0017821 1.000486

convs.1.nn.1.bias f4 [16]
000000 c0 20 d4 bb 77 2a ad ba bc d3 bc ba a6 df 63 bb
       -0.0064736307 -0.0013211508 -0.0014406363 -0.0034770756
000010 34 2d 55 bb 6d b7 39 3c 24 4f 13 3a e4 a8 e1 3b
       -0.0032528164 0.011335236 0.0005619398 0.0068865884
000020 5c 99 6a bb fe fb 94 ba dc f7 fe 3b 0f ad 3e 3b
       -0.0035796976 -0.0011366603 0.007781012 0.002909485
000030 fb db de bb 93 33 85 bb 29 f7 59 3b 7b bd 1d 3a
       -0.006801126 -0.004064986 0.0033258891 0.00060173095

convs.1.nn.1.running_mean f4 [16]
000000 86 e0 15 be c8 41 09 bf 02 64 59 c0 31 de 39 bf
       -0.1463643 -0.53616 -3.396729 -0.7260466
000010 60 c4 17 c0 34 29 14 bf 61 07 83 bf cf f4 78 3e
       -2.3713608 -0.5787537 -1.0236627 0.24312137
000020 94 4d 12 3f cd ee 5f c0 eb fa d9 bf 4c ce 09 3f
       0.57149625 -3.4989502 -1.7029699 0.5383041
000030 bd 75 ac be 03 b8 0a c0 cd db 01 c0 3d 89 c9 be
       -0.33683577 -2.1674812 -2.0290406 -0.39362517

convs.1.nn.1.running_var f4 [16]
000000 29 a3 e7 3f 1a 22 7d 40 bd b9 9e 40 98 91 fb 3f
       1.8096668 3.9552064 4.960173 1.9653807
000010 f9 4b 5e 3f 09 ca 8b 40 b8 26 b4 3e 8a b8 f0 3f
       0.86834675 4.3684125 0.3518579 1.8806317
000020 24 f7 cb 3f aa 1a 4b 40 fd 5c 34 3f 73 48 b5 40
       1.5934796 3.1735024 0.7045439 5.665094
000030 ed 05 da 40 d6 9e d6 3f b1 ab 4d 41 82 df ef 3e
       6.8132234 1.6767223 12.854417 0.4685021

convs.1.nn.3.weight f4 [16, 16]
000000 63 53 c2 bc 83 a3 c0 3d 2f b9 04 3e 77 7f 00 be
       -0.023721403 0.094061874 0.12961267 -0.12548624
000010 0d 40 d1 3d 70 40 89 3d 8f 28 be 3c a5 47 82 3d
       0.10217295 0.067017436 0.0232127 0.06361321
000020 72 51 8c bc 0c 57 dc 3d 67 1f 38 3e 6f 0f 8d bd
       -0.01712868 0.107587904 0.17980729 -0.06887709
000030 c4 ee 4b 3d 8d 6a 6f 3e 9a 13 5a bd f0 7b a4 bd
       0.04978825 0.2338049 -0.05324135 -0.08031452
000040 60 be 24 3c 8a 4a 84 3d 40 78 2f be a7 57 25 be
       0.010055155 0.0645953 -0.17135715 -0.16146718
000050 28 b7 31 be 8a dd 29 bd 08 80 fb 3d cf 96 24 3e
       -0.17355025 -0.04147104 0.122802794 0.16073154
000060 f0 b8 69 be 9a 77 32 3e e1 ed 1f bd 88 7c 76 3e
       -0.22824454 0.17428437 -0.03904522 0.24070942
000070 a3 45 3b be 36 81 e2 3d da b7 93 bc 60 bf b8 bd
       -0.18288283 0.11059801 -0.018032003 -0.09020877
000080 66 92 57 be c2 5e 3a 3e c2 1b 4a be be cf 8f bd
       -0.2105194 0.1820021 -0.19737151 -0.070220456
000090 d6 84 d3 3d a9 ed 1c be ff de 34 bd 45 88 47 be
       0.10328071 -0.15325035 -0.04415798 -0.19485576
0000a0 17 98 28 be ac 54 76 3e a3 7c eb 3d b3 b4 6e be
       -0.16464268 0.24055737 0.11498382 -0.23311119
0000b0 07 f2 8c bd ad 1f 5d bd b8 87 21 3e 96 b1 75 be
       -0.068821006 -0.053985287 0.15774429 -0.23993525
0000c0 8c 40 91 bc e9 4c 71 be e6 f0 50 3e 04 9f 24 3e
       -0.017730974 -0.23564495 0.20404395 0.16076285
0000d0 42 04 6e be 54 c7 56 be 26 ed bb 3d 84 40 1c 3e
       -0.23243812 -0.20974475 0.09176092 0.15258986
0000e0 60 21 1b be 86 c6 32 3e 94 23 ad 3d 46 2b d5 3d
       -0.1514945 0.17458543 0.084540516 0.104086444
0000f0 44 cc bc 3d c4 71 b0 3c 49 46 4c 3e b1 f0 74 3d
       0.09218648 0.021538623 0.19948687 0.059799854
000100 3f 3d 80 bd 33 11 1a bd eb 9a 8d bd e0 c4 2d 3e
       -0.06261682 -0.03761406 -0.06914314 0.16969633
000110 58 db 54 be 71 0a 86 bc 10 b8 3c be 05 d9 8e bc
       -0.20786798 -0.0163624 -0.1842959 -0.017437467
000120 5e 34 37 be 88 12 74 be d7 02 a8 bd 2e 44 04 3e
       -0.1789107 -0.23835194 -0.08203667 0.12916633
000130 e9 88 fa 3d 32 6c 73 3e 67 73 52 3e f9 89 31 be
       0.12233145 0.23771742 0.20551835 -0.17337789
000140 bb 85 00 3e 66 9e 56 3c 98 09 43 be 4d 18 45 be
       0.12551014 0.013099289 -0.19046628 -0.19247551
000150 5e 92 66 3e 4a 8d 74 be a3 e4 7f 3e 7d 9c c3 3b
       0.22516772 -0.23882023 0.24989562 0.0059695826
000160 ca 37 10 3e 73 0b 4a 3e 21 ea 64 be bc 30 aa 3d
       0.14083782 0.1973093 -0.22354938 0.083100766
000170 4e b6 71 3e e5 e3 e1 bd 54 16 6c 3e 84 0a 2b be
       0.236047 -0.110297956 0.23055393 -0.1670323
000180 1f 11 19 be 2d e8 36 3d 01 21 b7 bc 08 6c 36 be
       -0.14947937 0.044655014 -0.022354605 -0.17814648
000190 c9 69 29 bd 99 87 c2 bd bc 6b 5f 3e 14 b1 0b 3e
       -0.04136065 -0.094985195 0.21818441 0.13641769
0001a0 a8 e8 50 3e 7f 65 71 3e cd f0 ba 3d fe 9e d0 bd
       0.20401251 0.23573874 0.0912796 -0.10186575
0001b0 07 6d 12 be 67 40 7b 3d 16 28 38 bd 5c e4 67 be
       -0.14299403 0.061340716 -0.044960104 -0.22645706
0001c0 74 2a 86 bd be 66 79 3e 87 db 20 3e 8a a4 2f be
       -0.06551066 0.243556 0.15708743 -0.1715261
0001d0 8f 0b 3d be f1 24 0a 3e cf 27 27 3c 26 2e 7c 3e
       -0.1846144 0.13490655 0.010202362 0.24626979
0001e0 b0 6a 05 3c 65 c9 f2 3d e5 64 cb 3d d3 c4 12 be
       0.008143112 0.11854819 0.099313535 -0.14332895
0001f0 fe 48 53 be 71 63 78 be 3a 63 34 3e 8e c9 1f 3e
       -0.20633313 -0.24256684 0.17615977 0.15604231
000200 4f d1 a7 3d a7 a1 c5 3d 03 43 39 3e 3c ee b8 3d
       0.08194219 0.09649973 0.18091969 0.090298146
000210 27 56 d4 3d 9a ae 43 3e 62 02 7c be 58 69 23 be
       0.10367995 0.19109574 -0.24610284 -0.15958154
000220 1b 81 f9 3c 9f 70 02 be fb d6 11 3d 70 20 bc 3d
       0.03045707 -0.12738274 0.035605412 0.091858745
000230 b5 98 a9 bb 06 b7 40 be 58 de 94 3d 8f 3b 80 3d
       -0.005175675 -0.18819818 0.07268971 0.0626136
000240 7f c7 97 bd 10 bc cd 3d 4c 82 14 be 66 f5 41 be
       -0.07411098 0.10045636 -0.1450283 -0.18941268
000250 ba 84 63 3e eb 64 72 be cd 93 6f 3e c3 45 56 be
       0.222186 -0.2367131 0.23396225 -0.2092505
000260 4a 0a f8 bd 8a f1 fb 3d bf 8a 08 be c4 9d 36 3d
       -0.121113375 0.12301929 -0.13334177 0.04458405
000270 bb af 81 bd 96 3c 7d be 95 5f 9a 3c 46 d8 09 bb
       -0.06332346 -0.24730143 0.018844405 -0.002103345
000280 00 85 12 be 8f b0 80 bd 1d b8 3a 3e 8b 53 d3 bd
       -0.14308548 -0.06283676 0.18234296 -0.10318669
000290 c8 0b a2 3d 30 d4 74 3e 6d dd 7c bd 26 89 a0 3d
       0.07912403 0.23909068 -0.061734606 0.07838659
0002a0 b3 41 53 3e 6e 86 0a 3c 2c f5 a0 3d ce 38 09 be
       0.20630531 0.008454902 0.07859263 -0.13400576
0002b0 6d 1b 56 bc b1 66 f4 bd b1 84 f0 3b 5c d1 4b bd
       -0.013068062 -0.11933649 0.007340037 -0.049760208
0002c0 6c 7d b7 3d 24 4b 0e 3d 9e 01 35 bb ca 45 2e 3e
       0.08959469 0.03473963 -0.0027619372 0.1701881
0002d0 dc 5b 33 3e 17 ef 66 be 60 a7 62 be cd 7e 20 be
       0.1751551 -0.22552143 -0.22134161 -0.1567337
0002e0 16 1d d5 bd 47 37 01 3d 6b f6 68 3e 46 3e b2 3d
       -0.10405938 0.031546857 0.22750251 0.08703284
0002f0 37 8b 3e bd a7 73 50 3e c5 8b 77 be 83 f5 fd 3d
       -0.046519484 0.20356618 -0.24174412 0.12400343
000300 02 9b 62 be 1e 72 7d bc 2f ae 28 bd 44 92 02 3e
       -0.22129443 -0.015469102 -0.04118174 0.12751108
000310 b7 e8 5f be a0 71 52 3e 44 78 d4 3d f8 ab 95 bd
       -0.21866117 0.20551157 0.10374501 -0.07308191
000320 84 05 d4 3d 8f 1b 72 3d fc 59 a6 bd 53 20 74 3e
       0.103526145 0.059108313 -0.08122632 0.23840456
000330 7a 54 64 be 2e d4 fe 3d 83 92 0a 3d bd d1 a2 3c
       -0.2229785 0.12442814 0.03383113 0.019875402
000340 0c 3b 14 be 51 26 e3 bd 9e e1 b7 3c 5f be 42 3e
       -0.1447565 -0.11091293 0.02244645 0.19017933
000350 39 7b 16 3e 11 fc 4f 3d 05 56 77 3e a7 2a 49 3e
       0.14695443 0.0507775 0.24153908 0.19645177
000360 c1 7d 78 be 3b 80 22 3e c9 28 29 be 0e a5 36 3e
       -0.24266721 0.15869229 -0.16519465 0.17836401
000370 da 24 1f be 72 92 3f 3e 29 84 ad 3d e5 5f 3b 3e
       -0.15541402 0.18708208 0.08472473 0.182983
000380 bc c0 58 be f9 33 0e bd b7 c0 a5 bd b8 6b 61 3e
       -0.21167272 -0.034717534 -0.08093398 0.22013748
000390 59 4a 5d 3e 72 6b 60 3d 55 0f b3 3d 13 28 f8 bd
       0.21610393 0.054789968 0.08743159 -0.121170186
0003a0 90 dc f5 bb 65 d6 5e 3e af a9 11 3e ed 1a 19 be
       -0.0075030997 0.21761473 0.14224885 -0.14951678
0003b0 b3 94 3c be 81 5f 62 be cf 79 3c 3d 83 16 93 3d
       -0.18416099 -0.22106744 0.046014603 0.07182028
0003c0 cc 49 ae bd fb 65 30 3e 20 a6 75 3e 17 7d d3 bc
       -0.085101694 0.17226402 0.23989153 -0.025816483
0003d0 61 f9 aa bd 9c cb 1e be 07 aa 72 bd e9 32 5b 3d
       -0.083483465 -0.15507358 -0.059244182 0.05351535
0003e0 fa a5 0f 3e 17 74 17 bd 34 99 5e be 4a eb b5 bd
       0.14028159 -0.036975946 -0.2173813 -0.088827685
0003f0 f1 85 d4 bc 2f fb 02 3e 50 b8 4a 3e 62 e3 42 3e
       -0.025942774 0.12791131 0.19796872 0.19032052

convs.1.nn.3.bias f4 [16]
000000 a7 7c a5 3c 98 30 4a bc 54 de 11 3e 91 6b 6a be
       0.02020104 -0.012340687 0.14244968 -0.22892596
000010 58 12 ab bd 01 f4 0d 3e 8e 80 c3 bc e0 ef c9 bd
       -0.08353108 0.13862611 -0.02386501 -0.09860206
000020 57 41 58 be 69 46 42 be 0f 53 28 be f6 b4 84 3d
       -0.21118675 -0.18972172 -0.16437934 0.06479828
000030 a8 2f c9 3d 93 78 1a be fe 49 4d 3e 29 98 12 be
       0.09823543 -0.15085058 0.20047757 -0.14315857

convs.1.nn.4.weight f4 [16]
000000 d2 27 7f 3f 7f 95 7f 3f f1 06 7d 3f 4b 72 7d 3f
       0.99670136 0.9983749 0.98838717 0.9900252
000010 32 6e 80 3f 2c 81 80 3f f5 e8 80 3f 22 84 80 3f
       1.0033629 1.003942 1.0071093 1.0040324
000020 74 3c 81 3f b5 d9 80 3f af e2 80 3f e9 e9 80 3f
       1.0096574 1.0066439 1.0069178 1.0071384
000030 77 76 80 3f 16 bf 7e 3f 5c 0d 7e 3f 04 6d 7e 3f
       1.0036153 0.99510324 0.99239135 0.99385095

convs.1.nn.4.bias f4 [16]
000000 15 af 32 bb 79 c3 0b bb 69 da 3c bc 68 b1 29 bc
       -0.0027265002 -0.0021326228 -0.011526682 -0.010357238
000010 47 78 6d 3b 34 b6 19 3b df 30 f8 3b 93 bd 91 3b
       0.003623502 0.0023454549 0.0075741853 0.004447648
000020 60 fa 1d 3c 2a 63 fa 3b b9 9a e7 3b 2d bf ce 3b
       0.009642214 0.007641216 0.007068005 0.006309411
000030 02 fe 60 3b 53 50 a8 bb 9c 16 fe bb 35 36 c0 bb
       0.0034331088 -0.0051365285 -0.00775416 -0.005865837

convs.1.nn.4.running_mean f4 [16]
000000 d3 ea b6 3e 15 ca f2 bd 53 62 89 be f5 5c 8c 3c
       0.35726032 -0.1185495 -0.26832828 0.01713417
000010 9a e3 90 be ac 50 a5 3e 61 91 e6 bc 8e 98 97 3d
       -0.28298646 0.3228811 -0.028145494 0.07402144
000020 97 65 67 bd 55 e2 06 bf de 9a 86 bd c7 bf 07 3e
       -0.056493368 -0.52689105 -0.06572507 0.13256751
000030 c0 91 30 3e db 73 83 3e f1 00 67 3e cc 22 be 3c
       0.17243099 0.25674328 0.22558953 0.023209952

convs.1.nn.4.running_var f4 [16]
000000 dd 69 9e 3c d9 68 1c 3d 98 ec a7 3e 7e 8d 22 3d
       0.019337589 0.038185928 0.32797694 0.03968572
000010 cd da b5 3d 1f c1 0a 3e 18 43 a5 3d 6d f1 0a 3e
       0.088796236 0.13550232 0.08069438 0.13568659
000020 ed 69 df 3d 25 3b 6f 3d b3 bd 5a 3d 1f 45 ec 3d
       0.109088756 0.058406014 0.053403568 0.11536621
000030 fd 8e 21 3d 0c 50 95 3c 1f 54 23 3e a0 64 87 3d
       0.039443005 0.018226646 0.15950058 0.066109896
