experiments/results/SHRIROOK/runs/2026-02-05T16:59:13-gin-shrirook/seed_0/best_weights.pt (torch, 119371 bytes, 180 tensors)

conv1.nn.0.weight f4 [16, 1]
00000000: d8b8 a03e 2e65 3dbf 5548 963e 6574 00bf
00000010: f5a0 123e fc63 69bf 36f1 9a3e 5206 4b3f
00000020: 242d 2e3d 8cd2 43bf cdff b03e 17fd 41bf
00000030: 10ac 013f 63e9 2f3f 16c7 f43e e7bc 3bbf
0.31391025 -0.7398251 0.2935206 -0.50177604 0.14319213 -0.9116819 0.30262154 0.7930652
0.04252352 -0.76493144 0.3457016 -0.7577681 0.5065317 0.68715495 0.4780814 -0.7333512

conv1.nn.0.bias f4 [16]
00000000: cca4 113f 82ef fb3e f55c e43c ee79 de3e
00000010: 09cf 973d 9550 35bf 025b 01bf ec49 783f
00000020: 9cd6 4c3f 4d4e 063f 6746 12bf f115 44bf
00000030: 250d 35bf 3887 2f3f 0f0f 093f a0d7 283f
0.56892085 0.49206167 0.027876357 0.434524 0.07412536 -0.70826083 -0.5052949 0.96987796
0.8001497 0.5246323 -0.57138675 -0.7659598 -0.7072318 0.685657 0.535386 0.6595402

conv1.nn.1.weight f4 [16]
00000000: 8e80 7d3f 82ab 813f 43ad 813f 5bb0 813f
00000010: 7187 7c3f 6b89 813f a6b9 813f 12b2 813f
00000020: 0e86 7c3f 9d94 7c3f 43af 813f 80b8 7c3f
00000030: 23b5 813f c1a6 7c3f 15a0 7c3f 5094 7c3f
0.99024284 1.0130465 1.0131 1.0131944 0.9864417 1.0120062 1.013478 1.0132468
0.9864205 0.98664266 1.0131611 0.98719025 1.0133404 0.98691946 0.98681766 0.98663807

conv1.nn.1.bias f4 [16]
00000000: bbe5 0abc 68a8 563c 95a4 573c 3b46 583c
00000010: cc71 5ebc d691 4b3c 4e00 5d3c 0ad4 583c
00000020: 65a8 61bc 7a9b 5abc ebb7 593c ce99 52bc
00000030: 8095 5b3c 66f0 57bc 8abe 57bc 3e57 59bc
-0.008477624 0.013101675 0.013161798 0.013200338 -0.013576936 0.012424907 0.013488842 0.013234148
-0.013773059 -0.013342733 0.013288478 -0.012854053 0.013402343 -0.013179874 -0.013167987 -0.013265429

conv1.nn.1.running_mean f4 [16]
00000000: 13f6 4440 5172 adc0 e2e7 1740 37d3 64c0
00000010: bcf5 9b3f 1ace ffc0 06e0 f43f f9d7 e940
00000020: bdea 913f 26d3 b2c0 bf3d 0c40 b94a dac0
00000030: cfcd 5540 18aa c540 e763 8b40 806e a6c0
3.0775192 -5.4202046 2.373528 -3.5753915 1.2184367 -7.993909 1.9130867 7.307614
1.1399761 -5.588275 2.1912687 -6.8216214 3.3406866 6.1770134 4.355945 -5.200989

conv1.nn.1.running_var f4 [16]
00000000: 4839 c43d c93d 083f 918f ab3d b2af 7a3e
00000010: e351 a33c 95e3 4e3f 4e5d b63d 3b8e 1c3f
00000020: 5374 e63a 22a5 113f 51fb ed3d 13ee 0e3f
00000030: ee75 7f3e e510 eb3e d591 633e 0ade 053f
0.09581238 0.53219277 0.083769925 0.24481085 0.019936508 0.8081601 0.08904515 0.61154526
0.0017582275 0.568926 0.116202004 0.5583202 0.2494733 0.45911327 0.222236 0.5229193

conv1.nn.3.weight f4 [16, 16]
00000000: 68e3 0abd 2133 173e 3433 b9bd 4561 5fbd
00000010: c8c9 34bd a259 babb 29e4 03be 6181 1cbd
00000020: d99f 1dbe fd6e c7bd 60a1 a73d ae55 333e
00000030: e8bf 6e3e be59 ab3c 738a dabc 382f 20bc
00000040: 556f babc d506 3e3e 6488 1f3e b55e 0e3d
00000050: 1528 e0bd 33e2 5bbe b0d1 c53d bd55 73be
00000060: 8dd8 223e 37d4 fcbd c5ad 69bc e16f 723e
00000070: 3cbf 27bd ed02 de3d 89b9 743e 9fe2 d1bd
00000080: bf58 2cbe 4a35 043e e8b1 9b3c d23a 92bd
00000090: 623a b53d a25b 4fbe d9a5 7a3d e272 92bd
000000a0: 6f68 4abe cfd5 e93d efe3 5e3e a083 00be
000000b0: ec5e 3d3e ee76 553e 2e5d 6f3e d495 233e
000000c0: fa5b 213d eee2 4b3e d813 35be 29ad 893d
000000d0: d9bf 5b3e 5b68 c43d 6ce8 8b3d 74a0 7bbe
000000e0: c262 63be c22d 1dbe 12b8 253e d587 41be
000000f0: b78c 493d c39e 30bd 9b00 833d d667 013b
00000100: 64e6 f2bd 36d2 3e3d 5251 dcbd 67a3 eebd
00000110: fedb e63d 6e6f 6b3e 308a 68bd b29f afbc
00000120: e213 6f3e 6ef4 25be 6d5e 50be 14c5 b33d
00000130: cb16 87bd eb13 a03d 7b29 58be 5b3b 1b3e
00000140: 5fab a13a 820d 53be bf1d 7a3e 7536 37be
00000150: 71e0 b3bd fcef 17bd 107e 2c3e de07 093e
00000160: c17c 0cbd b43f 5b3e 1107 303e bb86 193e
00000170: e155 bb3d 7083 6fbe 02a0 48be 6aa3 3a3e
00000180: 1b18 043e cd10 b83d fc42 ef3d 2194 1ebd
00000190: 528c 6dbe 9353 a5bc 17c5 593e 3d1c 483d
000001a0: b317 47be 8c64 153e 77ee 793e 4094 44be
000001b0: 0117 133e 379a 69be 7003 1c3d 6444 5c3e
000001c0: 2cdb 883c d4b6 8dbd 7534 cd3d 0041 82bb
000001d0: be15 743e 5e0d 243e 5e0d 563e 703a 923d
000001e0: 9d8b ab3d 8591 c8bd 5ced 73be fd5e 21be
000001f0: 69e2 513c e5d1 043e f905 b7bd d4f7 9abd
00000200: 140e 18be 6518 0a3e 79da 4f3e c7ab 50be
00000210: 441f 7bbe f85e 073e 363d 183e 7662 44be
00000220: 83c6 67be 294c c0bd f2a1 47be cc4a 793e
00000230: 51bf 163e 350b 16be 610e 37bc 1aef 493e
00000240: e65b 5abd f192 f23d d590 453b 0f7d b33d
00000250: 0900 0e3e 26cb 5e3e 0fda 853b 88cf 47be
00000260: 611f 863d 545c bb3d 5a27 ebbd 7087 22be
00000270: a37e 363d 8e5a 69bd 31d3 d63d f720 293e
00000280: 1c2c 6abe dd1e e73d 18ca 4c3d 0184 2d3e
00000290: 1245 713e 7157 1c3e 60af 743e 517e b83d
000002a0: ad6e 21be 123f 7abd 0ce8 223e afde 12be
000002b0: faf1 2a3e 8b31 0a3e 3833 0b3e 91c3 1c3e
000002c0: 0632 4dbe ec18 07bd 3210 593e 587f 713e
000002d0: c0fc 1ebd 4731 3b3e 6519 cdbd 483b 213c
000002e0: 4e8f 1e3e b5c0 1cbe fce0 853d 4c7b 10be
000002f0: 8cf6 77be 4694 a9bd 32ca a3bd 3966 323d
00000300: 2e2d 52be 6e85 70be 2365 34bd c0a9 ec3d
00000310: 46cf 11bc ca49 5b3e a860 103e a84b 29be
00000320: 4acb 51be c559 cf3d 8518 3e3e 10e5 8dbd
00000330: 51d2 ebbc a455 4abe 5e8c 4c3d fd6f 9fbd
00000340: 1292 833e 3e29 883d 63d9 a43d 1fbf 403c
00000350: 72d8 5c3e 166c 213e ca28 61be 12bc 01bd
00000360: 6e95 40be 32ca 3dbe c25d 7f3e 0bef 283e
00000370: bb37 bd3d fae7 e1bd 4165 073e 3229 b63d
00000380: c35c 3b3d 5171 a63d 59aa 7dbc f35a 5e3e
00000390: bd5b ebbd abe5 f83d 7b34 5dbe 7531 6bbe
000003a0: a6ba bfbd 9c74 08be 3dc7 f13c 9dc0 5ebe
000003b0: 2910 efbd 9b0f db3d 7559 1d3d b7de 51be
000003c0: d76a 1abe ed76 cfbd 6dd3 34be 090a 6bbe
000003d0: d73b b0bd 8b18 c93d bbd9 5c3d 73e7 54be
000003e0: 66b7 17bd 7946 8c3d d82a c7bd 8f7e 7bbe
000003f0: 1455 f8bd 36b0 e53c be8f 4a3e a599 a03d
-0.033908278 0.14765598 -0.09042969 -0.054536123 -0.044137746 -0.0056869546 -0.12880005 -0.038209323
-0.15393008 -0.09737966 0.08185077 0.17513153 0.23315394 0.020916816 -0.026677346 -0.009776883
-0.022758165 0.18557294 0.15579373 0.03475829 -0.10945145 -0.21473007 0.09659135 -0.23763175
0.1590292 -0.12345164 -0.014262621 0.23675491 -0.04095386 0.10840402 0.23898901 -0.10248303
-0.16830729 0.12910953 0.01900573 -0.07140125 0.08849026 -0.20249799 0.06119332 -0.071508184
-0.19766401 0.11417734 0.21766637 -0.12550211 0.18493241 0.2084615 0.23375389 0.15975124
0.039394356 0.19910786 -0.17683351 0.06722481 0.21459903 0.09590217 0.0683144 -0.24572927
-0.22205642 -0.15349486 0.16183499 -0.18899472 0.04920646 -0.043120157 0.063966 0.001974573
-0.1186035 0.04658719 -0.10757698 -0.1165226 0.11272429 0.22991726 -0.05677241 -0.021438453
0.23347428 -0.16206524 -0.2034852 0.08777824 -0.06596144 0.07816299 -0.21109574 0.15159361
0.0012334398 -0.20610622 0.2442541 -0.17891867 -0.08783043 -0.0370941 0.16844964 0.13381907
-0.034298662 0.2141102 0.17190196 0.14992802 0.091472395 -0.23389983 -0.19592288 0.182264
0.1289982 0.089875795 0.11682698 -0.038715485 -0.23198059 -0.020181453 0.2126659 0.048855055
-0.19442634 0.14589137 0.24407373 -0.19197178 0.14364244 -0.22812735 0.038089216 0.21510464
0.016706072 -0.06919637 0.10019771 -0.0039750338 0.23836419 0.16020724 0.20903537 0.07140052
0.083762385 -0.09793381 -0.23821014 -0.15758891 0.012810328 0.12970693 -0.08936686 -0.07566801
-0.1484912 0.13485868 0.20298184 -0.20378028 -0.24523646 0.13219821 0.148671 -0.19178185
-0.2263432 -0.093895264 -0.19495371 0.24344939 0.14721419 -0.14652713 -0.011172862 0.19720116
-0.053310297 0.11844433 0.003014614 0.087640874 0.13867201 0.21757182 0.0040848325 -0.1951276
0.06548954 0.091484696 -0.11482115 -0.15871978 0.044554364 -0.056971125 0.104895 0.16516481
-0.22868389 0.112851836 0.04999742 0.16944887 0.23561504 0.15267731 0.23895025 0.09008468
-0.15764876 -0.061095305 0.15908831 -0.1434276 0.16693869 0.13495462 0.13593757 0.15308978
-0.20038614 -0.03298275 0.21197584 0.23583734 -0.03881526 0.18280517 -0.10014609 0.009840794
0.15484354 -0.15307887 0.06537053 -0.14109534 -0.24215144 -0.08280234 -0.0799755 0.04355452
-0.20525047 -0.234884 -0.044041764 0.11555815 -0.0088995155 0.21414867 0.14099371 -0.16532767
-0.20487705 0.10124544 0.18564041 -0.06928456 -0.02878681 -0.19759232 0.049938552 -0.07785032
0.2569738 0.06648491 0.08049276 0.011764317 0.21566942 0.15763888 -0.21988216 -0.0316735
-0.18807003 -0.18534163 0.2493811 0.16497438 0.09239145 -0.11030574 0.13222219 0.08894576
0.04574276 0.08127082 -0.015482509 0.21714382 -0.11492107 0.12153181 -0.21602051 -0.22968085
-0.09361772 -0.13325733 0.02951395 -0.21753164 -0.11673004 0.10696336 0.03841539 -0.20495115
-0.15079819 -0.10130105 -0.17658778 -0.22953047 -0.086051635 0.09819134 0.05391858 -0.20791416
-0.037040137 0.06849379 -0.09724969 -0.24559997 -0.12125602 0.028038125 0.19781396 0.07841805

conv1.nn.3.bias f4 [16]
00000000: f355 8bbd 9c17 13be 4c0a f63c 3920 013e
00000010: 141e 45bc baed 6fbe f2a2 bbbd f5d3 ad3d
00000020: e127 e03d 664e c63b 4915 293e 3ba9 0ebd
00000030: 9d94 cabd 827e 5d3e 58dd 5bbe d034 1f3e
-0.06803503 -0.14364475 0.030034207 0.12609948 -0.012031097 -0.23430529 -0.09161939 0.08487693
0.10945106 0.0060518263 0.16512026 -0.03482936 -0.09891627 0.2163029 -0.21471155 0.1554749

conv1.nn.4.weight f4 [16]
00000000: adaf 813f 06bf 813f 918e 7c3f 2d8e 7c3f
00000010: cf82 7c3f 44b3 813f 0ea3 7c3f da98 7c3f
00000020: 55b6 813f 5793 7c3f 21ba 813f 98b1 813f
00000030: 4cb5 813f df8e 813f 08ac 7c3f 18c0 813f
1.0131737 1.0136421 0.9865504 0.98654443 0.986371 1.0132833 0.986863 0.9867073
1.0133768 0.9866232 1.0134927 1.0132322 1.0133452 1.0121726 0.987 1.0136747

conv1.nn.4.bias f4 [16]
00000000: 2072 593c d6ae 5f3c 08e4 5cbc 5916 5bbc
00000010: 27f0 5ebc 983e 593c 29be 57bc d39b 5abc
00000020: da2a 5b3c 30de 5abc 3ccf 5e3c 7c31 5a3c
00000030: 3f2f 5a3c b9ea 3f3c 9202 57bc 543d 5e3c
0.013271838 0.013652524 -0.013482101 -0.013372027 -0.0136070615 0.013259552 -0.013167896 -0.013342815
0.013376916 -0.013358638 0.013599213 0.013317462 0.013316928 0.011713677 -0.013123171 0.013564426

conv1.nn.4.running_mean f4 [16]
00000000: 4e63 9bbd 33ed be3c b91c a13e 2a55 cb3d
00000010: 0fd7 a3bd 1813 25bd ad64 233e 3298 6b3e
00000020: c8c2 0dbc 50c2 6c3e 7f09 463f 3a83 dcbd
00000030: 0ae3 99be ae52 1a3f 65dd 0dbf d015 9fbe
-0.075873 0.023306465 0.31467226 0.09928353 -0.080000035 -0.040301412 0.15956374 0.23007277
-0.0086523965 0.23121 0.7735824 -0.10767217 -0.3005603 0.6028241 -0.55415946 -0.3107133

conv1.nn.4.running_var f4 [16]
00000000: 2c2b dd3c a331 ca3c d914 b83d e940 963b
00000010: a0a3 c33d 4db2 353c a5b6 b43b 237b 163e
00000020: abcf 8c3e 6a8d ba3d 5a4d 803d 3e8c 523d
00000030: 1020 8c3d 84aa 463c 719b 753d 3551 dd3c
0.026998125 0.024681872 0.089883514 0.0045853746 0.09552693 0.0110898735 0.005514937 0.1469541
0.27502188 0.09109004 0.06264754 0.051403277 0.06842053 0.012125615 0.059962694 0.027016262

convs.0.nn.0.weight f4 [16, 16]
00000000: fc2f 9d3d 0ed0 25bc 3f3c fdbd 99a1 6fbe
00000010: 1873 1d3e 23be f2ba 4c29 1e3e 6746 253b
00000020: dd08 5e3e 2c61 02bd 5084 24be 3dad 9c3d
00000030: 1797 41be 7807 95bd 595e 533e bb38 edbd
00000040: 0cc4 5cbc 0c07 7fbd 05c7 093e 15a6 28be
00000050: f99b 77be 8d64 4fbe 0b98 ee3d 4c77 dc3c
00000060: 3eaf 163e 9490 ecbd db43 4e3e c03b 95bc
00000070: 73d8 c43d 3226 793e 1552 2a3e 5a2a 203e
00000080: 5adf 0f3e eb55 8bbd 1b83 2f3e 71a7 163e
00000090: 551f 8e3d 32e7 823d 43f3 3d3d 6ae6 193d
000000a0: 185d a33d c086 7dbe b713 603e 3ceb c93d
000000b0: 29a9 193d d56a 433e 3f0e e33c e6b9 2dbe
000000c0: 01d6 733d 5229 b4bd 5cba 53be cc4a a23d
000000d0: ee09 2fbe 9807 61be f0fd 49be e9c3 11be
000000e0: 6ddd 3abd f356 dabd dbdf cd3d e6a4 573e
000000f0: 3fa2 9ebd 825e a1bd 4ece b0bd ac78 a13d
00000100: 3388 633e e9b6 103e f657 f33b 85d9 07be
00000110: 2587 fdbd 7046 10be 6090 ac3d 6ba1 233d
00000120: 1f77 12bd 89ca 7dbe aad9 67be 7fd9 a43d
00000130: 6d1b 143d 87e5 49be 10d6 873d 5b40 7c3d
00000140: 2a89 29be 7258 0c3e 57d1 983d 663e 79be
00000150: 252d e23d ed61 793e 2c43 2ebe 5ef6 5f3e
00000160: 6473 d63d 63a1 00be d22f c5bd a2d4 25be
00000170: 0d29 753e 68bd 2bbe 0972 8f3d a1c3 613e
00000180: c2d3 51be e66f adbd 8bca 69be 29a5 703e
00000190: ca12 063e 3489 14be 196f d63d 5bc3 28bc
000001a0: 743e bd3d ef4c 193e c9a1 f93c 95b8 bc3b
000001b0: 6e2c 333d 03cc de3d 0c6d 1e3e a88e 26be
000001c0: d6f2 29be 1da5 36bd db95 8a3d 483f a13d
000001d0: 3264 32be 862b ebbd afab 033e 4d2a f0bd
000001e0: d8b4 433e ef3f bf3d 7b2e 793e 0a55 723d
000001f0: 852f 81be b5c6 133e 4290 5d3d f6f3 373e
00000200: 5a80 f3bd a9fe fbbd 26f1 4c3d 2831 d33d
00000210: e8ed 15ba a168 eebd ef02 2dbe d2bb 703e
00000220: 3d2b 3d3e 6667 5dbe 6d82 febd 69d9 aa3d
00000230: d79e 8abd 4ad7 41be b3b6 253e 8918 223e
00000240: 2b4f bc3d a37f 5abe 1a69 06bd 231d cbbd
00000250: 5e5e 96bd 07c1 713d d4f8 4e3e 5de2 8ebd
00000260: aedb d83d 8fae eabd 9bc0 a03d c8d2 243d
00000270: 188b 43be 96eb f9bd 31a3 663e 540b 27be
00000280: 5391 48bc 7438 27bd db9a 063e a020 a23d
00000290: e355 743e edc3 3c3c 89d5 093e 0b6b 7a3d
000002a0: 4f79 e0bd 5daf e03d e7c9 a63d 9358 b7bd
000002b0: 3d46 01bd 2ef6 293e 994d 73bd a8ee bcbd
000002c0: 5d9c 113e a59d 5f3d a8b9 cdbd 5c50 bebd
000002d0: 3707 033e e8d2 a83d 4f59 17be d5e5 34be
000002e0: f344 2c3e c5e6 123e 36c0 f7bd 422e 743d
000002f0: 4f31 ed3d 6937 3f3e e53b d73d 777d ca3d
00000300: 9657 723e 2749 623e 139e 3fbe cfac a0bd
00000310: 0844 633e dfb5 b33d c1c6 fe3d 1658 02be
00000320: 60a3 babd 93c5 dc3d 9119 613e d19e 1e3e
00000330: ff2b e2bd d5e3 12be c944 6ebe 3dd3 85be
00000340: 48a9 063e 9cef 85bd d4a9 65be 7565 313e
00000350: 6a06 213c 5604 76bd 71ca 82bd c1eb 2abe
00000360: 361b 19bd 18d8 d5bc 9e9c 0abe 72ba 513e
00000370: 5019 29be 3a1d 5c3d 1b88 f93d 1c68 623d
00000380: 151d 5cbd e2ac b63d ae91 953d 14d1 de3c
00000390: ccc8 c0bd 9d25 50be 6580 0b3e bf24 b23d
000003a0: 1b5c 153d ef6a 403e a99b 253e 6fd1 60be
000003b0: ebaf 0fbe 7784 9bbc b2ba 893d e7f4 73bc
000003c0: 45b4 383e 8774 0bbe fc82 1b3e 2915 413d
000003d0: 56d8 3ebe 610e d3bd 613d 62be 9372 d43d
000003e0: 0f2b 793e 9416 45be 6842 9cbd cd5c 263e
000003f0: 29a5 813e 5320 dfbc 4045 a0bd 59f4 d33d
0.07675168 -0.010120405 -0.12365007 -0.23401488 0.15375936 -0.00185198 0.15445441 0.0025218965
0.21683069 -0.03183095 -0.16066098 0.0765023 -0.18905292 -0.07276815 0.2064146 -0.11583086
-0.013474476 -0.06226258 0.13454826 -0.16469605 -0.24180593 -0.20253201 0.11650094 0.026912354
0.14715287 -0.115510136 0.20143072 -0.018216968 0.09611597 0.24330977 0.16632874 0.15641156
0.14050046 -0.06803497 0.17139857 0.14712311 0.0693957 0.06391753 0.04637457 0.037573256
0.079767406 -0.24758434 0.2188252 0.098593205 0.03751484 0.19083722 0.027716754 -0.16965446
0.059530262 -0.08796944 -0.20676559 0.079244226 -0.17093632 -0.21975553 -0.19725776 -0.1423489
-0.045621324 -0.106611155 0.10052463 0.21058998 -0.0774579 -0.07879354 -0.086330995 0.078843445
0.22219925 0.14132275 0.0074262572 -0.13266571 -0.123792924 -0.1408937 0.08425975 0.039948862
-0.035758134 -0.24784292 -0.22641626 0.080492966 0.036158968 -0.19716464 0.06632626 0.06158481
-0.1655623 0.13705614 0.074618034 -0.2434021 0.11043767 0.24353762 -0.17017812 0.21871325
0.10471228 -0.12561564 -0.096282616 -0.16194394 0.23941441 -0.16771472 0.07004172 0.22047283
-0.20490935 -0.084686086 -0.2283117 0.23500504 0.13093105 -0.14505464 0.10470409 -0.010300483
0.092404276 0.14970754 0.030472653 0.0057593086 0.043743543 0.10878756 0.15471286 -0.16265357
-0.16596541 -0.044591058 0.06766864 0.07873398 -0.17421034 -0.11482911 0.12858461 -0.11726818
0.19111955 0.09338366 0.24334137 0.05916313 -0.25231567 0.1443127 0.054092653 0.17964157
-0.118897155 -0.12304432 0.050034665 0.1031211 -0.000571935 -0.1164105 -0.1689565 0.23509148
0.18473525 -0.21621475 -0.124272205 0.08342249 -0.067685775 -0.18929783 0.16182975 0.15829672
0.091947876 -0.21337752 -0.032815076 -0.09917667 -0.07342218 0.059021976 0.20212108 -0.06976769
0.105887756 -0.11459076 0.078492366 0.04024008 -0.19096029 -0.122031376 0.2252319 -0.16312915
-0.012241679 -0.040825322 0.1314501 0.07916379 0.23860888 0.011521322 0.13460363 0.06113724
-0.10960638 0.10970948 0.081439786 -0.08952441 -0.031561125 0.16597816 -0.059400175 -0.092252076
0.14219804 0.0545937 -0.10045177 -0.09292671 0.12795721 0.08243352 -0.14780162 -0.17665799
0.16823177 0.14345844 -0.12097208 0.059614427 0.115816705 0.18673481 0.10509471 0.09887212
0.23666224 0.22098218 -0.18712644 -0.078454606 0.2219392 0.087749235 0.12440253 -0.12728915
-0.091131926 0.10779872 0.21982409 0.15490271 -0.11043548 -0.14344724 -0.23268427 -0.26137725
0.13150513 -0.065398425 -0.22428066 0.17323859 0.009828189 -0.06006273 -0.06386269 -0.16691495
-0.037379466 -0.026104018 -0.13536307 0.2048128 -0.16513562 0.05373881 0.12184163 0.055275068
-0.053738672 0.089196935 0.07303177 0.027199306 -0.09413299 -0.20326848 0.13623197 0.08698415
0.03646479 0.18790792 0.16172661 -0.21954893 -0.14031951 -0.018984063 0.067250624 -0.014889932
0.18037517 -0.1361867 0.15186685 0.04713932 -0.18637213 -0.10305477 -0.22093727 0.10373416
0.24332832 -0.19246894 -0.076298535 0.16246338 0.2532132 -0.027237093 -0.078257084 0.1034934

convs.0.nn.0.bias f4 [16]
00000000: 51b4 923a 43d4 52be 5ac9 37be 87cf bfbd
00000010: 311c 15be 096d 433e c1c5 593e 5468 55be
00000020: d020 553e fa65 7abe a474 47be 35e0 ebbd
00000030: 7e29 5abe ad25 9bbd 133c 593e 5b85 e9bd
0.0011192654 -0.20588784 -0.17947903 -0.093657546 -0.14561535 0.19084562 0.21266843 -0.2084058
0.20813298 -0.24452963 -0.19478089 -0.115173735 -0.2130489 -0.075755455 0.21214323 -0.11402389

convs.0.nn.1.weight f4 [16]
00000000: 400a 783f 05b5 803f cb93 803f bfa5 803f
00000010: e1f6 813f c8b4 7e3f d817 7e3f 61c0 7e3f
00000020: 02a6 783f 8f5f 7a3f 319c 803f da95 803f
00000030: 67f2 833f c757 803f 7108 803f 07e2 7e3f
0.9689064 1.0055243 1.0045103 1.0050582 1.0153466 0.994946 0.9925513 0.99512297
0.9712831 0.9780206 1.0047666 1.0045731 1.030835 1.0026788 1.0002576 0.9956364

convs.0.nn.1.bias f4 [16]
00000000: 4feb ffbc 8695 bf3b 27f4 8d3b 8604 a13b
00000010: a323 853c 564e adbb 4711 e0bb 13dd 9cbb
00000020: ef13 f5bc cbac b3bc 631e 9b3b 4f77 a43b
00000030: eea8 fd3c 9aa8 343b 2ac5 6839 0994 89bb
-0.031240134 0.005846682 0.0043320837 0.0049138693 0.016252344 -0.0052888794 -0.006837997 -0.0047870963
-0.029916732 -0.02193298 0.004733847 0.0050191055 0.030964341 0.0027566315 0.00022198693 -0.0041985554

convs.0.nn.1.running_mean f4 [16]
00000000: eb8b e1be 5836 f13f d296 5740 0161 77c0
00000010: defd d3bf 02f6 c23f 239d 213f 8a79 ae3f
00000020: 8619 3cbf 547a adbf da42 0d40 8742 ff3f
00000030: 18cf 033f aab3 afbf 5285 593f 63c7 f43e
-0.4405206 1.8844709 3.3685803 -3.8652956 -1.6561849 1.5231326 0.63130397 1.3630841
-0.73476446 -1.3552957 2.2072053 1.9942178 0.51487875 -1.3726704 0.84969056 0.4780837

convs.0.nn.1.running_var f4 [16]
00000000: 70e1 4940 1c89 7040 3306 c840 ecba 4a41
00000010: 1387 c33f 01ee 5f40 db79 0f41 5095 b83f
00000020: 29f3 0b41 9894 683e e2be bd40 6b1c 7941
00000030: 66ab aa3f 51ba a541 aad3 9040 2df4 2341
3.1543846 3.7583685 6.2507567 12.670635 1.5275596 3.4989016 8.96725 1.4420567
8.746865 0.22712934 5.929551 15.569438 1.3333557 20.715975 4.525838 10.247113

convs.0.nn.3.weight f4 [16, 16]
00000000: 8f09 223e 0747 1ebe f05f 8a3d 05af 78bd
00000010: 4a19 0ebe a56b 3cbe 0f61 72be 9da7 9d3d
00000020: f4a1 4abe a8c6 733d b651 563e 4ffa 3c3e
00000030: 14ff bdbd 8d9d ccbd 900e 7d3e 652d 75be
00000040: 1c4a fa3d c281 5b3e 9c6c bb3d f3c1 b3bd
00000050: b830 8e3d df12 5bbe fff7 3e3d af12 08be
00000060: 9401 36be 0e67 553e 0ab8 cf3c a723 f7bc
00000070: 10c9 6dbd 20c8 193e 0803 673e 0aa8 b03d
00000080: 7845 eabd 5447 473e 80e5 2a3e 1510 8fbd
00000090: dc91 7c3a ba41 703e 8fa5 80bd f11c 273e
000000a0: a962 293e 98cc 76be 6a8f 003c e731 8a3d
000000b0: 9a15 0dbc 612d 7abe 6122 573d 54de 013e
000000c0: 477f cabd 0b28 ba3c 3dc8 1fbe e7e0 3a3e
000000d0: 373b 64be 8553 b63d 6c5b 613e d5bd 76be
000000e0: b946 17be 7826 803e 442b 5dbe 9cec b9bc
000000f0: d755 37bb ef9f 43be 3a0a ae3c aac1 093e
00000100: 9799 6bbe adea 6abe e172 74be 9317 23be
00000110: 0b3b f2bd cedf 59bc 3ec2 36be a838 603e
00000120: 7ea0 023e 8066 10be 0475 35be 4b0d 72be
00000130: ef49 043d 109c 5b3e 2b5e 453c 552c 77be
00000140: 7d2f ba3d c0b3 393e bb1f 723e 20eb 4e3b
00000150: 1522 18bd 39e9 fe3d 6eb0 fabd 23f4 b8bb
00000160: bb7f 833d fbbb 663e a8a6 42be fe10 84bd
00000170: b8d1 613c 428d 963d 5db4 403e bf91 10be
00000180: 6322 6a3e a1da 263e 6dc4 5a3e 31ea 713e
00000190: 494d 1b3e 2b09 15bc 9c11 ee3d 85a6 5ebe
000001a0: 1d82 06be e59b 32be 70c2 6ebd a412 f13d
000001b0: d7c1 bcbd 5186 30be ef82 8c3b a7dd 363e
000001c0: 5f81 8abd 5684 183d 2deb 8ebd 6c4a d9bd
000001d0: 9e4d f6bd e52d 4b3d b435 0a3d e062 9b3d
000001e0: 430e 73be 0b4c 5c3e 2bf7 0c3e 18ad e03d
000001f0: f0b9 e53d a033 553e 5763 4bbd 120d e33c
00000200: 6887 60be e543 05be 63b9 7d3e 8bdc 70be
00000210: 5adf 653e 8cef 433e 70e9 9dbd 4d92 5fbe
00000220: ac7b f8bd 1333 c23d 52cf 4a3e 8f49 1cbe
00000230: 1dd3 3b3e f0f8 123c a3fd 1b3d 225d c83c
00000240: a624 3e3e 15df 243e 1e28 c33a f4b7 71be
00000250: 82fc 4c3d 3d6a 303e 07a4 6cbb f107 69bd
00000260: 54c8 b8bd 29ce 66be 2073 50b8 73b5 1b3e
00000270: 4876 623e 77f9 203e e8af 04bd b2b0 2c3e
00000280: 70da 593e ffb3 39be d6e5 613e 6ac2 303e
00000290: 059c aa3d 2a82 383d b64f 853d 6a55 9ebd
000002a0: b6c8 6fbe d88b 27bd 846f 393e 05ea 82be
000002b0: 4118 4a3d dcc8 053e 10d4 d33d 9154 d4bd
000002c0: a762 0f3e 6fe6 78be b4a3 f0bc a546 2ebe
000002d0: 897f d53d e71c b0bd 0dd0 b33c 1945 a1bd
000002e0: 1ec3 803d bac3 40be 2aa4 4ebe 7c90 23be
000002f0: 0de6 23bd 43b2 e1bd d6b2 4d3e fd6b 773e
00000300: 2082 0ebe 1f23 73bd 1fdc 5a3e 633c a53d
00000310: 8f24 363e 11d7 7fbd 579b 3abe 694f 713d
00000320: 79aa b23d 4dd4 efbd 78ed 72be 2967 b53d
00000330: 44d7 403e 2b3d 63bd fa69 e1bd b3e8 96bd
00000340: f171 f73c 5821 e13d 939a 6dbe fdb0 5fbe
00000350: 5d02 cdbd 53bd c1bd dafa 4c3d 9553 383e
00000360: 6fdd 613d 121e 2b3e 0fb6 073b 6b15 17bb
00000370: 51e5 853e 623c 93bd 74a6 4abd 3a1c 483d
00000380: 0167 6b3d 18e4 68be e776 f7bc a6ff 343e
00000390: 1dd0 a2bd e683 713e 9af5 a8bd e2ec 67bd
000003a0: c88e 4b3e 534e 193e d96c 6e3d 8b06 58be
000003b0: 6aff 22be 613f 003e be76 3d3e f40f 60be
000003c0: 002c 4c3e 419b 3dbe 7592 733e df39 b439
000003d0: 6cd9 04be 766b 323e 7d83 9e3d 8b25 87bc
000003e0: 57f5 24be bf21 9c3c a745 08bd 0f9a acbd
000003f0: a453 68be 2ab3 75be 5767 3dbe bb31 90bd
0.15823959 -0.15456782 0.0675658 -0.060713787 -0.13876835 -0.18400438 -0.23669837 0.07697985
-0.19788343 0.059515625 0.20929608 0.1845486 -0.09277168 -0.09990988 0.24712586 -0.23943098
0.122211665 0.21436217 0.09151575 -0.08777227 0.06942886 -0.21393918 0.046623226 -0.13288377
-0.1777404 0.20840093 0.025356311 -0.030168368 -0.058053076 0.15017748 0.2255975 0.08625801
-0.11439031 0.19460803 0.1668911 -0.06985489 0.0009634772 0.23462573 -0.06281578 0.16319634
0.16541542 -0.24101484 0.007846693 0.06747799 -0.008611107 -0.24431373 0.05252302 0.12682468
-0.098875575 0.022724172 -0.15603729 0.18249856 -0.22288214 0.08902649 0.22007531 -0.24095853
-0.14773072 0.2502935 -0.21598536 -0.022695832 -0.0027974749 -0.19103979 0.02124511 0.13452783
-0.23007809 -0.22941084 -0.23871948 -0.15926962 -0.11827668 -0.013297988 -0.17847535 0.21896613
0.12756535 -0.141016 -0.17720419 -0.23637883 0.03229707 0.21446252 0.012046377 -0.24138005
0.09091089 0.18134975 0.23644917 0.003157325 -0.03714188 0.124468274 -0.122406825 -0.0056443377
0.06420847 0.22532646 -0.19008887 -0.064485535 0.013782911 0.073511615 0.18818803 -0.14118098
0.2286468 0.16294338 0.21363993 0.23624493 0.151662 -0.009096424 0.116244525 -0.2174321
-0.13135572 -0.17442282 -0.0582909 0.117711335 -0.092166595 -0.17238738 0.0042880694 0.17857991
-0.06762957 0.03723558 -0.0697845 -0.10609898 -0.12026523 0.049604315 0.03374262 0.07587218
-0.23735909 0.21513383 0.13766162 0.10970515 0.112171054 0.20820475 -0.049655285 0.027716193
-0.21926653 -0.13014181 0.2477775 -0.2352163 0.22448483 0.19134349 -0.0771054 -0.21833153
-0.121329635 0.09482398 0.19805649 -0.15262435 0.18342252 0.008970484 0.038083684 0.024458472
0.18568668 0.16100724 0.0014889275 -0.23605329 0.050045498 0.17228027 -0.003610851 -0.05689234
-0.090225846 -0.22539581 -4.9698283e-05 0.15205936 0.22115433 0.15720163 -0.03239432 0.16864279
0.21274734 -0.1813507 0.22060332 0.17261663 0.083305396 0.04504601 0.06509344 -0.07731135
-0.23416409 -0.04090485 0.18108946 -0.25569168 0.049339537 0.13064903 0.10343182 -0.10367692
0.14002477 -0.24306653 -0.029374935 -0.17019136 0.10424716 -0.08599263 0.021949792 -0.078745075
0.06287216 -0.18824664 -0.20179811 -0.15973085 -0.040014315 -0.11020329 0.20087752 0.24162288
-0.13916826 -0.059359666 0.21373032 0.080681585 0.17787383 -0.062460963 -0.1822332 0.058913622
0.08723921 -0.11710415 -0.237234 0.08857567 0.18832117 -0.055478256 -0.110065416 -0.073686026
0.030205699 0.10992688 -0.23203497 -0.2184486 -0.100102164 -0.09459939 0.05004392 0.18000634
0.055142816 0.1671069 0.002070788 -0.0023053538 0.26151517 -0.071892515 -0.04947515 0.048855044
0.05747128 -0.22743261 -0.030208064 0.17675647 -0.07949851 0.23585472 -0.0824997 -0.056622393
0.19878685 0.14971285 0.058209274 -0.21096246 -0.15917745 0.12524177 0.18502328 -0.21881086
0.1993866 -0.18516256 0.23786338 0.00034375393 -0.12973565 0.17423806 0.07739923 -0.016497394
-0.16109215 0.01905906 -0.03326955 -0.08427822 -0.22688156 -0.23994127 -0.18496452 -0.07040735

convs.0.nn.3.bias f4 [16]
00000000: 40e2 f5bc 74ad 2e3d 7819 7b3e d6b6 2cbd
00000010: 54bd 123e f83a 14be 2d51 12be 7077 373e
00000020: 8e3e 593e ad2a 2c3e 04a7 1dbe 6f34 a73c
00000030: 1d41 3bbe 5c35 0ebe 91bb 6c3e 876e 5f3e
-0.030015111 0.042645887 0.24521434 -0.042166553 0.14330035 -0.1447562 -0.14288779 0.17916656
0.21215269 0.16813155 -0.15395743 0.020410744 -0.18286557 -0.13887542 0.23118426 0.21819507

convs.0.nn.4.weight f4 [16]
00000000: 84eb 813f 3102 833f 4564 803f 67a5 803f
00000010: 63c5 7a3f c960 803f f079 7b3f a815 7d3f
00000020: ecea 813f fc86 7f3f fe7d 813f 4ad2 803f
00000030: 05b9 7b3f 4235 7c3f beba 803f aa3f 7e3f
1.0149999 1.0235044 1.00306 1.0050477 0.9795744 1.0029536 0.98232937 0.9886117
1.0149817 0.99815345 1.0116575 1.0064175 0.9832919 0.98518765 1.0056989 0.99315894

convs.0.nn.4.bias f4 [16]
00000000: b237 7c3c 396d af3c 3654 a83b a191 453b
00000010: e573 a6bc 41aa 083a bc6c 8fbc 9ad8 1ebc
00000020: bb7e 603c d3e3 6bbb 2df1 4f3c f740 fd3b
00000030: b6a8 90bc 89f9 81bc 9c44 723b 0a21 16bc
0.015394138 0.021414386 0.005136992 0.0030146616 -0.020318935 0.0005213358 -0.017507903 -0.0096951965
0.01370209 -0.0035993948 0.012691778 0.0077286917 -0.017658573 -0.015866058 0.0036967164 -0.009163151

convs.0.nn.4.running_mean f4 [16]
00000000: 32e3 6abe 9ad0 9b3e c066 f13e 8324 72be
00000010: d174 05bf bc65 1f3e 00ed 0a3e da11 b73e
00000020: 80e7 833e 80c7 f93e 89bf 0c3d 39ea 7cbe
00000030: 2906 72be e407 9ebd 2220 8b3e 4243 d1bd
-0.2293823 0.30432588 0.47148705 -0.2364674 -0.5213137 0.15566152 0.13566971 0.35755807
0.25762558 0.4878502 0.03436235 -0.24698724 -0.23635162 -0.07716349 0.27172953 -0.102179065

convs.0.nn.4.running_var f4 [16]
00000000: 44bd 0f3e ad3f 1b3d b5e5 443e 05b6 163d
00000010: 6c46 b03d 01f2 123e c3e5 083e 836d fd3d
00000020: 82a8 843e aeb7 5c3d f120 9c3c 6276 083e
00000030: 3745 1f3c 0419 aa3d 7d04 603d 45e0 083c
0.14037043 0.037902523 0.19228251 0.03679468 0.08607182 0.1435013 0.13368897 0.12374403
0.2590981 0.053886108 0.019058676 0.1332641 0.009721092 0.083055526 0.05469178 0.008354251

convs.1.nn.0.weight f4 [16, 16]
00000000: a0eb 073e d86e 533e db4c 5e3e d078 bcbd
00000010: e519 023e 5e33 803d f891 84bd 8c76 0c3e
00000020: 155b 2b3e 7d53 5f3e f830 103e 1013 56bd
00000030: a0e7 02be 8e86 dabd 8701 ccbd b70c d9bd
00000040: b0ad 0dbe c531 19bd 2458 103e f1a7 35be
00000050: a005 c9bd d72c e7bd aa62 e7bd c304 d8bd
00000060: c231 b2bc d5c2 ae3d 7c29 babd 2baf 60bc
00000070: 2eee 1dbe 5d8f 39be 2e0f 79be 9a29 82be
00000080: 579b ecbc fee5 ea3d 5c70 d9bd 816a 49be
00000090: 502f 493e 6aad 24bd 0b58 92bd 8b04 f6bd
000000a0: 8869 9f3c ea3e 733d d812 4a3e 6c8c 333d
000000b0: 6991 453e 11b2 c5bd a3f6 dd3d 3ae5 da3d
000000c0: d9fe 12be 6fee 8dbc 9839 05be e597 2f3d
000000d0: dbea 94bc a4b2 cfbc abff 0ebb 190c d33d
000000e0: cad9 dcbd 3db2 dcbc 43db 463e 0ce8 903d
000000f0: a11b 7cbe aceb 623e f4ca 673e 5df7 013e
00000100: 3468 793e 019f 41be 67cf ac3d fd17 43bd
00000110: f880 22be 222a abbd 79e8 f93d 9895 1fbe
00000120: 0299 2e3d 4356 703d cf89 6e3e c95c 81be
00000130: 155a 2cbe a0b4 163e 768d be3d 9798 a43d
00000140: bad9 97bd 11ab 1bbe 819f 35be 87f5 8c3d
00000150: b8f2 65be 96ae 783e c0a9 bfbd e426 133e
00000160: f1a7 65bd 8c54 27be 1b32 673c cca6 02be
00000170: 40f5 3f3e c6dc 3fbd 7974 403d e751 2ebb
00000180: 6412 a5bd e55a 363d 9832 d4bb 835d 3cbe
00000190: 1458 39be 2b0f dcbd b1a9 c3bc 9d1d 163e
000001a0: 3377 5b3e 8804 5b3e 947b 5ebd f1db 793e
000001b0: a2da 17be fd2c f2bc 63aa 303e ddb0 7abd
000001c0: 5eb0 123e 35a8 53be 5b72 85bd 7cbe f03c
000001d0: 9afd 943d 377d a33d 01c0 d23d 33da 323e
000001e0: 5383 b0bc 3cc4 5d3e 046a 713d 7fab c93d
000001f0: f09f 16be 59f6 a33d aaf2 88bd 367c 9d3d
00000200: 124d b3bd 27ec b3bd ce05 ecbd 852f 993d
00000210: 6d33 db3d e239 a6bd 2fbd b63d 0c25 b53d
00000220: 18ea 863d 4755 00bd 7254 5f3e 7498 553d
00000230: 7aa9 fe3d fdc0 293d 9639 143e 11a9 7ebe
00000240: 4165 3dbe 0078 263e c8cb f5bd 635d 15be
00000250: dc31 043d 19cd 933d d368 80be e349 603e
00000260: 2d9d 12be b2ba 063c 9389 0dbe 39ea 11be
00000270: cef1 ff3c 60ff 633e 504a 48bd b87d b1bb
00000280: be49 65be c4e0 e33c 2cec 1ebe e243 2fbe
00000290: 6a56 433d 7e8f d13d ae1c 14be 38ea d03d
000002a0: 84b5 0bbe cc01 073e ad9c 123d 369b 48be
000002b0: 7cf2 05be 30b0 ebbd 2992 dcbd b09a fa3d
000002c0: 12d6 893a 365a bcbd dd4b 52be 29cd 5a3e
000002d0: 9f4f 23be 4b46 ab3d 6e9f d03d 8734 6a3d
000002e0: 1bb0 51be 0b4b 33be a63b c9bc ab75 573d
000002f0: 5c8d 28be c6a3 653e 7085 1b3d b09e 77be
00000300: 33b7 4a3e 9bfb 873d 7925 3d3d 7de0 fc3d
00000310: 95e5 11be a515 46be 8d6b ecbd 2267 833d
00000320: 75bf 44be c2bf b2bd edff 9cbc 7a46 00be
00000330: e1e1 433e dca2 1f3e 460b 693e 1c00 883d
00000340: 6e12 76bd b9f2 8abc a332 b73d 2265 d2bc
00000350: 93f6 223e 2cbc 35be 10b8 51bd dc73 d93c
00000360: a937 623e b3be 2fbe 765a 033e be94 493e
00000370: 867b 6f3e 11fc 983d ca64 3b3d 2727 5cbe
00000380: 4c69 a8bc 9f5c 43be 99d5 573e 19d3 04be
00000390: ba64 143e ecef 0ebe 6909 98bc 27a0 ab3d
000003a0: 4b12 cdbd 5043 e5bd cabc 123e 0312 403e
000003b0: b6bb 74bd 9bfc a23c bf3d 7cbe 7baf e9bd
000003c0: 2a85 643d c7e1 ffbd 8dea 8dbd aac8 02be
000003d0: bd36 813c bf76 efbd 05fa adbd edbc 533e
000003e0: 17fa 0abe c8c4 293e a7ee 023e 71a7 05be
000003f0: 7b1c 03be 0f91 533e 6773 883d 5e18 083d
0.13273478 0.20647752 0.21709006 -0.09202731 0.1270519 0.062597975 -0.06473154 0.13717097
0.16733964 0.21809192 0.1408118 -0.052264273 -0.1278367 -0.106701955 -0.09961229 -0.10598128
-0.13835788 -0.03740098 0.14096123 -0.17739846 -0.09815526 -0.112878494 -0.112981156 -0.10547783
-0.021752242 0.08533255 -0.09089944 -0.013713638 -0.1542289 -0.18121095 -0.24322197 -0.25422364
-0.028882666 0.11469649 -0.10617134 -0.19669534 0.19646955 -0.040204443 -0.07145699 -0.12012585
0.0194595 0.05938617 0.19733751 0.04383509 0.19293751 -0.09653104 0.10838058 0.10688253
-0.14355029 -0.017325608 -0.13010252 0.042869467 -0.018178394 -0.025353737 -0.002181987 0.10305042
-0.107837275 -0.02694046 0.19419579 0.070755094 -0.24619915 0.22160214 0.22636014 0.12692018
0.24356157 -0.18908311 0.08437996 -0.0476303 -0.1586951 -0.083576456 0.12202544 -0.15584409
0.04262639 0.058676016 0.23294757 -0.25266102 -0.16831239 0.1471734 0.09304325 0.08036917
-0.07414575 -0.15201975 -0.17736627 0.06882768 -0.22455871 0.24285349 -0.09358549 0.14370304
-0.056068365 -0.16340846 0.014111067 -0.1275894 0.18745899 -0.046841405 0.046986077 -0.002659911
-0.08060148 0.044520278 -0.006475758 -0.18395047 -0.18100005 -0.107450806 -0.023884626 0.14659734
0.2143219 0.21388447 -0.054317072 0.24400307 -0.14829496 -0.029562468 0.17252497 -0.061203826
0.14325091 -0.20669635 -0.06515952 0.029387705 0.07274933 0.07982867 0.10290528 0.17466049
-0.021546995 0.21656889 0.058938995 0.098471634 -0.14709449 0.080059715 -0.066869095 0.07689707
-0.08754934 -0.08785277 -0.11524545 0.07479767 0.10703168 -0.08116509 0.08922803 0.08844957
0.065876186 -0.031331327 0.21809557 0.052147344 0.12434669 0.041443814 0.14475092 -0.24869181
-0.18495657 0.16256714 -0.12001759 -0.14586405 0.032274112 0.07216854 -0.25079975 0.21903186
-0.1431777 0.008223223 -0.13822012 -0.14249505 0.031243231 0.22265387 -0.048898995 -0.005416598
-0.22391412 0.027817138 -0.1551978 -0.17115739 0.047689833 0.10232447 -0.14464065 0.10200924
-0.13643461 0.13184279 0.03579395 -0.19590458 -0.13080782 -0.115082145 -0.10770065 0.122365355
0.0010516068 -0.09196894 -0.20536752 0.21367325 -0.15948342 0.08363017 0.10186659 0.057179
-0.20477335 -0.17509095 -0.024564575 0.05260245 -0.16460174 0.22425756 0.037969053 -0.24181628
0.19796447 0.06639787 0.046178315 0.12347505 -0.14247735 -0.19344194 -0.11543951 0.064161554
-0.1921366 -0.08727981 -0.019165004 -0.12526885 0.19129135 0.1558947 0.22758207 0.06640646
-0.06007617 -0.016961442 0.08945205 -0.02568299 0.15914373 -0.17747563 -0.051200926 0.026544504
0.22091545 -0.1716259 0.12827477 0.19685647 0.23386964 0.07469953 0.045750417 -0.2149931
-0.020558022 -0.19078301 0.21077575 -0.12971152 0.14491549 -0.1395871 -0.018559175 0.08380156
-0.10013255 -0.111944795 0.1432983 0.18756871 -0.059749328 0.019895842 -0.2463293 -0.11410423
0.055791058 -0.124942355 -0.06929503 -0.1277186 0.015773172 -0.11692571 -0.08494953 0.20677538
-0.13571964 0.16578972 0.12786351 -0.13052155 -0.12803833 0.20660804 0.06662636 0.033226363

convs.1.nn.0.bias f4 [16]
00000000: be6e 80be 3e5c d8bd 0029 20be 8af7 dc3d
00000010: 6b2a 68be 7cc3 9a3d a2d9 b93d 82f8 1f3e
00000020: fa54 0dbe 32ff 02bd e867 5dbd a655 413e
00000030: dc40 34be 27c3 6bbe 7aee 43be 7ebe fc3c
-0.2508449 -0.10564469 -0.1564064 0.10789402 -0.22672431 0.07556817 0.09074713 0.15622142
-0.13801947 -0.031981654 -0.05405417 0.18880329 -0.17602867 -0.23023663 -0.1913394 0.030852553

convs.1.nn.1.weight f4 [16]
00000000: add2 813f b000 813f ea08 7e3f ee25 7e3f
00000010: a9d0 7f3f 54d7 7d3f cfdd 793f e1c4 7f3f
00000020: 836f 803f e902 7d3f 718a 803f a67e 7f3f
00000030: e525 803f bba3 803f 0640 7b3f 7eee 813f
1.0142418 1.0078335 0.9923235 0.99276626 0.99927765 0.9915669 0.9760408 0.9990979
1.0034031 0.98832566 1.0042249 0.99802625 1.0011564 1.0049967 0.98144567 1.0150907

convs.1.nn.1.bias f4 [16]
00000000: 6832 5f3c 23c8 ca3b 04dd f3bb 4559 d9bb
00000010: cb70 17bb dd7a 0bbc 2d8d c1bc 3159 813a
00000020: 3f6f ee3a 4a89 4dbc 59d1 743b 2028 31bb
00000030: a27e 263b 4a3f 803b b242 94bc b485 5d3c
0.013622858 0.006188409 -0.0074421186 -0.006632956 -0.0023108001 -0.00851318 -0.023626888 0.00098685
0.0018191113 -0.012544939 0.0037356226 -0.0027031973 0.002540507 0.0039137946 -0.018098209 0.013520647

convs.1.nn.1.running_mean f4 [16]
00000000: bc63 5040 b52f c8c0 9ea9 be3f cc52 9d3f
00000010: 0877 643e 59d4 cfbf 4f88 403f c89e 2840
00000020: dc76 943f 8bb1 cebf 2e8b 4ec0 9348 07c0
00000030: 6cb5 6d3f 4f3b d93f 1e9c c2bf ae4f 2f3d
3.2560873 -6.2558236 1.4895513 1.2290893 0.22311032 -1.6236678 0.7520799 2.6346912
1.1598773 -1.6147932 -3.2272449 -2.1138046 0.9285495 1.6971225 -1.5203893 0.042800598

convs.1.nn.1.running_var f4 [16]
00000000: 4ab3 ae41 1ef0 2341 8a54 1740 a4c8 8b40
00000010: 19c4 d540 b448 233f 1e96 e53e 983d 9e40
00000020: d269 573f 9456 4b40 92c6 373f 7109 3041
00000030: 10a4 7f3f f7aa 2d40 8d9e a73f 7184 e240
21.837543 10.246122 2.3645349 4.3682423 6.6801877 0.6378281 0.44841093 4.945019
0.84145844 3.1771593 0.7178737 11.002305 0.99859715 2.7135599 1.3095261 7.078667

convs.1.nn.3.weight f4 [16, 16]
00000000: ee49 62bd 6bb0 043e 5f67 7e3e 6255 013e
00000010: 430b 34be 68a8 de3c 3504 85be 7633 6bbe
00000020: a90f 033e c9ac 99bd 51d9 f0bb 1282 513e
00000030: 0277 2e3e a991 a03c c4b0 623d ce82 19be
00000040: ae4f 81be cbea d6bd 26a2 6d3e f50c 923d
00000050: abd2 a0bd 472a 19be ca7e 0c3e 681c fc3d
00000060: 68d4 8dbd 5415 85bd 187e 71bd 3bf1 55bd
00000070: 930a 503d 8e63 49be b7e6 543e 7294 89be
00000080: aceb 61be 2924 fb3c f212 ceba 7ed5 343e
00000090: 2198 1b3e a171 583e 5c40 043d 4c0d 53bd
000000a0: 3b47 75be ed0e 1a3d 6c21 813e 5486 efbd
000000b0: fbd4 243e 9974 1d3e 9fc2 92bd a663 f5bd
000000c0: 0b96 0ebe 1cec 313e 45d9 233e 4916 fcbd
000000d0: 47fd 793b e320 a43d 2942 3e3e 206c 253e
000000e0: 4774 823e c92d 1c3e 54e9 18be c742 47be
000000f0: 08cd fc3d 3da5 343e ce6a 713e 63ab e8bd
00000100: bc52 8ebd dac7 5a3e 0fae acbd 3a06 593e
00000110: 37a1 393e 48b9 0dbe a0af 5e3d 06f2 80be
00000120: e4b1 1a3e f02d 353d e404 41be 1eda 83bd
00000130: 886e c83d e98c 6b3e 27e0 e6bd abb0 f33d
00000140: 4dd9 2f3c e07a 6ebd 83fc 1e3e 6557 62bd
00000150: 7689 9c3d 7f4a e4bd 9ecf 87be 2c0b d6bd
00000160: 67ad adbd 13dd 193e bb1f 76be e654 be3c
00000170: 8681 823e 2c00 393c a70b 373e 69b8 16be
00000180: a302 16be 8544 893c 8cbd 023e 226b 443e
00000190: e68d 98bb f5ba 273e f2f0 163e d892 6e3e
000001a0: c77f 693e 9c93 f33d f8cd 3b3a 015c 613e
000001b0: 788d c33d 5bfd 1fbe 675f 6b3e 4a2c 32be
000001c0: 0378 b4bd 5470 1b3e dbe8 1f3d 7c4d 0fbe
000001d0: 76a2 fa3c 7341 69be 1c48 733e 9f5e 4f3e
000001e0: 59d8 60be c5b8 5f3e c739 65be 00ec c0bc
000001f0: db38 0a3e c44b 72be 466c 323e 123a 813d
00000200: a9c2 65be 67c9 703e 4ab7 3ebe f1df 97bb
00000210: 0b25 853c 1e53 2bbe 1261 3dbe d411 943d
00000220: e3fe 58be 100b 05be ec9a ca3d f376 923c
00000230: 8959 7c3e c37a 4c3d d3b4 c8bc 1822 6ebd
00000240: d67b 0b3b ad1d 593e bf56 fe3d f559 2b3e
00000250: af31 313e cd12 30bc 81f9 12be 3793 2f3e
00000260: 6404 613e c120 973d b613 dfbd 07c0 99bd
00000270: 1d65 92bd 5098 cfbd aa3b 8cbe 32fd 8dbc
00000280: ac45 00bb 587a c5bd 199b 59bd f452 6d3d
00000290: f000 9e3d dd3b 69be 26b4 bb3d 954d aebd
000002a0: cdf5 e53d ae45 61be 8ae6 5e3e abe2 65be
000002b0: 6278 1dbe bd3f c1bc ea82 b33d d861 d93c
000002c0: 4c97 1c3d 7a69 28be 5641 ebbd 9a91 6e3e
000002d0: e131 43bd 0be8 d0bd 8b62 623d edc4 2d3e
000002e0: ce6d bebd 26a1 fa3a 6b8e 63bd 5c36 413e
000002f0: 86d0 713e 4144 d03d 2c7e 72be c531 953c
00000300: 1398 e33d 6ce4 9d3d c1b3 e6bd eaca a5bd
00000310: 7983 1f3c cfc1 fb3c 98a7 3f3e 97f8 0abe
00000320: f10b 2d3e 6093 5d3d 0049 fbbd 09f0 3c3e
00000330: a783 57be 14f2 07be aecb 3abe fdeb 6bbe
00000340: f72f 2d3e 5d1f 6c3e 18a6 583e 116e 923d
00000350: e133 2e3e a845 53bc e8c9 abbd fae6 3639
00000360: 35da 003d 18a9 873d db87 703e 1678 3f3e
00000370: d5fc 77bd a7da 53be 7e7d 05be 8cfd 4abe
00000380: a90c 86bd 6810 e03d 8475 e23d 80d4 513d
00000390: fea8 1fbe 7f70 2cbe cfa9 6ebe 6bdf 903d
000003a0: 1493 2a3e 8c66 403e 3ba9 3cbd 4498 653d
000003b0: db14 55be 0223 fb3d 22e0 e4bd 3391 43be
000003c0: cc2b fcbc d0d6 2bbe 582b 33be ae30 cabd
000003d0: 41f8 57be 3d36 fd3d ded2 373d f563 f4bd
000003e0: a5e2 47be 99b3 bc3d 3d52 513e 454c 513e
000003f0: 6193 c83d 5009 08be 0548 9d3d 94ec 33be
-0.055246286 0.12957923 0.2484412 0.12630227 -0.17582421 0.027179912 -0.25979772 -0.2296885
0.12798943 -0.07503659 -0.007350125 0.20459774 0.17037585 0.019600706 0.055344358 -0.14991304
-0.25256103 -0.10494002 0.23206386 0.071313776 -0.07852682 -0.14957534 0.13720241 0.123101056
-0.06925279 -0.06498209 -0.058958143 -0.05223201 0.050791334 -0.19666883 0.20791136 -0.26871067
-0.22062558 0.030656891 -0.0015722199 0.17659566 0.15194751 0.21137096 0.03228794 -0.051526353
-0.23952954 0.03761189 0.2522081 -0.11695543 0.1609687 0.1537651 -0.07166027 -0.11981897
-0.13924424 0.17375225 0.1600085 -0.12308938 0.003814535 0.08014085 0.18579926 0.16154528
0.25479338 0.1525184 -0.14932758 -0.19459067 0.12343794 0.17641158 0.23575899 -0.113608144
-0.06949374 0.213653 -0.084316365 0.21193781 0.18127905 -0.1384021 0.054366708 -0.2518465
0.15106922 0.044233263 -0.18849522 -0.06438087 0.09786707 0.23002972 -0.112732224 0.11898931
0.010732961 -0.05822265 0.15526013 -0.055259127 0.07643406 -0.111470215 -0.26525587 -0.104513496
-0.084803395 0.1502574 -0.24035542 0.023233842 0.25489444 0.011291545 0.17875539 -0.14718784
-0.14649443 0.016756305 0.12767619 0.19181493 -0.0046555875 0.16379912 0.14740351 0.23298204
0.2280265 0.11893389 0.00071641756 0.22007753 0.095484674 -0.15623991 0.22985612 -0.17399707
-0.08811953 0.15179569 0.039040428 -0.13994402 0.030595046 -0.22778873 0.23757976 0.20250939
-0.2195753 0.21847828 -0.22385322 -0.023550034 0.13498251 -0.23661715 0.17424116 0.06309904
-0.22437538 0.23514329 -0.18624607 -0.00463485 0.016253015 -0.16730925 -0.1849406 0.07229963
-0.21190982 -0.12992501 0.0989283 0.017878985 0.2464353 0.049921762 -0.024500286 -0.058137983
0.0021283529 0.21202727 0.12418889 0.16733535 0.17304109 -0.01074667 -0.1435299 0.17146002
0.21974331 0.07379294 -0.108924314 -0.075073294 -0.07148192 -0.10136473 -0.2738927 -0.017332647
-0.0019572778 -0.09642476 -0.05312643 0.05794044 0.077150226 -0.22776742 0.0916522 -0.08510891
0.112285234 -0.21999237 0.21767631 -0.22449748 -0.15377954 -0.023589963 0.08765204 0.026535913
0.038230225 -0.16446486 -0.11487071 0.2329773 -0.04765499 -0.10200509 0.05526976 0.16969652
-0.09298287 0.0019121512 -0.055555742 0.18868393 0.23614702 0.101692684 -0.23680943 0.018212209
0.1111299 0.07709584 -0.11264754 -0.080953434 0.009735935 0.030732064 0.18716276 -0.13571392
0.16899087 0.054095626 -0.12269783 0.18450941 -0.21046315 -0.13275939 -0.1824176 -0.23039241
0.16912828 0.23058839 0.2115711 0.071499 0.17011978 -0.012895025 -0.0838812 0.00017442918
0.0314581 0.06624049 0.23489325 0.18698153 -0.060543854 -0.20688878 -0.13036153 -0.19823283
-0.065453835 0.10940629 0.110575706 0.051228046 -0.15591809 -0.16839789 -0.23306964 0.070738636
0.16657668 0.18789119 -0.04605983 0.056053415 -0.20808737 0.122625366 -0.111755624 -0.19098358
-0.030782603 -0.16781163 -0.17497003 -0.09872566 -0.21090795 0.12363861 0.044878833 -0.11933128
-0.19520052 0.09213943 0.20441528 0.20439251 0.09793735 -0.13284802 0.07679752 -0.17570716

convs.1.nn.3.bias f4 [16]
00000000: aa23 793e 774e 97bc 3678 b8bd 1548 8abc
00000010: a26f 39be fb5d ed3c c6e1 0dbe 5bed d5bd
00000020: 31ca d23d 94bc 633c 9057 a33d 38c6 303e
00000030: a74f 4f3c 2e16 b03d ca00 553e e691 613e
0.24330011 -0.018470032 -0.090073034 -0.016880075 -0.18108991 0.028975477 -0.13855657 -0.104456626
0.10292471 0.013899941 0.079756856 0.17263114 0.012653268 0.085979804 0.20801082 0.22028312

convs.1.nn.4.weight f4 [16]
00000000: fe61 7e3f ff98 803f ae24 7f3f 50c4 813f
00000010: c719 803f 69cd 823f 27c0 7f3f 5ce2 7c3f
00000020: 075b 7b3f b82b 813f 228e 803f 713d 813f
00000030: 817f 753f ce95 783f a97e 803f 4f68 813f
0.99368274 1.0046691 0.99665344 1.0138035 1.0007867 1.0218936 0.99902576 0.98782897
0.9818577 1.0091467 1.0043375 1.0096875 0.9589768 0.97103584 1.0038654 1.0109957

convs.1.nn.4.bias f4 [16]
00000000: e611 e7bb a81a 823b 4cef 98bb 91db 693c
00000010: 95eb ba3a a945 b63c f302 67ba 11eb 1dbc
00000020: 69ca 99bc c57f 133c 9d0c 873b 3236 263c
00000030: 32da 2bbd 5831 efbc 6d82 d23b e1a9 523c
-0.007051694 0.003970463 -0.0046671983 0.01427354 0.0014260883 0.022250013 -0.000881239 -0.009638564
-0.018773274 0.009002631 0.0041213767 0.010144757 -0.041956134 -0.029198334 0.0064242394 0.012857885

convs.1.nn.4.running_mean f4 [16]
00000000: d4b4 a43e e4a5 86be 4ed6 c23d 22e2 ea3e
00000010: 1cf3 813c f3e2 96bd f9c8 f53e 1384 8bbd
00000020: d214 e6bd b231 3f3e c556 fcbd 859d 933e
00000030: dc4e 35be d21a d83e e5b8 783d dcb9 56bc
0.3216921 -0.2629844 0.095135316 0.4587565 0.015862994 -0.07367506 0.48004892 -0.068123005
-0.1123444 0.18671301 -0.123212375 0.28831115 -0.17705864 0.42207962 0.060723204 -0.013105836

convs.1.nn.4.running_var f4 [16]
00000000: a2a8 e63d 7f68 8a3d 9819 cd3d 32a0 b63d
00000010: 0e53 0f3d 5d3c b83d 00d7 0a3e ed31 c83c
00000020: 704d b63d b858 393d 176e 283c 9e89 1b3e
00000030: 83d1 9c3e cea4 f43c 416b bb3c 5fb3 ee3d
0.11262633 0.06758212 0.10014647 0.089172736 0.034991316 0.089958884 0.13558578 0.024437869
0.08901489 0.045250624 0.010280154 0.15189216 0.30628595 0.029863741 0.022878291 0.11655306

convs.2.nn.0.weight f4 [16, 16]
00000000: 9fc5 3cbe 8c12 ddbd 2552 53bd 4f54 b23d
00000010: dad8 3fbe 042d 55be a42d 82be 3099 363e
00000020: 864f d63d 12a6 45bd d389 8e3e dc31 9c3d
00000030: ee48 e43d 09a5 7b3d 2ee3 1fbd abb2 01be
00000040: e515 143e 0a5c fe3d b6ca d3bc edd1 47be
00000050: 8c65 49be 66a8 1c3e 3b0b ebbd c2ce 1d3e
00000060: 787d 5b3e 23db 1b3e 5f5d aebd 35f3 273e
00000070: 0618 603e 4c13 1f3e cab7 89bc 3222 c83d
00000080: bb74 fabd 0aa4 fdbd be3f 03be f138 d9bd
00000090: 2201 b93d 9044 513e 049e 16be 0fd9 07bd
000000a0: ea80 493e b48f 183d c0f5 a73c dde8 0f3e
000000b0: 6918 393c c38f 0fbe 293b 283e 4baa 46be
000000c0: 7bb6 2a3e 86ce cf3d a8f1 50bd 3bfc 28be
000000d0: 2259 c83d 9560 843b a74c 08be 4540 053e
000000e0: 5957 7b3e 876b 283c 54e3 50bd 5a64 743d
000000f0: a91d 50be d0fe 1f3e 0f6b 003e f854 223e
00000100: 658f 1ebe de92 bd3c b9b3 eebd 4df1 7ebe
00000110: 3585 04be 3fff 533e 0ac7 503e b082 503e
00000120: 2ecc 00be 0f50 a1bd 37a3 9d3d 29c7 6c3e
00000130: 842e 363e 209c 843d 4ca3 723e 9f02 c0bd
00000140: f976 5d3e e99b c5bd aa97 a7bd c0ae e23d
00000150: 0be4 143e 2b22 edbc e401 30be 57a4 06bd
00000160: d1e2 2a3e 7e17 50be 6de1 53bd 7221 ef3d
00000170: 59f0 e83d 9b32 103e 6f89 e43d dfe9 80bc
00000180: b6ae e7bd d1f5 023e 8a0d 42be e88d 033e
00000190: 1309 48be c803 493d 0f37 70be 42da dd3b
000001a0: aead e73a ad49 9a3d c071 41bd 6daa 093e
000001b0: 6e09 c7bd 941a 3dbe 935a ca3d 9d5f 20be
000001c0: c4cb 4dbe ac6b 773e a649 543e 01a3 56bd
000001d0: 0dd0 27bd 6c3a dfbd 65f1 92bd 24e6 1f3d
000001e0: bc35 febd 5696 d7bc 358a ff3d 6119 6abd
000001f0: 3193 b63d 64d6 8ebc eedb 103d 30a1 8c3d
00000200: 79be d2bc 49ce 98bd a34c 81bd 0a8b 753d
00000210: e071 6c3e 32a3 103e 0781 583e 319f 3a3e
00000220: cc76 4abe fd65 2ebd 2ba3 06be 794a 32be
00000230: 5cbf 5bbd 35c6 87be c636 ea3d 22f6 87bd
00000240: 7791 96bd 87c3 0cbe 184b f93d 35f0 6ebe
00000250: 5785 1b3c f547 c0bd 2d15 48be f8fb 35be
00000260: 76a4 323e 697e 7c3e 7ee1 92bd 23a2 343e
00000270: 79d0 bebd fac0 f03d cfe1 603c 860d e8bd
00000280: a567 19be da96 803d d546 c93d 2d50 07be
00000290: 4962 02be 0268 a6bd 966d 12be 48e9 0fbd
000002a0: afe7 2dbe ba95 35bd 8cf8 e7bd e50c 553e
000002b0: f0e6 47be 9c4c 293e 4959 8d3d eb7f 433e
000002c0: b821 703d 47a6 f93d 7321 5a3e e376 b53d
000002d0: 8786 403e 3ef8 46bd 61b6 403e ae60 543e
000002e0: e4c2 f6bd 5749 cdbd be5b dbbb 5d2a 433d
000002f0: 0a32 9abd 14ae 523e 0673 313e 7247 493e
00000300: 940b 34be f131 76be c04d d7bd d085 63be
00000310: 132b 813d 0316 133e e438 babd ae7c 3fbe
00000320: 4e1c 85bd 0f6b 83be f189 44be 820d 04be
00000330: cdfd 073e 1a5d 6f3e dc0b febd 4a27 9f3a
00000340: 6a32 83be f72f 813e a73e 2ebe 9a97 843d
00000350: c703 d9bd 87c4 03bd 3d29 56be 96fe 323e
00000360: 119c f53d 74b2 093e 0816 b73d e544 77be
00000370: d272 3e3e 4a69 5d3e 07b4 3abe 1029 733e
00000380: ff3c 85bd eb72 113e cfff eebd 5197 4f3e
00000390: 746a e43d b689 5a3e 1189 383d 4bde 39be
000003a0: f2ba 39be 61c4 063e 1051 163e ed34 e9bc
000003b0: 212d 0fbe cc3c af3c f2a4 673e 238b 613e
000003c0: cfc1 50be 38bc 10be 54b0 853d a1b4 6b3e
000003d0: 2205 45bc 4c39 5b3d fce8 403d ae2e 513d
000003e0: 1855 34bd e96d 103e a69c b2bb fc7e bc3d
000003f0: 96b3 323d fb6c bdbd 7c6e 623e e3c5 623e
-0.18434761 -0.10794553 -0.05159201 0.08707487 -0.18735066 -0.20817953 -0.25425446 0.17831874
0.10464387 -0.04825408 0.27839527 0.076266974 0.11146723 0.061436687 -0.039035015 -0.12665813
0.14461477 0.12419899 -0.025853496 -0.19513674 -0.19667643 0.15298614 -0.114767514 0.15410903
0.21434581 0.15220313 -0.08513903 0.1640137 0.21884164 0.15534705 -0.01681127 0.09772147
-0.12229296 -0.123848036 -0.12817284 -0.10606564 0.09033419 0.20436311 -0.14708716 -0.033165988
0.19678083 0.03724642 0.020502925 0.14053674 0.011297324 -0.14019684 0.16428818 -0.19400899
0.16671173 0.10146813 -0.05101171 -0.16502468 0.09782626 0.004039834 -0.1331049 0.13012798
0.24545039 0.010279543 -0.050998047 0.059666015 -0.20323814 0.15624547 0.1254084 0.15852726
-0.15484388 0.02314132 -0.11655373 -0.24896736 -0.1294144 0.20702837 0.20388427 0.20362353
-0.12577888 -0.07876598 0.076971464 0.23122849 0.17791182 0.06475091 0.23695105 -0.093755
0.21627416 -0.09648878 -0.081832245 0.11068487 0.14540116 -0.028946957 -0.17188221 -0.03287157
0.16688086 -0.20321462 -0.051728655 0.11676301 0.11373968 0.14081804 0.11159026 -0.015736518
-0.1131262 0.12789084 -0.18950477 0.12847102 -0.19534712 0.04907587 -0.23458503 0.006770403
0.0017675662 0.07533584 -0.04722762 0.13443919 -0.097185954 -0.1846717 0.09880557 -0.15661474
-0.20097262 0.24162167 0.2073122 -0.052401546 -0.040969897 -0.10899815 -0.071749486 0.03903784
-0.12412593 -0.026316803 0.12477533 -0.05715311 0.08914793 -0.017436214 0.03536599 0.068666816
-0.02572559 -0.07461221 -0.063134454 0.05994705 0.23090315 0.14124754 0.2114297 0.18224789
-0.1977188 -0.042577732 -0.13148181 -0.17411222 -0.05364929 -0.26518407 0.114362285 -0.06638743
-0.07351964 -0.13746463 0.12172526 -0.23333819 0.00949224 -0.09388725 -0.19539328 -0.177719
0.1744555 0.24657597 -0.071719155 0.17639975 -0.09317107 0.11755557 0.013725712 -0.113307044
-0.14980944 0.06278773 0.09827963 -0.13214178 -0.12732805 -0.08125307 -0.14299616 -0.035134584
-0.16982912 -0.044332244 -0.113267034 0.208057 -0.1952169 0.1653313 0.069017954 0.19091766
0.058625907 0.12189918 0.21301822 0.088605665 0.18801318 -0.048576586 0.18819572 0.20740005
-0.12048891 -0.10023754 -0.006694286 0.047647823 -0.075290754 0.20574218 0.17329034 0.1965616
-0.17582542 -0.24042489 -0.105128765 -0.22219014 0.06307044 0.14363866 -0.09092882 -0.18699905
-0.06499539 -0.25667617 -0.19193245 -0.12895778 0.13280411 0.23375359 -0.12404606 0.0012142446
-0.256244 0.25231907 -0.17016087 0.06474228 -0.105964236 -0.032169845 -0.20914169 0.1747993
0.11992658 0.1344698 0.08939749 -0.24147375 0.18598488 0.21622196 -0.18232737 0.23746133
-0.06505775 0.14203994 -0.11669885 0.20272566 0.11153117 0.21341595 0.04505259 -0.18151204
-0.1813772 0.1316085 0.1467936 -0.02846762 -0.13982059 0.021391295 0.22621515 0.22025733
-0.20386432 -0.141343 0.065277725 0.23018123 -0.01202515 0.05352144 0.04709719 0.051069908
-0.044026464 0.14104427 -0.005450803 0.09203908 0.043628298 -0.09249302 0.22112459 0.221458

convs.2.nn.0.bias f4 [16]
00000000: 8454 81be 9de8 66be 7cf7 5ebe 0ea8 32be
00000010: 60dd 7a3e 2297 68be 9bb2 4d3e d844 99bd
00000020: 0e31 15be f06e 3c3d 91ff 2cbe 9c19 6a3e
00000030: 89d9 6ebe 3140 adbd 03de 3dbe aaf7 6bbe
-0.25259793 -0.22549672 -0.21774095 -0.1744692 0.2449851 -0.22713903 0.20087664 -0.07483834
-0.14569494 0.046004236 -0.16894366 0.22861332 -0.2332517 -0.08459509 -0.18541722 -0.23043695

convs.2.nn.1.weight f4 [16]
00000000: f035 7e3f 359e 7b3f 2949 803f da8f 7d3f
00000010: 851c 7f3f 9601 813f e929 803f 64ac 7d3f
00000020: a638 803f e4d7 803f 6e07 803f 7f57 7f3f
00000030: 261c 823f 793f 803f 6d23 803f 624d 7e3f
0.9930105 0.9828828 1.0022327 0.99047625 0.9965289 1.0078609 1.001279 0.9909117
1.0017288 1.0065885 1.0002267 0.99742883 1.016484 1.001937 1.0010811 0.99336827

convs.2.nn.1.bias f4 [16]
00000000: 6be7 debb ae43 8fbc 399e 133b 39a7 1fbc
00000010: b989 43bb 1730 013c 8bb4 e53a a03c 13bc
00000020: 430b ed3a c573 dd3b f1ac 5f38 2e03 22bb
00000030: d709 823c 65c3 f23a 93da bf3a 0d2c b5bb
-0.0068024895 -0.017488327 0.0022524728 -0.009744459 -0.0029836728 0.007885001 0.001752512 -0.008986622
0.0018085021 0.0067581856 5.3328407e-05 -0.0024721134 0.015873833 0.0018521367 0.0014637284 -0.005528933
