experiments/results/SHRIROOK/runs/2026-02-05T16:59:13-gin-shrirook/seed_7/best_weights.pt (torch, 119371 bytes, 180 tensors)

conv1.nn.0.weight f4 [16, 1]
000000 9d d8 2a be f2 66 29 3f 32 2e 70 3f 88 5f 07 3f
       -0.16684194 0.6617271 0.9382049 0.52880144
000010 8a 09 22 3f 85 a4 41 be 5a 4b 62 bf 20 cd 4d bf
       0.63295805 -0.18910415 -0.8839623 -0.8039112
000020 ac d6 38 bf 62 00 3a 3f b2 56 0f 3f 2d 9f a9 bd
       -0.72202563 0.72656834 0.5599166 -0.082823135
000030 30 d0 26 bf 12 a7 2b 3f 60 6b 08 bf 46 75 49 bf
       -0.6516142 0.67051804 -0.5328884 -0.7869457

conv1.nn.0.bias f4 [16]
000000 4f 0e 34 bf ec cd 93 3e a8 7c b2 be 48 c6 2d be
       -0.70334333 0.28868043 -0.3486073 -0.1697017
000010 0a bb 56 bf 26 12 3f 3f e0 bd 25 3f 18 78 78 3e
       -0.8387915 0.7463707 0.6474285 0.24264562
000020 4b dd f8 3c 80 46 ba bd 97 7b c1 bc f4 15 8b 3e
       0.030378958 -0.09095478 -0.023618503 0.27165186
000030 d0 82 35 3f 92 b6 4f 3f d8 16 b4 3e 90 28 2c bf
       0.7090273 0.81137955 0.35173678 -0.67249393

conv1.nn.1.weight f4 [16]
000000 f8 79 80 3f c3 17 80 3f 96 f3 7f 3f 60 4c 7f 3f
       1.0037222 1.0007252 0.9998106 0.99725914
000010 b8 70 80 3f 9f 99 7f 3f 58 34 7f 3f 52 45 7f 3f
       1.0034399 0.9984378 0.99689245 0.9971515
000020 26 7b 7f 3f ca 40 7f 3f 2f 66 80 3f 01 33 80 3f
       0.99797285 0.99708235 1.0031184 1.0015565
000030 ff 56 7f 3f 1d 3e 80 3f ff 64 80 3f d6 37 7f 3f
       0.9974212 1.0018955 1.0030822 0.99694574

conv1.nn.1.bias f4 [16]
000000 8e b8 7e 3b 2d 82 25 3a 1a 06 01 b9 e1 5a 28 bb
       0.0038867327 0.0006313648 -0.00012304672 -0.0025688934
000010 d3 dd 53 3b b0 08 f4 ba fb db 57 bb 4b 2a 47 bb
       0.0032328262 -0.0018618312 -0.0032937515 -0.0030390199
000020 c8 df 18 bb e9 6a 33 bb af af 41 3b 8f f2 ea 3a
       -0.0023326743 -0.0027376956 0.0029554178 0.0017925071
000030 1b 37 37 bb 1f ab e0 3a 12 4e 56 3b 16 16 56 bb
       -0.002795643 0.0017140842 0.0032700342 -0.0032666973

conv1.nn.1.running_mean f4 [16]
000000 ec 4c 02 c0 7f 5e b2 40 1b a4 e4 40 ed b9 81 40
       -2.035945 5.574035 7.1450324 4.053946
000010 d5 ef 86 40 5f 98 43 bf fc 36 cd c0 24 b5 c5 c0
       4.2167764 -0.76404375 -6.412962 -6.178362
000020 2e 92 b7 c0 22 cb b6 40 8b 5a 8e 40 89 9d c7 be
       -5.736594 5.7122965 4.4485526 -0.38987377
000030 85 db 8f c0 9d 57 c5 40 2d e4 79 c0 e0 a7 de c0
       -4.495547 6.166945 -3.9045517 -6.9579926

conv1.nn.1.running_var f4 [16]
000000 0d 62 db 3c b7 b0 d7 3e 19 ca 58 3f 44 bd 89 3e
       0.026780153 0.4212701 0.84683377 0.2690221
000010 e4 57 c5 3e dd ea 0c 3d 4f 72 40 3f 4d 2b 1f 3f
       0.38543618 0.03440367 0.7517442 0.62175447
000020 1d 65 00 3f fe 03 02 3f fb 6c 9a 3e fa 3f d8 3b
       0.50154287 0.5078734 0.3016127 0.0065994235
000030 e3 25 d1 3e 81 75 dd 3e 67 e0 8b 3e 9f 85 18 3f
       0.40849218 0.4325371 0.27319643 0.5957889

conv1.nn.3.weight f4 [16, 16]
000000 32 c9 e2 bd 52 b3 ae 3c 89 97 27 3c 28 93 44 3e
       -0.11073531 0.021325741 0.010229 0.1919676
000010 0f 62 b9 bd 15 8b 49 3e 34 8a 41 3e c7 11 5d be
       -0.09051906 0.19681962 0.18900377 -0.21588813
000020 98 20 2f 3e a5 e8 1a be 9b 29 e2 bc 29 23 01 39
       0.17102277 -0.1512781 -0.02760773 0.00012315497
000030 98 19 98 3c 76 2f 5a 3e 09 08 45 be 55 d6 2e be
       0.018566892 0.21307167 -0.19241346 -0.17073949
000040 69 f8 33 bc 08 84 18 bd ed 24 6f be f2 8e c4 3d
       -0.010984519 -0.03723529 -0.2335393 0.09597577
000050 1e 63 5e 3c d0 95 5f 3e b4 2e 11 be 48 72 33 be
       0.013573436 0.21834493 -0.14177972 -0.17524064
000060 63 b2 d3 3d 50 c0 58 3e e8 fe 41 3e a8 e9 12 be
       0.10336759 0.21167111 0.18944895 -0.14346945
000070 75 21 56 be 5e e8 28 be 51 f6 3f 3d 66 66 24 be
       -0.209112 -0.16494891 0.046865765 -0.16054687
000080 f6 3a 52 be fa 72 05 3e 34 d9 33 3e 2a 78 77 3e
       -0.20530304 0.13032141 0.17563325 0.24166933
000090 60 b7 81 bc 0b 40 5e 3d 67 07 35 bd 76 8a 2a 3e
       -0.01583451 0.054260295 -0.044196513 0.16654381
0000a0 28 dd 1a be be 8f 60 3e d4 68 32 3e 2d ca 49 3c
       -0.15123427 0.21929833 0.17422801 0.012316269
0000b0 e5 0c 45 3e fb 8e 62 3e 66 b5 c6 bd 3d 84 0b be
       0.192432 0.22124855 -0.09702568 -0.13624664
0000c0 b8 b4 7d be 94 60 df bd c7 bb f6 bd c7 31 ac 3d
       -0.2477597 -0.10907093 -0.120475344 0.08407932
0000d0 4e d8 cb bd 0e c6 3f 3c e1 b6 a7 bd 89 9f 53 be
       -0.09953366 0.011704935 -0.08189178 -0.20666327
0000e0 17 b6 46 3e b5 00 55 3e 0f 28 8a bd d3 1e b7 3c
       0.194054 0.20801051 -0.06745922 0.022353565
0000f0 cd cb 5d 3d 75 5f 4d be 25 0e f2 3d ad 43 47 3e
       0.054149438 -0.20055945 0.11819104 0.1945941
000100 f7 64 13 3e 10 bc 72 be 9f 60 84 3d 7a df 20 be
       0.14393984 -0.23704553 0.064637415 -0.1571025
000110 8d 05 94 bd 3c b2 45 3e 9e c2 5f 3d 03 20 52 bd
       -0.07227621 0.19306272 0.05462896 -0.05130006
000120 ae 6c 02 be 42 71 4d 3e c7 12 db bd 64 2e 83 bd
       -0.1273677 0.20062736 -0.10696941 -0.06405333
000130 6a 80 cd bd 1d 1d 81 3d 88 4b 2d 3e 7f c1 3c 3e
       -0.10034259 0.06304381 0.16923344 0.18433188
000140 1b 2a 90 bd c9 52 be 3d 29 1e fc bc 0b 37 6b 3e
       -0.07039281 0.09293134 -0.0307761 0.22970216
000150 81 1f 62 3d 67 dc 31 3e 66 3f d0 bd c5 cf db bd
       0.055205826 0.17369233 -0.10168342 -0.10732988
000160 9c bf ee bd 64 b5 3e 3e 27 e4 41 3e 43 a8 97 bd
       -0.1165764 0.18623883 0.1893469 -0.0740514
000170 13 7b 17 be c8 f9 24 be d4 c0 73 be a0 ba 1a 3e
       -0.14793043 -0.16110909 -0.23804027 0.15110254
000180 c0 50 30 be f8 98 bc 3d 4f 91 be 3d 1b 25 62 bd
       -0.17218304 0.09208864 0.09305059 -0.055211168
000190 73 47 01 bc c6 be ec bd 0b d9 55 be b6 7f f2 bb
       -0.00789057 -0.11559825 -0.20883577 -0.0074004782
0001a0 fa 10 39 3d 21 a1 68 be 20 a2 74 3e f7 25 c5 3d
       0.045182206 -0.22717716 0.23889971 0.09626382
0001b0 5c a6 67 be ff 62 5f 3d d6 93 3d be ac 39 13 3e
       -0.22622055 0.05453777 -0.18513426 0.14377469
0001c0 65 dd 93 3d 38 7a 55 be 5a bb 37 bd bb 8d d9 bd
       0.07219962 -0.20847404 -0.044856407 -0.10622736
0001d0 47 df 55 3e 49 96 26 be 74 9b c8 3d a1 7c 45 bd
       0.20885955 -0.16268267 0.09795275 -0.04821456
0001e0 bd 72 39 be 2c ea 10 3d 32 d1 84 3c e2 8a d6 bc
       -0.18110175 0.035379574 0.016213033 -0.026189271
0001f0 ec 6c 4a be f5 e6 4a 3e 11 3d 3b 3e e8 a9 5d be
       -0.19768113 0.19814666 0.18285014 -0.21646845
000200 2d 2e 19 3b d3 02 00 be b0 8c 5d be a9 cd 5f bd
       0.002337347 -0.12501077 -0.216357 -0.054639492
000210 c9 1d 7d 3e 87 22 48 3d 73 b0 b8 bd 9b dd 3b bd
       0.24718393 0.048861053 -0.0901803 -0.045865636
000220 8b 24 46 3e da 8b 8a bb 8f 88 72 be 32 9b 19 3e
       0.19349878 -0.0042280974 -0.23684905 0.15000609
000230 2f 31 64 3e d2 d3 a0 3c aa 29 04 be 18 6d 74 be
       0.22284387 0.019632254 -0.12906519 -0.23869741
000240 57 89 06 be 2f a4 30 3e 5c 13 b7 3d 41 f7 51 3e
       -0.13138328 0.17250131 0.089392394 0.20504476
000250 55 5d b9 bd e5 15 1b 3d 63 e7 16 be 5f 09 1e 3c
       -0.09051005 0.037862677 -0.14736705 0.009645789
000260 cc e8 6b be 17 37 79 3d 49 ab c8 3d 74 1d 13 3e
       -0.23038024 0.060843553 0.09798295 0.14366704
000270 7f 1b 6d be 71 99 da bd 79 2b 4d be b7 3a 66 be
       -0.2315502 -0.10673798 -0.20036115 -0.22483335
000280 32 61 7e 3e 3a 5f df 3c 9f 96 5a 3e 16 a4 7b be
       0.24841765 0.027267087 0.2134652 -0.24574313
000290 ea 45 3f be d5 15 1f be ca c9 42 3e dc 50 75 3c
       -0.18679014 -0.15535672 0.19022289 0.014972892
0002a0 74 c6 30 be d6 1a 54 be aa 33 83 3d 85 09 a1 3d
       -0.17263204 -0.20713362 0.064063385 0.07863144
0002b0 98 3f df 3d 71 41 56 3e 91 dd 9d bd 2a 90 17 be
       0.109008014 0.20923401 -0.07708276 -0.14801088
0002c0 3f 9f a8 3c b6 dd 44 3e ee 39 02 be c4 10 4e 3e
       0.020583747 0.19225201 -0.12717411 0.20123583
0002d0 c5 e8 e2 bd 38 98 e8 bd 4a a3 d8 3c ff 6a 0f be
       -0.110795535 -0.113571584 0.02644505 -0.1400566
0002e0 76 7a 5c bc f2 98 09 3e cb 01 6b be 7d 2a 03 3d
       -0.013456931 0.1343725 -0.22949903 0.03202294
0002f0 33 25 cd bd c4 be 15 3d c6 fb bd bc 6b df 55 3b
       -0.10016861 0.03655888 -0.023191344 0.0032634388
000300 e5 73 72 bd c4 e4 56 3e 20 26 e2 bd b9 62 31 3e
       -0.059192557 0.20985705 -0.11042428 0.17322816
000310 6d 5a 11 be eb 57 22 be 14 91 87 bc c8 70 45 3e
       -0.14194651 -0.1585385 -0.01654867 0.19281304
000320 03 7c 80 bd a1 59 3e be 5d d1 64 3e c9 ea 1d 3d
       -0.06273653 -0.18588878 0.22345491 0.038553987
000330 cc a3 30 be 68 9f 42 bd 51 29 a2 bd 39 42 20 3e
       -0.17249984 -0.047515303 -0.07918037 0.15650262
000340 79 64 7c be 6a 0b 20 3d cb 94 91 3d 04 bd 59 be
       -0.24647702 0.039073385 0.07108458 -0.2126351
000350 fb a9 1f 3e 8a 50 e6 bc ac 25 72 3e b4 50 59 3e
       0.15592186 -0.028114576 0.23647183 0.21222192
000360 46 48 3c 3c fe c4 45 be f2 05 70 3e 32 38 12 bd
       0.011491841 -0.19313428 0.23439768 -0.035698123
000370 0c 80 1e 3e 71 d2 d0 3d 21 4b 78 be c4 71 2d 3e
       0.15478534 0.101963885 -0.2424741 0.1693793
000380 a5 da cc 3d 9c 4f e8 bd 18 66 e2 3d 1b 3d 60 3c
       0.10002641 -0.11343309 0.11054629 0.013686444
000390 78 37 54 3e 17 32 36 bd 9c 46 e8 bd a4 b4 6e 3b
       0.20724285 -0.044481363 -0.11341593 0.0036423588
0003a0 f5 86 90 3d e5 2f a5 3c b4 30 b7 3d 49 63 77 3e
       0.07056991 0.02016444 0.08944836 0.24158968
0003b0 89 dd f8 bd 53 b7 72 be 41 c1 11 be a4 8a 11 be
       -0.121516295 -0.23702745 -0.14233877 -0.14213043
0003c0 db 0f eb bd 7e dc fa bc 28 26 64 bc 0a a4 c4 3d
       -0.114776336 -0.030622717 -0.013925113 0.096016005
0003d0 4a fb 75 be 38 fd 8d 3c db 9e b7 bd 1a d1 e0 bd
       -0.2402164 0.017332658 -0.08965846 -0.10977383
0003e0 49 03 0f 3e af 85 28 be 7f 72 77 3d 8d 86 c4 3d
       0.13966097 -0.16457246 0.060411926 0.09595976
0003f0 52 e6 a2 3d 09 78 bf bc 9e a0 57 3e 0a a0 8c 3d
       0.07954086 -0.023372667 0.21057364 0.068664625

conv1.nn.3.bias f4 [16]
000000 24 f7 04 bd e4 72 71 be c0 0c 1e 3e 25 81 11 be
       -0.032462254 -0.23578984 0.15434551 -0.14209421
000010 59 a5 4a be 55 7b 79 bd e5 0c 03 3e 04 a1 49 be
       -0.19789638 -0.060908634 0.12797888 -0.19690329
000020 40 b2 04 3d aa 25 03 3e c7 f3 0f bc d7 3d 01 be
       0.032396555 0.12807336 -0.008786148 -0.12621246
000030 0a 78 e3 3d db 19 82 3c d1 d2 51 be bc b1 d9 bd
       0.1110688 0.01588147 -0.20490576 -0.10629603

conv1.nn.4.weight f4 [16]
000000 eb 4e 81 3f 24 f5 7c 3f 77 f0 7d 3f 48 55 81 3f
       1.0102209 0.98811555 0.99195045 1.0104151
000010 57 ce 80 3f 2d 87 81 3f 79 5e 7d 3f 0b e1 80 3f
       1.006297 1.0119377 0.9897228 1.0068678
000020 d6 6f 81 3f 23 91 81 3f 63 1b 81 3f d3 10 81 3f
       1.0112255 1.0122417 1.0086483 1.0083259
000030 b4 bd 7c 3f 65 bc 7d 3f 3d 10 7e 3f a1 73 80 3f
       0.98726964 0.9911559 0.9924353 1.0035287

conv1.nn.4.bias f4 [16]
000000 03 1d 27 3c 1d 61 44 bc 3e 89 01 bc eb 78 29 3c
       0.010199788 -0.011986044 -0.007906256 0.0103437705
000010 3d 00 dc 3b 62 e5 47 3c 46 13 2a bc fa d2 d2 3b
       0.0067138956 0.012200685 -0.010380572 0.006433842
000020 04 35 38 3c ea b7 49 3c 3f 9b 11 3c 3c 3f 04 3c
       0.011243109 0.012311915 0.008887111 0.008071717
000030 1a aa 54 bc 3e 5c 15 bc fe 41 ec bb dd d5 48 3b
       -0.0129800085 -0.0091162305 -0.0072100153 0.003064505

conv1.nn.4.running_mean f4 [16]
000000 b9 16 00 bc 7f 02 dc be 8a bc 1c 3f c7 d5 87 be
       -0.0078179175 -0.42970654 0.6122519 -0.26530287
000010 8e 1d f8 bd 6a 88 41 bd 19 23 b2 bd 1f 4e c2 be
       -0.12115012 -0.047249235 -0.086981006 -0.37950227
000020 db c0 be bd 52 4e 0e be 05 0d cd bc fd 0d 6c be
       -0.09314128 -0.13897064 -0.025030622 -0.23052211
000030 6f db ba 3d 00 7e 65 3e 7c f5 6c be 76 06 ed bd
       0.09123885 0.22411346 -0.2314052 -0.11573498

conv1.nn.4.running_var f4 [16]
000000 63 27 a6 3c 3d 16 98 3d dc c2 f4 3e 2c 05 0e 3d
       0.020282453 0.074261166 0.47804916 0.0346729
000010 0b d7 d7 3d 5c 40 99 3e 62 e8 2c 3e d5 07 aa 3d
       0.10539063 0.29931915 0.16885522 0.08302275
000020 a1 88 75 3d 15 0e fa 3e 38 d7 3b 3c 6f ab 23 3d
       0.059944753 0.4883887 0.011464886 0.039958414
000030 7d 48 a4 3c 4b 3d f6 3a c1 4a 65 3c d4 47 c2 3d
       0.020054096 0.0018786577 0.0139948735 0.094863564

convs.0.nn.0.weight f4 [16, 16]
000000 01 00 47 be e2 4c 83 bc 8e 15 2e 3e 93 c4 89 3d
       -0.19433595 -0.016027872 0.1700041 0.06726947
000010 3c 1c dd 3d 1c 62 4f be 0d 4c 54 3c 67 74 17 be
       0.10796401 -0.2025227 0.012957585 -0.14790498
000020 7b 1b 96 bd d1 8b 0e 3e ea 22 ac 3d 42 8d 15 3e
       -0.0732946 0.13920523 0.08405097 0.14604667
000030 0c ca 22 3d 68 d4 45 be 4a 81 f5 3d bd ed 60 be
       0.03974347 -0.19319308 0.119875506 -0.2196569
000040 a8 33 52 3d 36 34 ef bb be 90 91 bb c1 db 80 bc
       0.051318794 -0.007299925 -0.0044423034 -0.015729787
000050 13 1a 2b be 8d e0 30 be f5 e7 08 3e 1d e7 1c 3e
       -0.16709165 -0.1727316 0.13369735 0.15322538
000060 55 46 cd 3c ce 16 12 be 61 ae 1e be 49 0e 16 3d
       0.025057951 -0.14266512 -0.15496208 0.036634717
000070 aa 7e d8 3d d4 4e 3c 3e c6 44 6d be bd af 72 3e
       0.10571034 0.18389446 -0.23170766 0.23699851
000080 16 58 59 bc fa ec 1b be c8 ce 18 be c8 bc 33 3c
       -0.01326563 -0.15227118 -0.14922631 0.010970302
000090 ed d6 2f 3e 41 de 43 be 9f e5 7b be e9 14 39 bd
       0.17171831 -0.19127752 -0.24599312 -0.045185957
0000a0 97 7b 8e bd d2 28 64 be 41 bc 1d 3d 98 96 53 3e
       -0.06957167 -0.22281197 0.03850961 0.20662916
0000b0 fe fe 52 3e 3a 5b 05 3b db bb 47 be ce 3d 41 3e
       0.20605084 0.0020348565 -0.19505255 0.18871233
0000c0 a3 59 9d bd 3e 92 da bd e9 4f d5 bd 50 3d 69 bd
       -0.076831125 -0.10672425 -0.10415632 -0.056943238
0000d0 64 f2 5e bd 57 bb ac 3d 31 97 75 3b 0a 1f 47 3e
       -0.05443038 0.0843417 0.003747415 0.19445434
0000e0 a6 a0 1c 3e 89 06 45 be c9 7c 56 3e cc e1 f6 bd
       0.15295658 -0.19240774 0.2094604 -0.12054786
0000f0 20 f4 5f be 2a ac 9f bd f6 ac ac bc 2a b7 72 be
       -0.2187047 -0.077965096 -0.021078568 -0.23702684
000100 ed 1e 04 be aa 33 37 bc 48 a6 17 3e b7 43 e4 3d
       -0.12902422 -0.011181751 0.14809525 0.11145728
000110 a8 51 9d bd cf a8 2f 3e ee 2c 20 3e 6b 93 97 bd
       -0.0768159 0.17154239 0.1564214 -0.074011646
000120 14 0a 6f be 90 ac 84 3d ab b3 36 be 71 a4 26 be
       -0.23343688 0.06478226 -0.17841975 -0.16273667
000130 11 d0 70 3e c4 c8 e5 3d 9f fe 3d be 5c a2 14 3d
       0.23516871 0.11219934 -0.18554161 0.03628765
000140 be 48 04 bd 9b 6d 75 bd fd eb d5 bd 7e 10 7d 3d
       -0.032295935 -0.05991898 -0.10445402 0.061783306
000150 d9 69 9d 3d fe bb bd bd 99 20 34 3e 54 71 3e 3e
       0.076862045 -0.09264372 0.1759056 0.18597919
000160 d5 b9 f1 bd 1c e0 5e be fd 49 12 3e fe a3 67 3d
       -0.11803023 -0.21765178 0.14286037 0.05655288
000170 e4 e8 a4 bd 98 9f 3e 3e d8 90 45 3e 45 38 e1 bd
       -0.08052233 0.18615568 0.19293535 -0.10997061
000180 f0 de 8a 3d ff b4 25 be e1 b5 a8 3d 1a 70 32 be
       0.06780803 -0.16182326 0.08237816 -0.17425576
000190 76 14 30 be 41 f4 51 3e 7f 41 2a 3e 17 f9 c4 3d
       -0.17195305 0.20503332 0.16626547 0.096178226
0001a0 44 c2 69 3c b6 27 86 3d c6 00 b7 3d cf ba a3 3d
       0.014267508 0.06550543 0.089356944 0.07994615
0001b0 f7 79 b8 3d 40 01 da 3c ed 52 40 bc 8d d7 d1 3d
       0.09007638 0.026611924 -0.011738521 0.10246191
0001c0 66 e7 18 be 59 29 05 3e 08 a1 64 be ea 45 51 be
       -0.14932021 0.13004054 -0.22327054 -0.20436826
0001d0 aa 1c fe bd f0 30 62 3e 98 cf 21 3e e8 94 2f be
       -0.12407811 0.2208898 0.15801847 -0.17146647
0001e0 2e 81 5c 3d 5a e0 6b be 17 99 22 be 19 86 0f be
       0.053834133 -0.23034802 -0.15878712 -0.14015998
0001f0 d4 1f 6f 3e 0c e2 ef 3d 57 5c 50 bc 5d 3b 4b be
       0.23351985 0.11713037 -0.012717328 -0.19846864
000200 89 77 1c be c3 dd ea bd 4c f9 5d be 5b 67 15 3d
       -0.15279974 -0.11468079 -0.2167713 0.03647552
000210 71 8e 1b bd 17 ab 17 3d 8d 8d cd bd 8e 89 40 3e
       -0.03797764 0.0370284 -0.10036764 0.18802473
000220 d6 39 08 3e 74 b4 2c be 08 ea 6a be fa bf d2 3d
       0.13303313 -0.16865712 -0.22940838 0.10290523
000230 0a 58 04 3e 38 7e 4c 3e b3 ad 68 be 90 a4 4c be
       0.12924209 0.19970024 -0.22722511 -0.1998465
000240 b7 90 8c 3d 6c ae 60 be 7a 9b 2e be f8 76 0a 3e
       0.0686354 -0.21941537 -0.17051497 0.13521945
000250 44 7a 62 3e 38 ab ba 3c a8 ad 5c 3e 63 e3 10 3d
       0.22116953 0.022786722 0.2155062 0.035373103
000260 86 cc 17 bd 34 8a a0 3d 69 f8 c7 3d ca e0 0b be
       -0.037060283 0.0783886 0.09764177 -0.13659969
000270 d8 d2 4d 3e bf 0f 0a be 3b d5 d7 bd 59 3f 1c 3e
       0.20099962 -0.13482569 -0.10538717 0.1525854
000280 86 0d 2b be 06 30 71 3d 31 f8 75 3d 0a db 38 3e
       -0.16704378 0.05888369 0.060051147 0.18052307
000290 2a b2 f5 3d 34 a7 c3 bd 42 90 63 3e 64 89 b9 bd
       0.11996873 -0.09553376 0.22222999 -0.09059408
0002a0 5b d2 10 3e 0e 66 31 bd fe 5d 41 3e 23 88 36 bd
       0.14142744 -0.043310218 0.18883511 -0.044563424
0002b0 b0 45 ba 3d 6e dc 30 be da 04 e0 3d c8 54 8d bb
       0.09095323 -0.17271587 0.10938425 -0.004313085
0002c0 b9 63 2c bd e1 42 fd bd f6 ea 68 3c 6f 07 23 3e
       -0.04208729 -0.12366272 0.014216175 0.15920804
0002d0 11 15 64 3e d1 66 1c 3c 01 47 1e be f5 08 13 be
       0.22273661 0.009545998 -0.15456773 -0.14358886
0002e0 df 0f 72 3e 57 88 64 be 40 ee b7 bd bc 34 15 3e
       0.23638867 -0.22317635 -0.089809895 0.14570898
0002f0 24 79 41 bd 0d ef b9 bd 5f 8d 70 bd 8a 50 b7 3c
       -0.04723467 -0.090787984 -0.058728572 0.022377271
000300 cb f5 e4 bd b0 fe 3d 3e f6 05 71 be 99 ed 5a be
       -0.11179694 0.18554187 -0.2353743 -0.21379699
000310 7b f8 18 3e f0 f1 65 be ff b1 5e be 3c 57 88 bd
       0.14938538 -0.22455573 -0.21747588 -0.06657264
000320 82 41 97 bd 5d ff 2f 3e 46 2b 9f 3d a4 1d 68 3c
       -0.073855415 0.17187257 0.07771926 0.014167223
000330 29 a1 34 bc 82 fe a7 3c d7 e2 c8 bd 05 01 80 3d
       -0.011024752 0.020507101 -0.09808891 0.062501945
000340 06 22 c0 bd e8 53 9a bc b0 04 5e be 50 2a d7 3d
       -0.093814895 -0.018838838 -0.21681476 0.10506117
000350 5e a4 62 3e 56 61 07 3d 11 7d 9a bd b5 cc 93 bc
       0.22133014 0.03305181 -0.07543386 -0.018041948
000360 2d 90 a6 3d 8f 1e 72 be e9 ea 50 3d 11 ed 00 3e
       0.08132968 -0.2364447 0.051005278 0.12590434
000370 e8 34 56 3d dd 46 90 3c f8 bb 15 3e f5 06 3a be
       0.05229655 0.017611915 0.14622486 -0.18166716
000380 a4 ff cf bd 6a ce 37 be 9a a9 53 be d8 42 ae 3c
       -0.101561815 -0.17949834 -0.20670167 0.021272108
000390 95 a1 35 be 33 be a3 bd e7 85 4b be 1f e5 75 3c
       -0.1773742 -0.07995262 -0.19875298 0.01500824
0003a0 c4 e5 57 bd 09 c0 5e 3e 3e d4 11 3d 46 bd d5 3d
       -0.052709356 0.21752943 0.0356028 0.10436492
0003b0 c2 54 58 3e a3 2b 92 3d 83 0f 05 be fc 0f cd bd
       0.21126083 0.07137229 -0.12994199 -0.100128144
0003c0 21 82 72 be 0a 92 57 3e 35 8d 04 3c 36 42 6a 3e
       -0.23682453 0.21051803 0.008090307 0.2287682
0003d0 87 79 fe bd c7 4c 69 be e4 d6 dc bd 78 57 05 3e
       -0.12425523 -0.22783194 -0.10783175 0.13021648
0003e0 79 85 c6 3d 86 7f 16 3e 68 3c 20 3e c3 0a a9 3d
       0.09693427 0.14697084 0.15648043 0.08254006
0003f0 44 06 ca 3d ef c1 28 be 87 46 6a 3d 5c 91 05 be
       0.09864476 -0.1648023 0.057196166 -0.13043731

convs.0.nn.0.bias f4 [16]
000000 e2 56 21 be ab d8 cc bc ad f9 6b 3e 80 ca 8c bd
       -0.157558 -0.02500566 0.23044463 -0.06874561
000010 a8 1f 08 be 2e 58 44 3b 98 41 83 3d 00 7d 65 be
       -0.13293326 0.0029959786 0.064089954 -0.22410965
000020 61 99 f7 bd b1 2c 54 be 0c 7a 58 3e fe 55 c2 3c
       -0.120898016 -0.20720173 0.21140307 0.023722645
000030 5b a7 ef 3c f9 f5 f4 bc b6 9b bf 3d b3 89 0d 3e
       0.029254606 -0.029902445 0.093558714 0.1382206

convs.0.nn.1.weight f4 [16]
000000 49 c4 80 3f c6 4a 7d 3f 6f 7e 7e 3f b4 ad 80 3f
       1.0059901 0.9894222 0.9941167 1.005301
000010 04 af 7e 3f 4f 9c 7e 3f 03 42 80 3f 7d c9 7e 3f
       0.994858 0.9945726 1.0020145 0.99526197
000020 1f cd 80 3f b0 9d 80 3f 84 95 7e 3f 0a a9 80 3f
       1.0062598 1.0048122 0.9944689 1.0051587
000030 51 bc 7e 3f 83 3b 80 3f 8f 74 80 3f 61 64 7e 3f
       0.995061 1.0018162 1.0035571 0.99371916

convs.0.nn.1.bias f4 [16]
000000 19 81 c8 3b 9f 69 38 bc 39 3d be bb 53 36 a9 3b
       0.0061189053 -0.011255651 -0.005805638 0.0051639467
000010 c6 c5 a4 bb 71 01 b4 bb fa 5e e9 3a 98 a8 9d bb
       -0.0050284592 -0.005493336 0.0017804794 -0.0048113577
000020 08 56 c7 3b db 52 9e 3b 71 4a b1 bb 81 42 a3 3b
       0.006083254 0.0048316545 -0.0054104854 0.004982293
000030 b8 08 a1 bb d1 81 0b 3b fe ed 6c 3b 79 df d2 bb
       -0.0049143694 0.0021287093 0.0036152597 -0.0064353314

convs.0.nn.1.running_mean f4 [16]
000000 58 7a 39 bf aa 5e ae 3b d2 87 07 c0 da 49 2e c0
       -0.72452307 0.0053213434 -2.1176648 -2.7232575
000010 ca 7c 77 bc 48 c1 72 3f f9 ae 2c 40 08 66 38 c0
       -0.015105436 0.94826174 2.6981795 -2.8812275
000020 d4 c0 2c c0 ec 29 9f 3f 8e 07 08 40 56 96 8f bf
       -2.6992693 1.2434669 2.125461 -1.1217754
000030 89 68 20 c0 5c ff ac be 4d 04 05 c0 a1 4e 81 3f
       -2.5063803 -0.33788574 -2.0783875 1.0102121

convs.0.nn.1.running_var f4 [16]
000000 03 a5 5c 3f e6 5f 06 3f a4 64 bd 41 49 e0 e6 40
       0.8618929 0.5249008 23.67414 7.2148786
000010 85 55 95 40 70 da 4b 3f a4 5e 58 41 72 a0 d9 3f
       4.6666894 0.79630184 13.523106 1.7002089
000020 ed 71 02 40 87 b5 83 40 28 f8 58 40 24 68 b7 41
       2.0382035 4.115909 3.3901463 22.92585
000030 38 4a f0 40 d5 b3 b4 40 a4 51 d8 3e 04 e6 77 3e
       7.50906 5.646952 0.42249787 0.24208838

convs.0.nn.3.weight f4 [16, 16]
000000 15 4f 57 3e c1 77 5b 3e f1 36 83 3c ce 44 82 3d
       0.21026261 0.21432401 0.016017409 0.0636078
000010 35 53 f4 3c 82 75 48 be b9 1a 30 be af 14 a2 3d
       0.029824832 -0.19576076 -0.17197694 0.07914101
000020 49 65 30 3d a2 de 64 be b2 67 bd bc 33 de 01 3e
       0.043065343 -0.22350553 -0.023120735 0.12682419
000030 dc 4e d7 bd dc ae a2 3a cc 83 c0 bd aa 60 87 3d
       -0.10513088 0.0012411731 -0.09400138 0.06610234
000040 49 94 86 3c 87 7c ba 3c 43 1b c1 3c 74 0e f3 bd
       0.01642813 0.022764457 0.02357257 -0.11867991
000050 9a 9e 71 3d 94 06 bb 3c a2 a4 f5 3d df 35 7f 3e
       0.058989145 0.022830285 0.11994292 0.24922894
000060 b5 ab 1a 3e 3d cd d0 3c cf c8 0d be 2b 65 06 be
       0.15104564 0.02548849 -0.13846134 -0.1312453
000070 1b c9 67 3e d7 83 17 3e 42 88 05 3e e1 5c 1e ba
       0.2263531 0.14796387 0.1304026 -0.0006041062
000080 e7 a1 28 be eb 62 40 3e b6 b2 80 be 08 0c 0e be
       -0.16468011 0.18787734 -0.25136346 -0.13871777
000090 94 9b 4d be c8 f3 16 be ec 66 7b 3e 24 f7 87 3d
       -0.2007888 -0.14741433 0.2455098 0.06638935
0000a0 7f 1a 1b 3d 88 be 10 be 20 d7 89 bd 12 eb a7 3c
       0.037867066 -0.14135182 -0.06730485 0.020497832
0000b0 ce 47 99 3d cb cc 3b bd 99 9b 59 be 86 44 27 bb
       0.07484399 -0.045849603 -0.21250762 -0.002552302
0000c0 d4 24 5b be 40 f9 94 bb b6 2a 05 bd ae f8 4d 3e
       -0.21400768 -0.0045463145 -0.032511435 0.20114395
0000d0 d1 66 79 3e d7 aa 3a bd 49 00 25 bd 2c c1 54 3e
       0.24355628 -0.04557308 -0.040283475 0.20776814
0000e0 a8 13 ae 3d 12 47 5f 3e b8 41 c4 bd 69 44 72 3e
       0.08499843 0.21804455 -0.09582847 0.23658909
0000f0 a3 cc 73 be cc a2 1a 3d 6a 87 22 3d e7 2d 2b 3e
       -0.23808531 0.03775291 0.039679922 0.16716729
000100 6f 63 38 be da 05 e9 3d cd 91 1f 3e 5c 9e 07 3e
       -0.18006681 0.11378069 0.15582962 0.13244003
000110 e2 e2 f3 bd 16 51 4d be ac ce 7d 3d 46 1e ba 3d
       -0.11908509 -0.20050463 0.061964676 0.090878054
000120 26 17 64 bb 87 be 0a 3d a4 26 ae bd 02 23 a2 3d
       -0.0034803837 0.033873107 -0.08503464 0.079168335
000130 94 11 fe bd 62 a7 67 be 37 25 33 3e 97 46 eb 3d
       -0.124056965 -0.22622445 0.17494665 0.11488073
000140 80 bb 6b bc ba 6f 05 3d 4f e0 5f be 49 58 2f be
       -0.014387965 0.032577254 -0.2186291 -0.17123522
000150 ef 9e 2c be f8 e3 c3 bd bf a2 65 3d d6 ed 33 3d
       -0.16857503 -0.09564966 0.05606341 0.04392799
000160 99 a2 60 3e 32 d4 3c be 50 a4 53 3d c2 cd 92 3c
       0.21937026 -0.18440321 0.051670372 0.017920379
000170 ff 78 17 3d 6c db ed bd 7b 64 c4 3c fe 0f 79 be
       0.036980625 -0.11614117 0.023973694 -0.24322507
000180 ff 84 dc 3c 8a c5 a3 3d 4b 30 b9 bc 75 dd 31 3e
       0.026918886 0.07996662 -0.022606036 0.17369635
000190 6b e4 42 3e ff 5b 18 3e 0e 92 23 be e4 4d 2c bc
       0.19032447 0.14878844 -0.15973684 -0.010516617
0001a0 83 1d 86 bd 67 c9 40 be 33 ea 67 3e dd 8f 2d be
       -0.06548598 -0.18826829 0.22647934 -0.1694941
0001b0 43 9e f6 3d b7 5a 39 3e fb 6e e4 bd 42 2f 16 bd
       0.12041905 0.18101011 -0.1115398 -0.036666162
0001c0 37 a1 a2 bc 32 ab 6f bd 0e 91 15 3e 57 d5 e0 bd
       -0.019852264 -0.058512874 0.14606115 -0.10978191
0001d0 41 07 58 3e 3c e0 1d 3e 0b c4 da 3b 85 01 36 3e
       0.21096517 0.1541757 0.006676202 0.17774017
0001e0 45 c4 40 3e ef a9 39 be e2 46 2e 3e 5d 2c 0f be
       0.18824871 -0.18131231 0.17019227 -0.13981767
0001f0 18 3a 60 be f4 ff 3c 3d e1 17 0b be 8f 9e 2f be
       -0.21897161 0.046142533 -0.13583328 -0.17150329
000200 43 df 16 3e 5a 3c fc bd 26 42 25 be 5d 94 2b be
       0.14733605 -0.12316199 -0.16138515 -0.16755815
000210 92 99 7e 3d 90 fd 16 3e e6 3f 39 be d6 fc 26 be
       0.062158175 0.14745164 -0.18090782 -0.16307387
000220 fb cd 8f 3d 09 15 0b be 6d da 1b be 2a 8e 6b 3e
       0.070217095 -0.13582243 -0.15220042 0.2300345
000230 ca dc 4e 3d 7a e3 01 be 2d 42 a9 bd 68 a0 25 3d
       0.05050353 -0.12684432 -0.08264575 0.04043618
000240 39 3c 19 3e 07 69 17 3e f8 9d 71 3d 78 0e b0 bd
       0.1496438 0.14786159 0.05898854 -0.0859651
000250 f1 3b 91 bd 37 72 55 be ec 5f 48 3e 93 b5 0b be
       -0.07091511 -0.20844351 0.19567841 -0.13643484
000260 0f 14 cb 3d fa 9d 51 be f0 5e 9f 3c bf dc 21 be
       0.09915935 -0.2047042 0.01945445 -0.15806864
000270 33 1a 06 3e 98 f6 1a 3e 2d 47 5e be 6e e2 d8 bc
       0.13095932 0.1513313 -0.21706839 -0.026475158
000280 61 0e 09 be 4a c4 9d 3d e7 43 3f bd c5 8b 26 3e
       -0.13384391 0.07703455 -0.046695616 0.16264255
000290 fe bb 4c be 11 fb a2 bc ec ce 44 3e 9d 3e a8 bb
       -0.19993588 -0.019895108 0.1921956 -0.005134417
0002a0 34 f9 78 3e 51 60 02 be 42 89 d4 bd 42 cf 77 3e
       0.24313813 -0.12732054 -0.10377742 0.24200156
0002b0 1f 11 87 3d 70 28 34 be de 9e 8c bd b0 e1 37 3e
       0.065950625 -0.1759355 -0.06866239 0.17957187
0002c0 e7 66 51 3e 34 c7 0c 3e ef fa 68 3e c2 48 6c 3d
       0.2044941 0.13747865 0.22751974 0.057686575
0002d0 ac ec 43 3e ee 8b e0 bd a9 1d f6 bd 1c 81 65 3e
       0.19133252 -0.109641895 -0.12017376 0.22412533
0002e0 c7 af 02 bd d0 69 0e be 16 6f bf bd 01 0f 03 3e
       -0.031905916 -0.13907552 -0.0934736 0.12798692
0002f0 f4 de ce bd c9 b3 c0 3c c2 cd 4b be 47 e0 6f be
       -0.10101119 0.023523228 -0.19902709 -0.23425399
000300 3e e1 1d 3e ca 2d cb bd 07 57 75 bd f1 6b 02 3e
       0.15417954 -0.09920843 -0.05989745 0.12736489
000310 95 40 40 bd ce 42 77 bd 49 d9 e0 bb fb 75 84 bd
       -0.04693659 -0.060366444 -0.00686184 -0.064678155
000320 9a ef d8 bd 39 c1 35 be 74 60 37 be 09 be 4b 3e
       -0.10592575 -0.1774949 -0.17907888 0.19896711
000330 46 4c 15 bd a8 4e 27 be 78 83 df 3d e5 bd 10 bc
       -0.036449693 -0.16338599 0.109137475 -0.008834337
000340 23 42 4d 3d e6 ec 42 3d 76 ac 27 be c3 a0 6f 3e
       0.0501119 0.047589205 -0.16374382 0.2340117
000350 81 e3 34 be aa 18 2e be c4 f4 40 be 4a f0 ef bd
       -0.17664911 -0.17001596 -0.1884337 -0.117157534
000360 48 c2 0f 3e 46 b8 71 3d 46 bb 7a 3e 47 fe 4d 3e
       0.14038956 0.059013627 0.24485502 0.2011653
000370 d5 87 8c 3d 78 a9 0c be 84 64 1c 3e ec db 82 bd
       0.068618454 -0.13736522 0.15272719 -0.06389603
000380 63 9b c9 3a 19 9f aa bc 81 d0 9d bd 90 89 25 be
       0.0015381392 -0.020827817 -0.077057846 -0.16165757
000390 f8 20 13 be 3f c3 06 3e 15 85 8d bd 74 42 3e be
       -0.14368045 0.13160418 -0.06910149 -0.18580037
0003a0 a4 4d 78 be 33 a5 15 bd a5 71 f4 bd 83 dc 3b 3e
       -0.24248368 -0.0365345 -0.119357385 0.18345837
0003b0 0e bc 1c 3e 56 e5 51 3d f4 27 1b 3e c4 66 39 3d
       0.15306112 0.051244102 0.1515196 0.04526402
0003c0 6e 43 38 3e c8 51 ec bd b9 5d 4d be 4b aa 7f be
       0.17994472 -0.11539036 -0.20055284 -0.24967305
0003d0 93 b4 43 3e c1 87 a7 bd d7 f9 14 3d c1 b0 34 be
       0.19111852 -0.0818019 0.03637108 -0.17645551
0003e0 39 7f 83 bd 41 47 3a be 8d 18 53 bd a5 c4 62 be
       -0.0642075 -0.18191244 -0.051537085 -0.22145326
0003f0 62 e5 df bd c3 b3 66 be 4b a0 a5 bd 5c 34 7e 3d
       -0.10932423 -0.22529511 -0.08087214 0.062061653

convs.0.nn.3.bias f4 [16]
000000 00 66 60 3e 6b 72 ca bd d5 80 9d bd 10 fa 3b be
       0.2191391 -0.09885105 -0.076905884 -0.1835711
000010 0e 84 3f be a4 22 fa 3d c7 a1 fb bd cd e4 fb bc
       -0.18702719 0.122136384 -0.12286716 -0.03074875
000020 d8 f3 49 3d b2 e6 a6 3d 36 fc c8 bd b6 6b 7c be
       0.049304813 0.081494704 -0.098137304 -0.24650463
000030 3c 67 12 3e 95 7e 69 3e 4d 39 48 3e 17 ca 71 be
       0.14297193 0.22802193 0.19553109 -0.23612247

convs.0.nn.4.weight f4 [16]
000000 2a 59 7e 3f 5f 5a 7d 3f 6e b6 81 3f 9f 21 81 3f
       0.99354804 0.9896602 1.0133798 1.0088385
000010 d2 fe 7b 3f 85 27 81 3f 39 eb 7a 3f ba 42 81 3f
       0.984357 1.0090185 0.9801517 1.0098488
000020 4d 6e 7f 3f 68 f8 80 3f 9a 69 7f 3f 1e f8 80 3f
       0.9977768 1.0075808 0.9977051 1.0075719
000030 10 42 81 3f 97 7d 80 3f 3f 14 80 3f bb 02 81 3f
       1.0098286 1.0038327 1.0006179 1.0078958

convs.0.nn.4.bias f4 [16]
000000 b7 49 d1 bb 1f 65 29 bc f3 45 59 3c 00 17 01 3c
       -0.0063869613 -0.010339051 0.013261306 0.007879019
000010 52 63 81 bc 05 da 11 3c 0d 36 a3 bc 37 3e 24 3c
       -0.01579443 0.008902078 -0.019923234 0.010024599
000020 d1 d8 0d bb 38 e2 01 3c 40 6e 1f bb b7 d1 e3 3b
       -0.0021644125 0.00792747 -0.0024327189 0.00695249
000030 51 79 1c 3c c8 95 7e 3b 17 23 0e 3a 16 9b ff 3b
       0.009550408 0.00388466 0.0005422099 0.00780047

convs.0.nn.4.running_mean f4 [16]
000000 a7 2f 72 3e 13 c9 96 3e 36 99 e1 be 1c 8f 45 3e
       0.2365099 0.29450282 -0.44062203 0.19292873
000010 52 0e 36 be a1 15 6e be 4c f9 73 3d 6f d3 10 bb
       -0.177789 -0.23250438 0.05956392 -0.002209868
000020 0e b6 5c be b2 2d 92 3b 9b 8e 28 3d c0 6c 2a be
       -0.21553823 0.0044610137 0.041151624 -0.16643047
000030 60 0e 6d bd 00 d6 a4 3e e8 60 f3 3c 9b 1f 5e bf
       -0.057875037 0.3219452 0.029709294 -0.86766976

convs.0.nn.4.running_var f4 [16]
000000 26 36 b1 3c 4a 2e 2f 3c 44 cd 14 3e 75 3f b2 3b
       0.021632265 0.0106921885 0.14531428 0.0054396936
000010 f9 f7 81 3b ab a4 85 3c 65 b4 0d 3d fb fe cf 3d
       0.003966328 0.016313871 0.034595866 0.101560555
000020 df e4 cb 3c a5 b4 a9 3c 2c 1b 6a 3c cf f5 2c 3d
       0.024889408 0.02071602 0.014288705 0.04222661
000030 8f 0b 5c 3d 26 29 c5 3e 49 98 c3 3c 9e cc 29 3f
       0.05372196 0.38507956 0.023876326 0.66327846

convs.1.nn.0.weight f4 [16, 16]
000000 ea cf 24 bd 3f 13 7a 3e fa 6f c8 bd b4 47 92 3b
       -0.040237345 0.24421404 -0.09786983 0.004464114
000010 4e 99 48 be 8b bf 67 be eb ec 58 bd 60 85 22 be
       -0.19589731 -0.22631662 -0.052960318 -0.15871191
000020 bc ae 1a 3e 81 0d 0f 3d 53 48 14 bb 06 9d 77 be
       0.15105718 0.034924988 -0.0022626116 -0.24180993
000030 db 5e 45 3e 84 ea 8d bd ef df 7b 3e 3f 57 15 be
       0.19274466 -0.06929496 0.24597143 -0.14584063
000040 c8 77 15 bb 69 af 16 bd fc ca a8 3c 5d a1 3d 3e
       -0.002280699 -0.036788378 0.020604603 0.18518586
000050 48 33 15 3d f5 f8 1a 3e 2a e4 2a 39 fb 2e b5 bd
       0.03642586 0.15134032 0.00016297461 -0.088468514
000060 67 a4 49 3e 6f 08 a2 bd 97 2c 9b 3d 6a 61 b9 3c
       0.19691621 -0.07911765 0.07576864 0.022629458
000070 c8 e5 ca 3d 3d 62 67 be 83 fd 38 3e 2a 6b 55 bc
       0.099071085 -0.22596069 0.18065457 -0.013026038
000080 0d cd 21 3e e2 0f 2f be 2b ad a2 3d 16 28 52 bd
       0.15800877 -0.17095903 0.079431854 -0.05130776
000090 d1 de 13 3e ce 48 33 be 83 c3 0f be 74 fc 36 bb
       0.14440466 -0.17508242 -0.14039426 -0.002792147
0000a0 c6 e3 11 3e a8 e9 e5 3c 8f 5d 28 3e 52 99 35 3e
       0.14247045 0.028065518 0.1644194 0.17734268
0000b0 df 13 ec 3d 4a a0 9b 3b ee 73 5e 3d be c5 18 bd
       0.115272276 0.0047493326 0.054309778 -0.037297957
0000c0 3a ac 4a 3e 72 8c 5d 3e 49 11 4b bb c8 1f 44 be
       0.19792262 0.21635607 -0.0030985645 -0.19152749
0000d0 e3 62 42 bd f4 af 37 be d7 a3 49 3d 3b 49 6c 3e
       -0.047457587 -0.17938215 0.049228515 0.2307481
0000e0 65 9f 1a 3c 82 2d d5 bd 01 f2 cb 3d f9 91 6d be
       0.009437417 -0.104090706 0.09958268 -0.23200215
0000f0 93 32 5a 3e 01 d6 2f 3e 87 83 2f bd 23 68 30 3e
       0.21308355 0.1717148 -0.042850044 0.17227225
000100 0d 2c 99 3d c5 c0 2a be 40 08 b1 bd 82 28 bf 3b
       0.07479105 -0.16675098 -0.08644152 0.0058336863
000110 46 1b 6c 3e cf bf 5b be 8d 0d 59 bc 02 f9 ee bd
       0.23057279 -0.21459888 -0.01324786 -0.11668588
000120 48 2a 05 bd 54 f1 05 bd 1d d6 e1 3d b6 29 49 bb
       -0.032511026 -0.03270085 0.11027167 -0.0030695028
000130 48 8d 72 bd ba a9 3c 3e 44 c8 d3 bd 70 2e ee bd
       -0.059216768 0.1842412 -0.10340932 -0.11629951
000140 c0 5d 07 be ec 5f 23 be c8 35 e3 bd e9 31 3f be
       -0.13219357 -0.1595456 -0.11094242 -0.18671383
000150 0a f9 98 3d b8 f5 16 be 36 2f 3a 3e f8 06 08 be
       0.074693754 -0.14742172 0.18182072 -0.13283908
000160 f5 74 ca 3d cd e7 c4 3d 76 31 60 bb 19 2d a5 bc
       0.09885589 0.09614525 -0.0034209169 -0.020163106
000170 18 bc 46 bd 78 e4 a7 3c ba 41 0e be 25 4c 48 3e
       -0.048519224 0.020494685 -0.1389226 0.19560297
000180 d5 b0 16 bd e4 1b 7a bd 6e 91 15 3e ee e2 33 be
       -0.036789734 -0.061061755 0.14606258 -0.17567036
000190 80 6a 22 be 6f 1e bf 3d bd ed 42 be c1 70 31 3e
       -0.15860939 0.093319766 -0.19036002 0.17328168
0001a0 17 3a e3 3d ec a9 9a bd 4f 27 a7 3d 9f 98 d5 3d
       0.11095064 -0.07551941 0.081617944 0.10429501
0001b0 77 29 51 3e 87 88 6f be 42 8a 50 be bc f0 ef bd
       0.20425974 -0.23391925 -0.20365241 -0.11715838
0001c0 b9 fe 24 be d9 f4 c9 bd b6 1d 74 3e 4c 7f 03 be
       -0.16112794 -0.09861154 0.23839459 -0.12841529
0001d0 86 a4 08 3e 00 e3 e1 bc 74 c5 52 3d 94 29 e2 bd
       0.1334401 -0.027574062 0.051457837 -0.11043087
0001e0 22 45 40 3e ab 48 c7 bd dc ee 46 3e 9b 52 71 bd
       0.18776372 -0.09730657 0.19427055 -0.05891667
0001f0 57 a8 79 3e 2a ae 57 be 9c d4 23 3e f0 dc 92 bd
       0.24380623 -0.21062532 0.15999073 -0.07171047
000200 fd 50 d9 bd 3e d8 b7 bc 51 e4 4e be c7 3e 90 bd
       -0.106111504 -0.02244198 -0.20204283 -0.07043224
000210 19 e5 22 3d 53 26 7f 3e ff 8e 58 3e af 6a 82 3e
       0.039769266 0.24916963 0.21148299 0.25472018
000220 2e 9e 15 be 7d 39 d9 3c dc 8d c2 bc cf 11 33 3e
       -0.14611122 0.02651667 -0.023749284 0.17487262
000230 ca 35 e4 3d 66 24 ca 3c 5c da 37 bb 37 5c 3b 3e
       0.11143072 0.02467556 -0.0028053736 0.18296896
000240 fb df e9 bc 2e b7 4f 3e a8 15 f5 3d 44 86 7a be
       -0.028549185 0.20284721 0.11967021 -0.24465281
000250 d6 75 87 bb 82 f8 53 3e 8e 4f e5 3d 15 78 4e be
       -0.00413392 0.20700267 0.111968145 -0.20162995
000260 5b e0 d1 bd ce fb 43 3e 15 b5 2c 3e aa b9 53 3d
       -0.102478705 0.19139025 0.16865952 0.051690735
000270 15 aa 6a be bd d2 7c 3d 16 5f e8 3d 2b 6a 4a 3e
       -0.22916444 0.061724413 0.11346261 0.19767062
000280 1b 31 3a 3e 0d 10 f0 3c da 4c 1d 3e 64 a5 c7 3d
       0.18182795 0.029304529 0.15361348 0.09748343
000290 60 67 8e bd 70 3e 2b be 85 e3 ad 3d 3a b4 53 3e
       -0.06953311 -0.16723037 0.084906615 0.2067422
0002a0 7d 8e c2 3d e2 0b 4e be 8b 7d 15 3d b6 b6 34 3e
       0.09499834 -0.2012172 0.03649668 0.17647824
0002b0 36 30 72 3c dc 75 f0 3b a4 2f 59 be a9 15 7f bd
       0.014782002 0.0073382687 -0.2120958 -0.062276516
0002c0 36 6c 22 be 2f 49 d4 bd 47 c3 68 3d 76 67 2a bd
       -0.15861592 -0.10365521 0.056826856 -0.041602574
0002d0 ae a1 b2 3d dc 1d 1c be 0f 8a f9 3c 2f 83 23 ba
       0.08722244 -0.15245765 0.03046134 -0.00062375044
0002e0 70 9e 8c bb 0a f8 bf 3d 0b c7 08 bd cb b2 6c 3e
       -0.004291348 0.093734816 -0.033392947 0.23115079
0002f0 a0 40 20 bd 4f ae e7 bd 3d d8 1e bc b8 cb 5a be
       -0.03912413 -0.113125436 -0.00969511 -0.21366775
000300 0b e8 27 bc b9 90 7f be e3 3a 6b 3c e7 80 29 be
       -0.010248194 -0.24957551 0.014357301 -0.16553079
000310 68 e3 fc 3d e7 d2 93 3d 42 bc 2b 3e f0 d5 5b bd
       0.12348062 0.07217961 0.16771033 -0.053670824
000320 86 1e 71 be e2 1e 34 3d 88 42 04 be cb ef 67 3d
       -0.235468 0.043974765 -0.12916005 0.05662517
000330 43 5d bc bd 5b 09 10 3b 89 34 09 be d4 31 89 3d
       -0.09197476 0.0021978233 -0.13398947 0.06698957
000340 bc 81 6c be 8f bc 58 3e 60 32 85 bd 0e 79 ca 3d
       -0.23096365 0.2116568 -0.06503749 0.098863706
000350 ff 84 bb bd e1 f0 57 3e 4c 52 4a 3e 82 4b 6f 3e
       -0.09156226 0.21087982 0.19757956 0.23368648
000360 2f ba e6 3d 85 16 99 3d cd f1 b6 3d 4e 6f 2a be
       0.112659805 0.074749984 0.089328386 -0.16644022
000370 59 b7 0e 3e 3f 29 1c be 1e 30 72 3e 0b 27 a5 bd
       0.13937129 -0.15250109 0.23651168 -0.080640875
000380 c6 a6 4e 3e b3 a6 5c 3e 77 15 8c bd 05 2d 5a be
       0.20180807 0.21547966 -0.068400316 -0.21306236
000390 a6 9d 96 bd c3 0f 27 bb b6 ee 0a be 5a 0d 80 3e
       -0.07354288 -0.0025491572 -0.13567623 0.25010186
0003a0 1a 34 5c be 36 bc af 3d fb d2 7c bd 11 d6 a0 bd
       -0.2150425 0.0858082 -0.061724644 -0.0785333
0003b0 de 20 01 3d 79 c1 19 bc 59 03 81 be 23 ce 52 be
       0.031525485 -0.009384506 -0.25197867 -0.20586447
0003c0 19 1b 6f bd ac 41 30 be c2 88 a6 3c f2 e3 ea bd
       -0.05837545 -0.17212552 0.020328883 -0.11469258
0003d0 c4 77 53 be 64 9a 79 bd 24 57 53 bc 93 57 f1 bd
       -0.20651156 -0.060938254 -0.012899194 -0.117842816
0003e0 0e 1d 03 bc 3a 65 f2 bd 4b 06 4b 3e 81 6b 77 bc
       -0.008002533 -0.11835714 0.1982662 -0.0151013145
0003f0 85 a5 be 3d c2 ac 19 3e 63 0f 4b 3e 5e dc 89 3d
       0.09308914 0.15007308 0.19830088 0.06731485

convs.1.nn.0.bias f4 [16]
000000 32 95 78 3e 25 2d 5c 3e e0 04 c0 3d 75 8a 20 3e
       0.24275663 0.21501596 0.0937593 0.15677817
000010 11 c9 53 3e dd 6a f7 3d 21 ab 46 3d 04 fa 42 be
       0.2068217 0.120809294 0.048503045 -0.19040686
000020 75 90 06 be 2f ed ae bd 44 96 32 3e fc 08 48 3c
       -0.13141043 -0.08541333 0.17440134 0.012209173
000030 1a a3 2a be b6 d6 48 be 05 0c 12 be 42 c6 e7 3d
       -0.16663781 -0.19613156 -0.14262398 0.113171116

convs.1.nn.1.weight f4 [16]
000000 ac 65 7e 3f 3c b2 7d 3f 92 25 7c 3f c3 16 81 3f
       0.9937389 0.9910009 0.9849483 1.0085071
000010 e4 f3 7b 3f 26 d9 7f 3f b9 29 7e 3f 21 fe 81 3f
       0.9841902 0.9994072 0.99282414 1.0155679
000020 3d 08 80 3f e4 db 80 3f 66 29 80 3f fd 10 80 3f
       1.0002514 1.0067105 1.0012634 1.0005184
000030 9c a7 7b 3f 85 a6 7f 3f 2e cd 80 3f 67 da 80 3f
       0.98302627 0.99863464 1.0062616 1.0066651

convs.1.nn.1.bias f4 [16]
000000 46 9a d6 bb 84 ee 21 bc 0f fd 76 bc 79 97 09 3c
       -0.0065491525 -0.009883527 -0.015074982 0.00839793
000010 23 a4 82 bc 87 6d 02 ba ab 54 ea bb 23 21 80 3c
       -0.015947407 -0.00049754273 -0.0071512065 0.0156408
000020 68 ce c4 39 b3 46 ef 3b 3f 04 a4 3a e2 b0 0f 3a
       0.00037537818 0.007302129 0.0012513472 0.00054813747
000030 f8 c9 8a bc 03 39 a1 ba c9 11 ce 3b 53 25 e8 3b
       -0.01694201 -0.0012300316 0.0062887412 0.0070845275

convs.1.nn.1.running_mean f4 [16]
000000 51 8c c3 bf 39 01 13 40 1d b8 f2 3f 6b b5 17 40
       -1.5277196 2.2969496 1.8962437 2.3704479
000010 f5 72 d5 bf b4 32 d6 bf ac 2c 36 bf 2d f3 2d 3f
       -1.6675707 -1.6734223 -0.71161914 0.6794918
000020 75 5c 3a 40 a4 ee 14 40 84 a8 f3 3f ce c0 c1 bf
       2.9118931 2.3270655 1.9035802 -1.5136964
000030 64 70 09 c0 e1 04 43 40 fe 85 01 c0 0d 3b 2c bf
       -2.1474848 3.0471728 -2.0238032 -0.67277604

convs.1.nn.1.running_var f4 [16]
000000 75 75 35 41 99 91 be 3e 9e 35 e0 40 91 6e 07 40
       11.341176 0.37220457 7.006545 2.1161234
000010 1e a1 9a 41 86 d6 03 40 52 cc 91 41 03 9b 28 40
       19.32867 2.0599685 18.224766 2.6344612
000020 c2 26 1b 41 0d c0 34 40 20 8d bd 40 f5 e5 18 3f
       9.696962 2.8242218 5.923477 0.59725887
000030 ed c1 83 3f 9b 3c 90 40 18 5c 9c 40 1f 5d b1 40
       1.0293556 4.507398 4.886242 5.5426173

convs.1.nn.3.weight f4 [16, 16]
000000 93 1a 20 3e 50 69 20 be 52 e3 7b bd 29 5f 67 be
       0.15635137 -0.15665174 -0.061496086 -0.22594894
000010 f7 28 28 be 06 47 fa 3d 91 50 07 be 75 3a 8f 3d
       -0.16421877 0.12220578 -0.13214327 0.06993572
000020 39 a8 8d bd 8e 3b b3 bd 68 53 18 3e e3 e3 03 be
       -0.069168516 -0.087515935 0.14875567 -0.128799
000030 3e 44 49 3e 3c 98 0c 3e 4c a5 02 bd a1 3e e6 bd
       0.19654939 0.13729948 -0.03189592 -0.11242414
000040 75 61 55 be 07 7b 26 bd dc c5 2e be 5b 63 15 3e
       -0.20837958 -0.04064467 -0.17067665 0.14588682
000050 8a 12 66 be 70 e5 1f be 25 2d 15 be 9a c8 43 3e
       -0.2246801 -0.15614867 -0.14568003 0.19119492
000060 95 61 28 3e ee 2c 58 3e 69 1a d9 bd 6c 1c 85 3d
       0.16443475 0.2111089 -0.106007405 0.06499562
000070 c3 92 14 be a4 c8 14 3e b7 51 6f be 31 04 88 bd
       -0.1450911 0.14529663 -0.23371015 -0.066414244
000080 3c a6 df 3d d5 40 2a be de 81 c8 bd 10 b4 51 be
       0.109203786 -0.16626294 -0.09790395 -0.20478845
000090 8a b2 ae 3d f7 4d 86 3a 69 72 35 be 78 aa 60 3e
       0.085301474 0.0010246624 -0.17719425 0.21940029
0000a0 07 e1 8d bc 2f 39 5d be db 3b 08 be e1 f3 d8 3d
       -0.017319215 -0.21603845 -0.13304083 0.10593391
0000b0 9d 50 69 be a9 5d 2e 3c 71 01 5e be 77 34 77 3e
       -0.22784658 0.0106424475 -0.21680237 0.24141107
0000c0 5a 4c 92 3d c3 1c 1f 3e 96 b4 1a 3e 6a c9 69 be
       0.07143469 0.15538315 0.1510795 -0.2283074
0000d0 b0 94 c4 bd 62 d8 cc bc 40 4e 56 3d 3b 57 4c be
       -0.095986724 -0.025005523 0.05232072 -0.19955151
0000e0 5f de 60 bd 51 46 2d be 82 79 06 3d c1 7d 35 3e
       -0.05489957 -0.16921355 0.032830723 0.17723753
0000f0 d3 59 16 3e 0c 64 5b be 9f 0a 63 be fd 0b 07 3c
       0.14682703 -0.21424884 -0.2217202 0.008242604
000100 15 a8 61 3e b5 4a 0a be bb 78 3d 3e 98 37 66 3e
       0.22036774 -0.13505061 0.18503086 0.22482145
000110 cf 5e ed 3d 87 14 e6 3c 3c 00 8d bd 8e be 7e be
       0.11590349 0.02808596 -0.0688481 -0.24877378
000120 23 d5 ab bd 52 73 33 3d a3 58 06 3e 1e 84 11 be
       -0.08390262 0.04381115 0.1311975 -0.14210555
000130 85 72 78 be 66 54 6c 3e b9 d6 51 bd ac 5f 56 3e
       -0.24262436 0.2307907 -0.051230166 0.20934933
000140 d7 8c 04 3e 32 79 06 3d 88 7f 18 3c 8f b1 6d 3d
       0.12944351 0.032830425 0.00930775 0.05803066
000150 e7 2d f8 bb 37 1f df 3d 7c 41 0f be 3a d7 4b 3e
       -0.0075738314 0.10894626 -0.13989824 0.19906321
000160 9b 53 67 3e 69 4e 3e 3d 63 8b 02 3e d9 0f fb 3d
       0.22590487 0.046461497 0.12748484 0.12258882
000170 3d dd 3f be 6e 1e 1c 3c 43 84 f9 3d 5b 42 d0 bd
       -0.1873674 0.009528739 0.1218343 -0.10168906
000180 c0 70 f7 bc dc 27 52 bc 34 12 84 3e 39 aa 40 3e
       -0.03020513 -0.012826886 0.25795138 0.18814935
000190 f2 23 77 be 50 bb 40 3e 34 2e 5c be 55 26 06 be
       -0.24134806 0.18821454 -0.21502 -0.1310056
0001a0 a1 60 05 be 35 0f f0 bd a5 4b 29 3d 6a 50 65 be
       -0.13025142 -0.117216505 0.041331906 -0.22393957
0001b0 de 30 c5 3d 38 01 cf bc 72 b7 5c be 4e 78 1f 3e
       0.09628461 -0.025269136 -0.21554354 0.15573236
0001c0 cd 28 c5 bd 79 e4 21 3e 28 8b 48 bd 0e 9a 49 3e
       -0.09626923 0.15809812 -0.048960835 0.19687673
0001d0 96 72 95 3d a7 02 10 3e 4b 84 ba bc b7 75 7a 3c
       0.07297246 0.14063512 -0.02276816 0.0152868545
0001e0 ad 37 12 be d9 37 84 3d 98 e0 4a 3e 2d 7c 46 3e
       -0.14279051 0.064559646 0.19812238 0.19383307
0001f0 d6 ec 76 bd c7 c3 53 3b 76 3f 2a 3d f0 a4 fd bd
       -0.060284458 0.0032312737 0.041564427 -0.12384975
000200 73 0e 27 3e 1b bf 18 3e 30 55 2f be dc fb 8a bd
       0.16314106 0.14916651 -0.1712234 -0.067863196
000210 02 7f 6c 3e cc 80 fc bd be 83 79 3e c9 4b 71 bd
       0.23095325 -0.123292536 0.24366662 -0.058910165
000220 e7 50 4e bd 06 22 09 3e b6 08 31 3e 5c a5 6c be
       -0.050370123 0.13391885 0.17288479 -0.23109955
000230 3d 75 2f 3d f0 0e 8b 3d 14 f5 b0 bd 36 3f 1b bd
       0.042836417 0.067899585 -0.08640495 -0.03790208
000240 82 3f 6f be 67 c2 55 be 08 42 d9 bd 5d 3e 72 3e
       -0.2336407 -0.2087494 -0.106082976 0.23656602
000250 d9 aa 24 3e cb 63 df bd 9e 7c 1a 3e 5b 54 67 be
       0.16080798 -0.10907706 0.150866 -0.22590773
000260 00 d8 6a 3d 6f 11 70 3e 69 4f af bd eb 72 69 bc
       0.0573349 0.2344415 -0.08560068 -0.01424859
000270 3a 3b c4 3c 9e 9a ce bd 0f 7c 74 be 8a f8 00 3e
       0.023954023 -0.10088085 -0.2387545 0.1259481
000280 01 4b e0 3d 21 25 4a 3e 31 36 11 bd 29 92 ff 3d
       0.10951806 0.19740726 -0.03545207 0.1247905
000290 a4 2f 74 be 46 2d 5a 3e 9f a0 4e 3e e4 24 ed 3d
       -0.23846298 0.21306333 0.2017846 0.11579302
0002a0 66 c0 67 3e c2 d5 1d 3e 36 e6 4a bd 32 df 56 3e
       0.22631988 0.15413573 -0.049535953 0.2098358
0002b0 78 65 2c be 38 58 28 be 71 45 5f be 25 40 1b be
       -0.16835582 -0.16439903 -0.21803834 -0.15161188
0002c0 9d d1 aa 3d 21 d2 93 3d ca b6 5b 3c d3 30 96 bd
       0.08340762 0.07217813 0.0134102795 -0.07333531
0002d0 48 c0 7a 3e d9 a7 56 3d b1 c0 18 be 21 8d 2b be
       0.24487412 0.052406166 -0.14917256 -0.16753055
0002e0 32 f3 b3 3c 93 18 28 be 5e 1d 5b be 60 cd 03 3e
       0.02196655 -0.16415624 -0.21397921 0.12871313
0002f0 cf 72 3c 3e b5 e5 d2 bd dd 10 eb bd d3 30 00 3e
       0.18403171 -0.102977194 -0.11477826 0.12518625
000300 0e 8c 9a bd 64 9f 34 3e 5f f4 d7 bd 7b a7 a8 3c
       -0.075462446 0.17638928 -0.10544657 0.020587673
000310 a2 09 5a be 7b 11 c5 bd 69 02 45 3d 6e 20 6a 3e
       -0.21292737 -0.09622475 0.048098 0.22863933
000320 6f ba 75 bd d4 c9 08 be f8 f3 94 3d dc 1f 5d be
       -0.05999225 -0.13358241 0.07273096 -0.21594185
000330 27 37 99 3d c6 28 51 3d b0 1d 07 be 98 c7 6b be
       0.074812226 0.051064275 -0.13194919 -0.23025358
000340 96 cc 43 be b5 b6 12 bd e6 8b 45 3d 49 dc b9 bd
       -0.19121012 -0.035818774 0.04822912 -0.09075219
000350 2d 9a 41 3e f9 01 62 3e f2 4a 4b 3d 8b 92 3b be
       0.1890647 0.22071065 0.04963202 -0.1831762
000360 1c 24 7d be 03 9a df bd 2b 2e 31 bd cd ff 2f be
       -0.24720806 -0.10918047 -0.04325692 -0.17187424
000370 e4 03 78 3e 96 d7 32 be 9b 0f 38 bc 13 e5 3c 3e
       0.24220234 -0.17465052 -0.011234189 0.1844676
000380 45 5f 1e 3e c8 89 50 3e 2e 83 03 3e d8 09 83 3d
       0.1546603 0.2036506 0.1284301 0.06398362
000390 19 3e bb 3c aa fe cb bc 93 20 a4 bc 1d f2 03 be
       0.022856759 -0.024901707 -0.020035064 -0.12885328
0003a0 ca 3d 20 be 07 c1 11 be bf e7 33 be 5f 60 47 be
       -0.1564857 -0.1423379 -0.17568873 -0.19470356
0003b0 50 fe ef bd c8 38 71 3e 8f 29 2c be 03 42 72 be
       -0.11718428 0.23556817 -0.16812728 -0.23657994
0003c0 62 cb 46 be cf 89 3d 3e 7e 37 1e bd 02 ef de 3d
       -0.19413522 0.18509601 -0.03862714 0.10885431
0003d0 ea e8 99 bd 30 c8 54 3e dd d5 84 3d d8 a9 35 3d
       -0.07515128 0.2077949 0.06486104 0.04435143
0003e0 d2 7a 5f 3e f2 59 9b bd a3 93 58 be f3 89 2b be
       0.21824196 -0.07585515 -0.21150069 -0.16751842
0003f0 97 73 c3 3d a8 32 6a bc ff dd 5d be d1 b8 37 3e
       0.095435314 -0.014294304 -0.21666716 0.17941596

convs.1.nn.3.bias f4 [16]
000000 93 fe 65 be 81 82 36 be 7b de 62 be 60 40 58 3d
       -0.22460394 -0.17823221 -0.22155182 0.052795768
000010 c3 1f 0d be 79 c9 0d 3e e1 e0 75 3e 1f 33 03 3e
       -0.13781647 0.13846387 0.24011566 0.1281247
000020 4a bb df bd 38 c1 a6 ba 44 dc fb bd ad 73 d0 3c
       -0.109243944 -0.0012722379 -0.12297872 0.025445784
000030 b6 0a b2 3d 2d ad 33 3e 50 d4 58 be c0 e6 23 3e
       0.08693449 0.1754653 -0.21174741 0.16005993

convs.1.nn.4.weight f4 [16]
000000 5c 24 7e 3f aa d8 7c 3f 17 4b 81 3f 34 87 81 3f
       0.9927423 0.98768103 1.0101041 1.0119386
000010 4e 4b 81 3f d7 63 80 3f 5c fd 80 3f 60 eb 7d 3f
       1.0101106 1.0030469 1.0077319 0.9918728
000020 d2 f9 81 3f 6a 1e 7c 3f f1 12 7d 3f de ff 7c 3f
       1.0154364 0.9848391 0.9885703 0.9882792
000030 a7 59 80 3f 13 2f 7d 3f 18 85 7f 3f 42 77 7c 3f
       1.002736 0.98899955 0.9981246 0.98619473

convs.1.nn.4.bias f4 [16]
000000 64 d6 00 bc 8f 58 38 bc 81 ed 2e 3c 04 c4 43 3c
       -0.007863615 -0.011251583 0.0106767425 0.011948589
000010 98 3b 0f 3c bd 5d 40 3b 7b 17 f3 3b 97 70 01 bc
       0.008742236 0.0029352747 0.0074185706 -0.007900379
000020 4b c6 80 3c 86 70 73 bc 70 80 44 bc 20 f0 46 bc
       0.015719553 -0.014858371 -0.0119935125 -0.012142211
000030 74 65 0f 3b 63 b9 32 bc b5 e0 05 bb 43 2b 5f bc
       0.002188054 -0.010908457 -0.0020428125 -0.013621154

convs.1.nn.4.running_mean f4 [16]
000000 1f 39 c8 be f7 a8 e3 be 4e fc 0c bf 6e 7f 27 be
       -0.3910608 -0.44464847 -0.55072486 -0.16357204
000010 50 bc 85 3d 36 d1 03 3f 2e a2 12 3d c1 34 d6 3e
       0.065300584 0.51491106 0.035799198 0.41837123
000020 20 16 8e 3d 01 b3 27 be a6 37 0e 3e 39 16 84 bc
       0.06937814 -0.16376878 0.13888416 -0.016123878
000030 2f 9e 4a be 86 fa f1 3b 93 16 fc be cd ca 5b 3e
       -0.19786905 0.007384601 -0.49235973 0.21464081

convs.1.nn.4.running_var f4 [16]
000000 30 b8 18 3d 57 67 83 3d 8b bb eb 3e 01 cf 18 3d
       0.03728503 0.06416195 0.4604152 0.03730679
000010 90 98 ff 3d 7a 80 a8 3c 51 4d 2d 3d 49 0e 71 3c
       0.12480271 0.020569075 0.042310063 0.0147128785
000020 0c d2 23 3e e5 1b 60 3d 11 1a 52 3d a6 ad 54 3e
       0.15998095 0.054714102 0.05129439 0.20769367
000030 80 69 3f 3e b0 d6 ac 3d a2 d2 95 3d 27 37 74 3d
       0.18692589 0.08439386 0.07315566 0.05962291
