experiments/results/SHRIROOK/runs/2026-02-05T16:59:13-gin-shrirook/seed_2/best_weights.pt (torch, 119371 bytes, 180 tensors)

conv1.nn.0.weight f4 [16, 1]
00000000: acd4 9a3e df39 643f c46a 27bf e4f1 30bf
00000010: 5d6e 393f 898f fcbe c3bb f4bd 5d70 0a3f
00000020: e2ce 89be 9bde 18bd a870 633d 081b 50be
00000030: 51b8 383f 2db2 13bf 249f cdbe 9181 37bf
0.3024038 0.89150804 -0.65397286 -0.69119096 0.72434026 -0.4932826 -0.11949875 0.540777
-0.26915652 -0.037321668 0.05552736 -0.20322812 0.72156245 -0.5769375 -0.40160477 -0.7168208

conv1.nn.0.bias f4 [16]
00000000: d951 4cbf 6304 6abe 4a40 023f 4d3f 51bf
00000010: b58c 1f3f 5713 9fbe e409 643f 5f5b 67bf
00000020: 5432 8e3e e170 89be a3b0 ab3e cd81 893e
00000030: c72f e33e 6381 6c3c 8f61 45be 1a09 c5be
-0.7981239 -0.22853236 0.5087935 -0.81737214 0.62324077 -0.31069443 0.8907759 -0.90373796
0.27772772 -0.26843932 0.335332 0.26856843 0.4437239 0.014435145 -0.19275497 -0.38483506

conv1.nn.1.weight f4 [16]
00000000: b0b0 7e3f d3a7 803f a3b0 7e3f 90a7 803f
00000010: caa7 803f 98b0 7e3f bba7 803f c3a7 803f
00000020: 3ba7 803f b8b0 7e3f 07a7 803f 67a7 803f
00000030: 56b0 7e3f 16b2 7e3f a3b0 7e3f ccb0 7e3f
0.99488354 1.0051216 0.99488276 1.0051136 1.0051205 0.9948821 1.0051187 1.0051197
1.0051035 0.994884 1.0050973 1.0051087 0.9948782 0.9949049 0.99488276 0.9948852

conv1.nn.1.bias f4 [16]
00000000: d594 a7bb 16c9 a73b 4cc2 a7bb 1eab a73b
00000010: cbc0 a73b f2c5 a7bb 36cc a73b 1bb6 a73b
00000020: a867 a73b 28b9 a7bb 80c7 a63b 9989 a73b
00000030: 87cd a7bb 9731 a7bb e9c1 a7bb 84b1 a7bb
-0.0051141777 0.005120407 -0.0051195975 0.0051168343 0.0051194183 -0.0051200325 0.0051207794 0.005118144
0.0051087923 -0.005118508 0.0050897 0.0051128385 -0.0051209363 -0.005102347 -0.0051195514 -0.005117597

conv1.nn.1.running_mean f4 [16]
00000000: 154b cf3f 72c2 dc40 ec05 97c0 4efb cac0
00000010: 0740 cd40 3e23 88c0 f13d 84bd 39da 5a40
00000020: c2e1 efbf 941a 11bf 0d7d 473f c796 adbf
00000030: 7ccb c640 8522 93c0 d4d1 59c0 8bb2 c3c0
1.6194788 6.898736 -4.719473 -6.343177 6.414066 -4.254302 -0.06457127 3.4195693
-1.8740771 -0.5668118 0.7792519 -1.3561639 6.2123394 -4.597964 -3.403432 -6.115545

conv1.nn.1.running_var f4 [16]
00000000: 7746 b93d 0748 493f 389f d83e d1fa f13e
00000010: 99df 043f 267e 763e 8873 673c 3d1f 943e
00000020: 7ac6 923d 8d9c b43a b8e5 473b 115b 273d
00000030: 38db 033f e897 a83e 6962 233e 0c21 023f
0.09046643 0.7862553 0.42308974 0.4726167 0.5190368 0.2407156 0.014126666 0.28930083
0.07166763 0.0013779566 0.0030501913 0.040858332 0.51506376 0.32928395 0.15955509 0.50831676

conv1.nn.3.weight f4 [16, 16]
00000000: 7aec 62bd e3eb 53bc 6981 70be 7199 833d
00000010: 59b4 6a3e 53ab 7f3e c8eb f93d 5a61 b6bd
00000020: 68fe bb3d 2838 6dbe f130 703e 3bf3 0fbe
00000030: 8f74 1e3e d370 123e c586 74be 61c2 123e
00000040: e205 c23d 92d6 06be 294b e4bd 9c8a 7dbe
00000050: 2404 463e 5e2f 05be a473 c5bd d6b9 3ebe
00000060: d162 913c e90f 00be e3c0 aabc 6217 2abe
00000070: 2cf5 4f3e 457e 95bd 9537 93bd 428b 50be
00000080: 2f50 b83d 7dc4 5b3d 6dbc 1b3e 2bfc 41be
00000090: ae07 4e3e bd37 17be 38b4 53be acdf b1bd
000000a0: de6f 60bd 8c21 3c3e 1681 14be 82ea 573e
000000b0: 54d5 15be ffe5 0b3e 1350 1d3e b300 603d
000000c0: 2db9 3c3e dd1a 043e 6fae 01be 8164 65be
000000d0: d86a 83bd ef86 38be 54b9 083d 53d7 4cbe
000000e0: e416 d33c 9de7 de3c b505 5b3d 2501 113c
000000f0: f021 ee3d feff f03d 354e 73be 1c80 e8bc
00000100: 3c0b 1abe 8feb 7bbe cd43 febd 321d 9cbd
00000110: 6306 693e 73df 08be 93dc 57be edcf 703d
00000120: b855 533e 8d64 6cbd 3874 acbd 8323 03be
00000130: 0b08 68be 90ad 643e c766 8fbd eb5b 36be
00000140: 8295 d13d 3cb4 6cbe 8bee 44be 71eb 123e
00000150: 948a 47be 3f30 53be 3d36 783e 62d5 29be
00000160: c475 a43d 13d7 27be a780 26bd 8cb1 d03d
00000170: 6aaa 743e f5e4 47bd 470f 43be 133a 16be
00000180: e1de 41bd b570 41be 8738 8dbd 0fa8 45be
00000190: 2bdc 42be bdc8 753c d321 083e e9ab 1dbe
000001a0: 41fb 183e 6b1d 2abe 1a03 d73d 203e d73d
000001b0: 578e 393e af6d d6bd 630d 83bd 1940 ca3d
000001c0: 5e1a 19be 0183 60bd 0cf3 31be c45e 1ebe
000001d0: a26a 773e 1eb3 483e 8985 6f3e 5a29 95bd
000001e0: 4520 583e c16e 3bbe 41c8 d33c 9f25 babb
000001f0: 6138 c4bd 8e5f ee3d 5668 d23d bc43 22be
00000200: bdcd b33d 1ea5 84bd ffc8 c5bd 7385 073e
00000210: 315a 47bd e567 66bd 1c65 a93c 790a 703e
00000220: 38eb 9dbd e478 f33d a801 6f3e ed50 aebd
00000230: a6f2 21be 9178 a23d a96c 333d 6c99 3c3e
00000240: 3afb 143e 6b91 4e3e e0ff e5bd fc10 c6bd
00000250: 8dc6 d03d d82c 953d ef43 7e3e 6275 23bc
00000260: 569f 6cbe 99e8 d6bd 124e 0a3c c6c4 703e
00000270: 0382 76bd 2c73 af3d 501d 2a3e 6697 1fbe
00000280: e083 d4bd bc5b e8bd 79c4 843d aa2e 753e
00000290: c4c2 5c3e f8b3 08be ba51 3b3e 9c4b edbd
000002a0: 140a 4dbd aa2f 01be 912f 0dbe 04b3 383e
000002b0: 5bab 46bd 0d27 bb3c 5e0a 463e d8fe 5fbe
000002c0: 696e e3bc 41fa 293e d686 18bc e2f7 1dbe
000002d0: 51ff 243e d056 57be 10f0 b3bd 9fd5 613e
000002e0: c8b0 3fbd 7697 913d f578 253c ac49 4e3e
000002f0: c7d0 693e 00fa 3fbd 969a 5dbe c8ea ffbd
00000300: b499 24be 8ba6 c1bc 16ac e7bd 4ade a8bd
00000310: 3a47 c13d ae01 863d 306e 773e 366a 8ebd
00000320: 34c5 053e 0e57 e73d aac3 74bd 8edd 39bd
00000330: fe2d d93d a343 e63c 0a58 7a3e f31b 513d
00000340: 12d1 123e 62a1 91bc b153 6e3e 494b 313e
00000350: 12c8 66be 4535 31be 6c34 1d3d b742 593c
00000360: 82e5 11be c80b dc3d 0267 b33d 2a56 143e
00000370: 8273 35be 569c 733d 3f81 52be ba86 b4bd
00000380: 43bb 76be d9d8 483e cf87 6a3e d1fc 5abe
00000390: 7d1e 12be 4b9b 8b3d f8eb 79be dabb 76bc
000003a0: cfcf 083e c97f ee3d c65c 0c3e cfd8 943d
000003b0: 9eb6 103b bf8d 233e cf0d fb3d 4206 773d
000003c0: 0adf 17be 88db 14be 1b3b 2dbe b168 6fbe
000003d0: ac1f 46be 329e 383d d7f4 72be 560b 523e
000003e0: 6251 5ebb f045 383e f861 13be 469e cbbd
000003f0: eccd 823d 3761 67be de10 bbbd aadc 923b
-0.055401303 -0.012934658 -0.23486866 0.06425751 0.2292036 0.24967699 0.12203175 -0.08905287
0.091793835 -0.23165953 0.2345617 -0.14057629 0.15474151 0.14300852 -0.23879535 0.14331962
0.09473778 -0.1316779 -0.11147148 -0.24759907 0.19337517 -0.1300635 -0.09641197 -0.18625578
0.017747315 -0.12506069 -0.020843929 -0.16610482 0.2030837 -0.072994746 -0.07188336 -0.20365623
0.08999669 0.053654183 0.15208597 -0.1894385 0.20120117 -0.14767356 -0.20674217 -0.0868524
-0.054794185 0.18372172 -0.14502367 0.21085551 -0.1463216 0.13661955 0.15362577 0.054688167
0.18430014 0.12900873 -0.12664197 -0.2240162 -0.06416863 -0.18020223 0.033379868 -0.20004015
0.025767751 0.027210051 0.05347224 0.0088503705 0.11627567 0.11767577 -0.23760302 -0.0283814
-0.15043348 -0.24601577 -0.12415276 -0.07622756 0.22756343 -0.13366489 -0.21080236 0.058792043
0.20638168 -0.05771308 -0.084206045 -0.12806515 -0.22659318 0.22331834 -0.07002025 -0.17808501
0.102335945 -0.23115629 -0.19231622 0.14347626 -0.19486457 -0.20623873 0.2423944 -0.16585305
0.080302745 -0.16390638 -0.040650036 0.101901144 0.23893133 -0.048802335 -0.19048797 -0.14670591
-0.047331695 -0.1889065 -0.06895547 -0.1930239 -0.190293 0.015001473 0.13294153 -0.1539761
0.14939596 -0.16612785 0.104986385 0.10509896 0.18120705 -0.10470139 -0.06399038 0.09875507
-0.14951465 -0.054812435 -0.17377871 -0.15465838 0.24161771 0.19599578 0.23390783 -0.07283278
0.2110606 -0.18303968 0.025852324 -0.0056807543 -0.09581066 0.11639319 0.10273807 -0.15846151
0.08779476 -0.06476806 -0.096574776 0.132345 -0.048669998 -0.056251425 0.020678096 0.23441495
-0.0771088 0.118882924 0.23340476 -0.08511529 -0.1581522 0.079331525 0.0438048 0.18417901
0.1454896 0.2017266 -0.11230445 -0.09671208 0.101941206 0.07283944 0.24830602 -0.009976717
-0.23107657 -0.10493583 0.008441465 0.23512563 -0.060182583 0.08566889 0.16612744 -0.15585098
-0.10376716 -0.11345622 0.06482787 0.23943582 0.21558672 -0.13349903 0.18292895 -0.11586687
-0.05005844 -0.12615839 -0.13787676 0.18037039 -0.04850326 0.02284577 0.19339892 -0.21874559
-0.027762609 0.1659937 -0.009309491 -0.15426591 0.1611302 -0.2102921 -0.08786023 0.22054146
-0.04679945 0.07108967 0.010099639 0.20145291 0.22833548 -0.046869278 -0.21641001 -0.12495953
-0.16074258 -0.023638984 -0.1131212 -0.08245523 0.094374135 0.06543289 0.24163127 -0.06953852
0.13063508 0.11295901 -0.059756912 -0.045377307 0.106044754 0.028108424 0.24447647 0.051052045
0.14337566 -0.017777149 0.23274113 0.17313875 -0.22537258 -0.17305477 0.03838007 0.013260535
-0.14247707 0.107444346 0.087598816 0.14485994 -0.17719844 0.059475265 -0.20557116 -0.088147596
-0.24094872 0.19613971 0.2290337 -0.21385504 -0.14269443 0.06816729 -0.24406421 -0.015059436
0.13360523 0.11645467 0.13707265 0.072679155 0.0022081505 0.1597204 0.12258493 0.060308702
-0.14831176 -0.1453687 -0.16917078 -0.2337978 -0.1934802 0.04507274 -0.23726211 0.20512137
-0.003392302 0.17995429 -0.14392841 -0.09942298 0.06386933 -0.22595678 -0.091340765 0.0044818716

conv1.nn.3.bias f4 [16]
00000000: b43f b53d f580 a53d 3293 61be 22cf 02be
00000010: d571 fbbd 29f3 5cbe 02f2 c2bc bab8 163e
00000020: a15c edbd 1b90 44be 9f9e 31be bc0a 7cbe
00000030: 019e 543e 5a34 4cbe 92c0 e1bc aa8a f7bb
0.08850041 0.08081237 -0.22028807 -0.12774327 -0.12277571 -0.21577133 -0.023797039 0.14718905
-0.11589933 -0.19195597 -0.17345665 -0.2461347 0.20763399 -0.19941846 -0.027557645 -0.007554372

conv1.nn.4.weight f4 [16]
00000000: e1b7 7e3f efa1 803f 6bba 7e3f dd9d 803f
00000010: 1296 803f 2598 803f 1071 803f 82b8 7e3f
00000020: 53a4 803f 9ea5 803f fb9f 803f 53b5 7e3f
00000030: f4a2 803f e1b9 7e3f 4bc7 7e3f 74d2 7e3f
0.99499327 1.0049418 0.995032 1.0048176 1.0045798 1.0046431 1.0034504 0.99500287
1.0050148 1.0050542 1.0048822 0.9949543 1.0049729 0.9950238 0.99522847 0.99539876

conv1.nn.4.bias f4 [16]
00000000: 15f7 a2bb 8342 a03b d3ee a3bb 462c 9b3b
00000010: 2ec8 993b 0bc2 a33b 3ae0 733b 64ae a4bb
00000020: 8d58 a33b 95f1 a43b afb6 a13b 239a a4bb
00000030: 440f a43b 5427 a4bb c5d1 9ebb 2e7c 92bb
-0.004973302 0.0048907413 -0.0050028353 0.0047355024 0.0046930527 0.004997497 0.0037212507 -0.005025672
0.0049849213 0.0050336816 0.0049351077 -0.0050232573 0.0050067026 -0.005009571 -0.004846784 -0.00447037

conv1.nn.4.running_mean f4 [16]
00000000: 351a 9c3e 406d e3be d3a9 c2bd 559b 9ebe
00000010: 561f 1abf 3fde 0bbf 90f0 5ebe df2f 433e
00000020: 7a83 203e 0993 653d 7b33 13be 7ebb 33be
00000030: a81b ee3e 077f 5abe 8ce4 403e 1e5b 1abf
0.30488744 -0.4441929 -0.09505048 -0.30977884 -0.60204065 -0.54635996 -0.21771455 0.1906123
0.15675154 0.056048427 -0.14375107 -0.17551991 0.46505475 -0.2133752 0.18837184 -0.60295284

conv1.nn.4.running_var f4 [16]
00000000: f366 7c3d a97d ea3e a7c8 cd3c f934 223e
00000010: 54f3 e03b 3726 173b 0da8 403c aee5 ac3c
00000020: 2141 9a3a 2d77 aa3c c80a e43d dd2e f53e
00000030: af00 0e3e 2326 db3c bef1 9c3d 14c8 6f3d
0.061621618 0.45798996 0.025120093 0.1584052 0.0068649445 0.002306355 0.011758816 0.021105614
0.0011768678 0.02080878 0.11134869 0.47887316 0.13867448 0.026751583 0.07663296 0.05854042

convs.0.nn.0.weight f4 [16, 16]
00000000: c01a b53d a864 79bd 10a3 57bd 54c3 893d
00000010: 489a 98bd 6cc3 e03d 605c 143d ce2b 33be
00000020: 5242 693e fc1b 6a3e 7058 973c aae4 2fbe
00000030: a055 63be dac1 0d3e 962d 2fbe 0682 343e
00000040: adf6 72be bc9e 81bd 54fb 2ebd 77b1 1bbe
00000050: 34a7 d1bd 1c01 3b3e 3a4f 453e 7820 83bd
00000060: bb28 723e 0f78 31be 5eee 6fbe 1c5e a03d
00000070: b452 353e c65f 69ba 9ea6 3c3e 2300 6a3e
00000080: 7105 d63d 4b4f b3bd 21b3 ca3d cd11 623e
00000090: 2de1 22be 44c8 3cbd 4185 78be 7907 5cbe
000000a0: d585 7a3e 250c ce3d 2d1a 213e f1db 02be
000000b0: 893e 05bc 931b 39be d5fa 763e b9b5 de3d
000000c0: c28d 7fbe 587c fabd e8d4 fe3d f49f ff3d
000000d0: 7240 4abd a7a6 f23b 68bb 023e 6a9b 4a3e
000000e0: 7c2d f0bd ec24 e63d 20cd 7abe a611 173e
000000f0: 6868 f63d 70ce 9b3d 3c99 b03d 1e68 533e
00000100: 5234 26be 9053 acbd c078 073c c217 3bbe
00000110: f6e7 6fbe 3c26 1c3e 4440 16be 5651 433e
00000120: 78a5 143e 9aef 59be fa6d 5a3a f8ec 17be
00000130: 5640 673e 106b 52bd 86e3 44be b820 bf3d
00000140: 81b7 71be b17b 13be 30a5 73be b402 d03d
00000150: 69d9 3dbe ad0b 36bc 2d01 033e acfe 2a3d
00000160: 3791 df3c 40d2 ca3d ac87 7abe b4d9 cdba
00000170: 6507 4bbe acdd 94bd 1674 21be 6f88 38be
00000180: e459 c8bd 7afd 033e a64a 6fbe 4491 3dbe
00000190: 901f f5bc b2fa 6ebe 6c64 f63d b432 49be
000001a0: a645 2c3e c8d6 bcbd b85b 20bd e02b 9bbc
000001b0: 8edf 11be 183a 0fbe 2285 23be 904c 333e
000001c0: b2c5 2b3e 2819 933d 05e9 1ebc d1f6 413d
000001d0: 06d9 16be 2673 4abe e0f7 0e3e 188c 18be
000001e0: 90fe b3bd eaf0 1b3e 9c9b d0bd d648 78be
000001f0: 80af efbd c2e9 31be 52c7 0c3e 685c 96bb
00000200: 741a 2e3d e5f8 153d d048 2ebe 671b 5bbe
00000210: 7d36 38be 6308 63be ea5e f73c 8c2c 08be
00000220: 2f9e 073e 557a 693d a0c6 a83b 8f28 68be
00000230: 9460 f13d de1f f4bd 86c2 bdbd c702 cd3c
00000240: 2ed6 3c3e 90ea ce3d 7073 753e 2811 c3bd
00000250: c8ac 523d 2876 0b3e 4234 4e3e 04bb b1bd
00000260: 3654 4b3e 6d86 673c 88d1 07be aa16 33be
00000270: 80c1 f43d 31a8 b0bc 7857 383e 345d 60be
00000280: 99dd 06be 3f2e 62be 6bd5 4f3e 4323 1c3e
00000290: db86 303e b61d 653d 3253 81bd cfa8 3abe
000002a0: 083e 183e ef88 cb3d 35d3 523e 7cb1 ea3d
000002b0: 4106 1cbe a834 5b3d 7a01 8abd 492a 42bd
000002c0: f4aa bcbd 6839 b7bd 7cbf 29be 0c05 933d
000002d0: a81c 313d d2b0 08be f0fe d43d a0cf 093d
000002e0: e007 53bd 2e11 02be d096 193d ea62 5abe
000002f0: eed8 2e3e ac6d 593e 2c98 acbd c413 d2bd
00000300: de8a ec3d 610d f03c 938d 793e c108 3a3e
00000310: 9113 1bbe 065e 3b3e 63e0 cfbd d31c c4bd
00000320: 6257 043d 4ab7 fcbd 6dfb 2fbe c327 54be
00000330: f3d0 4e3e 0df5 18be f33b 173e a6d2 fbbd
00000340: 3404 f6bd afd1 ad3d 185c 483e 471e 533d
00000350: b4c4 6ebd a215 4abe f391 92bc be99 783e
00000360: 0955 103e 12ed 5b3e ecec 07be aa2f 3bbe
00000370: 88cc 59be fc9e 543e 6edc a43d 3cd7 aabc
00000380: a843 66bd 101b 7abe 70aa dbbd c06c 253d
00000390: 9e6c 433e 7023 78be 9656 6c3e d88c 7ebe
000003a0: 5a0a 5abe 7084 d03d cc22 cebd 67aa 073b
000003b0: f41d 4cbe 08c0 93bd 02a5 653e 6e78 75be
000003c0: e775 58be 9d7c 3c3e f04a 8bbc 87c7 783e
000003d0: ae57 703d 8033 ca3d 12b8 303e 5148 593e
000003e0: 09a3 1e3e f963 58be 89cb 683e 5f06 363e
000003f0: 8594 06bd f0bf 933c c5b0 513e 23b0 ebbb
0.08842993 -0.06088701 -0.052645743 0.06726709 -0.07451302 0.10974774 0.03622091 -0.17497179
0.22779205 0.22862238 0.018474787 -0.17177072 -0.22200632 0.1384348 -0.17107233 0.17627725
-0.23726912 -0.06329104 -0.042720154 -0.15204416 -0.102369696 0.18262142 0.19268504 -0.06402677
0.2364835 -0.17330955 -0.23430774 0.0783045 0.1770733 -0.0008902516 0.18422934 0.22851615
0.104502566 -0.08755358 0.098974474 0.22077103 -0.1590621 -0.046089426 -0.24269582 -0.21487226
0.24465115 0.1006091 0.15732642 -0.12779213 -0.008132585 -0.18076925 0.24119122 0.108745046
-0.2495642 -0.12230748 0.124429524 0.124816805 -0.049377866 0.0074051204 0.12766802 0.19785848
-0.117274255 0.11237511 -0.24492311 0.14752826 0.12031633 0.07607734 0.08622977 0.20645186
-0.16230896 -0.08414376 0.008268535 -0.18270782 -0.2342833 0.1524896 -0.14672953 0.19073996
0.14516246 -0.21282807 0.0008332428 -0.1483649 0.22583136 -0.051371634 -0.19227418 0.093324125
-0.23605157 -0.14402653 -0.23793483 0.101567656 -0.18539967 -0.011111182 0.12793417 0.04174678
0.027290924 0.09903383 -0.24465817 -0.0015705139 -0.1982704 -0.07268843 -0.1576694 -0.18020795
-0.0978277 0.12889662 -0.2336832 -0.18512446 -0.029922277 -0.2333782 0.12030873 -0.19648248
0.16823444 -0.09220654 -0.03914997 -0.01894182 -0.14245436 -0.13987005 -0.15968755 0.17509675
0.16774634 0.071825325 -0.009699111 0.047354523 -0.14731225 -0.19770488 0.13961744 -0.14897192
-0.08788788 0.1522862 -0.1018593 -0.24246535 -0.11703396 -0.17374328 0.1374791 -0.0045886524
0.042505696 0.036614317 -0.17019963 -0.21397172 -0.17989536 -0.22171168 0.030196626 -0.13298243
0.13243936 0.05700143 0.005150631 -0.22671722 0.11785999 -0.11920141 -0.09265618 0.025025738
0.18441078 0.10103333 0.23969817 -0.09524757 0.05143431 0.13619292 0.20137122 -0.086782485
0.19856343 0.014131171 -0.13263524 -0.17489114 0.1195097 -0.021564575 0.18002117 -0.21910554
-0.1317047 -0.22087954 0.20296256 0.15247826 0.17238943 0.055936538 -0.06314696 -0.18228458
0.14867413 0.099382274 0.20588382 0.11459634 -0.1523676 0.053517014 -0.06738563 -0.047403608
-0.09212294 -0.08946496 -0.16576952 0.07178697 0.04324022 -0.13348702 0.10400188 0.033645272
-0.051521182 -0.12701866 0.03749734 -0.21326795 0.1707494 0.21233243 -0.08427462 -0.10257676
0.11549924 0.029303255 0.24370413 0.18167402 -0.15144183 0.18297586 -0.1015022 -0.0957581
0.032309897 -0.12339647 -0.17185755 -0.20718293 0.20196895 -0.1493723 0.14768963 -0.122960374
-0.120125204 0.084872596 0.19566381 0.051542547 -0.05829306 -0.19734815 -0.01789186 0.24277398
0.14094938 0.21477154 -0.13273972 -0.18279901 -0.21269429 0.20763773 0.08049856 -0.020854585
-0.056216866 -0.24424386 -0.10725868 0.040386915 0.19084403 -0.24232268 0.23079905 -0.24858415
-0.21293011 0.101815104 -0.10065231 0.0020700933 -0.19933301 -0.072143614 0.22426227 -0.23971722
-0.21138726 0.18406911 -0.017003506 0.24294864 0.058677368 0.09873104 0.17257717 0.21218993
0.1549188 -0.21131887 0.22733893 0.17775868 -0.032856483 0.018035859 0.20477588 -0.007192628

convs.0.nn.0.bias f4 [16]
00000000: d0e7 fabc 2899 333e c2b4 00be 5453 353e
00000010: 0020 953a 6024 0cbd 3e65 5bbe 2eb5 46be
00000020: 2c04 a13d 9840 093e f80f e63d 1af4 723e
00000030: 28dd cd3d 39be 47bb 24ba fd3d b258 313e
-0.030628115 0.17538893 -0.12568954 0.17707568 0.0011377335 -0.034214377 -0.2142534 -0.19405052
0.07862124 0.13403547 0.112335145 0.2372593 0.10051948 -0.0030478372 0.12389019 0.17318991

convs.0.nn.1.weight f4 [16]
00000000: 27fe 7f3f cdd4 7f3f 4249 803f a3d8 7f3f
00000010: 1bbe 7f3f ee2f 803f 1604 803f e028 803f
00000020: 5530 803f 45bb 7f3f 55c1 7f3f a3bc 7f3f
00000030: 5008 803f 3baf 7f3f a3e0 7f3f b8b5 7f3f
0.9999718 0.99934083 1.0022357 0.99939936 0.9989945 1.0014627 1.0001247 1.0012474
1.001475 0.99895126 0.99904376 0.9989721 1.0002537 0.99876755 0.99952143 0.99886656

convs.0.nn.1.bias f4 [16]
00000000: 45a9 10b7 68fe 53ba c56b fc3a 4274 4aba
00000010: 0732 9eba f3eb a93a 3473 c938 db21 863a
00000020: c4bc a03a 7ac1 a5ba d693 4bba 2f4f a4ba
00000030: 0e8a b639 9f7d faba 14e0 1eba f06e b5ba
-8.62248e-06 -0.0008086921 0.0019258192 -0.0007723012 -0.0012069353 0.0012963995 9.605885e-05 0.0010233478
0.0012263288 -0.0012646161 -0.0007765865 -0.0012535806 0.00034816604 -0.0019110924 -0.0006060612 -0.0013842266

convs.0.nn.1.running_mean f4 [16]
00000000: 1331 743f 8893 2f3f acf5 503f 07c4 0d40
00000010: 7ea6 34c0 b7a3 9ec0 57b2 76c0 7e71 05c0
00000020: 8306 69c0 d7c0 2440 9119 c03f 53ac dbbf
00000030: c957 343d 2f76 4d3f 9c83 65c0 ac57 9e40
0.9538738 0.6858449 0.81624866 2.2150896 -2.8226619 -4.9574847 -3.854635 -2.085052
-3.6410224 2.57427 1.5007802 -1.7161964 0.04402903 0.8025846 -3.5861578 4.948202

convs.0.nn.1.running_var f4 [16]
00000000: 4bef 3b41 4aa6 6c40 d250 8240 b953 843f
00000010: 9c8f 4641 9703 703e c949 5e40 7596 713f
00000020: 68bd 2240 89a2 6f40 2c1b 903f 9eaf 7441
00000030: 9485 263f 3c81 8b40 73a8 1d40 51b3 1340
11.745921 3.6976495 4.0723658 1.033805 12.410061 0.2343887 3.4732535 0.94370204
2.5428104 3.7442954 1.1258292 15.292875 0.65047574 4.3595257 2.4634063 2.3078196

convs.0.nn.3.weight f4 [16, 16]
00000000: 4aa8 63be ce74 5e3e 6f97 7c3e 67a1 57bc
00000010: 6eb3 423e c756 bdbd c2fa dd3b e361 1abe
00000020: 6918 43be cc05 69be 6cab 003e f57a fcbd
00000030: 235b 16be d839 353e a9c0 853d 33fc 2abe
00000040: 1109 24bd ced4 163d f312 7f3e 30a4 053e
00000050: 1cba 51be f140 6cbe 0189 673e a2dd fe3d
00000060: f487 fd3d 8cdc 44be b5fc 5a3e 3559 a83d
00000070: a473 41be 01cb 61bb 1a02 f93d 5f82 b9bc
00000080: cd46 72bc d071 c3bd c2b3 7ebe c314 ddbd
00000090: 1191 61be b1aa 0fbe 5722 4bbd 7a43 f0bd
000000a0: 3a22 39be f664 7bbd 3f7e 0f3e fa02 96bd
000000b0: 5fed ea3d 76ae 5bbe a9e5 16be cab5 56be
000000c0: 8e4b f93d 71a0 0cbe 25bc 38be ca29 4abe
000000d0: b344 713e bda1 5bbe be75 b83d 00b3 75bd
000000e0: bb3d f2bd bdf1 353e c7f0 833c 1360 5a3e
000000f0: 392a 703e a093 643e 9c88 533e ae6e 43be
00000100: 4557 9339 4c4c 39be 9209 9c3d 938a f03d
00000110: 431e 9d3d 422a 5f3e 3cef 81bd d674 8c3d
00000120: 6d11 bcbd 540d 1e3e cf94 603c 6fcb 33be
00000130: e927 8dbd f684 d6bc 9bab df3d 8706 e43d
00000140: c374 07be 927f 303d ed13 533e f650 f73d
00000150: 900b 1a3e 63b4 22bd 5fe8 5d3e e67f 1d3d
00000160: a2d2 2ebe e2e7 523e b6c0 9f3d 3406 72be
00000170: 8554 0ebc 48ad b33d 7a28 1a3a efe9 3dbd
00000180: 8db4 ff3d e644 353e e28e 07be 22f8 613e
00000190: 1fed a5bd f1ae 513e 9cbf 043a 9bc0 0fbe
000001a0: 6d33 cfbd 0560 2dbe a311 1bbe 4677 7ebe
000001b0: 0996 2d3e 152a 183d 6e3c f1bd 9bd4 703e
000001c0: 3d2d 413e 6dac 113e 212c 20be 25ed 22be
000001d0: fb9c 7a3e 4e2f 9cbd 4cf8 0cbe 4cb8 243e
000001e0: a3c6 533e 80bd 803d 496e ea3d f4ca e7bd
000001f0: 4b3c 46be 19d3 cdbd 906e c73d 9694 883d
00000200: 2065 103e 0d3a 32be eb6f 43be 59be 43be
00000210: 926b 033e 197c eabd 17b9 64be 3457 4abe
00000220: 1eff 94bd c744 f43d e2f8 923c bf35 1abe
00000230: f144 a03d 2278 5e3e 25fd 523e c04e 24be
00000240: ae68 6abe 1a7f 1dbe e185 293e 3b1f 2d3e
00000250: 9935 773e 5e90 983d 7ea4 8fbc 2ddf 6bbd
00000260: d6eb 07be 3b7c c2bd 8a65 ac3d 638e 923b
00000270: 7a66 cfbd a60b a4bc 2fb9 fabd 9198 d33d
00000280: f992 273e 56bc 15bd 2bb6 e43d c2ac 0a3e
00000290: acc8 77be ebc2 3dbd 8730 43be 613d 3a3e
000002a0: bf41 ffbd aa75 44be 5ca5 813c ac18 0ebe
000002b0: f1d0 043e 00a5 423d 688d c63d fe90 7dbe
000002c0: a578 573e 15c4 d13c 163d 533e 33af 22be
000002d0: 362b 8dbd b6ea 913d 8f62 8e3d 4ba1 5abe
000002e0: 5433 cc3d bad2 a3bc 9337 45bd 9a51 38bd
000002f0: d957 12be 9200 68bd b06f 78be 2f4b 443e
00000300: 1bfb 993d 1326 b83d 7806 8fbb 1856 4cbe
00000310: bae0 603e 57b0 78be 4c21 043b a204 18bc
00000320: d0cd 3c3d ed70 023e b05d 49bd b45a 8ebc
00000330: 7982 163e 4135 04be ebf1 f6bc 178b 6bbe
00000340: e106 3f3d b782 473d 8389 443e 9ae6 37be
00000350: 430c 8a3c afb0 fcbd 298e f2bd 0b45 a13d
00000360: 26e1 cbbd bbb4 dfbd 3f04 19be 6047 79be
00000370: 17dd f33d 6524 233e 3608 4bbe 8bcc 9ebd
00000380: 086d 50be 876e 703e 7e3d 9a3d c2c1 83bc
00000390: 1079 593e 40f2 6e3e 827d 78be f7a6 a9bd
000003a0: db4d 09be 3e00 f73c f26a 73be ee04 43be
000003b0: 1f61 d03d e071 24be a52c 4dbd 768d 7bbe
000003c0: da14 6e3d c39e 1a3d c9e1 5dbe d8a8 6fbd
000003d0: da04 763e ee33 1c3d c692 983d 08e2 60bd
000003e0: e516 353d 960c 4dbe 8724 12be 40de 6dbe
000003f0: e6a1 dcbd 99e0 f8bd fa83 2d3e 7794 d7bd
-0.22232166 0.21724245 0.24667142 -0.01316104 0.1901376 -0.09245067 0.0067742774 -0.15076403
-0.1905228 -0.22756118 0.12565392 -0.1232814 -0.14683203 0.17697847 0.06530888 -0.16697769
-0.04004771 0.03682404 0.24909572 0.13050914 -0.20481151 -0.23071648 0.22610857 0.12444617
0.123794466 -0.19224757 0.21385463 0.0822014 -0.1889177 -0.0034453275 0.12158604 -0.022645174
-0.014787388 -0.095431924 -0.2487326 -0.107949756 -0.22027995 -0.14029957 -0.049593296 -0.1173162
-0.18079463 -0.06137558 0.14013003 -0.073247865 0.11471056 -0.2145327 -0.14736046 -0.20967785
0.12172614 -0.13733079 -0.18040521 -0.19742504 0.23561363 -0.21448417 0.090068325 -0.05998516
-0.118281804 0.17767997 0.016106023 0.21325712 0.23453607 0.2232194 0.20657581 -0.1908519
0.00028103046 -0.18095511 0.07619013 0.11745181 0.076717876 0.21793464 -0.063444585 0.06858222
-0.09183011 0.15434772 0.013707354 -0.17558073 -0.06892378 -0.026186448 0.10921403 0.111340575
-0.13228135 0.04309041 0.2061307 0.12075989 0.15043473 -0.03972281 0.21670674 0.03845205
-0.17072538 0.20596269 0.078004286 -0.23635179 -0.008687143 0.08773285 0.0005880665 -0.046365675
0.12485609 0.17702064 -0.13238099 0.22067311 -0.08101868 0.20476891 0.00050639524 -0.14038317
-0.101172306 -0.1693116 -0.15143447 -0.24850187 0.16951765 0.037149508 -0.11779104 0.23518603
0.18864913 0.14225931 -0.15641834 -0.15910776 0.24473946 -0.0762621 -0.13766593 0.16085929
0.20681243 0.06286144 0.114468165 -0.11318007 -0.19358937 -0.10050029 0.09737885 0.066689655
0.14101076 -0.17404957 -0.19085662 -0.1911558 0.12834004 -0.11449451 -0.22336231 -0.19759828
-0.07275222 0.11927181 0.017940942 -0.15059565 0.078256495 0.21725515 0.2060438 -0.16045666
-0.22891495 -0.15380517 0.16554977 0.16906445 0.2414154 0.07449411 -0.01753449 -0.057585884
-0.13273558 -0.09496351 0.084178045 0.00447254 -0.10126968 -0.020025086 -0.12242352 0.10331834
0.1636466 -0.036556564 0.11167558 0.13542464 -0.24197644 -0.046328466 -0.1906148 0.18187477
-0.12463712 -0.1918551 0.01582592 -0.13876599 0.1297033 0.047520638 0.0969494 -0.24762341
0.21042116 0.025606195 0.20628771 -0.15887146 -0.068930075 0.07124846 0.06952392 -0.21350591
0.099707276 -0.019997943 -0.048148703 -0.044999696 -0.14291324 -0.05664117 -0.24261355 0.19169305
0.07518598 0.08991637 -0.004364785 -0.19954717 0.21960726 -0.24286018 0.0020161448 -0.009278448
0.046094716 0.1273839 -0.049161613 -0.017377235 0.14698209 -0.1291094 -0.030144652 -0.23002277
0.04663742 0.048708644 0.19193082 -0.17959061 0.01685155 -0.12338387 -0.11843521 0.07874497
-0.09955053 -0.109231435 -0.14943026 -0.24343634 0.11907404 0.15931852 -0.19827351 -0.07753857
-0.20354092 0.23479663 0.0753126 -0.016083602 0.21237588 0.23334599 -0.24266627 -0.08283799
-0.13408606 0.030151483 -0.23771265 -0.1904485 0.101747744 -0.16059065 -0.050091404 -0.24565682
0.058125354 0.037749063 -0.21668161 -0.05851063 0.24025288 0.03813546 0.0744987 -0.05490306
0.044211287 -0.20024332 -0.14271747 -0.23229313 -0.10773067 -0.121522136 0.16944876 -0.10526364

convs.0.nn.3.bias f4 [16]
00000000: 524c 5ebe b045 42be bf12 20be 2c52 67be
00000010: b27e b33c e765 df3d 98b7 c4bd f8ca acbb
00000020: 1862 353e 560f 663e 0074 fe3c 0553 5e3b
00000030: 2c93 5d3e 105f 0f3e 8817 353e dfc0 40be
-0.21708801 -0.18971896 -0.15632151 -0.2258994 0.021910999 0.10908108 -0.0960533 -0.005273219
0.17713201 0.22466788 0.031061172 0.0033923995 0.21638173 0.14001107 0.17684758 -0.18823574

convs.0.nn.4.weight f4 [16]
00000000: b503 803f 8515 803f 8e30 803f 63fb 7f3f
00000010: 7d72 7f3f 301a 803f 7ad1 7f3f 1ff6 7f3f
00000020: 753c 803f 1dfc 7f3f d4b8 7f3f 0c47 803f
00000030: 4d0c 803f 750c 803f 58b9 7f3f a7a2 7f3f
1.0001131 1.0006567 1.0014818 0.9999296 0.9978407 1.0007992 0.9992901 0.99984926
1.001845 0.9999407 0.998914 1.0021682 1.0003754 1.0003802 0.9989219 0.9985756

convs.0.nn.4.bias f4 [16]
00000000: 8605 b1b9 b515 f439 a3c5 e73a b3fb 4eb9
00000010: 5a27 09bb 5cf1 443a d901 91ba 1dce b4b9
00000020: e1a2 0b3b 55fa 02b9 25c5 66ba fed7 ee3a
00000030: 4c8e f839 b7c1 8b39 d69f 58ba fcc2 84ba
-0.00033764186 0.0004655548 0.0017682802 -0.00019739456 -0.0020927996 0.0007512772 -0.0011063173 -0.00034485842
0.00213068 -0.00012491022 -0.00088031805 0.001822233 0.00047408266 0.00026656475 -0.00082635635 -0.0010128911

convs.0.nn.4.running_mean f4 [16]
00000000: 1702 bdbe 5a44 b33c cbd7 76bf 8375 98bc
00000010: 32ee 423e 9953 ba3e 0163 a8bd dc4f 2b3e
00000020: 230e d8bd ada2 393e 5d13 0abe 9d82 68bd
00000030: f006 eb3d c836 34be 59e1 21be e609 f3be
-0.36915657 0.021883179 -0.96423024 -0.018610721 0.19036177 0.36391905 -0.082220085 0.16729683
-0.10549571 0.18128462 -0.13483949 -0.056765188 0.114759326 -0.17599022 -0.1580862 -0.4746849

convs.0.nn.4.running_var f4 [16]
00000000: 1202 1b3d 7500 243e 826d 5b3e 90a8 ce3d
00000010: db99 a33c 5a04 393c 4be3 e33c 915d 723c
00000020: 99c0 f73c fa4e 203c 326a 063e e94a 293e
00000030: a725 883c 5a7f 923d 113e 8f3d d5d7 a83c
0.03784377 0.160158 0.21428493 0.100907445 0.019970825 0.011292541 0.027818343 0.014792816
0.030243205 0.0097844545 0.13126448 0.16532482 0.016619517 0.07153197 0.0699426 0.02061073

convs.1.nn.0.weight f4 [16, 16]
00000000: 0751 0abe 1bbb a3bd cb22 1b3e d25e 6cbd
00000010: 664a 303e 1370 793e b1c3 2a3e c9bf 29bc
00000020: b419 6bbe 622b 7b3e f3bd 8cbc 20e8 63be
00000030: 7e66 52be 5bfa 3ebe 6767 5cbe df24 0f3e
00000040: f995 0fbe 016d 47be 11f9 b1bd 3051 6cbd
00000050: dc69 7dbe d4bc 4abe 16e3 7abe 99e7 e73b
00000060: f61e 2a3d 5d4a 24be ec28 73be d84c 63be
00000070: 5c7f 7c3e cd71 453e d5e7 1bbd 6635 4ebe
00000080: 2dd5 5cbd ce90 2e3e 0d47 b7bd 19f6 463e
00000090: c206 75be a185 35be 0b1a 0dbe b800 253e
000000a0: 431f 3a3e a5f8 2e3d 1d90 d8bd 3d39 9a3d
000000b0: 7561 7bbd aefe d53c d440 79be 8ecd 733e
000000c0: cae6 183e 6c6c 493e 0bf1 71be e7d3 383e
000000d0: 620a 48be 3ddd d93d 6622 2f3d 0066 b2bc
000000e0: 06d6 31be a0a2 7b3d b1e6 55be b125 613e
000000f0: a2b2 3fbe 43c9 cf3c 915a c5bd 3c8e 1bbe
00000100: b21b 763e edab c5bd 1029 49bd 30f8 06be
00000110: 1c44 9fbb 79e1 d5bb 3ebc 3c3e 3f32 3f3e
00000120: 0f5f f03d 752e 35be 90b1 0e3e 2d69 2e3e
00000130: b38b 8ebd db4a 27be a202 70be 0275 943d
00000140: 1b59 343d a3d6 723e cebb 11bd 6410 173e
00000150: a4c3 dd3d f81f dc3a 90f5 18be 435a a03d
00000160: 3b31 b0bd 286d 453e 0766 6a3e f59a 263e
00000170: cbbe 393e 35f6 06be 98f9 96bd 56c4 cfbd
00000180: 07cb af3d 8ea7 10be 078b b43d 4784 3ebe
00000190: ba5a f23d 5507 d33c c103 21be 6cb6 c43d
000001a0: 8112 8a3d 44f6 cfbd fa91 16be 952e 4c3d
000001b0: a39e d83d 6b3d 07be f1ec 713d 1819 e9bd
000001c0: 21a4 073e 2089 6c3e 9f47 3fbe 0530 3cbe
000001d0: cad3 ae3d f789 e1bd 2ca5 563e 2e73 31be
000001e0: 7578 67be 1173 2c3e a613 473e e8ac 5cbd
000001f0: 76b8 153d 76b4 71bd 6761 953d 362a 5d3e
00000200: 4b55 383e 614c 9c3d ea09 34be 2c9b 44be
00000210: 715a 513e 4a76 35be 9319 063e 1dba 0f3e
00000220: 0cdd f83d 3dc4 16bd e4c2 07be fd08 773e
00000230: 8f51 ba3c 0cc2 9b3d 8c41 803d f6c4 4bbe
00000240: 7104 613c 7dd1 6dbe a825 47be 47db 163c
00000250: 1174 503e 8fca aebd e3f9 38be 313b 75be
00000260: 3b15 5e3d 0ab3 303e 00be 30be 814f 053e
00000270: da7f 8b3d d6e1 d6bd ef6c e93d 63e1 4a3e
00000280: 5119 2f3e 54f7 e1bb c9ff 28be ff5b 363d
00000290: 8430 18be ae6e 943d 2f41 04bd 481b 78bc
000002a0: b046 743e fb45 793e a2c2 e03d cdab 3abe
000002b0: 8a07 18be 3cce 613c 0941 efbd 03dc d03d
000002c0: 4fa9 3dbe da70 38be 585a 673e a5d4 58be
000002d0: a444 f2bd cbfc 733e 799f 79be 536d 413e
000002e0: 5e58 32bd 1bf7 01be 1c19 c0bd 9d43 57be
000002f0: ca5f 0f3e a60b 2ebe 2475 693e b983 343c
00000300: 4572 593e f935 013e 8319 6b3e cf8d b4bd
00000310: 2109 343d 95fd 0cbe 9877 3dbe ca39 eabd
00000320: 6d65 e3bd 2dd6 803d edc2 723d df63 093e
00000330: b509 383e 320e 47be 7624 5bbe be69 0bbe
00000340: c985 22be f06a 3c3e 3642 e13d c81f 7fbe
00000350: 13b4 0e3e 0616 213e 75ad a33d 3241 5abe
00000360: 738d 3d3d 08f4 db3c 59f7 10bc df7e 63bd
00000370: c516 093c 6164 3d3e 91a0 21be 8dc1 45be
00000380: 270a 8cbd 3a1f 203e ce85 de3d 190e 703d
00000390: 3707 fd3d 7a36 54be 6981 bbbd a730 573d
000003a0: 88fe 07be b28e 303e e465 233d 9976 043d
000003b0: 2ca2 35be e654 a9bd 64a5 203e 81d8 53be
000003c0: 7ab0 27be 633a 04be b7e7 f13d 5a3e e7bd
000003d0: 89cf a8bd 9e8b 0e3e 4272 3dbe 3151 60be
000003e0: b394 6b3e b5a4 a8bd 2cb2 0c3e f73b fbbd
000003f0: c27a 14be 270c 04be ce68 133e 6a61 683e
-0.13507472 -0.07994672 0.15149991 -0.057707615 0.17215881 0.24359159 0.16676213 -0.010360667
-0.22959024 0.24528268 -0.017180419 -0.22256517 -0.2054691 -0.1865019 -0.2152382 0.13978909
-0.14022054 -0.19475175 -0.08690084 -0.057694614 -0.24747413 -0.19798595 -0.24500689 0.007077169
0.041533433 -0.16043992 -0.23746079 -0.22197282 0.24657959 0.19281693 -0.03806289 -0.20137557
-0.053914238 0.17047426 -0.08949099 0.19429816 -0.23928359 -0.17726757 -0.13779466 0.16113555
0.18175988 0.042717595 -0.105743624 0.075304486 -0.06137224 0.026122417 -0.24341136 0.23808882
0.14931789 0.19670266 -0.23627107 0.18049584 -0.1953521 0.10637901 0.042757414 -0.021777153
-0.173668 0.06143439 -0.20888783 0.21987034 -0.18720487 0.025364524 -0.09636415 -0.15190977
0.24034002 -0.09651933 -0.049111426 -0.13180614 -0.004860414 -0.0065271226 0.18431184 0.18671511
0.11736881 -0.17693503 0.13934922 0.17032309 -0.06960239 -0.16337149 -0.23438504 0.0724888
0.04403029 0.2371469 -0.035579495 0.14752346 0.10828331 0.0016794195 -0.14937425 0.07829716
-0.0860314 0.19279921 0.22890483 0.16270049 0.18139188 -0.13179858 -0.07371825 -0.1014487
0.08583646 -0.14126417 0.0881558 -0.18605147 0.11833711 0.025760332 -0.15724088 0.09605107
0.067418106 -0.10154393 -0.14704123 0.04984911 0.105771326 -0.13207023 0.059063856 -0.113817394
0.13246204 0.23099184 -0.18679665 -0.18377693 0.08536489 -0.11012643 0.20961446 -0.17329094
-0.22604544 0.1684077 0.19441089 -0.053875834 0.03655287 -0.05900999 0.07293969 0.21598133
0.18001287 0.076317556 -0.17581907 -0.19199818 0.20444657 -0.17720905 0.13095693 0.1403584
0.12151536 -0.03680824 -0.13257939 0.24124523 0.022743968 0.07605371 0.06262502 -0.19899353
0.013733969 -0.23224445 -0.19447958 0.009207553 0.20356776 -0.08534729 -0.18064074 -0.23948361
0.054219466 0.17255798 -0.17259979 0.1301861 0.06811495 -0.104922935 0.113977306 0.1981254
0.17099501 -0.006895939 -0.16503824 0.044521328 -0.14862257 0.07247673 -0.032288726 -0.015143223
0.2385509 0.24343102 0.10974623 -0.182296 -0.14846626 0.01378208 -0.11682326 0.10198214
-0.18521617 -0.180118 0.22593057 -0.21174867 -0.118294984 0.23826902 -0.2437724 0.1888936
-0.043541305 -0.1269192 -0.09379789 -0.21021886 0.14001384 -0.16996631 0.22798592 0.011017733
0.21234997 0.12618245 0.2295895 -0.0881611 0.04395402 -0.13768609 -0.18502653 -0.11436804
-0.1110333 0.06290851 0.059267927 0.13417004 0.17972453 -0.19439009 -0.21400627 -0.13614556
-0.15871347 0.18400168 0.10998957 -0.24914467 0.1393588 0.15731058 0.07992069 -0.21313933
0.046277475 0.026849762 -0.008848035 -0.055540916 0.008367245 0.18495323 -0.15783907 -0.19312115
-0.06837874 0.15636912 0.10865365 0.058607195 0.12354892 -0.20723906 -0.091555424 0.052536633
-0.1328069 0.17241934 0.039892092 0.032339666 -0.17737645 -0.08268146 0.15688092 -0.20688058
-0.16375914 -0.12912898 0.11811774 -0.112911895 -0.08242709 0.13920447 -0.18500617 -0.21905972
0.23005943 -0.082345404 0.13739842 -0.12267297 -0.14499953 -0.12895261 0.14395449 0.2269341

convs.1.nn.0.bias f4 [16]
00000000: 0d4b 72be ed8f 74be 0c1d 1bbe 7500 423e
00000010: c5e9 9c3d d4b1 66bc a110 703e 3f54 5abe
00000020: 42f3 55be c019 a63c cb4e 8cbd 3bce 78be
00000030: 5746 70be ea83 6dbe f142 16be 1eb2 a6ba
-0.23661442 -0.23883028 -0.15147799 0.18945487 0.076617755 -0.0140804835 0.23443843 -0.213212
-0.20893577 0.02027595 -0.06850966 -0.2429742 -0.23464333 -0.23194852 -0.14673974 -0.0012717878

convs.1.nn.1.weight f4 [16]
00000000: b209 803f 73d8 803f 15ac 7f3f ec00 813f
00000010: a6ad 7f3f f124 803f 3de4 7d3f 3a00 813f
00000020: 3577 7e3f 6c45 7f3f 4664 803f ac40 803f
00000030: ac25 7d3f d06d 7d3f f6e7 7d3f 48ee 803f
1.0002959 1.0066055 0.9987195 1.0078406 0.9987434 1.0011274 0.9917639 1.0078194
0.99400645 0.99715304 1.0030601 1.0019736 0.9888561 0.98995686 0.9918207 1.0072718

convs.1.nn.1.bias f4 [16]
00000000: 6fae e53a 1596 df3b 1e60 ecb9 5731 023c
00000010: b931 8eba 6197 7d3a 24d9 04bc 222a 003c
00000020: 6d29 bebb df94 35bb 0926 3c3b defa df3a
00000030: d220 2cbc f8d8 25bc 3717 09bc d94d ef3b
0.0017523299 0.006823311 -0.0004508504 0.007946334 -0.0010848559 0.00096737413 -0.008108411 0.007822545
-0.005803278 -0.0027707142 0.0028709194 0.0017088314 -0.010505872 -0.01012253 -0.008367351 0.0073029813

convs.1.nn.1.running_mean f4 [16]
00000000: c042 8ebf 761b d8c0 8a2a 42be f854 6bbf
00000010: e99b 5e3f 5ef7 5a40 d521 7dbf d243 c13f
00000020: 3591 8b3f f6ac 7dbf d49d 393f ee64 2dc0
00000030: a35e a3be 6504 85be 35e3 e2be 4247 b2bf
-1.111412 -6.753352 -0.1896154 -0.9192653 0.8695665 3.421348 -0.9887975 1.5098822
1.0903689 -0.9909204 0.7250645 -2.7092853 -0.3190814 -0.25979915 -0.4431397 -1.3927996

convs.1.nn.1.running_var f4 [16]
00000000: a087 d240 d0bb b441 9995 0140 12d4 cf3f
00000010: 2406 b33f 114b e840 84e7 b03f 75f8 0841
00000020: 7a66 9c3f 7df8 2740 87b5 6240 7d13 d840
00000030: c13e 4141 5d36 1441 0ad8 2440 db51 2740
6.579056 22.591705 2.0247557 1.6236594 1.3986249 7.2591634 1.3820653 8.560658
1.2218773 2.6245415 3.5423295 6.752379 12.077821 9.263272 2.575686 2.614371

convs.1.nn.3.weight f4 [16, 16]
00000000: 2dd3 a63d 12f8 e53d d104 a3bd ef1c e8bd
00000010: 6572 88bd 32f5 41be 305a 6f3e f2a8 cdbd
00000020: ef79 1a3e 83a3 e43d 849c 59be 747c 503e
00000030: ec42 853d dbcb 823b 7bd9 283e 0680 33be
00000040: 30a5 b03d 79bb 72be 0c9d 153e fb85 01be
00000050: c58c 0fbe 261e 3d3e 8d4d 38bd 7523 7a3d
00000060: f35f 10be 8f7c f4bd a905 4b3e 433a 1dbe
00000070: 5d91 213e 1c26 3b3e 7f8b 653d af36 53be
00000080: 27f6 283d 630f 23be 0554 33be 3c37 383e
00000090: 72f5 7d3e 88c0 733e f998 733e 1369 7bbe
000000a0: 7508 463e 385e cd3c de0e 6d3d 748b 2ebe
000000b0: 4e21 88bd 76ff 54bd 835f 42be 622a f73c
000000c0: cf7a 21be 879d 8c3b 508a 3abe cff1 efbd
000000d0: 9b0d 3c3e 2411 fcbd a1d2 69be d6cf 033d
000000e0: 5ce0 c4bb 424c 04be 9e69 f1bd 248c 763e
000000f0: 1db5 40be 2a26 0c3e 6049 15be f51c 633e
00000100: 7ac1 e93d bdfa 0d3e 6483 263e ec50 38be
00000110: 4c4d 453e 04c6 14be 3302 00be e1f1 f9bd
00000120: 1584 9c3c 9978 e1bd 2155 fc3d e056 ce3b
00000130: f0b6 c4bd fc99 c83a 1165 5c3c ccb9 703e
00000140: 9fb3 013e 6d8d 05be aa0d 69be 8588 1dbe
00000150: 5cd1 5c3e a484 5b3e e8fe 2ebe d2b6 373e
00000160: 3b67 ee3b 0f53 16be 590b e1bd 4e50 4f3d
00000170: 87ca 043c 1b20 e03b f842 583d 516c 38be
00000180: 3ca4 603e 827f 8d3d 9137 acbd c94c debd
00000190: c38a 133d c3f7 6abe 2fc3 00be 8f58 583e
000001a0: 780f adbc 6444 75be 680f 82be 6bbb 61be
000001b0: a27b 513e 1194 ba3d f818 0bbe 656f 513e
000001c0: 82cc 5fbe d538 3c3e e1b7 42be b842 303d
000001d0: 868c 2abd 1091 6fbe 024f e3bd b142 d6ba
000001e0: 0dae 12be 4144 613e 78c2 42bc aa43 a73d
000001f0: 9229 e6bd 025a 773e 6070 18be 3dd0 ef3d
00000200: 7234 13be 79a6 2abe 1d2c 10be 4349 393d
00000210: 2f2c 363e cdc8 6fbe 1bbf 273e 4a16 0a3e
00000220: 5fc9 25be 37c1 67be 7499 263e 8048 37be
00000230: 75d3 3fbe 694a 48be 13b7 de39 1b26 3abe
00000240: aa60 e53d e740 153d c135 af3d 9868 643d
00000250: deb4 0b3e 0a28 e8bd 8f26 14be 2211 773e
00000260: f123 123e dfea 673e 1790 673e c4e9 323e
00000270: 0f01 e03d 5601 733e df7c 25be 689d e4bd
00000280: 08b8 4cbd 5464 20be dcfe 6c3c 674b 00be
00000290: 8db7 a73d 0ad1 12bc b515 fcbd cfe2 5f3d
000002a0: d45a 973d cc23 0cbe 9a60 1e3e a981 5bbe
000002b0: 63be 2ebe 81ce 04bd c0dc 443d 784b 6c3c
000002c0: df8b e3bd 07f1 4dbe d72f a5bd b8f9 a9bd
000002d0: 714e 243e 1ac4 153e 8dae 5fbd 321c d83d
000002e0: 7ad8 acbd 4547 073e 145d 0d3e c76a 69be
000002f0: c688 1abd caa1 ea3d ef2e cd3d 77ad 77be
00000300: 1469 8b3d 7011 77be 8544 693e 2821 61be
00000310: a4c3 3dbe f1e6 773e 8140 073d 9486 1b3e
00000320: f24b 593e ea65 343e 52ec cb3b 43ae 00be
00000330: dab5 063e 9889 db3c 7e00 0bbd 128c 613e
00000340: eea0 813e d20a 653e fa7a 0f3e 25fe 15be
00000350: d232 01be 3d56 643e 541c e93d fb64 803e
00000360: 1b97 22bd 8c89 583e 0fce a2bd 711a 6c3e
00000370: 0c21 22bd 2243 14be d09e ad3d 0964 46be
00000380: a2a0 2cbd 73d5 1c3e 25f9 673e faa1 453e
00000390: 2809 083e 9ca5 13be ecbf 35be d89a 3bbe
000003a0: ca24 a3bd e0bd 4ebe d5ac 7e3d d413 3b3e
000003b0: f26c 953d 7541 263d 1fcb ddbd 893a ccbc
000003c0: 53f2 013c 6d17 72be dc09 423e a919 a03c
000003d0: ebc6 c03d b154 983d db80 1dbd 632f c6bc
000003e0: 4c47 3d3e 2d59 213d b883 7abd cbe3 c9bd
000003f0: 22ac 50bd 0b2b 013e b048 273e d93d 533e
0.08145747 0.11228956 -0.07959903 -0.11333644 -0.06662444 -0.18941191 0.23374248 -0.100419894
0.15085576 0.11164 -0.21251112 0.20359975 0.06506905 0.0039915866 0.16489212 -0.17529306
0.08625257 -0.23704328 0.1461069 -0.12648766 -0.14018543 0.18468532 -0.044995833 0.06106897
-0.14099102 -0.1193782 0.19826378 -0.15354256 0.15778108 0.18276256 0.056041237 -0.20626329
0.041250374 -0.15923838 -0.1751252 0.1798982 0.24800661 0.23803914 0.23788823 -0.24551801
0.19339164 0.025069341 0.057875507 -0.17045385 -0.06646977 -0.05200144 -0.18981747 0.030171577
-0.15769504 0.0042912397 -0.18216825 -0.11716043 0.18364565 -0.12307957 -0.22834255 0.03218063
-0.006008191 -0.12919715 -0.11787723 0.24076897 -0.18819089 0.13686433 -0.14578772 0.22179015
0.11413856 0.1386518 0.16261059 -0.17999619 0.19267768 -0.14528662 -0.12500839 -0.12204338
0.01910595 -0.1100933 0.123209246 0.0062969774 -0.09605205 0.001530468 0.0134518305 0.23508376
0.12666176 -0.13042231 -0.22759119 -0.1538411 0.2156424 0.21437317 -0.17089427 0.17940834
0.0072754896 -0.14680122 -0.109884925 0.050613694 0.008104927 0.006839765 0.05279824 -0.1801007
0.2193765 0.06909086 -0.08409036 -0.10854489 0.036021005 -0.22946076 -0.12574457 0.21127532
-0.02112554 -0.2395187 -0.2540238 -0.2204415 0.20457318 0.09110273 -0.13583744 0.2045265
-0.21855357 0.18381055 -0.19015457 0.043032378 -0.04163792 -0.2339518 -0.11099054 -0.001634678
-0.14324208 0.21998693 -0.011887185 0.08167203 -0.11238398 0.24155429 -0.14886618 0.1170964
-0.14375475 -0.16665067 -0.14079328 0.045235883 0.17790292 -0.23416443 0.16381495 0.13485065
-0.16190098 -0.226323 0.16269475 -0.1789875 -0.18733008 -0.19559635 0.0004247954 -0.18178599
0.11200078 0.03643885 0.085551746 0.05576381 0.13643214 -0.11335762 -0.14467834 0.2412763
0.14271523 0.2264819 0.2261356 0.17471987 0.10937702 0.23730978 -0.16160916 -0.11162835
-0.049980193 -0.15663272 0.01446506 -0.12528764 0.081893064 -0.008960972 -0.12308828 0.05465966
0.07390371 -0.1368553 0.15466538 -0.2143618 -0.17064814 -0.0324235 0.048062086 0.01442229
-0.11110663 -0.20111476 -0.08065765 -0.08299583 0.16045548 0.14625588 -0.054609824 0.10552253
-0.08439727 0.13210781 0.13805038 -0.22794639 -0.037728094 0.1145664 0.100187175 -0.24187265
0.068071514 -0.24127746 0.22780044 -0.21985304 -0.18531662 0.24209191 0.0330205 0.15188056
0.21220377 0.17617002 0.00622324 -0.12566476 0.13155308 0.026799008 -0.033936016 0.22026089
0.25318092 0.22367409 0.14011756 -0.1464773 -0.12617043 0.22298522 0.11382356 0.25077042
-0.039694887 0.2114622 -0.07949459 0.23056962 -0.039582297 -0.14478734 0.08477557 -0.19374098
-0.04214538 0.153158 0.22653635 0.1930007 0.13284743 -0.14418644 -0.17748994 -0.18320787
-0.07966001 -0.20189619 0.062176544 0.18269283 0.0729617 0.04058977 -0.10829758 -0.024930255
0.00793131 -0.23641749 0.18949074 0.019543486 0.094129406 0.074380286 -0.038452964 -0.024192518
0.18484229 0.039391685 -0.061160773 -0.09857901 -0.05094541 0.12614076 0.16336322 0.20629062

convs.1.nn.3.bias f4 [16]
00000000: 0368 dbbd 3bf6 6dbe 4d81 79be 719b 26be
00000010: 8d01 5cbe 1313 b93d d272 b53d 75dc 11be
00000020: f976 3f3e 5bc4 fc3b c5a2 203e e2f7 56be
00000030: 527e e33d bf24 40be f6b7 513e 8c9e 0b3e
-0.10713198 -0.2323846 -0.2436573 -0.16270234 -0.21484967 0.09036841 0.08859791 -0.14244254
0.18697728 0.007713837 0.15687092 -0.20992997 0.11108078 -0.18764018 0.20480332 0.136347

convs.1.nn.4.weight f4 [16]
00000000: 4232 7f3f 61c6 7d3f 5587 813f 3f2d 7d3f
00000010: cc9c 7f3f 5ba9 813f 1089 7d3f e24b 803f
00000020: 9418 7f3f 2501 803f 4007 813f 7913 7f3f
00000030: 0817 803f b625 813f db5c 7f3f 6334 803f
0.9968606 0.9913083 1.0119425 0.98897165 0.9984863 1.0129808 0.99037266 1.0023158
0.9964688 1.0000349 1.0080338 0.9963909 1.0007029 1.0089633 0.9975106 1.0015987

convs.1.nn.4.bias f4 [16]
00000000: bdaf 7abb 6e00 13bc 5b4f 433c 1e26 3ebc
00000010: 0a20 9239 c797 613c 7801 23bc 0928 173b
00000020: 224d 2fbb d199 94b9 bf22 e93b 4b88 63bb
00000030: f516 b83a 9cee 083c f6ac 0cbb c617 5b3a
-0.003825172 -0.00897227 0.011920775 -0.0116057675 0.0002787116 0.013769097 -0.009949081 0.0023064634
-0.0026748856 -0.00028343362 0.0071147378 -0.0034718688 0.0014044928 0.00835767 -0.0021465397 0.00083577295

convs.1.nn.4.running_mean f4 [16]
00000000: f183 a5bc f32f 92be 4300 19be 3654 e3be
00000010: 96d9 cabd 43b9 1dbd fafb ccbd a324 9abe
00000020: e6da bebe d254 213f 975d 03be 61e3 a6be
00000030: 876f e63e 143a 953e c171 843e 1a7d db3e
-0.020204516 -0.28552207 -0.14941506 -0.44400185 -0.099047825 -0.038506757 -0.10008998 -0.30106077
-0.3727638 0.6302005 -0.1282867 -0.3259535 0.45006964 0.29145873 0.25868037 0.42868882

convs.1.nn.4.running_var f4 [16]
00000000: 9706 c33e 8f87 503e 8d17 7a3d 1bef 3b3d
00000010: cb90 473d 5f78 043e 9397 123e 7aff b23c
00000020: 0a20 dc3c a69f 823d de68 803d 414f 413e
00000030: 7f38 103e 168c e03d f17a 083d e7f9 e03d
0.38090965 0.20364211 0.061057616 0.045882326 0.04872207 0.12936543 0.14315633 0.021850336
0.026870746 0.06378107 0.06270002 0.18877889 0.14084052 0.10964219 0.03332037 0.10985165

convs.2.nn.0.weight f4 [16, 16]
00000000: 5814 603e d22f 653e 6863 0d3e 970b 523c
00000010: 50f4 243e dfb5 14be 4052 5fbb beca a83d
00000020: 8842 5c3e ee11 1b3d 0866 6dbe 7b84 af3d
00000030: e87f 47be 4d4c 88bd 0a44 4ebd 2a0f d2bd
00000040: 4b0b 703e be82 143e 9707 75be 29a6 39bc
00000050: 8345 373e 7c89 16bd 3025 1b3e 7462 4dbe
00000060: 377f a7bd 4632 febd a51f 733d 9b6d a9bd
00000070: 83cb 313c 31ce 14be 2da1 663e 1320 20be
00000080: 73b0 ccbc 69ae 2ebe 192b 2dbe 3e09 963c
00000090: 7037 d3bd 4e9b 04be e742 33be 23cf 2cbe
000000a0: 16f8 29be dea1 9d3d a2a3 523e 6163 d53b
000000b0: a501 22be b5e8 b1bd b2e3 efbd 45b4 493d
000000c0: cc6b 4f3e f521 b6bd 5467 1c3e b3b1 0c3e
000000d0: f3f7 263e ed84 e63d 6c2d dfbd bb97 56be
000000e0: a1cb 22be d05b 303e 360a a83c 4d9a b6bd
000000f0: 3322 e3bd e311 473e 4ada 773e 94a5 eebd
00000100: 52bf f63d da29 cabd 2f01 87bd 9835 bbbd
00000110: aae2 35be a0c3 dc3c 7aaf 003e 3f56 6b3e
00000120: 03f2 1bbe 2d8d 863d fd50 56bd 335f c1bc
00000130: 509f c2bd 04b2 3f3e 4569 103e 147b 7abe
00000140: 76fe 15be d6cf 54bd 61b6 3a3e 39c7 1bbe
00000150: 3dab fb3c 49ff e03c 4128 2d3e 55e0 5abe
00000160: 8488 b7bd 1130 23be b8c0 b2bd 5f8b af3d
00000170: 46e5 2ebe 1236 4fbe 7e2e d93d e4d4 e83c
00000180: e980 353e d8cd 53be cec2 2bbe 8c7b 18be
00000190: c1be 06be d3fb 463e 2a6a 333d 5a08 9abc
000001a0: b831 2d3d 507a 0cbe bf05 713e ffcc ebbd
000001b0: 4e40 093e 2c9f 593e 8ada b83d 4584 03be
000001c0: e207 6cbe aed1 c83d ab46 3ebe b56c 203e
000001d0: 8941 083d 2e86 b33d eff7 27bd b820 773d
000001e0: 8d9f 01be 5ff7 37be 9051 5e3e ec93 70bc
000001f0: 7ede 763e 8a2b e93d 0dd4 a9bd fafb 653e
00000200: 21b6 88bd 227d 97bd 5c62 f1bd a21e e03d
00000210: 590f cfbd 705c 26be 2ea8 f3bd 34ef a43d
00000220: de0c 14be 9299 483e ce04 48be c2f7 34be
00000230: 1790 7abe afa6 63bd 0f93 d43c 6060 bcbd
00000240: 13ae 96bc 8494 c93d bc20 85bd 5a78 a5bd
00000250: 2619 a43d 3534 4dbd 0e22 be3d 4722 583e
00000260: 0fd9 b83d 7eb8 893d c6b7 c33d 4f6e 4ebe
00000270: 38dc 3fbd e76d 673e e538 1839 5e04 25be
00000280: 06c7 04be 3b63 653d 94ba 50be b571 67be
00000290: eefc 3a3c 8beb 233e ff6f 2b3e 30ee 5fbe
000002a0: 4cf1 6b3e 06ec c43d 5930 74be 9b2d a4bd
000002b0: 9726 bcbc 74ee 983d 04cd 4f3e b0bb 0dbe
000002c0: 9e1d 573e 5a09 0f3e 4405 c9bc e5f7 45be
000002d0: 3c17 08be cf57 113e b405 b03d 0fad eabd
000002e0: 79fb db3d 01dd c93d e667 6a3e 2681 b2bd
000002f0: fe93 7bbe 4f3a 673e c188 09be 7240 d7bd
00000300: debc 7d3e 72ca 37be 40eb dbbc e1ee 25be
00000310: 035d 69be 724f 4f3e d5f7 6c3e b735 4ebe
00000320: e0eb b7b9 6668 ea3d d826 bdbd d454 3a3d
00000330: f4f1 303e bdc9 93bd fab0 c73b aea2 dc3c
00000340: e2cc 9c3d bbda 893c a65d 2bbb 8b02 173e
00000350: 242a d03d fb31 553e 14d7 4abe 55f7 673e
00000360: f1fe 31be 8371 2ebe ee78 bbbd 0f9c 32be
00000370: 0f9d 3ebe faf6 cc3d 18d8 10be 62d0 513e
00000380: 934f 48be c570 9a3d 8dfd a2bd a8cb 053e
00000390: 7b7a 453e 6e80 673e a2b3 873d f819 243d
000003a0: 01ba 643e 4d15 64be 496e 18bd 9667 4fbe
000003b0: ed58 b2bd 4553 653e 813b 87bd a864 83bd
000003c0: 430d 40bd a216 263e b16c fc3b f959 613e
000003d0: dddf 493e f20a 5e3e d031 7e3e 765c 763e
000003e0: 3f6d 0bbe 1733 793e 28d1 5d3d d2e4 173e
000003f0: 78f5 833d 75e5 5fbc 6d93 6f3e 90ec 1f3e
0.2188276 0.22381523 0.13807452 0.012820146 0.16108823 -0.14522503 -0.0034076124 0.08241795
0.21509755 0.037858896 -0.23183453 0.085701905 -0.19482386 -0.06655178 -0.050357856 -0.102567986
0.23441808 0.14502999 -0.23928677 -0.01133112 0.1789761 -0.03675221 0.15150905 -0.20057088
-0.08178561 -0.12411933 0.05935635 -0.08272859 0.010851744 -0.14531781 0.22522421 -0.15637235
-0.024986481 -0.1705872 -0.16910972 0.018314954 -0.10313308 -0.12949869 -0.1750599 -0.16875891
-0.16598544 0.07696889 0.20570233 0.006512091 -0.1582094 -0.086869635 -0.11713351 0.049244184
0.20255965 -0.088931955 0.15273792 0.13739662 0.16305523 0.11255822 -0.108973354 -0.20956318
-0.15897991 0.17222524 0.020512681 -0.08916149 -0.11090507 0.19440417 0.24204364 -0.11652675
0.1204821 -0.09871264 -0.06592023 -0.091410816 -0.17762247 0.02694875 0.12566939 0.22982119
-0.15229039 0.06569896 -0.05232333 -0.023604965 -0.09503043 0.18720251 0.14102657 -0.24461013
-0.1464785 -0.05195602 0.18233635 -0.15212716 0.030721301 0.02746548 0.16909887 -0.21374638
-0.08961585 -0.15936305 -0.087281644 0.08571505 -0.17079648 -0.2023547 0.10604571 0.028421827
0.17724957 -0.20683992 -0.16773531 -0.1489088 -0.13158704 0.19432001 0.043802418 -0.01880281
0.042283744 -0.13718534 0.23537348 -0.11513709 0.13403437 0.21252126 0.09026058 -0.12843426
-0.23049882 0.09805618 -0.18581645 0.15666468 0.033265624 0.08765827 -0.041007932 0.060333937
-0.1265852 -0.17965458 0.21710801 -0.014683705 0.24108312 0.113852575 -0.082923986 0.22459403
-0.06675363 -0.07396914 -0.11786339 0.10943343 -0.10110349 -0.162462 -0.11897312 0.08053437
-0.14458033 0.19589832 -0.19533083 -0.17672637 -0.24469028 -0.055578884 0.02594903 -0.091980696
-0.018393552 0.0984278 -0.06500384 -0.08079596 0.08012609 -0.050098617 0.09283839 0.21106826
0.09025776 0.06724642 0.095565364 -0.20159267 -0.046840876 0.22600518 0.00014517044 -0.16114947
-0.12966546 0.056002837 -0.20383674 -0.2260197 0.011412842 0.16007821 0.16741942 -0.21868205
0.23041266 0.096153304 -0.23846568 -0.08016511 -0.02296762 0.07467356 0.20293051 -0.13841128
0.21007392 0.13968411 -0.024538644 -0.19332846 -0.13290113 0.14193653 0.08594838 -0.114587896
0.10741324 0.09856606 0.22891197 -0.08716039 -0.24568173 0.22580837 -0.13431074 -0.10510339
0.24779078 -0.1794832 -0.026845574 -0.16204406 -0.22789387 0.2024515 0.23141415 -0.20137678
-0.0003508022 0.11445694 -0.092359245 0.045491055 0.17279798 -0.07216213 0.0060940953 0.02693304
0.07656266 0.016827932 -0.0026148348 0.14747064 0.10164288 0.20819847 -0.19808608 0.22652943
-0.17382409 -0.17035489 -0.09153925 -0.17442344 -0.186146 0.100080445 -0.14144933 0.20489648
-0.19561605 0.0754104 -0.07958517 0.1306597 0.19285004 0.22607586 0.06626059 0.04006383
0.2233658 -0.2227375 -0.03721455 -0.20254359 -0.087083675 0.22395046 -0.06603146 -0.06415683
-0.046887647 0.16219571 0.0077033867 0.22006978 0.19714303 0.21683863 0.2482369 0.24058709
-0.13615893 0.24335895 0.054154545 0.14833382 0.06443304 -0.013665547 0.23396082 0.15617585

convs.2.nn.0.bias f4 [16]
00000000: 2b52 8b3d 69eb a8bd 2cec 5c3e aa07 10bd
00000010: f198 e9bd e027 50be b97c ce3c d9c4 b9bd
00000020: 08d5 503e cbfd 6cbe 9b6b 0dbe e2ac 3bbb
00000030: 47cc b03d be99 bbbd ec94 d0bd 732d 733d
0.06802782 -0.08248026 0.21574467 -0.03516356 -0.114061244 -0.20327711 0.025205957 -0.09070749
0.20393765 -0.2314369 -0.1381058 -0.0028636982 0.08632713 -0.09160183 -0.101846546 0.059369516

convs.2.nn.1.weight f4 [16]
00000000: 82de 803f 51ef 7d3f c555 7e3f 7371 7f3f
00000010: 8fda 7f3f 04b6 803f cbcf 803f 5a44 813f
00000020: 2217 7e3f c540 803f 7cbc 7e3f 6671 7e3f
00000030: 67c8 803f f548 7d3f 499f 803f 1f04 803f
1.0067904 0.9919329 0.99349624 0.99782485 0.9994287 1.0055547 1.0063413 1.0098984
0.9925405 1.0019766 0.99506354 0.9939178 1.0061158 0.9893945 1.004861 1.0001258
