experiments/results/SHRIROOK/runs/2026-02-05T16:59:01-gin-shrirook/seed_0/best_weights.pt (torch, 119371 bytes, 180 tensors)

conv1.nn.0.weight f4 [16, 1]
000000 e4 be a0 3e 18 63 3d bf 00 da 95 3e f0 67 00 bf
       0.31395638 -0.7397933 0.29267883 -0.50158596
000010 d0 2e 16 3e 50 63 69 bf 44 91 9a 3e 50 05 4b 3f
       0.14666295 -0.91167164 0.30188954 0.7930498
000020 20 76 5c 3d 54 cf 43 bf 40 ac b0 3e 24 ff 41 bf
       0.05382359 -0.7648823 0.34506416 -0.7577994
000030 84 ae 01 3f c2 e9 2f 3f d4 f0 f4 3e ce bf 3b bf
       0.50656915 0.6871606 0.47839987 -0.73339546

conv1.nn.0.bias f4 [16]
000000 de a4 11 3f 64 ef fb 3e 40 ce e4 3c c0 7b de 3e
       0.5689219 0.49206078 0.027930379 0.4345379
000010 d0 b4 97 3d 84 50 35 bf 96 5a 01 bf 12 4a 78 3f
       0.07407534 -0.7082598 -0.5052885 0.9698802
000020 ca dd 4c 3f 30 4f 06 3f 1a 47 12 bf fc 15 44 bf
       0.80025923 0.5246458 -0.5713974 -0.76596045
000030 26 0c 35 bf 60 86 2f 3f 7a 0f 09 3f 9a d7 28 3f
       -0.7072166 0.68564415 0.5353924 0.6595398

conv1.nn.1.weight f4 [16]
000000 00 00 80 3f 00 00 80 3f 00 00 80 3f 00 00 80 3f
       1.0 1.0 1.0 1.0
000010 00 00 80 3f 00 00 80 3f 00 00 80 3f 00 00 80 3f
       1.0 1.0 1.0 1.0
000020 00 00 80 3f 00 00 80 3f 00 00 80 3f 00 00 80 3f
       1.0 1.0 1.0 1.0
000030 00 00 80 3f 00 00 80 3f 00 00 80 3f 00 00 80 3f
       1.0 1.0 1.0 1.0

conv1.nn.1.bias f4 [16]
000000 f4 d5 6a 32 c8 06 c5 b2 62 dd 96 b1 3b 05 95 b2
       1.366924e-08 -2.2936902e-08 -4.390743e-09 -1.7348261e-08
000010 86 0c ed 32 e0 f7 bf b1 bb a1 88 31 0c 36 06 b2
       2.7596126e-08 -5.5870117e-09 3.9765076e-09 -7.812115e-09
000020 ab 22 af b2 b9 13 a1 32 40 ed cd 32 4a 62 b2 31
       -2.0388446e-08 1.8751836e-08 2.397303e-08 5.191656e-09
000030 e9 04 77 32 e5 54 b0 b1 6e 29 cb b0 44 0d 68 30
       1.4378409e-08 -5.1319256e-09 -1.4781969e-09 8.441996e-10

conv1.nn.1.running_mean f4 [16]
000000 fd 07 a1 3f 3d b1 0d c0 10 90 77 3f f8 d8 ba bf
       1.2580563 -2.2139428 0.96704197 -1.4597464
000010 81 5a 02 3f 37 11 51 c0 a6 5c 47 3f ec 22 3f 40
       0.5091935 -3.2666757 0.77875745 2.9865065
000020 12 e2 00 3f b6 14 12 c0 d7 84 64 3f 0d 6d 32 c0
       0.50344956 -2.282514 0.892652 -2.787906
000030 02 a3 ae 3f 64 8f 21 40 9d ff e3 3f 50 f7 07 c0
       1.3643496 2.5243769 1.7812382 -2.1244698

conv1.nn.1.running_var f4 [16]
000000 34 2a 21 3f bf af 4e 3f fc da 1f 3f 2c b0 30 3f
       0.6295502 0.8073692 0.6244352 0.69018817
000010 f6 58 19 3f 6f 7b 6b 3f 35 69 20 3f cc f7 56 3f
       0.5990137 0.9198522 0.62660533 0.8397186
000020 96 75 17 3f 22 84 52 3f 9d 3e 23 3f 0c 6c 51 3f
       0.59163797 0.8223287 0.63767415 0.8180549
000030 a5 32 31 3f 41 11 47 3f 13 62 2e 3f f6 ba 4d 3f
       0.692179 0.777607 0.681184 0.80363405

conv1.nn.3.weight f4 [16, 16]
000000 b0 fd f3 bc 0a 9f 14 3e 00 c2 b0 bd 78 b1 69 bd
       -0.029784054 0.14513794 -0.086307526 -0.057054013
000010 e8 e4 23 bd 5f 73 06 bc 18 56 ff bd a0 9d 0b bd
       -0.040013224 -0.008206218 -0.12467593 -0.03408587
000020 6a 67 19 be 98 98 cc bd 54 12 b0 3d 84 c0 30 3e
       -0.14980856 -0.099900424 0.08597246 0.17260939
000030 be f8 72 3e 00 2a cd 3c 50 bd b8 bc df 80 49 bc
       0.237277 0.025044441 -0.022551209 -0.012298792
000040 61 6f d6 bc 5e 22 40 3e 0e 08 1c 3e d9 cc 16 3d
       -0.026176156 0.1876311 0.15237448 0.03681645
000050 08 28 e7 bd 6e c6 59 be 20 d0 be 3d 5e d6 76 be
       -0.11286932 -0.21267101 0.093170404 -0.24105212
000060 50 59 1f 3e ec 9d f8 bd f1 d8 90 bc 48 8b 74 3e
       0.15561414 -0.12139496 -0.01768157 0.23881257
000070 78 c1 35 bd 84 01 d7 3d 36 39 71 3e d4 ab cd bd
       -0.04437396 0.10498336 0.2355698 -0.10042539
000080 b0 a7 2b be 34 d5 03 3e 00 3b a1 3c fc fa 92 bd
       -0.16763186 0.128743 0.019681454 -0.07176778
000090 84 9c b6 3d c8 bb 4f be d0 6a 7d 3d 74 10 91 bd
       0.08916572 -0.20286477 0.061869442 -0.07083216
0000a0 90 b7 49 be d0 15 e9 3d 06 95 5f 3e b0 e3 00 be
       -0.1969893 0.113811135 0.21834192 -0.12586856
0000b0 1a 10 3e 3e 2e 28 56 3e 54 0e 70 3e c4 35 23 3e
       0.1856083 0.20913765 0.23442966 0.15938479
0000c0 a2 23 55 3d 57 9a 3f 3e ce 21 28 be ed 37 62 3d
       0.052035935 0.1871122 -0.16419145 0.055229116
0000d0 ba b1 68 3e c7 d6 ab 3d c9 cc a5 3d 54 ae 6e be
       0.22724047 0.08390575 0.080957 -0.23308688
0000e0 18 71 56 be 29 76 29 be 10 aa 32 3e 73 d0 4d be
       -0.2094158 -0.16548981 0.17447686 -0.20099048
0000f0 2a 55 7d 3d 8a ac f9 bc a5 e4 9c 3d 6c 2f 24 bc
       0.061848797 -0.03047778 0.07660798 -0.010021072
000100 dc 09 f4 bd 50 0e 40 3d e0 74 dd bd 5c 05 ee bd
       -0.11915943 0.04688865 -0.10813308 -0.11622116
000110 88 b8 e5 3d 7a be 6b 3e b0 d1 6a bd 80 2e b4 bc
       0.11216837 0.2302188 -0.05732888 -0.02199483
000120 50 82 6e 3e 78 a5 25 be 2e f0 50 be 1c 63 b4 3d
       0.23291898 -0.16176403 -0.20404121 0.08807966
000130 70 3a 88 bd 28 f0 9e 3d 46 bb 58 be 5a 8a 1b 3e
       -0.06651771 0.0776065 -0.21165189 0.15189496
000140 c1 cd 36 bc ec 10 46 be d0 6d 6d 3e d0 39 2a be
       -0.011157454 -0.19342393 0.23186421 -0.16623616
000150 e4 40 cd bd 20 fb c7 bc 50 ce 1f 3e f0 af f8 3d
       -0.100221425 -0.024411738 0.15606046 0.121429324
000160 b0 3d 3f bd 92 3c 68 3e f6 56 23 3e 60 83 26 3e
       -0.04668969 0.22679356 0.15951142 0.16261053
000170 dc f5 a1 3d 64 33 7c be 24 50 55 be 1a a0 47 3e
       0.07908222 -0.24628979 -0.20831352 0.19494668
000180 1c 7b e4 3d 14 ca e0 3d 18 29 cb 3d 33 43 9a bc
       0.11156294 0.10976043 0.099199474 -0.018830871
000190 ee 61 7f be ba 2c a1 b9 34 b8 47 3e 72 d1 ff 3c
       -0.24939701 -0.00030741637 0.19503862 0.031227801
0001a0 28 ec 58 be 0c 80 29 3e 82 e1 67 3e e0 78 30 be
       -0.21183836 0.16552752 0.22644618 -0.1723361
0001b0 2c 0a 01 3e be 6f 7b be 02 5b a9 3c cc 5f 70 3e
       0.12601537 -0.24554345 0.020673279 0.23474044
0001c0 80 8f 8b 3c 48 12 8e bd 94 e1 cd 3d 00 f8 87 bb
       0.0170362 -0.069370806 0.10052791 -0.004149437
0001d0 48 6c 74 3e a2 df 23 3e fc 63 56 3e a0 e7 92 3d
       0.23869431 0.16003278 0.20936579 0.07173085
0001e0 88 38 ac 3d ec ec c8 bd ce 96 73 be b4 8c 21 be
       0.0840922 -0.09810814 -0.23787996 -0.1577633
0001f0 e0 4b 57 3c 82 28 05 3e cc 58 b6 bd 48 53 9b bd
       0.013140649 0.13003734 -0.089036554 -0.07584244
000200 94 ee 17 be 2c 08 0a 3e f8 f9 4f 3e 00 bc 50 be
       -0.14837104 0.1347968 0.203102 -0.20384216
000210 c4 ff 7a be bc 4e 07 3e ba 5c 18 3e f4 42 44 be
       -0.2451163 0.13213629 0.14879122 -0.19166166
000220 08 a7 67 be a4 6c c0 bd 74 82 47 be 90 3a 79 3e
       -0.22622311 -0.093957216 -0.19483358 0.24338746
000230 d2 de 16 3e ae eb 15 be e0 15 35 bc de de 49 3e
       0.14733437 -0.14640686 -0.011052579 0.19713923
000240 70 6e 60 bd f8 43 f4 3d 02 d3 c8 3a 0c 2e b5 3d
       -0.05479282 0.119270265 0.0015321674 0.08846673
000250 66 7b 0c 3e c8 a3 5f 3e 80 7e 2a 3b 4e 54 49 be
       0.13718948 0.21839821 0.0026015341 -0.19661066
000260 d0 16 83 3d 64 0d bd 3d 78 30 ee bd c6 ae 21 be
       0.064008355 0.0923107 -0.116303384 -0.15789327
000270 c8 6b 30 3d a0 6e 6f bd 84 c9 d3 3d 9e f9 29 3e
       0.04307154 -0.05845511 0.103411704 0.16599128
000280 ee 69 6a be b3 68 e7 3d 8a d1 4b 3d e4 a8 2d 3e
       -0.22891971 0.11299267 0.04976038 0.16958958
000290 48 07 71 3e 56 7c 1c 3e 3a 71 74 3e f8 01 b8 3d
       0.23537934 0.15281805 0.23871318 0.089847505
0002a0 6c ac 21 be c3 ac 79 bd ee a9 22 3e 1a ba 12 be
       -0.1578843 -0.060955774 0.15885136 -0.14328805
0002b0 d8 b3 2a 3e ae f3 09 3e 66 f5 0a 3e 24 e8 1c 3e
       0.16670167 0.13471863 0.13570175 0.1532293
0002c0 44 2c 4c be 10 4b 09 bd c2 15 5a 3e d4 f2 70 3e
       -0.19938761 -0.03351885 0.21297362 0.23530132
0002d0 a0 e5 1a bd a6 a4 3a 3e f4 0d cb bd 20 96 31 3c
       -0.037816644 0.18226871 -0.09914771 0.010839015
0002e0 d4 94 1f 3e 70 4d 1d be 0c ec 87 3d 1e 08 11 be
       0.15584117 -0.15361571 0.06636819 -0.14163253
0002f0 e8 f0 76 be 34 88 a7 bd 60 be a1 bd e8 32 30 3d
       -0.24115336 -0.081802756 -0.07897639 0.043017298
000300 c0 83 51 be 8a e1 70 be 10 bf 31 bd 88 f1 eb 3d
       -0.20460415 -0.23523536 -0.043395102 0.11520678
000310 00 38 07 bc a2 ed 5a 3e 42 0a 11 3e 18 a2 28 be
       -0.0082530975 0.21379712 0.1416407 -0.16468084
000320 06 22 51 be ac a1 ce 3d fa c1 3e 3e 4c 9d 8e bd
       -0.20423135 0.1008943 0.18628684 -0.06963596
000330 d0 85 e6 bc 04 ac 49 be 88 32 4f 3d 34 28 a0 bd
       -0.028139979 -0.19694525 0.0505853 -0.07820168
000340 46 07 75 3e 8a 0b aa 3d 5d 44 80 3d b9 e7 e7 3c
       0.23928556 0.08302982 0.06263039 0.028308736
000350 e4 bd 4a 3e fa 5c 32 3e 34 74 73 be 4d e8 4a bd
       0.19799 0.1741828 -0.23774797 -0.049537946
000360 ae ae 52 be 4e ff 2c be 94 13 6d 3e f0 ba 39 3e
       -0.20574448 -0.16894266 0.23152 0.18137717
000370 65 a2 98 3d f8 0f 03 be 21 94 ea 3d a2 c0 d7 3d
       0.07452849 -0.1279906 0.114540346 0.10534789
000380 d8 5e 3a 3d 34 b1 a6 3d d0 cf 80 bc de 7a 5e 3e
       0.045500606 0.081392676 -0.015724093 0.21726558
000390 bc da eb bd 98 25 f9 3d d6 73 5d be cc 70 6b be
       -0.1151633 0.121653736 -0.21626219 -0.22992247
0003a0 84 39 c0 bd 8a 54 08 be b0 cc ef 3c 86 a0 5e be
       -0.0938597 -0.13313499 0.029272407 -0.21740922
0003b0 e0 8e ef bd 7c 90 da 3d 58 5b 1c 3d a2 be 51 be
       -0.11697173 0.106720895 0.03817305 -0.20482877
0003c0 7f b6 1a be 67 3b cd bd c1 27 35 be 38 ec 69 be
       -0.15108679 -0.10021096 -0.17690946 -0.22844017
0003d0 3e cf b0 bd 2d 53 cb 3d fc 87 5b 3d cb 3b 55 be
       -0.08633278 0.09927974 0.05359648 -0.2082359
0003e0 8c dc 18 bd 7d 68 8e 3d aa d3 c7 bd 56 6d 7a be
       -0.037319705 0.06953523 -0.097571686 -0.24455771
0003f0 f6 fd f8 bd 9a 61 e3 3c dd 45 4a 3e 9d bb a2 3d
       -0.12157814 0.027756501 0.19753213 0.07945941

conv1.nn.3.bias f4 [16]
000000 ac 59 8b bd 7a 16 13 be a0 0a f6 3c 9a 0a 01 3e
       -0.06804213 -0.14364043 0.030034363 0.126017
000010 80 15 45 bc b4 31 71 be 10 8f bb bd 78 d5 ad 3d
       -0.012029052 -0.23554116 -0.091581464 0.084879816
000020 ec 28 e0 3d 80 8b c6 3b 20 16 29 3e f0 a8 0e bd
       0.10945305 0.00605911 0.16512346 -0.03482908
000030 b0 95 ca bd be 90 5d 3e 7c dd 5b be 28 34 1f 3e
       -0.09891832 0.21637246 -0.21471208 0.1554724

conv1.nn.4.weight f4 [16]
000000 05 00 80 3f f3 ff 7f 3f 14 00 80 3f 0d 00 80 3f
       1.0000006 0.9999992 1.0000024 1.0000015
000010 b9 ff 7f 3f 00 00 80 3f cf ff 7f 3f 07 00 80 3f
       0.99999577 1.0 0.9999971 1.0000008
000020 0d 00 80 3f d7 ff 7f 3f 10 00 80 3f 0d 00 80 3f
       1.0000015 0.99999756 1.0000019 1.0000015
000030 09 00 80 3f c4 ff 7f 3f 09 00 80 3f 0c 00 80 3f
       1.0000011 0.9999964 1.0000011 1.0000014

conv1.nn.4.bias f4 [16]
000000 45 a2 10 35 c1 1f 83 b5 d0 02 3e 36 64 9f f7 35
       5.3880314e-07 -9.769502e-07 2.8313843e-06 1.8449323e-06
000010 a2 81 6b b6 c4 50 f1 32 2a 85 20 b6 08 ed 7a 35
       -3.5093185e-06 2.809282e-08 -2.391937e-06 9.3477183e-07
000020 2c 94 b9 35 4c 89 05 b6 ee d6 19 36 7f a3 b1 35
       1.3826698e-06 -1.9898462e-06 2.2923882e-06 1.3235111e-06
000030 22 06 86 35 b3 ed 45 b6 20 bc 63 35 e2 43 98 35
       9.985563e-07 -2.9493647e-06 8.483785e-07 1.1344639e-06

conv1.nn.4.running_mean f4 [16]
000000 4c 90 e1 bc e5 36 eb 3b 9c 03 05 3e 76 e1 47 3d
       -0.027534626 0.007178175 0.12989658 0.048799
000010 18 65 fa bc f9 02 ed bc 2b 69 42 3d a1 9e bf 3d
       -0.030565783 -0.028932082 0.047463577 0.09356428
000020 fc d3 cf bb 63 56 bf 3d f8 fe 9e 3e b6 d8 3e bd
       -0.006342409 0.09342649 0.310539 -0.04659339
000030 13 f1 00 be 2f 93 6b 3e ab e1 6a be f6 b7 fa bd
       -0.12591963 0.23005365 -0.22937648 -0.12242119

conv1.nn.4.running_var f4 [16]
000000 3b 35 19 3f 46 4f 19 3f b8 d6 20 3f 54 5c 17 3f
       0.5984685 0.59886587 0.62827635 0.59125257
000010 f4 eb 20 3f ae 58 17 3f 88 68 18 3f 41 a7 27 3f
       0.62860036 0.5911969 0.595345 0.65489584
000020 4a e1 35 3f 2b 73 20 3f 9a 47 1e 3f 8b 03 1c 3f
       0.7104689 0.6267573 0.61828005 0.60942906
000030 c8 b0 1e 3f ae c9 17 3f b1 f6 1c 3f 3b 48 1a 3f
       0.61988497 0.59292114 0.6131392 0.60266465

convs.0.nn.0.weight f4 [16, 16]
000000 a8 b7 9d 3d 80 e6 2a bc d8 d6 fd bd be 61 6f be
       0.07701045 -0.010430932 -0.12394494 -0.2337713
000010 7a b3 1d 3e 00 ad 0d bb 44 df 1d 3e 80 f1 11 3b
       0.15400496 -0.0021618009 0.154172 0.002226919
000020 b2 4c 5e 3e 80 5f 01 bd 9c d5 24 be ec 34 9d 3d
       0.21708944 -0.031585217 -0.1609711 0.0767611
000030 4a 53 41 be 7c aa 95 bd be 9e 53 3e b4 b0 ec bd
       -0.18879429 -0.07307908 0.20666024 -0.11557141
000040 bd 82 5e bc 48 ad 7c bd a0 61 0a 3e 7a 7b 27 be
       -0.013580975 -0.06168869 0.13513803 -0.16355696
000050 ac bb 77 be 60 2f 4f be 14 72 ed 3d 30 4c e1 3c
       -0.24192685 -0.20232916 0.11594024 0.02750215
000060 58 93 16 3e ec cf ec bd 52 da 4e 3e 2f 1b 96 bc
       0.14704645 -0.115630955 0.2020047 -0.018323509
000070 a0 a0 c4 3d 52 81 79 3e 68 32 2a 3e 2a f9 1f 3e
       0.09600949 0.24365738 0.16620791 0.15622392
000080 6e a3 0f 3e 4b 17 8b bd c7 a0 2f 3e 33 6d 16 3e
       0.14027187 -0.06791552 0.17151175 0.14690094
000090 a8 ad 8d 3d 50 28 83 3d af 74 3e 3d 13 5d 1a 3d
       0.06917888 0.064041734 0.046497997 0.03768642
0000a0 44 e5 a2 3d 9a bf 7d be 03 33 60 3e 64 73 c9 3d
       0.07953885 -0.24780121 0.2189446 0.09836462
0000b0 87 b9 18 3d f6 8d 43 3e 8d 47 e1 3c f4 f7 2d be
       0.037286308 0.19097123 0.027499938 -0.16989118
0000c0 20 03 72 3d 10 aa b3 bd 80 7e 53 be 84 52 a1 3d
       0.05908501 -0.08772671 -0.20653725 0.07877067
0000d0 b0 78 2f be 46 bb 60 be 80 19 4a be 02 88 11 be
       -0.17135882 -0.21946439 -0.1973629 -0.14212039
0000e0 68 b0 3c bd 8c 34 db bd 80 72 cf 3d 22 30 57 3e
       -0.04606667 -0.10703382 0.10129261 0.21014455
0000f0 b8 8b 9f bd 6c 9e a1 bd fc ab b1 bd ec c4 a0 3d
       -0.07790321 -0.07891545 -0.086753815 0.0785006
000100 fd 0d 62 3e b1 51 12 3e 4b 16 12 3c 8b 72 09 be
       0.22075649 0.14288975 0.008916448 -0.13422601
000110 69 2b 00 be f1 7a 0e be 4c e1 af 3d 83 bc 29 3d
       -0.1251656 -0.13914086 0.08587894 0.041439544
000120 ee 5f 18 bd 7b 32 7f be 1d 3f 66 be 0c e5 a1 3d
       -0.03720086 -0.249216 -0.22485013 0.07905015
000130 fa 32 0e 3d 61 1b 48 be 40 06 85 3d 12 5a 76 3d
       0.034716584 -0.19541694 0.06495333 0.06014449
000140 f8 e4 2a be 21 d2 0d 3e a2 90 9b 3d 25 e5 7b be
       -0.16688907 0.13849689 0.07595946 -0.2459913
000150 65 a1 df 3d 46 38 7c 3e 8e 91 2b be 39 56 61 3e
       0.109194554 0.24630842 -0.16754743 0.22005548
000160 d1 bb d3 3d 60 e7 01 be 16 3d c2 bd 78 30 27 be
       0.103385575 -0.12685919 -0.094843075 -0.16327083
000170 5e cd 73 3e be e7 28 be 15 e6 8c 3d 02 68 60 3e
       0.2380881 -0.16494653 0.06879822 0.21914676
000180 76 a9 51 be f4 a6 ad bd a8 e4 69 be 5c cd 70 3e
       -0.204748 -0.084791094 -0.22841132 0.23515838
000190 f0 3a 06 3e 94 a3 14 be cc 3c d6 3d 20 65 2a bc
       0.1310842 -0.14515525 0.10460815 -0.010400087
0001a0 14 93 bd 3d 18 75 19 3e b0 c5 f8 3c c2 02 c2 3b
       0.092565686 0.14986074 0.030367702 0.005920739
0001b0 a8 d5 33 3d 54 97 de 3d 34 95 1e 3e 5e 64 26 be
       0.04390493 0.10868707 0.15486604 -0.16249225
0001c0 46 8a 25 be 34 c9 48 bd 8e d9 81 3d b5 3f aa 3d
       -0.16166028 -0.049020007 0.063403234 0.083129324
0001d0 2c 25 2e be 79 51 f4 bd 13 0b ff 3d 2e e7 f8 bd
       -0.17006367 -0.11929602 0.12453284 -0.12153469
0001e0 64 1d 48 3e 8f be c7 3d ff a5 74 3e c7 fb 81 3d
       0.19542462 0.09753143 0.23891447 0.06346851
0001f0 b0 f6 7d be c6 83 0f 3e 50 8d 6e 3d 8d 27 3c 3e
       -0.24801135 0.14015111 0.058240235 0.18374462
000200 80 40 f3 bd 1c 43 fc bd b8 6e 4c 3d 6c 65 d3 3d
       -0.11877537 -0.123174876 0.049910277 0.10322079
000210 0a 20 ef b9 b0 af ee bd 34 18 2d be 30 9b 70 3e
       -0.00045609503 -0.116546035 -0.16903764 0.234967
000220 2e 4b 3d 3e 06 49 5d be d0 c6 fe bd 44 19 ab 3d
       0.1848571 -0.21609887 -0.12440264 0.083544284
000230 fc 5e 8a bd 90 f4 41 be 12 d5 25 3e ee 33 22 3e
       -0.06756398 -0.1894095 0.16194561 0.15840122
000240 0c d8 cc 3d da 43 63 be 88 35 29 bd 10 c8 ba bd
       0.10002145 -0.22193852 -0.041310817 -0.0912019
000250 40 07 86 bd 08 b1 4e 3d 9c 42 46 3e cc 48 a0 bd
       -0.065443516 0.0504618 0.19361347 -0.07826385
000260 98 64 e9 3d 18 57 da bd 78 38 8f 3d a8 e4 45 3d
       0.1139614 -0.10661143 0.069931924 0.048313767
000270 ba 46 3b be 96 1c 07 be ee ce 6e 3e da c2 1e be
       -0.18288699 -0.13194498 0.23321125 -0.15504017
000280 09 6e 48 bc 1c 4f 27 bd 08 95 06 3e 46 03 a2 3d
       -0.012233266 -0.04084693 0.13142788 0.079107806
000290 69 58 74 3e 4a 6b 3d 3c 26 e2 09 3e c6 53 7a 3d
       0.23861851 0.011561224 0.13465175 0.06111505
0002a0 ee 74 e0 bd 6e b4 e0 3d 8e be a6 3d 32 54 b7 bd
       -0.109598026 0.10971914 0.08141814 -0.08951606
0002b0 63 3d 01 bd d4 01 2a 3e 6b 43 73 bd 25 ec bc bd
       -0.031552684 0.1660226 -0.059390467 -0.092247285
0002c0 2a 9c 11 3e 18 97 5f 3d ac bc cd bd c4 4e be bd
       0.14219728 0.054587454 -0.10045752 -0.09292367
0002d0 04 07 03 3e 8c cf a8 3d 9a 5b 17 be 5a e7 34 be
       0.12795645 0.082427114 -0.14781037 -0.17666379
0002e0 c0 44 2c 3e 92 e6 12 3e 78 c3 f7 bd 78 2d 74 3d
       0.16823101 0.14345768 -0.120978296 0.059613675
0002f0 ec 30 ed 3d de 35 3f 3e 80 3b d7 3d f8 7c ca 3d
       0.11581597 0.18672892 0.105093956 0.09887117
000300 9c f1 7e 3e a2 87 55 3e dc 54 4c be 94 3a 87 bd
       0.24896854 0.20852521 -0.19954246 -0.0660297
000310 c4 d0 6f 3e bc 20 9a 3d 14 16 e5 3d f2 0e 0f be
       0.23419482 0.07525775 0.11185852 -0.13970545
000320 58 6f a1 bd 34 df f5 3d 24 58 54 3e de 38 2b 3e
       -0.07882565 0.12005463 0.20736748 0.16720912
000330 14 f8 c8 bd e2 ac 1f be 00 b8 61 be 9c 0c 7f be
       -0.09812942 -0.15593293 -0.22042847 -0.24907154
000340 08 aa 06 3e 84 e5 85 bd 1a a5 65 be 76 65 31 3e
       0.131508 -0.06537917 -0.22426262 0.1732386
000350 a0 11 21 3c 00 f0 75 bd 04 c0 82 bd 06 e7 2a be
       0.009830862 -0.060043335 -0.0638428 -0.16689691
000360 38 18 19 bd 80 d2 d5 bc 8a 97 0a be 32 bb 51 3e
       -0.037376612 -0.02610135 -0.1353437 0.20481566
000370 90 18 29 be 88 31 5c 3d 80 89 f9 3d f8 6a 62 3d
       -0.16513276 0.053758174 0.12184429 0.055277795
000380 38 a4 5c bd f8 fb b6 3d b0 da 95 3d 90 ef dc 3c
       -0.05386755 0.08934778 0.07317102 0.026969701
000390 00 08 c1 bd 6a fd 4f be 6e bd 0b 3e cc 6d b2 3d
       -0.09425354 -0.20311514 0.1364648 0.08712348
0003a0 f8 d4 14 3d 52 4b 40 3e da c0 25 3e 38 f3 60 be
       0.036335915 0.18778732 0.16186848 -0.2196778
0003b0 b0 d1 0f be c0 57 9a bc 78 7b 89 3d a0 f0 75 bc
       -0.14044833 -0.01884067 0.06713003 -0.015010983
0003c0 5c fa 2a 3e 78 72 fb bd 4e 3e 29 3e 5a 02 78 3d
       0.16697067 -0.122776926 0.16527674 0.060549118
0003d0 3e 92 4c be 48 98 b7 bd 3e f7 6f be 24 e9 ef 3d
       -0.19977662 -0.08964592 -0.23434159 0.1171439
0003e0 26 71 6b 3e 7c d0 52 be d8 cb 80 bd e4 a2 18 3e
       0.22992381 -0.20587343 -0.0628888 0.14905888
0003f0 80 90 75 3e ff 8c 62 bc fc b8 bb bd a0 80 b8 3d
       0.23980904 -0.013827561 -0.09166142 0.09008908

convs.0.nn.0.bias f4 [16]
000000 00 06 93 3a e4 d2 52 be 7c ce 37 be 7c de bf bd
       0.0011216998 -0.20588261 -0.17949861 -0.093686074
000010 c4 23 15 be 2c 6c 43 3e ac c8 59 3e f6 47 55 be
       -0.14564425 0.19084233 0.21267956 -0.20828232
000020 78 21 55 3e 8a 74 7a be 34 75 47 be b0 e0 eb bd
       0.20813549 -0.24458519 -0.19478303 -0.11517465
000030 60 0c 5a be 5c 24 9b bd da 3c 59 3e ec f9 e9 bd
       -0.21293783 -0.075752944 0.2121462 -0.11424622

convs.0.nn.1.weight f4 [16]
000000 3f 03 80 3f dc 01 80 3f c5 fb 7f 3f a7 fb 7f 3f
       1.0000991 1.0000567 0.99993545 0.99993366
000010 4b fd 7f 3f 1a 00 80 3f b1 01 80 3f 10 02 80 3f
       0.9999587 1.0000031 1.0000516 1.000063
000020 75 01 80 3f b9 fb 7f 3f 7c 00 80 3f 62 01 80 3f
       1.0000445 0.99993473 1.0000148 1.0000422
000030 6c fd 7f 3f 97 fb 7f 3f 14 00 80 3f 20 fd 7f 3f
       0.99996066 0.9999327 1.0000024 0.99995613

convs.0.nn.1.bias f4 [16]
000000 3d be b0 38 c0 6a 41 38 d2 aa 9e b8 e6 d3 a4 b8
       8.4277686e-05 4.6114204e-05 -7.565845e-05 -7.8595986e-05
000010 67 5a 50 b8 c3 55 4c 36 5a 5f 36 38 14 8e 9c 38
       -4.967526e-05 3.0448289e-06 4.3480984e-05 7.465124e-05
000020 5c 97 59 38 d0 bc 64 b8 9e 1d 9c 37 ae ed 0e 38
       5.1877796e-05 -5.453528e-05 1.861044e-05 3.4076795e-05
000030 0b 10 0b b8 0c 97 6b b8 b0 77 2f 36 90 57 5f b8
       -3.3155124e-05 -5.616904e-05 2.61467e-06 -5.3248892e-05

convs.0.nn.1.running_mean f4 [16]
000000 26 1a 95 be 36 a6 24 3f d0 8a ab 3f b4 81 b6 bf
       -0.29121512 0.6431612 1.3401737 -1.4258332
000010 ec 03 2c bf 60 a9 07 3f 78 41 be 3e f2 72 09 3f
       -0.67193484 0.5299282 0.37159324 0.5369102
000020 1c 02 c3 bd e9 83 20 bf bd 48 60 3f 7e 3f 36 3f
       -0.09521887 -0.6270128 0.8761099 0.7119063
000030 9c 1d 12 3e 63 8f f2 be 30 1d d4 3e 24 a6 92 3e
       0.14269108 -0.4737502 0.41428518 0.2864238

convs.0.nn.1.running_var f4 [16]
000000 eb 86 fc 40 17 60 3f 3f 03 eb 2d 40 55 18 df 3f
       7.8914695 0.74755996 2.717469 1.74293
000010 72 09 d5 3f ce f7 2e 3f e1 cc a3 3f 7c 2a 3c 3f
       1.6643507 0.6834687 1.2796899 0.73502326
000020 9d d7 c6 3f 74 bf 28 40 28 a8 ad 3f eb 6f 42 41
       1.553455 2.6366854 1.3566942 12.152324
000030 c7 dd 46 3f 4e 67 68 40 d1 5c 6a 40 a0 32 2c 3f
       0.77682155 3.6313052 3.661915 0.6726475

convs.0.nn.3.weight f4 [16, 16]
000000 87 3d 27 3e 5f 6c 1c be d4 de 81 3d 68 38 80 bd
       0.16332065 -0.15275715 0.06341329 -0.06260759
000010 54 d7 09 be f7 a6 3b be 6b 12 6d be 70 5b 95 3d
       -0.13461047 -0.18325411 -0.23151557 0.07292831
000020 a3 91 4c be cc 5f 84 3d fb 10 52 3e 5b 56 42 3e
       -0.19977431 0.06463584 0.2051429 0.18978254
000030 a8 57 ba bd 50 16 c2 bd cd d1 77 3e 5b 1c 76 be
       -0.0909875 -0.09476912 0.24201126 -0.24034254
000040 93 c1 f5 3d 28 f4 56 3e 74 86 be 3d 20 5d ac bd
       0.11999812 0.20991576 0.09302989 -0.084162
000050 84 93 89 3d ae 7e 5f be f6 b5 35 3d 8f ab 06 be
       0.067175895 -0.21825668 0.044362985 -0.13151382
000060 5d 51 32 be 38 24 53 3e cf 23 dc 3c 72 d2 04 bd
       -0.1741385 0.20619285 0.026872544 -0.03242726
000070 92 7a 0d bd 0a 85 17 3e fd 8f 68 3e e8 a9 b7 3d
       -0.03454072 0.14796844 0.22711177 0.08967954
000080 c9 44 e5 bd 17 ae 49 3e c2 50 2c 3e 0d 68 95 bd
       -0.1119476 0.19695316 0.16827682 -0.07295237
000090 9e 64 96 ba a1 f4 6d 3e 1a 57 77 bd 6a 8c 28 3e
       -0.0011474078 0.2323785 -0.0603858 0.16459814
0000a0 52 1d 26 3e 29 4e 74 be 78 40 17 3c 9f 27 8f 3d
       0.16222122 -0.2385794 0.009231679 0.06989979
0000b0 12 4c d6 bb 35 b4 77 be 5d 25 11 3d 04 62 03 3e
       -0.00653983 -0.24189837 0.035436023 0.12830359
0000c0 9d f7 cb bd 1d 59 b7 3c 5d 06 1f be 4f 37 3b 3e
       -0.09959338 0.02238136 -0.15529771 0.18282817
0000d0 72 fe 64 be 67 a3 b5 3d 37 9a 60 3e 4f 00 76 be
       -0.22362688 0.08869057 0.21933828 -0.24023555
0000e0 69 ef 16 be 15 8f 7f 3e 41 69 5c be 13 03 c0 bc
       -0.14739765 0.24956925 -0.21524526 -0.023438966
0000f0 1c 12 2f bb c3 5c 44 be 2b f7 b3 3c d7 12 0a 3e
       -0.0026713675 -0.19176011 0.021968445 0.1348375
000100 a8 1f 78 be 1e cc 63 be 87 ed 65 be 41 ed 27 be
       -0.24230826 -0.22245833 -0.2245389 -0.16399099
000110 37 b4 05 be 3b e1 cf bb 74 5d 43 be 4b d8 6d 3e
       -0.13057028 -0.0063439882 -0.19078618 0.2322704
000120 a5 c9 fb 3d b2 06 1d be 55 ef 26 be 3c c5 7e be
       0.1229432 -0.15334585 -0.16302235 -0.24879926
000130 61 ef b8 3c c8 02 4f 3e c3 9c d6 3c 3d 07 7c be
       0.022575082 0.20215905 0.026197797 -0.24612136
000140 96 c8 9c 3d f0 11 2c 3e 4c 58 6e 3e 14 5a 85 3c
       0.07655446 0.16803718 0.2327587 0.016278304
000150 28 46 0a bd 32 08 04 3e 64 17 0c be 37 77 19 bc
       -0.033758312 0.12893751 -0.13680798 -0.009366802
000160 e5 44 9e 3d 78 04 58 3e 0e 6e 46 be 02 9a a1 bd
       0.07727984 0.21095455 -0.1937792 -0.07890703
000170 1c 1f 41 3a d4 31 72 3d c2 0f 4f 3e 76 48 15 be
       0.00073670014 0.05912955 0.20220855 -0.14578423
000180 76 7e 6f 3e 96 2f 2b 3e 22 44 55 3e 2e 3a 6d 3e
       0.23388085 0.16717371 0.20826772 0.23166725
000190 d4 0e 21 3e 5c 3d a0 bb b0 cf f8 3d 63 21 64 be
       0.15728313 -0.004890127 0.12148988 -0.22278361
0001a0 b4 33 0b be 78 3d 2d be 47 62 82 bd 18 d6 fb 3d
       -0.13593942 -0.1691798 -0.06366401 0.122966945
0001b0 1c e8 b2 bd 34 28 2b be c0 3e 90 ba 3c 1f 32 3e
       -0.087356776 -0.16714555 -0.0011005029 0.17394727
0001c0 66 dc a1 bd 2e cf 46 3d 14 c8 66 bd 26 dd ec bd
       -0.07903366 0.048537426 -0.056343153 -0.11565618
0001d0 65 fc 06 be ae c8 79 3d fc 83 b5 3c 72 ca b4 3d
       -0.13182218 0.0609824 0.022157662 0.08827676
0001e0 25 ba 7c be b7 7e 50 3e b5 bb 1a 3e 22 aa c8 3d
       -0.24680384 0.20360838 0.15110667 0.09798075
0001f0 1e 97 eb 3d 5b 6d 49 3e 44 8c 14 bd d9 bf 95 3c
       0.11503433 0.19670622 -0.03626658 0.018279957
000200 d3 0b 5e be 9f a0 03 be 0c 82 79 3e fc ca 73 be
       -0.21684198 -0.12854241 0.24366015 -0.23807901
000210 5d e6 68 3e a5 21 46 3e 3b f7 98 bd 16 c5 63 be
       0.22744127 0.19348772 -0.074690305 -0.22243151
000220 95 5f fe bd 99 2a c7 3d cc 97 46 3e 57 d0 19 be
       -0.124205746 0.09724922 0.19393843 -0.15020882
000230 cd 1e 3e 3e a9 7b 3a 3c 9d fb f8 3c 9d cf ac 3c
       0.18566437 0.011382022 0.030393416 0.021095091
000240 c4 08 4a 3e ca 6c 18 3e bd e1 32 bc 98 f3 65 be
       0.19729906 0.1488525 -0.010918078 -0.22456205
000250 99 e0 7c 3d 0e f0 23 3e bb a4 04 3c e0 8a 8d bd
       0.06173763 0.16009542 0.008095915 -0.06911254
000260 88 5e a1 bd 38 d9 5a be bd 0d 4c bc a6 c5 27 3e
       -0.078793585 -0.21371925 -0.012454447 0.1638399
000270 0a 6f 6a 3e 9e ea 2c 3e 80 71 37 bd ec c6 38 3e
       0.2289392 0.16886374 -0.044785976 0.18044633
000280 03 d4 5f 3e 33 1b 35 be c7 18 5c 3e a3 18 2c 3e
       0.2185822 -0.17686157 0.21493827 0.16806273
000290 49 a8 b6 3d d7 cf 4a 3d 7c 58 91 3d 89 d7 a9 bd
       0.089188166 0.049514618 0.07096955 -0.08293063
0002a0 d1 74 74 be 28 97 0f bd 57 a2 33 3e 03 cb 7f be
       -0.23872687 -0.035056263 0.17542396 -0.24979787
0002b0 08 f3 5a 3d 23 c5 0b 3e 93 40 c8 3d ed b7 dd bd
       0.05345443 0.1364942 0.097779416 -0.10826097
0002c0 c7 0c fc 3d 1f 12 6b be fc d7 35 bc 26 d6 3a be
       0.123071246 -0.22956131 -0.011098858 -0.18245754
0002d0 5f 91 b2 3d b5 5e 94 bd c8 bf 9f 3b 0b 9a a9 bd
       0.087191336 -0.072446264 0.004875157 -0.082813345
0002e0 c9 8b 4f 3d a3 32 52 be a2 ec 3b be fd 21 35 be
       0.05067042 -0.20527129 -0.18351987 -0.17688747
0002f0 ae 05 55 bd bd 43 02 be a8 61 60 3e 14 a4 6a 3e
       -0.05200737 -0.12721153 0.21912253 0.22914153
000300 52 5d 1a be 57 25 6a bd 8c 67 66 3e cd de a0 3d
       -0.15074661 -0.057164516 0.22500437 0.07854996
000310 21 20 2a 3e 17 6f 76 bd f2 a0 46 be 15 44 8f 3d
       0.16613819 -0.060164537 -0.19397333 0.069954075
000320 31 6e ae 3d fc d5 05 be 5a 61 67 be 0d 3d 9d 3d
       0.08517111 -0.1306991 -0.2259573 0.0767766
000330 0a 4b 45 3e bb 71 89 bd 9b 5f ca bd 8b 98 9b bd
       0.19266906 -0.067111455 -0.098815165 -0.07597455
000340 6a 5a 37 3d 0d e2 c7 3d ea ce 7c be e4 5d 53 be
       0.04476396 0.09759913 -0.24688306 -0.20641285
000350 b8 31 af bd 33 fc da bd 51 4e 84 3d b4 1f 29 3e
       -0.08554405 -0.106926344 0.0646025 0.16516
000360 29 94 89 3d 94 06 3a 3e de 59 51 bc 66 c7 48 3c
       0.067177124 0.18166572 -0.012777774 0.012254572
000370 06 4f 7f 3e d6 d6 6a bd af bb 83 bd a9 58 79 3d
       0.24932489 -0.05733379 -0.06432282 0.06087557
000380 bd 52 98 3d 25 6c 74 be 7a be 40 bd d8 9b 40 3e
       0.07437656 -0.23869379 -0.047056653 0.1880945
000390 8a 1b 80 bd db f5 65 3e 83 3f 86 bd 66 6a 96 bd
       -0.06255253 0.22457068 -0.06555083 -0.07344513
0003a0 76 2c 57 3e 1f 9d 2a 3e 20 69 29 3d 59 ab 46 be
       0.21013054 0.166615 0.04136002 -0.19401301
0003b0 63 88 13 be 4b 8e 11 3e ff 35 2c 3e dc 60 54 be
       -0.14407496 0.14214437 0.16817473 -0.20740074
0003c0 e7 53 6b 3e 3b 47 52 be 3f 97 54 3e f6 c7 a8 3c
       0.22981225 -0.20534985 0.20760821 0.020603161
0003d0 d6 4e cb bd 95 aa 1d 3e 45 e3 dc 3d 0c 12 3f bd
       -0.09927146 0.15397103 0.10785536 -0.04664807
0003e0 43 3d 10 be 52 e1 4a 3d f2 19 82 bd ce 5e 5c bd
       -0.1408587 0.04953129 -0.06352605 -0.05380135
0003f0 af b4 63 be df 87 56 be fb 61 5c be ac 58 4c bd
       -0.22236894 -0.20950268 -0.21521752 -0.04988925

convs.0.nn.3.bias f4 [16]
000000 60 74 f5 bc 08 a4 31 3d dc 8f 7b 3e 18 b7 2c bd
       -0.029962718 0.043369323 0.24566597 -0.0421668
000010 1a c8 12 3e 72 27 14 be 46 38 12 be f4 49 37 3e
       0.14334145 -0.14468172 -0.14279279 0.17899305
000020 52 3b 59 3e 68 3a 2c 3e fe 87 1d be 20 f8 a5 3c
       0.21214035 0.16819155 -0.15383908 0.020259917
000030 ca 4a 3b be ec 0b 14 be 46 9d 67 3e 46 b7 5f 3e
       -0.18290249 -0.14457673 0.22618589 0.21847257

convs.0.nn.4.weight f4 [16]
000000 cf d6 7f 3f 0e f7 7f 3f b9 04 80 3f f2 09 80 3f
       0.99937147 0.9998635 1.0001441 1.0003035
000010 93 00 80 3f 82 05 80 3f 23 fc 7f 3f c7 02 80 3f
       1.0000175 1.0001681 0.99994105 1.0000848
000020 ab fd 7f 3f 50 f7 7f 3f 9d dc 7f 3f 0e 0b 80 3f
       0.9999644 0.99986744 0.99946004 1.0003374
000030 a1 fb 7f 3f cf 10 80 3f 71 da 7f 3f 22 12 80 3f
       0.9999333 1.000513 0.9994269 1.0005534

convs.0.nn.4.bias f4 [16]
000000 b2 97 2c ba 4f 12 24 b9 b0 d9 4b 39 51 cf 84 39
       -0.00065838837 -0.00015647079 0.00019440684 0.00025331465
000010 2e 42 2a b8 ff 10 ff 38 6e fd c0 b8 bf 82 11 38
       -4.0592793e-05 0.00012162513 -9.2024784e-05 3.469246e-05
000020 7a db 48 b8 b8 44 d0 b8 d8 33 13 ba 4f 1f a4 39
       -4.788812e-05 -9.931013e-05 -0.00056153303 0.00031303844
000030 72 fd 0f b9 d6 63 f9 39 4e de 23 ba c2 a9 03 3a
       -0.00013731958 0.00047567365 -0.00062510825 0.00050225493

convs.0.nn.4.running_mean f4 [16]
000000 cc 68 b9 bd 6d f1 04 3e f3 56 40 3e 73 c0 bf bd
       -0.090531915 0.12982722 0.18783168 -0.09362879
000010 b1 4f 61 be 49 14 67 3d 37 0c 61 3d 6e 68 10 3e
       -0.22003056 0.05641583 0.05494329 0.14102337
000020 a9 12 c6 3d b2 35 4f 3e 91 63 65 3c 2e 22 ea bd
       0.09671528 0.20235327 0.014000789 -0.114323005
000030 c6 d8 dd bd 63 13 d8 bc ae 8f 04 3e db dc 97 bc
       -0.10832362 -0.026376432 0.12945434 -0.01853793

convs.0.nn.4.running_var f4 [16]
000000 87 f5 1e 3f a8 e7 1a 3f 45 cc 2c 3f a5 78 23 3f
       0.62093395 0.6050973 0.6749919 0.63855964
000010 1c cf 1c 3f 11 c1 1b 3f c9 c7 17 3f da bd 27 3f
       0.61253524 0.6084147 0.5928922 0.65524065
000020 9c 5d 1a 3f 62 3d 32 3f 4b 20 18 3f 9d 4f 25 3f
       0.60299087 0.6962491 0.59424275 0.64574605
000030 f2 33 1c 3f 2b 54 23 3f 84 1d 19 3f f0 6e 17 3f
       0.6101676 0.63800305 0.5981066 0.5915365

convs.1.nn.0.weight f4 [16, 16]
000000 a9 b6 0c 3e 84 b5 4e 3e bf 22 63 3e ef 33 c5 bd
       0.13741554 0.2018643 0.22181223 -0.09629046
000010 d3 1f 07 3e a2 56 6e 3d e7 fb 8d bd 0a a1 07 3e
       0.13195734 0.05818809 -0.06932812 0.13245025
000020 89 dd 26 3e af 7d 5a 3e 0c fc 14 3e 5a ae 41 bd
       0.16295446 0.21337007 0.14549273 -0.047285415
000030 f4 c2 fb bd 3f fe e3 bd 50 cb c1 bd af cf e1 bd
       -0.12293044 -0.11132478 -0.09462607 -0.110259406
000040 2a e4 1f be 50 94 a4 bc b6 78 fc 3d bb 88 23 be
       -0.15614381 -0.020090252 0.12327711 -0.15970127
000050 42 cc ec bd f8 35 f2 bd 19 5b c7 bd b5 2b e4 bd
       -0.115623966 -0.118267 -0.097341724 -0.11141149
000060 a4 6c eb bc 87 b3 a2 3d ac 90 de bd 55 e5 f9 bb
       -0.028738327 0.079443984 -0.10867438 -0.0076262155
000070 42 d5 2f be 97 7b 29 be d0 1d 73 be 85 e9 71 be
       -0.17171195 -0.16551052 -0.23741841 -0.23624237
000080 6e d9 0a bd fb 1c dc 3d ef 56 e4 bd 23 34 44 be
       -0.033898763 0.10747715 -0.11149394 -0.19160514
000090 38 61 51 3e 1a c8 44 bd 17 46 a1 bd 0d 8c 01 be
       0.20447242 -0.048042394 -0.07874697 -0.12651081
0000a0 48 6c 3c 3c 4e 1b 59 3d 0a ee 44 3e f2 b0 14 3d
       0.011500426 0.053004555 0.1923143 0.03630156
0000b0 06 c0 4d 3e c9 a4 b5 bd 95 23 eb 3d 7b c4 c8 3d
       0.20092782 -0.08869321 0.11481396 0.09803101
0000c0 71 b1 24 be 6e 5f e2 bc a5 f7 16 be 33 ed 72 3d
       -0.16083314 -0.027633395 -0.14742906 0.059308242
0000d0 0c 8e 10 bd b6 df 12 bd 55 75 69 3c 71 eb bd 3d
       -0.035291716 -0.03585788 0.014249166 0.092734225
0000e0 56 5f f2 bd d7 dd 2b bc e7 28 35 3e e7 49 a3 3d
       -0.1183459 -0.010489902 0.17691384 0.0797308
0000f0 b7 85 72 be de 3b 74 3e cb 43 56 3e a5 6b ee 3d
       -0.2368382 0.23850963 0.20924298 0.11641625
000100 83 4c 69 3e 1c a6 30 be a7 c0 8c 3d 5d 97 fe bc
       0.22783093 -0.17250866 0.06872683 -0.031078035
000110 a7 7f 32 be 45 11 ba bd f9 e7 0d 3e d8 fc 26 be
       -0.17431508 -0.09085325 0.13858022 -0.1630739
000120 33 ec 10 3d 2e f8 52 3d d9 72 5e 3e a4 d9 7d be
       0.035381507 0.051506214 0.21723498 -0.24790055
000130 b1 5f 3c be 54 50 26 3e c2 99 c8 3d 80 8b c6 3d
       -0.18395878 0.1624158 0.09794952 0.09694576
000140 63 b9 a9 bd fe 5d 11 be 88 8e 3e be 72 82 a1 3d
       -0.08287313 -0.14196011 -0.18609059 0.078862086
000150 a0 de 6e be c8 b1 6a 3e 8b 29 ab bd 4c 2a 05 3e
       -0.23327112 0.2291938 -0.08357533 0.13004416
000160 5f ae 8e bd b4 61 35 be d6 6c b0 3b 5f e3 e6 bd
       -0.069668524 -0.17713052 0.005384068 -0.11273836
000170 90 e9 36 3e c4 d5 06 bd cb 2c 7e 3d d0 85 02 3c
       0.17862535 -0.032918707 0.062054437 0.007966474
000180 5f 52 a9 bd fb 42 b9 3c 3d 09 0d bc f2 8a 3c be
       -0.08267664 0.022614947 -0.00860816 -0.18412378
000190 ca 90 3b be d5 a8 d3 bd 5f c0 c3 bc 2e 96 1a 3e
       -0.18316951 -0.103349365 -0.02389544 0.15096352
0001a0 7e c5 5f 3e a4 f0 75 3e 52 fb 66 bd 84 cb 72 3e
       0.21852681 0.24017578 -0.05639202 0.23710448
0001b0 38 be 03 be a0 8c f0 bc b0 6e 13 3e ef d3 aa bd
       -0.12865531 -0.02936393 0.14397693 -0.083412044
0001c0 91 c2 0c 3e af dd 63 be 16 6f 91 bd e9 0d 09 3d
       0.13746096 -0.22252534 -0.07101266 0.03346053
0001d0 2a af 88 3d 00 b5 82 3d 32 e1 db 3d 4b b6 22 3e
       0.06674035 0.06382179 0.10736312 0.15889852
0001e0 bb b3 19 bd f9 96 62 3e 15 af 59 3d aa c9 e1 3d
       -0.03752492 0.22127904 0.053145487 0.110247925
0001f0 29 63 0a be e0 12 ad 3d 7a 82 95 bd 31 fe 78 3d
       -0.13514389 0.08450866 -0.07300277 0.06078929
000200 75 85 b2 bd 8b 9e ae bd 31 35 e9 bd 49 55 9b 3d
       -0.08716861 -0.085263334 -0.113870986 0.07584626
000210 9f b8 f5 3d 9b d7 84 bd e3 60 9d 3d ad 34 be 3d
       0.11998104 -0.06486436 0.07684495 0.09287391
000220 bb 47 a9 3d 85 f7 28 bd 95 ba 5f 3e f7 0d 49 3d
       0.082656346 -0.041251678 0.21848519 0.049085584
000230 37 f7 fd 3d 64 50 f3 3c 20 02 20 3e 46 42 6f be
       0.12400668 0.02970142 0.1562581 -0.23365125
000240 30 6b 4b be 3a 0f 2b 3e 80 dd 07 be ea f5 08 be
       -0.19865108 0.16705027 -0.1326809 -0.13375059
000250 ff eb ce 3c d8 2e 84 3d c2 ba 7b be ba 63 52 3e
       0.025259016 0.06454247 -0.24582961 0.20545855
000260 48 f6 19 be 70 d7 a4 bb f4 89 1b be ee c0 05 be
       -0.15035355 -0.005030565 -0.15189344 -0.13061878
000270 7f f4 c8 3c 12 69 68 3e 38 c3 17 bd d0 63 c7 3b
       0.024530647 0.22696331 -0.03705141 0.0060848966
000280 44 ce 5e be c8 75 09 3d d6 cc 17 be 28 67 34 be
       -0.21758372 0.03355959 -0.14824232 -0.17617476
000290 38 55 31 3d f8 2a f7 3d f0 db 0e be 7c ed d9 3d
       0.04329416 0.120687425 -0.13951087 0.10641
0002a0 9c 5c f9 bd 4a eb 0a 3e 80 89 2c 3d 06 e0 36 be
       -0.12175867 0.13566318 0.042123318 -0.17858896
0002b0 6e 8e 0b be d8 df 04 be 90 b5 e0 bd ea a1 0d 3e
       -0.13628551 -0.12976015 -0.1097213 0.13831297
0002c0 99 a9 ad bb fb ee cb bd 0f 1d 58 be 75 13 61 3e
       -0.0052997586 -0.09957691 -0.21104835 0.21980079
0002d0 53 e7 1b be 51 b1 b7 3d 65 4d c1 3d 0a ad 4b 3d
       -0.15224962 0.08969367 0.0943859 0.04972557
0002e0 c7 52 4b be 95 ed 3a be 36 35 fd bc 8d 6c 75 3d
       -0.19855796 -0.18254693 -0.030909162 0.059917975
0002f0 95 1b 21 be c1 f5 5d 3e ed 56 39 3d ef 6a 71 be
       -0.15733178 0.21675779 0.045248915 -0.23575948
000300 0e 04 43 3e 3a 5b 5a 3d e8 02 1e 3d aa 0f 04 3e
       0.19044515 0.053309657 0.03857699 0.128966
000310 5d 6c 19 be 18 b6 4a be a5 2c e2 bd 5a 8c 76 3d
       -0.14982744 -0.19796026 -0.110436715 0.060192443
000320 b8 4d 48 be 07 15 92 bd 81 ad da bc 3c 6a fc bd
       -0.19560897 -0.07132917 -0.026694061 -0.1232495
000330 ef d8 50 3e a4 88 2f 3e ba 6b 58 3e 52 8a 5d 3d
       0.20395254 0.17141968 0.21134844 0.05408699
000340 f8 9b 5f bd a0 83 2f bc e8 1d c3 3d 50 c3 f5 bc
       -0.054592103 -0.010712534 0.095271885 -0.030000359
000350 38 8d 29 3e ee 11 2e be 40 09 35 bd 50 0b a2 3c
       0.16557777 -0.16999027 -0.044198275 0.019780785
000360 48 e7 69 3e 00 d7 35 be bc f5 08 3e 08 30 46 3e
       0.22842133 -0.17757797 0.1337499 0.1935426
000370 4e 3f 6a 3e 04 5d 8c 3d a8 f7 57 3d 54 21 54 be
       0.22875711 0.06853679 0.052726418 -0.20715839
000380 bd d1 ec bb 54 ec 35 be f4 7b 65 3e 50 6e 12 be
       -0.007227151 -0.17765933 0.22410566 -0.14299893
000390 42 77 22 3e 28 80 01 be f8 1b 04 bd c6 81 c6 3d
       0.15865806 -0.12646544 -0.032253236 0.09692721
0003a0 10 30 b2 bd f8 a5 00 be 90 63 20 3e 66 3f 32 3e
       -0.087005734 -0.12563312 0.1566298 0.17406997
0003b0 84 28 95 bd 20 c0 d8 3b 12 2b 6e be 06 cd ce bd
       -0.07283118 0.0066147 -0.23258618 -0.10097699
0003c0 23 5d 20 3d 4f 2a e6 bd ab dd af bd 7b 69 e5 bd
       0.039151322 -0.112385385 -0.08587202 -0.112017594
0003d0 5c 85 20 b9 3e 9f 00 be 33 9a 8f bd a2 d6 4a 3e
       -0.0001530847 -0.12560746 -0.07011833 0.19808438
0003e0 0d c8 13 be 2e 4f 23 3e 25 d2 e3 3d e5 46 00 be
       -0.14431782 0.15948173 0.11124066 -0.12527044
0003f0 35 be 11 be 80 58 62 3e f9 19 91 3d 00 e5 3b 3d
       -0.14232714 0.22104073 0.07085032 0.04587269

convs.1.nn.0.bias f4 [16]
000000 7e f9 7f be c7 ba d0 bd 30 7d 20 be c8 d5 dc 3d
       -0.24997517 -0.10191875 -0.15672755 0.10782963
000010 08 22 71 be 78 c7 95 3d 6e 8e bf 3d a6 79 20 3e
       -0.23548138 0.07313436 0.09353338 0.15671405
000020 34 47 0d be b0 84 01 bd d8 f0 5b bd ea 9c 41 3e
       -0.13796693 -0.03162068 -0.053696483 0.18907514
000030 61 14 34 be 94 bb 6b be f0 12 48 be 60 36 00 3d
       -0.17585899 -0.23020774 -0.19538474 0.031301856

convs.1.nn.1.weight f4 [16]
000000 cf ab 7f 3f fb 2f 80 3f cb 31 80 3f 81 9f 7f 3f
       0.99871534 1.0014642 1.0015196 0.9985276
000010 d0 9e 7f 3f 34 b4 7f 3f a0 9c 7f 3f 0f 32 80 3f
       0.99851704 0.99884343 0.99848366 1.0015277
000020 b9 2f 80 3f bc 2e 80 3f ec f0 7f 3f 96 9b 7f 3f
       1.0014564 1.0014262 0.9997699 0.9984678
000030 78 9c 7f 3f 89 1d 80 3f a3 2b 80 3f 3e 31 80 3f
       0.9984813 1.0009013 1.0013317 1.0015028

convs.1.nn.1.bias f4 [16]
000000 5c 62 ae ba 24 fe c2 3a 28 09 c9 3a f2 cd bd ba
       -0.001330446 0.0014876765 0.0015337812 -0.0014480932
000010 f0 c1 c4 ba 4c 43 8f ba 98 9d c8 ba 0e 55 c6 3a
       -0.0015011411 -0.001093009 -0.0015305756 0.001513155
000020 3f f1 c1 3a d1 ac b6 3a 33 af 4d b9 4a f0 c6 ba
       0.0014796628 0.0013937001 -0.0001961559 -0.0015177813
000030 78 cd c4 ba 3c ab 7f 3a b0 da b3 3a 63 5a c2 3a
       -0.0015014848 0.0009752994 0.001372179 0.0014827963

convs.1.nn.1.running_mean f4 [16]
000000 39 4a 97 3f b8 08 21 c0 1c d9 1f 3f 66 de 97 3e
       1.1819526 -2.5161572 0.6244066 0.29661864
000010 fb d4 36 bc 44 36 3c bf c7 b9 68 3e 0c 00 67 3f
       -0.011159177 -0.735203 0.22727118 0.90234447
000020 1a a1 2e 3f 28 57 6e bf 7a db a9 bf 3c ac 58 bf
       0.6821457 -0.9310174 -1.3270104 -0.8463781
000030 d5 9c a4 3e fa 50 67 3f d2 7d c4 be 5a 19 27 be
       0.32150903 0.90357935 -0.38377243 -0.16318265

convs.1.nn.1.running_var f4 [16]
000000 de 09 99 40 74 4c 30 40 15 be 92 40 51 d9 02 40
       4.7824545 2.7546663 4.5857034 2.044514
000010 d4 79 77 3f 2f 90 fb 3f 5a ce 4b 3f 5f b5 7a 3f
       0.9667027 1.9653376 0.7961174 0.97933
000020 e6 11 49 40 d0 0b f5 40 36 07 ae 40 6a e6 90 40
       3.1417174 7.657692 5.4383802 4.5281267
000030 3f c6 a1 3f 77 ee 19 41 42 0e a3 40 54 26 cd 3f
       1.2638625 9.620719 5.0954905 1.6027322

convs.1.nn.3.weight f4 [16, 16]
000000 bc 35 64 bd 38 c7 13 3e 25 01 7f 3e 8c 7a e2 3d
       -0.055715308 0.14431465 0.2490278 0.1105853
000010 9d b2 34 be a1 fd bd 3c 99 d0 7b be e8 f3 55 be
       -0.1764626 0.023192229 -0.24591292 -0.20893824
000020 6b d1 13 3e b4 30 a1 bd d0 d0 b3 38 da 76 4d 3e
       0.14435355 -0.078706175 8.5742795e-05 0.2006487
000030 bc ed 29 3e 1b 04 a5 3c 33 9a 8f 3d 32 6d 10 be
       0.16594595 0.02014356 0.07011833 -0.14104155
000040 cf a4 7a be 6e 5b 91 bd bb 45 7d 3e 7d 4c a0 3d
       -0.24476932 -0.07097517 0.24733631 0.07827089
000050 98 65 7d bd 57 2f 21 be a5 b3 19 3e d7 5a 0f 3e
       -0.061864465 -0.15740715 0.15009935 0.13999496
000060 06 bd 5c bd 06 32 6d bd 86 93 7c bd 96 e7 38 bd
       -0.053891204 -0.057909034 -0.061664127 -0.045142733
000070 f2 28 46 3d 1b cd 39 be df b9 58 3e c9 44 70 be
       0.048378892 -0.18144648 0.21164654 -0.2346374
000080 73 14 71 be 2a d1 1e 3d a7 f0 5e 3c da 4c 38 3e
       -0.23542957 0.038773693 0.013607181 0.17998067
000090 af 3c 1a 3e 12 c0 5c 3e f4 c0 ac 3c 89 8c 80 bd
       0.15062211 0.21557644 0.021088101 -0.06276805
0000a0 09 94 65 be cd 80 28 3d 68 29 77 3e 55 48 e8 bd
       -0.22419752 0.04113846 0.24136889 -0.11341921
0000b0 02 2f 2f 3e 19 03 2d 3e 37 56 9c bd f9 23 e5 bd
       0.17107776 0.16895713 -0.07633632 -0.11188502
0000c0 09 20 1b be 71 34 3e 3e ab dd 1a 3e 6a fc d1 bd
       -0.15148939 0.18574692 0.15123622 -0.10253222
0000d0 a3 ff 37 bb d2 a9 c4 3d a7 68 3f 3e ee a8 1e 3e
       -0.0028075955 0.09602703 0.18692265 0.15494129
0000e0 71 c4 7b 3e 02 54 30 3e 16 33 1b be f0 61 32 be
       0.24586655 0.17219546 -0.15156206 -0.17420173
0000f0 34 bf 0d 3e 57 86 2b 3e 7f 3e 6c 3e 7a 3a d1 bd
       0.1384247 0.16750465 0.23070715 -0.10216232
000100 bc 25 98 bd 9b 95 60 3e 0e 83 b6 bd 9b d4 5d 3e
       -0.07429072 0.2193207 -0.089117154 0.21663134
000110 8f 73 3f 3e 3d ed 08 be 88 e9 75 3d 45 0f 7c be
       0.18696426 -0.13371749 0.060037166 -0.246152
000120 b9 c9 15 3e ba 7c 48 3d 9d 34 3b be 45 84 74 bd
       0.14627732 0.048947074 -0.18281789 -0.059696455
000130 69 01 bd 3d 05 a5 66 3e 12 b4 f0 bd 49 55 ff 3d
       0.092287846 0.22523887 -0.11753096 0.12467439
000140 90 1b 27 3d e1 8d 9b bd d0 35 17 3e b7 a3 7f bd
       0.04079777 -0.07595421 0.14766622 -0.06241199
000150 0f d9 d7 3d 50 72 0e be 50 3d 79 be 97 02 a9 bd
       0.105394475 -0.13910794 -0.24339795 -0.08252447
000160 01 0f d1 bd d0 77 08 3e 06 c7 58 be cc c3 c9 3b
       -0.1020794 0.13326955 -0.21169671 0.006157374
000170 72 df 74 3e 80 56 68 3b 4c db 4e 3e 4e 71 15 be
       0.23913363 0.0035451949 0.20200843 -0.14594004
000180 bd 8b 0f be 41 d8 15 3d 7f e2 0d 3e 2c 5b 3d 3e
       -0.1401815 0.03658319 0.13855933 0.1849181
000190 01 1b 1d 3c b6 a8 20 3e d7 eb 26 3e a4 72 7d 3e
       0.009588958 0.15689358 0.16300903 0.24750763
0001a0 b7 a1 74 3e 57 3f e3 3d ac 59 83 3c a2 48 5a 3e
       0.23889814 0.110960655 0.01603397 0.2131677
0001b0 df 72 a4 3d a7 d9 14 be 3b d9 71 3e c0 8b 1e be
       0.080297224 -0.14536153 0.23618023 -0.15482998
0001c0 99 3e dc bd 13 cd 13 3e c8 2b 0d 3d 17 f1 fa bd
       -0.10754127 0.14433698 0.03446558 -0.122530155
0001d0 80 bd 25 3c e9 94 56 be 14 23 66 3e 73 8e 41 3e
       0.010115981 -0.20955242 0.22474319 0.18901996
0001e0 4c 9d 64 be 07 79 71 3e c1 43 7a be eb 2d ae bb
       -0.22325629 0.23581325 -0.24439909 -0.0053155324
0001f0 0b 18 16 3e 52 ec 76 be fc 29 1f 3e 59 ad 81 3d
       0.14657609 -0.24113587 0.1554336 0.063318916
000200 48 67 5d be 07 32 68 3e 78 78 3d be 80 a8 53 bc
       -0.2162143 0.22675334 -0.18502986 -0.0129185915
000210 7c 08 6c 3c 8e c5 33 be b6 3e 3f be 54 52 90 3d
       0.01440632 -0.1755583 -0.18676266 0.07046953
000220 b0 b5 57 be 1a 85 0d be 80 dc c6 3d c0 b3 1d 3c
       -0.21065402 -0.13820305 0.09710026 0.009625375
000230 b3 bc 7d 3e d0 98 51 3d 70 d2 85 bc 3c 3f 88 bd
       0.24779014 0.051171124 -0.016335696 -0.06652686
000240 92 69 8c 3a 9b 62 64 3e 2f 0d e5 3d bd 85 0f 3e
       0.0010712615 0.2230324 0.11184155 0.14015861
000250 1d 73 2a 3e 27 af 5e bc ee 10 f7 bd 83 9d 46 3e
       0.16645475 -0.013591564 -0.12063776 0.19396023
000260 87 29 6c 3e 4f ea 8f 3d 64 54 de bd 74 06 a1 bd
       0.23062716 0.07027113 -0.1085594 -0.07862559
000270 18 57 8e bd 19 27 f6 bd 5b 54 7b be 62 a9 14 bd
       -0.069502056 -0.12019176 -0.24543898 -0.03629435
000280 f5 24 cd bc 95 45 c3 bd 21 c8 9f bd 46 a6 a3 3d
       -0.025042037 -0.09534756 -0.078018434 0.079906985
000290 a7 c5 82 3d dc 69 51 be eb 50 c2 3d ae 28 c7 bd
       0.063853554 -0.20450538 0.0948809 -0.09724556
0002a0 63 f7 b4 3d 80 1a 59 be 4e 02 61 3e de 15 4e be
       0.08836248 -0.21201515 0.21973535 -0.20125529
0002b0 31 de 0f be b2 e3 46 bd bf 88 86 3d aa 22 34 3c
       -0.14049603 -0.04855699 0.06569051 0.010994593
0002c0 f5 88 52 3d 20 36 35 be 36 75 1a be 0e 58 46 3e
       0.051400144 -0.17696428 -0.15083775 0.19369528
0002d0 89 fc 1a bd 2d 74 ea bd 37 39 bc 3d 38 53 53 3e
       -0.037838493 -0.1144794 0.091906 0.20637214
0002e0 af 33 d1 bd 8e e4 2c bc 63 30 3b bd 50 71 34 3e
       -0.10214936 -0.010552539 -0.045700442 0.1762135
0002f0 16 75 68 3e 11 8d 86 3d 60 88 49 be 07 f6 ac bc
       0.22700915 0.06569875 -0.19680929 -0.021113409
000300 3a 50 05 3e e7 30 7f 3d 5a be 16 be a2 42 a2 bd
       0.13018885 0.062302496 -0.14721051 -0.079228655
000310 bd 4c f8 3c 0c 62 62 3c 0e 85 54 3e 96 ae eb bd
       0.03031003 0.0138173215 0.20753881 -0.11507909
000320 3c 9b 09 3e 2b 30 62 3d 96 6d f7 bd 85 a5 3e 3e
       0.13438123 0.055221718 -0.12081449 0.18617828
000330 87 42 57 be 38 67 2b be 20 d9 27 be fb af 7b be
       -0.21021472 -0.16738594 -0.1639142 -0.2457885
000340 25 c3 18 3e 1b 01 65 3e 65 79 4d 3e 90 1b bb 3d
       0.14918192 0.22363703 0.2006584 0.091361165
000350 01 29 1e 3e 71 1d e3 3b b5 1a cc bd 67 45 7d bc
       0.15445329 0.006931 -0.099660315 -0.015458441
000360 fd 15 a8 3c 78 4e b0 3d 79 69 60 3e a9 c5 53 3e
       0.020518297 0.08608717 0.21915235 0.2068087
000370 72 ac 37 bd fb 07 5f be f5 0d 1a be 63 fb 51 be
       -0.04484219 -0.21780388 -0.15044387 -0.20506053
000380 30 27 52 bd 22 29 fd 3d 0d 7c fd 3d 92 1c 76 3d
       -0.051306903 0.12361361 0.123771764 0.06008584
000390 25 2a 08 be 2d 40 39 be 8f f0 5e be c1 7b b0 3d
       -0.13297327 -0.18090887 -0.21771453 0.08617354
0003a0 de 27 24 3e c1 80 33 3e 75 5a 17 bc 1a 50 32 3d
       0.16030833 0.17529584 -0.009237875 0.043533422
0003b0 56 08 77 be 46 18 0b 3e e3 b0 ef bd 0f 20 1f be
       -0.24124274 0.13583478 -0.1170366 -0.15539573
0003c0 1d df 1d bd 05 9d 23 be 95 42 33 be 20 d6 b9 bd
       -0.038542856 -0.15977867 -0.17505868 -0.09074044
0003d0 85 5f 57 be b6 b7 06 3e 10 32 3a 3d d4 1e f3 bd
       -0.21032532 0.13156018 0.0454579 -0.118711144
0003e0 17 04 48 be 5c 0e cd 3d 3e ec 51 3e 54 70 59 3e
       -0.1953281 0.100125045 0.20500275 0.21234256
0003f0 55 4f c8 3d f9 29 08 be 60 63 8d 3d 2e b2 2b be
       0.097807564 -0.13297261 0.0690372 -0.16767189

convs.1.nn.3.bias f4 [16]
000000 d4 78 76 3e 24 f5 8f bb 43 cf b5 bd 5d a4 ae bc
       0.2406953 -0.0043932367 -0.08877423 -0.021318609
000010 10 c0 38 be 29 90 ff 3c 16 34 22 be 80 1d bd bd
       -0.18042016 0.03119667 -0.15840182 -0.09234142
000020 70 22 be 3d ca 50 46 3c e0 9f a0 3d a2 b7 3b 3e
       0.09283912 0.012104223 0.07842994 0.18331769
000030 23 1c 60 3c c0 16 b9 3d c2 d6 58 3e 8e b0 61 3e
       0.013678583 0.09037542 0.21175674 0.22040007

convs.1.nn.4.weight f4 [16]
000000 cf 29 80 3f fb a7 7f 3f 23 2f 80 3f 00 22 80 3f
       1.0012759 0.9986569 1.0014385 1.0010376
000010 b4 10 80 3f b5 27 80 3f b5 da 7f 3f 4f f7 7f 3f
       1.0005097 1.0012118 0.99943095 0.9998674
000020 58 a7 7f 3f fa 1c 80 3f e4 b0 7f 3f b1 09 80 3f
       0.9986472 1.0008843 0.9987929 1.0002958
000030 b0 c0 7f 3f 06 b4 7f 3f b1 b3 7f 3f 55 14 80 3f
       0.9990339 0.9988407 0.9988356 1.0006205

convs.1.nn.4.bias f4 [16]
000000 2e 7f b1 3a 17 25 b5 ba 0b 90 b8 3a 6a d2 90 3a
       0.0013541931 -0.0013820258 0.0014081014 0.0011049036
000010 9e 81 17 3a 2f d9 a5 3a e6 51 03 ba a0 f8 e8 b8
       0.00057795073 0.0012653227 -0.0005009457 -0.00011108932
000020 d8 b3 ab ba 8c 8a 7b 3a 3a 46 a5 ba 99 e0 84 39
       -0.0013099862 0.0009595535 -0.001260943 0.0002534434
000030 58 f9 87 ba 94 ab 8f ba 37 31 a0 ba a6 34 10 3a
       -0.0010373993 -0.0010961168 -0.0012221698 0.0005501009

convs.1.nn.4.running_mean f4 [16]
000000 58 63 13 3e f9 51 79 bd 25 3c 3d 3d c4 aa 4e 3e
       0.14393365 -0.06086919 0.046199936 0.2018233
000010 2f 7e 06 3c 11 1e cd bc c8 9f 5b 3e 9b f5 e0 bc
       0.008208795 -0.02503875 0.2144767 -0.027460864
000020 4c 12 79 bd 61 a4 95 3d e8 01 85 bd 02 31 d9 3d
       -0.060808465 0.073067434 -0.06494504 0.106050506
000030 2b 87 a5 bd 43 7e 25 3e 44 77 44 3d 28 65 b8 3b
       -0.08082422 0.16161446 0.047965303 0.005627293

convs.1.nn.4.running_var f4 [16]
000000 62 9c 20 3f f8 3c 1d 3f 16 0b 25 3f d3 18 26 3f
       0.6273862 0.61421156 0.6447004 0.6488163
000010 9a 05 1b 3f 96 d2 28 3f 62 d5 25 3f 55 4a 24 3f
       0.6055542 0.6594633 0.6477872 0.6417592
000020 0e 5c 1d 3f 1e 56 1a 3f 27 59 21 3f 5f 41 21 3f
       0.6146859 0.60287654 0.6302666 0.62990373
000030 63 ec 21 3f e7 61 1e 3f 3e 07 18 3f 46 e0 26 3f
       0.6325132 0.6186814 0.5938605 0.65185964
